preTrained/500TD3_BipedalWalkerHardcore-v3_0_critic_1_target.pth (torch_old, 529892 bytes, 5 tensors)

l1.weight f4 [400, 28]
0	0xbec4d18f	-0.3844113
1	0x400c44a4	2.1916895
2	0xbf81f276	-1.0152118
3	0x3f8acdb0	1.0844021
4	0xbee157a5	-0.4401218
5	0xbd802af2	-0.06258191
6	0x3edeb349	0.4349616
7	0xbf02d5a1	-0.5110722
8	0xbeb89e4d	-0.36058274
9	0xbf8632ba	-1.048423
10	0xbeab2bcd	-0.33431855
11	0xbe27ff10	-0.16405892
12	0xbef4b1cf	-0.47791907
13	0x3f039349	0.51396614
14	0x3ec76d6d	0.38950673
15	0x3f089121	0.5334645
16	0x3e9215c1	0.28532222
17	0x3e6cc58a	0.2312223
18	0x3f1b8d2e	0.607623
19	0x3f38b631	0.72153
20	0x3e9e07c8	0.30865312
21	0x3ee8ae4e	0.45445484
22	0x3dffac6f	0.12484061
23	0x3d8f81af	0.07007157
24	0xbf18f708	-0.5975194
25	0xbd1ab5c9	-0.03777102
26	0xbe97795f	-0.29584786
27	0xbf013637	-0.5047335
28	0xbe9fe11a	-0.31226426
29	0xbda7b8be	-0.08189534
30	0xbf2cf302	-0.675583
31	0xbf243212	-0.641389
32	0x3f2386ae	0.6387738
33	0x3d35bccc	0.044369504
34	0xbf00192c	-0.5003841
35	0x3eea302a	0.4573987
36	0x3e55f764	0.20895153
37	0xbe09be0f	-0.13451408
38	0xbebb9084	-0.36633694
39	0x3d30d947	0.04317596
40	0x3f629399	0.88506466
41	0xbebca500	-0.36844635
42	0x3e8146a1	0.25249198
43	0x3e9412ee	0.28920692
44	0x3e29e433	0.16590957
45	0xbc8872d8	-0.016656324
46	0xbe829d50	-0.25510645
47	0xbf2571c0	-0.64626694
48	0xbe0fea9e	-0.14054343
49	0xbe868036	-0.26269692
50	0xbe9657a6	-0.29363745
51	0xbccb0fb7	-0.024787767
52	0xbb4550ed	-0.003010805
53	0xbf051757	-0.5198874
54	0xbef021ec	-0.4690088
55	0x3ecb72ba	0.39735967
56	0xbfabebc1	-1.3431321
57	0xbf96345e	-1.1734731
58	0x3f875ab1	1.0574552
59	0x3f692d19	0.9108444
60	0xbe03156a	-0.12801138
61	0x3df51da1	0.11968542
62	0x3ef56be3	0.47933874
63	0x3de95b79	0.113944
64	0xbdad5ceb	-0.08464988
65	0x3e091c77	0.13389765
66	0xbe0ededf	-0.13952206
67	0x3d476f70	0.04869026
68	0x3c4dd0ae	0.01256196
69	0x3e3245ec	0.17409486
70	0x3e5b6bff	0.21427916
71	0x3f26d815	0.65173465
72	0x3f5141b2	0.8174087
73	0x3ed00041	0.40625194
74	0x3f1c6280	0.610878
75	0x3ecdf94f	0.4022927
76	0x3daf5fd3	0.08563199
77	0xbd9d5018	-0.07681292
78	0xbdb66937	-0.08906787
79	0xbe022892	-0.12710789
80	0x3dbb6b83	0.091513656
81	0x3c66148d	0.014042986
82	0xbc574897	-0.013139865
83	0x3dc29294	0.09500614
84	0xbe4d3eb2	-0.20043448
85	0x3ee88305	0.4541246
86	0x3f013a13	0.5047924
87	0x405c53e7	3.442621
88	0xbff01fce	-1.8759706
89	0x3d957668	0.07297975
90	0xbe6ab604	-0.22920996
91	0xbe0582f7	-0.1303824
92	0xbe9c48cd	-0.30524293
93	0xbf17cb58	-0.5929465
94	0xbe8ee77a	-0.27910978
95	0x3eb25f6d	0.3483843
96	0xbdd4d72c	-0.10392603
97	0xbe0a7d3c	-0.13524336
98	0xbeab84a1	-0.33499625
99	0x3eaed557	0.3414714
100	0x3f713960	0.9422817
101	0x3ef6fc4e	0.48239368
102	0xbdf29d94	-0.11846462
103	0xbeda6c20	-0.42660618
104	0xbeaef7ac	-0.34173334
105	0x3e9e59dd	0.30927935
106	0x3f24d30f	0.6438455
107	0x3ddd83f0	0.10816181
108	0x3f2456dc	0.64195037
109	0x3eac35aa	0.33634692
110	0x3c33d9ee	0.010977251
111	0xbe8fa357	-0.28054306
112	0xbf006c51	-0.5016528
113	0x3f30dd20	0.6908741
114	0xbe1641fc	-0.14673609
115	0xbf8e5a65	-1.1121336
116	0x3f82c738	1.0217047
117	0x3e38ce62	0.18047479
118	0x3edddd1d	0.4333276
119	0xbda4bc27	-0.080437
120	0xbd1c5dbc	-0.03817533
121	0xbf780471	-0.9688178
122	0xbdf06c00	-0.11739349
123	0xbf00e74f	-0.5035295
124	0xbe71e602	-0.23622897
125	0xbd045ccd	-0.032315064
126	0xbe4570a9	-0.19281258
127	0x3d50266a	0.050817885
128	0xbe9ac20b	-0.30226168
129	0xbf422bb2	-0.75847924
130	0xbf0d4434	-0.55182195
131	0xbf1def01	-0.61692816
132	0x3daf2c33	0.08553352
133	0xbed5b822	-0.41742045
134	0x3bedbd38	0.0072552226
135	0x3e1e5f3f	0.15466021
136	0xbdcc79f1	-0.09984196
137	0xbdf61636	-0.12015955
138	0xbf146a5a	-0.5797478
139	0xbdd31f6a	-0.10308726
140	0x3fc4c0d7	1.537135
141	0x40641939	3.5640395
142	0x3f24d67e	0.6438979
143	0xbfbcf991	-1.4763662
144	0xbd968872	-0.07350244
145	0x3e2950d4	0.1653474
146	0x3edd102c	0.431764
147	0xbd7fc544	-0.062443987
148	0xbe705b18	-0.2347225
149	0x3f83eec7	1.0307244
150	0xbd4f6f86	-0.050643466
151	0xbd87b589	-0.06626422
152	0xbe894e35	-0.2681748
153	0x3f0d783a	0.55261576
154	0x3fc59bcd	1.5438172
155	0x3ee4245b	0.44558987
156	0x3ed674f6	0.4188611
157	0xbe7b4c4f	-0.24540828
158	0xbea5b823	-0.32367048
159	0x3d5ec437	0.054386344
160	0xbe17b4ae	-0.14815018
161	0xbd843dba	-0.06457086
162	0xbe6a3246	-0.2287074
163	0x3de73595	0.11289517
164	0x3e3c284e	0.1837475
165	0xbcb191dc	-0.021675996
166	0xbe3082f4	-0.17237455
167	0xbe5b108a	-0.21393028
168	0xbf8d8047	-1.1054772
169	0xbfb5c3d3	-1.4200386
170	0x3f189889	0.5960775
171	0xbf0b7510	-0.544755
172	0xbf0700bc	-0.52735496
173	0x3e6f6846	0.23379621
174	0xbefd533f	-0.49477574
175	0xbcf181a0	-0.029480755
176	0xbd205702	-0.039145477
177	0xbeccea7b	-0.40022644
178	0xbe6a0bbb	-0.22856037
179	0xbb38b957	-0.0028186643
180	0x3eea881b	0.45806965
181	0x3ec56a1f	0.38557526
182	0xbeccbf08	-0.39989495
183	0xbe0bdef3	-0.13659267
184	0xbeecbe46	-0.46238917
185	0xbd97dd5b	-0.07415267
186	0x3e8a0d6e	0.2696337
187	0xbdae1a69	-0.08501131
188	0xbe61b18d	-0.22040386
189	0xbc8ec0b2	-0.017425869
190	0x3d1123ca	0.03543452
191	0xbe49b8e5	-0.19699438
192	0xbd86fe3b	-0.06591459
193	0xbe36cff7	-0.1785277
194	0x3cc76cff	0.024343966
195	0x3dfb20bc	0.12262103
196	0xbfc140d0	-1.5097904
197	0x3df52ae2	0.1197107
198	0x3f1fefd9	0.62475353
199	0x3f13a8d7	0.57679504
200	0xbfa18b6c	-1.2620673
201	0x3eba1d34	0.36350405
202	0xbf9bc161	-1.216839
203	0xbe4c0e43	-0.19927315
204	0xbd1be954	-0.038064316
205	0xbe7c4a73	-0.24637775
206	0x3dbf5934	0.09343186
207	0x3ed03f65	0.40673366
208	0x3e342376	0.17591652
209	0xbe30764e	-0.1723263
210	0xbe84d2ee	-0.25942177
211	0x3d9126a7	0.070874505
212	0x3f547b67	0.830008
213	0x3f317eb8	0.6933398
214	0x3e7c7556	0.24654135
215	0x3cc9ae8b	0.024619361
216	0xbdec1d88	-0.1152907
217	0xbe1437f5	-0.14474471
218	0x3e0614ed	0.1309392
219	0xbf3a7a3d	-0.7284277
220	0xbd3b276f	-0.045691904
221	0xbcfaeee1	-0.030631484
222	0xbd14c018	-0.036316007
223	0xb93060ef	-0.00016820779
224	0x3f3e0a3d	0.7423437
225	0x40227445	2.5383465
226	0xc023d17d	-2.5596611
227	0x3fc444fb	1.5333551
228	0xbe85e3ff	-0.2615051
229	0x3e0455b0	0.12923312
230	0x3cb7a4dc	0.022417478
231	0xbb9a8094	-0.0047150347
232	0x3c9fec62	0.019521896
233	0xbea8f67e	-0.3300056
234	0x3e191517	0.14949451
235	0x3e872997	0.26398918
236	0x3daf2584	0.085520774
237	0x3e227569	0.15865101
238	0xbe91c7ec	-0.2847284
239	0xbe897096	-0.2684371
240	0xbdd15153	-0.102205895
241	0x3c4a4075	0.012344469
242	0x3e70704c	0.23480338
243	0x3e11f07a	0.14251891
244	0x3ce48392	0.027894769
245	0xbdafa924	-0.08577183
246	0xbcd9c728	-0.026584223
247	0x3ec83b84	0.39107907
248	0xbdb6fb72	-0.08934678
249	0xbcca3f6c	-0.024688445
250	0xbe449f2b	-0.19201343
251	0x3d397cc4	0.045285
252	0x3f7df762	0.992056
253	0x400d8c27	2.2116792
254	0xbf8b416e	-1.0879343
255	0xbea393a4	-0.31948578

l1.bias f4 [400]
0	0xbf1a8902	-0.6036531
1	0x3eea619b	0.45777592
2	0xbebf3058	-0.3734157
3	0xbdb42186	-0.087954566
4	0x3e9a74c2	0.30167204
5	0x3ea66aeb	0.32503447
6	0x3f8344c2	1.0255358
7	0x3eb83250	0.35975885
8	0x3dd07c81	0.10179997
9	0xbf0733a9	-0.528132
10	0xbf2909cf	-0.6603059
11	0xbf0e6071	-0.5561591
12	0xbe60f4be	-0.21968362
13	0x3ea5ab74	0.3235737
14	0x3f9b99d5	1.2156321
15	0xbf3251bf	-0.69655985
16	0x3df53cce	0.11974488
17	0xbf44030b	-0.76567143
18	0x3e1e2a0d	0.15445729
19	0xbe482a44	-0.19547373
20	0x3f48ab3c	0.7838628
21	0x3f12dc6e	0.573676
22	0xbeb0403c	-0.34424007
23	0xbf0c4d3b	-0.54805344
24	0x3c52e2ee	0.012871487
25	0x3f8eb864	1.1150022
26	0xbf01b5e8	-0.5066819
27	0x3f89cc74	1.0765519
28	0xbeea0592	-0.45707375
29	0xbc9de9a2	-0.019276444
30	0xbcf51e5d	-0.029921705
31	0xbef0a647	-0.4700186
32	0x3d619b8a	0.055079974
33	0x3e5a5f2f	0.21325372
34	0xbe3db6a7	-0.18526708
35	0x3ee43bc3	0.44576845
36	0xbe6473f3	-0.22309856
37	0x3f321822	0.69568074
38	0x3defab64	0.11702612
39	0x3f123318	0.5710921
40	0xbe7ffecb	-0.2499954
41	0xbf186322	-0.59526265
42	0xbf133fa9	-0.5751901
43	0xbc263d54	-0.010146458
44	0xbf37c23f	-0.7178077
45	0x3eae1591	0.3400083
46	0xbbdb17fa	-0.006686208
47	0x3e31a5cd	0.17348404
48	0xbe223d71	-0.1584375
49	0x3f4c9002	0.7990724
50	0x3e6790e4	0.22613865
51	0xbe6017eb	-0.21884124
52	0x3cfd18e6	0.030895662
53	0x3f595644	0.84897256
54	0x3f1b49d6	0.6065954
55	0xbf26694c	-0.6500442
56	0x3e922562	0.28544146
57	0xbe55907c	-0.20855898
58	0xbd8146a5	-0.063123025
59	0xbf0a20f8	-0.53956556
60	0x3f31c9ff	0.69448847
61	0x3d9f224a	0.07770212
62	0xbc9f4a83	-0.01944471
63	0xbeb10efd	-0.34581748
64	0xbeb8755d	-0.3602704
65	0x3eb6ba1e	0.3568887
66	0x3e2ce3e1	0.16883804
67	0xbe847627	-0.25871393
68	0xbbaeeef0	-0.005338542
69	0xbd82990a	-0.06376846
70	0x3ee2e2c0	0.44313622
71	0x3f8ca3aa	1.0987446
72	0x3f3b5f4c	0.73192286
73	0x3e06917f	0.1314144
74	0x3ed8ddf5	0.4235684
75	0x3f1c940f	0.6116342
76	0x3f815b22	1.0105937
77	0x3f694a72	0.9112922
78	0xbf3fd6a7	-0.7493691
79	0xbe89124a	-0.26771766
80	0xbdec2ab5	-0.11531583
81	0x3e0a84e2	0.13527253
82	0x3edcdb40	0.43136024
83	0xbf0faa26	-0.56119
84	0x3f5c8e0a	0.86154234
85	0xbed230c5	-0.41052833
86	0x3e2b1d8b	0.16710488
87	0xbe8eedf9	-0.27915934
88	0x3d7fe337	0.06247255
89	0xbf1badda	-0.6081215
90	0xbeb5a701	-0.35478976
91	0x3f5915fe	0.8479918
92	0xbf036b50	-0.5133562
93	0x3dc8d31b	0.0980589
94	0x3f57cda0	0.84298134
95	0x3eb4c06d	0.3530306
96	0x3f73d480	0.95246124
97	0xbdeb9bc3	-0.115043186
98	0xbcd5eadd	-0.026112968
99	0xbe8bfb90	-0.27340364
100	0xbee7c5c8	-0.45268083
101	0xbf468fd2	-0.775632
102	0xbeca0b72	-0.39461857
103	0x3da632ee	0.08115183
104	0x3f0ac563	0.5420744
105	0xbea43477	-0.32071277
106	0x3e0a40af	0.13501237
107	0x3f0deb8b	0.55437535
108	0x3ecc40a3	0.39893064
109	0xbe261144	-0.16217524
110	0x3ea4dce4	0.32199776
111	0xbf2f34c6	-0.684399
112	0xbf75f572	-0.96077645
113	0xbee6996f	-0.45038936
114	0x3e14b605	0.1452256
115	0xbf047b79	-0.51750904
116	0x3f2d3978	0.67665815
117	0xbd62a58a	-0.05533365
118	0x3ddfacdb	0.109216414
119	0x3ee3cf2c	0.44493997
120	0x3d913779	0.07090659
121	0x3f200f61	0.62523466
122	0x3f84d5d3	1.0377754
123	0x3f20ea56	0.6285757
124	0x3de6eb50	0.11275351
125	0xbe8b20ee	-0.2717356
126	0x3e4b91a8	0.19879782
127	0xbf0ff1ea	-0.56228507
128	0xbf5653d9	-0.8372169
129	0xbdcb106d	-0.09915242
130	0xbf335e79	-0.7006603
131	0x3eb006c6	0.34380168
132	0xbf0cb506	-0.5496372
133	0x3dd477a9	0.10374386
134	0xbf2bf3a6	-0.67168653
135	0x3e5fe752	0.21865585
136	0x3f368372	0.7129432
137	0xbf377423	-0.71661586
138	0xbcdb9a6e	-0.026807036
139	0xbb27dc9d	-0.0025613673
140	0xbed0b582	-0.4076348
141	0x3ef06347	0.46950743
142	0x3eb6dfb6	0.35717553
143	0xbef88a7e	-0.4854316
144	0xbdd03002	-0.10165407
145	0x3c88d577	0.01670335
146	0xbefb3693	-0.49065074
147	0x3ed096b7	0.40739986
148	0xbe55e7e4	-0.2088924
149	0x3f4ca02f	0.7993192
150	0xbe3903ea	-0.180679
151	0xbf13620f	-0.575715
152	0x3f16e5e3	0.5894453
153	0xbf18a45a	-0.5962578
154	0x3eb30a7e	0.34968942
155	0xbb3ad216	-0.0028506569
156	0x3f7872c0	0.97050095
157	0x3e1e6b7e	0.15470693
158	0x3ebd856a	0.3701585
159	0xbf3af55d	-0.73030645
160	0xbf06f9bb	-0.5272481
161	0xbf14f42c	-0.58185077
162	0x3f1a5fe2	0.60302556
163	0x3f80e18c	1.0068831
164	0xbedb8cb4	-0.42880785
165	0xbea687de	-0.32525533
166	0xbe38423d	-0.17994018
167	0xbe88bcf7	-0.2670667
168	0x3e979627	0.29606745
169	0xbd6198dc	-0.05507742
170	0x3ee949f2	0.45564228
171	0xbe9b80db	-0.30371746
172	0xbefc44f1	-0.49271348
173	0xbe5893f2	-0.21150187
174	0x3cc5bf44	0.024139054
175	0x3ed167fe	0.40899652
176	0xbe8f8c00	-0.280365
177	0xbf44152f	-0.76594824
178	0x3f38e671	0.72226626
179	0x3c1523bb	0.009102757
180	0x3f717805	0.9432376
181	0x3e73c83e	0.23806855
182	0x3f35022b	0.70706433
183	0xbe2ded77	-0.16985117
184	0xbe1e556a	-0.1546227
185	0x3f6ef80b	0.93347234
186	0x3e6fd76f	0.23422025
187	0x3c1d56bc	0.009603199
188	0x3f39a80f	0.7252206
189	0x3e2e1f32	0.17004088
190	0x3e55c6d8	0.20876634
191	0xbecaa97c	-0.3958243
192	0xbf243322	-0.6414052
193	0x3f807f53	1.0038856
194	0xbe730102	-0.23730853
195	0xbee04ce4	-0.43808663
196	0x3f9c6310	1.2217731
197	0x3e353bcc	0.17698592
198	0x3f94aab9	1.16146
199	0xbeddaa74	-0.43294108
200	0x3d0929ca	0.03348712
201	0x3f6f5703	0.93492144
202	0x3ca58361	0.020204248
203	0x3f31f280	0.6951065
204	0xbe924518	-0.2856834
205	0x3e5e22c6	0.21692953
206	0xbf3dee9d	-0.7419222
207	0x3e96ae4d	0.29429856
208	0x3ef04dfd	0.469345
209	0xbf117b49	-0.56828743
210	0x3ce39a54	0.02778355
211	0xbe3246b8	-0.1740979
212	0xbf02862e	-0.5098599
213	0x3f605839	0.8763462
214	0x3f743c91	0.95404917
215	0x3f661768	0.89879465
216	0x3ec4c48c	0.38431203
217	0x3c0394aa	0.00803105
218	0x3f225ac6	0.6341976
219	0x3f2a7554	0.6658528
220	0xbf002e66	-0.500708
221	0x3e08cc74	0.13359243
222	0x3efa2fcd	0.48864594
223	0xbd458838	-0.04822561
224	0x3f0257e2	0.5091535
225	0xbd7fcfe6	-0.062454127
226	0x3e9afd87	0.3027155
227	0xbe29789a	-0.16549912
228	0xbef3d4ed	-0.47623387
229	0xbf6dc8a5	-0.92884284
230	0xbe39ed7e	-0.18157002
231	0x3f20f4e7	0.6287369
232	0x3f5c5437	0.86066
233	0xbe8a2f4c	-0.2698921
234	0x3eb64fb4	0.35607684
235	0x3ee7c380	0.45266342
236	0x3f2dbfc4	0.67870736
237	0x3f58cc0f	0.8468637
238	0x3e025422	0.12727407
239	0xbde571ce	-0.11203347
240	0x3d69e26e	0.057100706
241	0x3f62f54d	0.8865555
242	0xbdba48a5	-0.09095887
243	0xbe870688	-0.2637217
244	0x3f0f11bf	0.55886453
245	0x3e94ee6f	0.2908816
246	0xbf019cd5	-0.5062993
247	0xbef4c944	-0.47809803
248	0x3e8866bc	0.2664088
249	0xbcc56841	-0.024097564
250	0x3f2ce7bb	0.6754109
251	0xbbcc7b59	-0.00624029
252	0xbf11488c	-0.5675132
253	0xbe386162	-0.18005899
254	0xbf513093	-0.81714743
255	0x3e56fe76	0.20995507

l2.weight f4 [300, 400]
0	0x3ec613d5	0.38687006
1	0x3e13d54b	0.14436834
2	0x3e28d545	0.16487606
3	0xbdc30ffc	-0.09524533
4	0x3e09e9dd	0.13468118
5	0x3e4a5a07	0.19760905
6	0xbf315dbf	-0.6928367
7	0xbec9130c	-0.39272344
8	0x3e46752e	0.19380638
9	0x3d881c96	0.06646077
10	0xbd0bc18f	-0.03412014
11	0x3e84dee2	0.25951296
12	0xc0336449	-2.802996
13	0x3c886b73	0.016652798
14	0x3eb34e57	0.35020706
15	0x3d5f4efd	0.05451869
16	0xbe247c36	-0.16063008
17	0x3eb3f122	0.35144907
18	0x3f1353e4	0.5754988
19	0x3f93bcae	1.1541955
20	0x3e41ad8e	0.18913862
21	0x3e5f70d2	0.21820381
22	0x3f1c135f	0.6096706
23	0x3d800f82	0.06252958
24	0x3e51dcba	0.20494357
25	0xbe9e8f9e	-0.30968946
26	0xbf407e93	-0.75193137
27	0xbeb1a55d	-0.34696475
28	0xbe826893	-0.2547041
29	0x3f929da8	1.1454363
30	0xbe7891b2	-0.24274328
31	0xbe0aa3fd	-0.13539119
32	0x3eb2750a	0.3485492
33	0x402f232e	2.7365222
34	0x3dcda76e	0.100417
35	0xbdb1312b	-0.08651956
36	0xbf419f91	-0.75634104
37	0x3f1d9f3c	0.615711
38	0x3e47357a	0.19453993
39	0x3e5237a2	0.20529035
40	0x3f22410e	0.63380516
41	0xbe4b4592	-0.19850758
42	0x3ee50a49	0.4473441
43	0xbf01eaa7	-0.50748676
44	0xbfe09c99	-1.754779
45	0x3d83848d	0.064217664
46	0x3e9ff9c9	0.31245258
47	0x3ea181b7	0.31544277
48	0x3de02f0a	0.10946472
49	0xbea45bf3	-0.32101402
50	0x3e939506	0.28824633
51	0xbe730324	-0.23731667
52	0x3e870f7a	0.26378995
53	0xbceb07ff	-0.028690336
54	0xbe5dc02f	-0.21655343
55	0x3bd11e99	0.0063818214
56	0x3f389d3f	0.7211494
57	0x3ecaffcc	0.39648283
58	0x3e7712f1	0.2412832
59	0x3b877cb2	0.004134738
60	0x3f341c66	0.7035583
61	0x3e0bbe76	0.13646874
62	0x3d961a9f	0.07329296
63	0xbd56c0b4	-0.05242987
64	0xbed90caf	-0.4239249
65	0x3c62879e	0.013826279
66	0xbf1dd872	-0.61658394
67	0x3eb109f2	0.345779
68	0x3dfa214b	0.122133814
69	0x3e7295d8	0.23689973
70	0xbe7c40be	-0.24634072
71	0xbc0e6b24	-0.0086925365
72	0xbc971364	-0.018441863
73	0xbe91f503	-0.28507242
74	0x3e66fa5a	0.22556439
75	0xbdda4e0a	-0.10659416
76	0xbf144580	-0.5791855
77	0x3e635798	0.22201383
78	0x3e9dcb07	0.3081896
79	0x3bc37752	0.005965152
80	0xb77b4cd1	-1.4978651e-05
81	0xbe65348b	-0.22383325
82	0x3daa2efb	0.08309742
83	0xbb59cabe	-0.0033232416
84	0x3e85bce8	0.26120687
85	0xbcae2d80	-0.02126193
86	0xbe58b640	-0.21163273
87	0xbc8a0f32	-0.016852949
88	0xbd9859f3	-0.074390315
89	0x3f2d0c87	0.6759724
90	0x3ebe58a0	0.3717699
91	0xbd936391	-0.07196725
92	0xbf1a0dcf	-0.6017732
93	0x3ec641c7	0.3872206
94	0xbf33e24e	-0.7026719
95	0xbe9925c8	-0.29911637
96	0x3f75ca76	0.96012056
97	0xbf1687f2	-0.58801186
98	0x3f4a9c91	0.7914515
99	0xbfb8b1dc	-1.4429278
100	0x3e31a247	0.1734706
101	0x3dc50f28	0.096220315
102	0xbe920c4c	-0.28525007
103	0x3ff8adc2	1.9428027
104	0xbe5025fc	-0.2032699
105	0xbe83065f	-0.25590798
106	0x3ef521ad	0.47877255
107	0xbe496644	-0.19667917
108	0xbea2b94f	-0.31782004
109	0x3e18c17f	0.14917563
110	0x3ff32208	1.899476
111	0xbf6c4788	-0.9229665
112	0x3d350490	0.044193804
113	0x3eb2e852	0.3494287
114	0x3e0d0f3b	0.13775341
115	0xbfedbada	-1.8572648
116	0xbe8742a2	-0.26418024
117	0x3d2a7e59	0.0416244
118	0x3d50425e	0.050844543
119	0xbfebc681	-1.8419954
120	0x3d2cedc9	0.042218957
121	0x3f081541	0.5315743
122	0xbe6b6040	-0.22985935
123	0x3d8d6b35	0.06905214
124	0xbe81418e	-0.25245327
125	0x3e88ca0f	0.26716658
126	0x3f45d326	0.7727531
127	0x3e0e117e	0.1387386
128	0xbba39cd8	-0.0049930625
129	0x3ec29870	0.38006926
130	0xbe944ce2	-0.28964907
131	0xbe9bac27	-0.3040478
132	0xbf492959	-0.78578717
133	0x3f2b2bd0	0.6686373
134	0x3e2e25c8	0.170066
135	0x3e9e6d5a	0.30942804
136	0xbeb9d9cd	-0.3629898
137	0x3f15eedf	0.58567613
138	0x3e5d5f77	0.21618448
139	0xbfb9b36b	-1.4507879
140	0x3f624530	0.8838682
141	0x3da29bdc	0.07939884
142	0x3f20a9c1	0.62759024
143	0x3e421daa	0.18956628
144	0x3f22865d	0.6348627
145	0x3ed8b5e6	0.42326277
146	0xbe6e56f7	-0.23275362
147	0xbc9ab701	-0.018886091
148	0xc023b467	-2.557886
149	0x3c907c79	0.017637478
150	0x3db69ed0	0.0891701
151	0x3db462ca	0.08807905
152	0xbe456684	-0.19277388
153	0x3e86e00d	0.26342812
154	0xbfe167f8	-1.7609854
155	0x3f29206d	0.660651
156	0x3f155764	0.5833647
157	0x3def9ba5	0.11699609
158	0x3f165f08	0.58738756
159	0x3e936911	0.28791097
160	0xbe97a91d	-0.2962121
161	0x3e265daa	0.16246668
162	0xbdb8b5fe	-0.09019087
163	0xbe42aeef	-0.19012044
164	0xbd10f45e	-0.035389297
165	0x3e915432	0.28384548
166	0x3cd3d366	0.025857639
167	0x39ca8cb1	0.00038633266
168	0xbd81af7b	-0.06332298
169	0xbefc1f63	-0.49242696
170	0x3f3966d7	0.72422546
171	0x3d1a7f12	0.03771884
172	0x3d89e5a5	0.06733254
173	0x3f5cba6d	0.86221963
174	0x3e7185a1	0.23586132
175	0xbf89a42f	-1.075323
176	0x3de02010	0.109436154
177	0xbe11d0c7	-0.14239798
178	0xbf0e3717	-0.5555281
179	0x3cb21cac	0.021742187
180	0xbf1e66da	-0.6187569
181	0x3f1cbd29	0.61226135
182	0xbf18a5dd	-0.5962809
183	0x3edcd5a0	0.43131733
184	0xbe168b8d	-0.14701672
185	0xbfa1cbc6	-1.2640312
186	0xbec632c0	-0.38710594
187	0xbfbebdd2	-1.4901679
188	0x3ee62d9a	0.44956666
189	0xbf1a26bf	-0.6021537
190	0xbeb72e86	-0.35777682
191	0x3dd165b2	0.10224475
192	0xbedd1f95	-0.43188158
193	0xbe9516c0	-0.2911892
194	0x3d166128	0.03671375
195	0xbe0f557a	-0.1399745
196	0x3e886821	0.26641944
197	0xbf7705f8	-0.9649348
198	0xbf2c1502	-0.67219555
199	0x3dc42c1e	0.09578727
200	0x3e0ab9b3	0.13547401
201	0x3eb15ec9	0.34642628
202	0xbf2718c3	-0.6527216
203	0x3fdfa380	1.7471771
204	0x3f22e6d0	0.6363344
205	0x3c02b6ef	0.007978185
206	0x3d96ea4f	0.073689096
207	0x3ed68c7b	0.41904053
208	0x3d5ca52b	0.053868454
209	0x3e725bb5	0.23667796
210	0xbb0d3b43	-0.0021550215
211	0x3ef5946c	0.479648
212	0x3f0d3366	0.5515655
213	0x3efda31b	0.49538502
214	0xbefdc6ad	-0.4956564
215	0x3c80e189	0.015732544
216	0xbf509741	-0.81480795
217	0x3edb3ba4	0.4281894
218	0x3f279cbd	0.6547354
219	0xbf2ac8b4	-0.667125
220	0x3dab687d	0.08369539
221	0xbeac6afb	-0.3367537
222	0x3e2c4e69	0.16826786
223	0xbd285f83	-0.041106712
224	0x3e90f3b2	0.28310925
225	0x3e838373	0.25686225
226	0x3eaf6c51	0.34262326
227	0x3eddcb91	0.4331937
228	0xbda48f24	-0.080351144
229	0x3eb3b13a	0.3509615
230	0x3e991e44	0.29905903
231	0x3ed52443	0.41629228
232	0x3ebdbd03	0.37058267
233	0xbf019c8d	-0.506295
234	0xbdfc3a5b	-0.12315818
235	0xbf360308	-0.71098375
236	0x3fa4ac6f	1.2865123
237	0xbf3d4977	-0.73940223
238	0xbf0f000d	-0.5585945
239	0x3eeaedf3	0.45884666
240	0x3ddb92c0	0.1072135
241	0x3dad9868	0.08476335
242	0x3f0395ec	0.5140064
243	0xbe770478	-0.24122798
244	0x3f050957	0.51967376
245	0x3d219d1f	0.039456483
246	0x3ee5e711	0.44902852
247	0x3d9de7c2	0.0771022
248	0xbf118c4a	-0.5685469
249	0x3ec8498e	0.39118618
250	0x3e2a68f8	0.16641605
251	0x3d683ed8	0.056700557
252	0x3e890d7f	0.2676811
253	0xbdd593c3	-0.10428574
254	0x3f3a1cdb	0.7270028
255	0xbe36bc75	-0.17845328

l2.bias f4 [300]
0	0x3e82b600	0.2552948
1	0x3f16f552	0.5896808
2	0xbe8f28f6	-0.27960938
3	0x3dab5040	0.08364916
4	0x3f230e8a	0.6369406
5	0x3e443cfb	0.19163887
6	0x3e29cbfa	0.16581717
7	0x3eb4773a	0.35247213
8	0xbc00154b	-0.007817577
9	0xbddaac6a	-0.106774166
10	0x3f5f2251	0.8716174
11	0x3ee34f75	0.44396558
12	0x3e82261f	0.2541971
13	0x3f0016e5	0.50034934
14	0xbe139a5b	-0.1441435
15	0x3de0ddd6	0.10979812
16	0xbedfd16d	-0.43714467
17	0x3dd1bf2e	0.10241543
18	0x3ebf18c0	0.3732357
19	0xbe319e4d	-0.17345543
20	0xbe93725d	-0.2879819
21	0x3f3686ee	0.71299636
22	0x3c5b4749	0.013383695
23	0x3f3f5353	0.7473652
24	0xbc19940e	-0.009373678
25	0x3f59652a	0.8491999
26	0x3ebd7a40	0.37007332
27	0x3e153ac5	0.145732
28	0x3e983feb	0.29736266
29	0x3e11959f	0.14217232
30	0x3e0775b6	0.13228497
31	0x3be0587a	0.0068464847
32	0xbe1b6e2b	-0.15178744
33	0x3ef63ab9	0.48091677
34	0x3ed212ad	0.41029873
35	0xbd170f49	-0.03687981
36	0x3ec1fbaa	0.37887317
37	0xbbc7f199	-0.0061017987
38	0x3e43aa18	0.19107854
39	0xbcea6fef	-0.028617827
40	0x3ddf5e6d	0.10906682
41	0x3f0e4d03	0.5558626
42	0x3f27a43e	0.6548499
43	0xbe3feba7	-0.18742238
44	0x3f162f02	0.5866548
45	0x3e21e147	0.15808593
46	0x3e34b6a0	0.17647791
47	0xbce8ac8e	-0.028402593
48	0x3f298cb3	0.66230315
49	0x3e644cee	0.22294971
50	0x3e9aff7b	0.3027304
51	0x3e515969	0.20444264
52	0x3c56e361	0.013115735
53	0xbcd8fb0e	-0.0264869
54	0x3de0159d	0.109416224
55	0xbe0b5c1b	-0.13609354
56	0x3c13702d	0.008998913
57	0x3f3f4b6d	0.74724466
58	0xbb8aaa15	-0.004231701
59	0x3e191bf4	0.1495207
60	0x3b10cdf5	0.0022095416
61	0x3cdf1441	0.027231338
62	0x3f182fc0	0.5944786
63	0x3ef50c57	0.47860977
64	0x3e575858	0.21029794
65	0xbd0c4d9d	-0.034253705
66	0x3d8cc205	0.06872944
67	0xbd5e1a87	-0.054224517
68	0x3f0ea172	0.55715096
69	0xbdc8fa5c	-0.09813377
70	0xbd4d0940	-0.05005765
71	0x3eac2092	0.336186
72	0x3e437266	0.19086608
73	0x3f3256e6	0.69663846
74	0x3e7d810b	0.24756257
75	0x3f493227	0.7859215
76	0x3e4ae709	0.19814695
77	0x3e1b42ad	0.15162154
78	0x3c2634de	0.01014444
79	0x3f32e6b5	0.6988328
80	0x3f168ed9	0.5881172
81	0x3d8bc03e	0.06823777
82	0xbc2f71b7	-0.010708264
83	0x3e8e72fa	0.27822095
84	0x3c6ee10e	0.014580024
85	0xbd1ab5e6	-0.037771128
86	0x3e54bd83	0.20775418
87	0x3c5ccbcd	0.013476324
88	0xbe09b5d8	-0.13448274
89	0x3d877646	0.06614356
90	0x3f2180e6	0.6308731
91	0xbbc4d969	-0.0060073626
92	0xbd1e8356	-0.03869947
93	0x3bb3a93c	0.005482821
94	0xbcf7bb34	-0.030240633
95	0x3f100f79	0.5627361
96	0x3efc612c	0.49292886
97	0x3b858904	0.0040751714
98	0xbe2848da	-0.1643404
99	0x38dd9edb	0.0001056769
100	0x3f23b15c	0.63942504
101	0x3e3ada04	0.18247229
102	0x3e7905be	0.24318597
103	0xbe874063	-0.2641631
104	0x3d87bd89	0.06627948
105	0x3e2359c7	0.15952216
106	0x3f0e75c0	0.5564842
107	0x3eb18489	0.3467143
108	0x3e5b3251	0.21405913
109	0x3cb7a5b7	0.022417886
110	0xbcb251a8	-0.021767452
111	0x3db7e442	0.089790836
112	0x3e8326aa	0.25615436
113	0x3e0dee04	0.13860327
114	0x3f0d0edb	0.5510079
115	0xbc1c1aee	-0.009527905
116	0x3e4eae40	0.20183659
117	0xbdc9902e	-0.09841953
118	0x3e19c510	0.1501658
119	0x3dd01370	0.101599574
120	0x3e362721	0.17788364
121	0x3bcda98b	0.0062763146
122	0x3ea501b0	0.3222785
123	0x3c18e5ff	0.009332179
124	0x3ec9127c	0.39271915
125	0x3e702316	0.23450884
126	0x3da306fb	0.07960316
127	0x3e210db8	0.1572789
128	0xbea5a74f	-0.3235421
129	0x3efc3483	0.49258813
130	0x3e4e7af3	0.20164089
131	0xbc51eaba	-0.012812311
132	0x3e959041	0.2921162
133	0xbda7c053	-0.0819098
134	0x3f0bfa3c	0.546787
135	0x3e59b6f0	0.21261191
136	0x3da480ee	0.08032404
137	0x3ef02217	0.46901008
138	0xbcdc0741	-0.026858928
139	0x3f261748	0.64879274
140	0x3e5aa774	0.21352941
141	0x3ec34932	0.3814178
142	0x3e4957d4	0.1966241
143	0x3f09c569	0.5381685
144	0x3caa024e	0.020753052
145	0xbe56661e	-0.20937392
146	0x3c214e2e	0.0098453
147	0xbd7bb52c	-0.061452076
148	0x3ea07b8a	0.31344253
149	0xbc48b999	-0.012251281
150	0x3edb7d51	0.42869046
151	0x3d2280f6	0.039673768
152	0x3ee50977	0.44733784
153	0x3f0841d1	0.5322543
154	0xbed63a77	-0.4184148
155	0x3e0a2a36	0.13492665
156	0x3e9b1855	0.30292
157	0x3f1fccf5	0.62422115
158	0xbe4eb522	-0.20186284
159	0xbe7f4188	-0.24927342
160	0xbe387e80	-0.18017006
161	0x3ecc1577	0.39860126
162	0x3ef0bbaa	0.47018176
163	0x3f4f2021	0.809084
164	0x3d0b264c	0.03397207
165	0x3ded4912	0.11586203
166	0x3ed3290f	0.41242263
167	0x3f00d4c2	0.5032464
168	0x3f0ca11b	0.5493333
169	0x3cab250e	0.020891692
170	0x3dc95046	0.09829764
171	0xbd276a3f	-0.04087281
172	0x3e695a54	0.22788364
173	0xbcb9dce8	-0.022688344
174	0x3ecf8a5b	0.40535244
175	0xbdefbe51	-0.11706222
176	0x3e7bd2db	0.24592154
177	0x3f0dc463	0.5537779
178	0x3ee6a871	0.45050386
179	0xbd55a88a	-0.052162685
180	0x3e98e2c1	0.298605
181	0x3f0db5b4	0.5535538
182	0xbe779d59	-0.24181117
183	0x3ce04b32	0.027379606
184	0x3f52b967	0.8231415
185	0x3ecda726	0.40166587
186	0xbeeb84b5	-0.45999685
187	0x3e44df86	0.19225892
188	0x3f2e1efb	0.6801602
189	0x3f2d835e	0.67778575
190	0x3ef3b1da	0.47596627
191	0xbc8e2e15	-0.017355958
192	0xbdd94488	-0.106087744
193	0xbb400321	-0.002929874
194	0x3e57c3c8	0.21070778
195	0x3e15d8cf	0.14633487
196	0xbca921be	-0.020645972
197	0x3e1ee885	0.15518387
198	0x3dc32904	0.095293075
199	0xbd9db8a8	-0.07701236
200	0x3f06ad80	0.5260849
201	0xbe838713	-0.2568899
202	0x3efa06c5	0.4883329
203	0xbe1601fe	-0.14649197
204	0x3c80e687	0.015734924
205	0x3e957feb	0.29199156
206	0x3dcf0baa	0.101096466
207	0x3d3c328f	0.045946654
208	0xbc2baa87	-0.010477669
209	0x3ef350f3	0.47522697
210	0x3f001c55	0.5004323
211	0x3ee8f546	0.4549963
212	0xbe0b7342	-0.13618186
213	0x3f1d768b	0.6150901
214	0x3e927c79	0.2861059
215	0xbe01df3e	-0.12682816
216	0x3ebe6fcd	0.37194672
217	0x3e8fb3ad	0.2806677
218	0x3f5bf3f0	0.85919094
219	0x3e263822	0.1623235
220	0x3e3d1e2e	0.18468544
221	0x3b092766	0.0020928024
222	0x3e4f9f0f	0.2027552
223	0xbdeb3f1b	-0.11486646
224	0xbc92ce76	-0.017920714
225	0xbdb82efb	-0.08993336
226	0x3d7d93d0	0.061908543
227	0x3f03f7ea	0.5155016
228	0x3e36700d	0.17816181
229	0x3c99dfd4	0.018783487
230	0x3f37d4d5	0.7180913
231	0x3c352b57	0.011057696
232	0xbd1dea36	-0.03855344
233	0x3dc63e9c	0.096799105
234	0x3f26916c	0.65065646
235	0xbd3066da	-0.043066837
236	0x3f5fdac8	0.8744321
237	0x3c9aed5d	0.018912012
238	0x3e3b690d	0.18301792
239	0x3d9566cc	0.072949976
240	0x3ec2fc4c	0.38083112
241	0x3ea72552	0.3264566
242	0xbdf7468a	-0.12074001
243	0xbd35aab0	-0.044352233
244	0x3ec34c12	0.38143975
245	0x3ed03e4a	0.40672523
246	0xbcdaf722	-0.02672917
247	0x3e177b55	0.14793141
248	0x3eb909f7	0.36140415
249	0x3d17b5ed	0.037038732
250	0x3eb2dc27	0.34933588
251	0x3ece16fb	0.40251908
252	0xbcaa6a14	-0.020802535
253	0x3e8c5018	0.27404857
254	0x3f1507b8	0.582149
255	0xbdbf6f07	-0.09347349

l3.weight f4 [1, 300]
0	0x3fa8dcc9	1.3192378
1	0xc03d47dd	-2.9575112
2	0xc0a828fb	-5.2550025
3	0xc02050db	-2.504935
4	0x40bfa6f3	5.9891295
5	0x3fa74c7b	1.3070215
6	0x408dd4e8	4.4322395
7	0xc0c29ee9	-6.081898
8	0xbf8a22ec	-1.0791907
9	0x4014d2d0	2.325367
10	0x40f6cbc7	7.712375
11	0xc08ae10b	-4.339971
12	0x40b18ce4	5.5484486
13	0xc05660c7	-3.3496568
14	0xbf7f136c	-0.9963901
15	0x3f9d3c71	1.228407
16	0xbfce4944	-1.6116109
17	0xbffebb15	-1.9900843
18	0xc0abecef	-5.3726726
19	0xbf5abfa1	-0.8544865
20	0xc08655e1	-4.1979833
21	0x4076352c	3.8469954
22	0xbff6e4ff	-1.9288634
23	0xc09c5435	-4.885279
24	0xbe858cb4	-0.2608391
25	0x4055d0fd	3.3408806
26	0xc099116a	-4.7833757
27	0xbf97c26d	-1.1856209
28	0x3ff8869a	1.9416077
29	0x3fe706f8	1.8049002
30	0x40095aee	2.146175
31	0x3c8c7f9c	0.017150693
32	0xbf48aa6c	-0.78385043
33	0xc074c0a3	-3.8242576
34	0x409096a8	4.5183907
35	0xbf7329e8	-0.9498582
36	0x40a9de6d	5.3084016
37	0xbb15be05	-0.0022848856
38	0xbffbb3da	-1.9664261
39	0xbf983cbb	-1.1893533
40	0xc092e41c	-4.5903454
41	0x40dc6d1a	6.888318
42	0x40159b1a	2.3375916
43	0xbf7ad752	-0.979848
44	0x409e2412	4.941903
45	0xbfce8501	-1.613434
46	0x409e7078	4.951229
47	0x3fd2a567	1.6456727
48	0xc0938ab1	-4.61068
49	0xc001ca76	-2.0279822
50	0xc0abcea6	-5.3689756
51	0xc012e38d	-2.2951386
52	0x3ba760de	0.005107983
53	0xc01ea0b5	-2.4785588
54	0x4065a8d0	3.5884285
55	0x3fda5659	1.7057601
56	0xbec0d610	-0.37663317
57	0x3fcd3f90	1.6035023
58	0x3c8c556c	0.017130576
59	0xc04cf60c	-3.2025175
60	0xbf698f12	-0.9123393
61	0xbebb6e77	-0.36607715
62	0x40b724cf	5.723243
63	0x40b6aa17	5.708263
64	0x3f43b0cc	0.76441646
65	0xbe5b9cc1	-0.21446516
66	0xbfc55411	-1.541628
67	0xc00c8328	-2.1955051
68	0x40017614	2.022832
69	0xbf2e57ee	-0.6810292
70	0xbf383b8f	-0.7196588
71	0x40c41475	6.127497
72	0xc082f1d6	-4.092021
73	0x400f9131	2.2432368
74	0xc0c04eed	-6.0096345
75	0x40e27177	7.0763507
76	0xc002a05d	-2.0410378
77	0x3fd12bf6	1.6341541
78	0xbeb75ab7	-0.35811397
79	0x40f24ddb	7.572004
80	0xc09e9c6c	-4.9565945
81	0x400c207b	2.1894825
82	0x3d2d2c76	0.04227873
83	0xc0c5c74c	-6.180578
84	0xc0633c21	-3.550545
85	0xbaa4f0a7	-0.0012583927
86	0xc0131b6c	-2.2985487
87	0x3fd932ba	1.6968606
88	0xbf575b61	-0.8412381
89	0xc0676c53	-3.6159866
90	0x402d93fa	2.7121568
91	0x3d4bef78	0.049788922
92	0xbd2262be	-0.03964495
93	0xbfd587a2	-1.6682017
94	0xbf0dc0b4	-0.55372167
95	0x40cb66e8	6.356312
96	0x401bc297	2.4337518
97	0x3fadf049	1.3588954
98	0xbf5c8fce	-0.8615693
99	0x408c1f89	4.3788495
100	0xc0d12e06	-6.536868
101	0xc012354b	-2.2845027
102	0x4031d094	2.7783556
103	0xbfe95292	-1.8228323
104	0xbff0c207	-1.8809212
105	0x4012a7a8	2.291483
106	0x40df8c03	6.9858413
107	0xc039c5d0	-2.9026985
108	0xc06b7088	-3.6787434
109	0x3c677402	0.0141267795
110	0x3c82ae54	0.015952267
111	0xc0003262	-2.0030751
112	0x4090c6d1	4.5242696
113	0xc00ad05c	-2.1689672
114	0xc01dcc9f	-2.465614
115	0xbe68a962	-0.22720864
116	0xbff736f9	-1.9313651
117	0xbf255b4b	-0.64592427
118	0xc09b6b70	-4.856865
119	0xc00b706f	-2.1787374
120	0x4029a995	2.6509755
121	0x407164b5	3.7717717
122	0x40fab2e6	7.834338
123	0xc006c88d	-2.1059906
124	0x401e1558	2.4700527
125	0xc08dbf46	-4.429599
126	0xc0832f7e	-4.0995474
127	0xc00693b4	-2.102765
128	0xbfd7f46e	-1.6871469
129	0xc09c4707	-4.8836703
130	0xc02ff1e1	-2.749138
131	0xbea8e206	-0.32984942
132	0x40486ea6	3.1317534
133	0xbf573470	-0.8406439
134	0x40b815a1	5.7526402
135	0x403b488b	2.9263027
136	0xc0491ff0	-3.1425743
137	0x40b3bd5a	5.616864
138	0xc02f2315	-2.7365162
139	0x404bc755	3.1840413
140	0xc04596e8	-3.0873356
141	0x3fd147f4	1.6350083
142	0xc0924a4d	-4.57157
143	0x40d21e0b	6.5661674
144	0x3cbba2cf	0.022904782
145	0xbfc177ee	-1.5114725
146	0xbeb7715f	-0.35828683
147	0xbcdf20c1	-0.027237298
148	0x40b0528c	5.5100765
149	0xbecd33b0	-0.40078497
150	0x40cde767	6.4344974
151	0x3fe95f6d	1.8232247
152	0x4088a00a	4.269536
153	0xc07bcd26	-3.9343963
154	0x40838316	4.1097517
155	0x409ff7e2	4.999009
156	0xc09a5695	-4.823069
157	0x3fd83759	1.6891891
158	0xbf352ade	-0.70768535
159	0x40a6e50d	5.2154603
160	0xbf2f29d0	-0.68423176
161	0x40bd4cac	5.9156094
162	0xc08ce2a9	-4.4026685
163	0x402ee18c	2.7325163
164	0xbfc41938	-1.5320196
165	0x40052ea7	2.0809724
166	0xc07c837c	-3.9455252
167	0xc0557072	-3.334988
168	0x40ee2ccb	7.442968
169	0x40294286	2.6446853
170	0xbfe31a5e	-1.7742422
171	0x3cc89670	0.024485797
172	0xc07d28bb	-3.955611
173	0xbc8b19cc	-0.016980074
174	0x404402fd	3.0626824
175	0xc0219a2b	-2.5250347
176	0x409976c5	4.795748
177	0x40b2c310	5.5863113
178	0x3ff2e2f5	1.8975512
179	0xbd2d95ee	-0.042379312
180	0xc01ccc97	-2.4499872
181	0x40ba5db7	5.82394
182	0x406a6c6d	3.6628678
183	0x3c14e1b5	0.009087016
184	0x4072bb75	3.7926915
185	0xc099b72f	-4.8036113
186	0xc007820e	-2.117313
187	0xc044a594	-3.072606
188	0x40b1d9d2	5.5578394
189	0x404d4ada	3.2076936
190	0x40b80a6b	5.7512717
191	0xbeb77227	-0.3582928
192	0xbf98a24f	-1.1924533
193	0xbd113065	-0.035446543
194	0x3fa3dbef	1.2801493
195	0xbf9cc6e8	-1.2248201
196	0x4003021d	2.047004
197	0xbfb194e8	-1.3873568
198	0xc02d671c	-2.7094183
199	0xc010c238	-2.2618542
200	0x402e8286	2.7267165
201	0xbfb4027f	-1.4063262
202	0x3fb467f2	1.4094222
203	0x3fc2e888	1.5227213
204	0xbfeefe6d	-1.8671395
205	0x408d2a14	4.4113865
206	0x3fb0e7b6	1.3820713
207	0xbeb6310f	-0.35584304
208	0xbec1c138	-0.37842727
209	0xc092ba10	-4.5852127
210	0xc061e111	-3.529362
211	0xc0c74ebd	-6.2283616
212	0xc001db5c	-2.0290136
213	0x3fe91c1b	1.8211702
214	0x3fa88ab8	1.3167334
215	0xc027b3e8	-2.6203556
216	0x40321e56	2.7831016
217	0x40fa8a0a	7.8293505
218	0x3fc32bcd	1.5247742
219	0x40001c24	2.0017176
220	0x40393130	2.8936272
221	0xbfafe2aa	-1.3741047
222	0xc0937601	-4.608155
223	0x3fde3661	1.7360345
224	0xbeb98247	-0.36232206
225	0xc014e8f5	-2.3267186
226	0x3fadb2d4	1.3570199
227	0x4018f13c	2.3897238
228	0x3fecee48	1.8510218
229	0xbebfda7f	-0.37471387
230	0x408b23cd	4.34812
231	0xba2cdbfe	-0.00065940607
232	0xbec7a120	-0.38990116
233	0x4023b3ac	2.5578413
234	0x3fa6fd17	1.3045987
235	0xc00b1967	-2.1734254
236	0x40aaf1c9	5.342015
237	0xbea5236e	-0.32253593
238	0x4002d0f6	2.044004
239	0xc0c15f72	-6.042901
240	0x3ff1163e	1.8834913
241	0xc0a0243e	-5.004424
242	0x4022863a	2.5394425
243	0xbf7f2be3	-0.9967634
244	0xc04ad132	-3.1690183
245	0xc08c67a4	-4.3876514
246	0xbd1c0c15	-0.03809746
247	0xc0188045	-2.382829
248	0xc05814d9	-3.3762724
249	0xbeb08a2f	-0.34480426
250	0xc095bc83	-4.6792617
251	0x408f4740	4.4774475
252	0xbfc3e021	-1.5302774
253	0x40db208a	6.847722
254	0xc08aed59	-4.341473
255	0xc00c5f7b	-2.1933277
