preTrained/500TD3_BipedalWalkerHardcore-v3_0_actor_target.pth (torch_old, 527104 bytes, 6 tensors)

l1.weight f4 [400, 24]
0	0x3f06e791	0.5269709
1	0x3f3f26e2	0.74668705
2	0xbf9d06a3	-1.226765
3	0xbe6ee77f	-0.23330496
4	0xbf9e1769	-1.2350894
5	0x3d4a8a0e	0.049448065
6	0xbe12b876	-0.14328179
7	0x3d244d4f	0.04011279
8	0x3dfa9706	0.12235837
9	0x3f175245	0.5910991
10	0x3d221b36	0.03957673
11	0xbe1bea6e	-0.15226147
12	0x3dc7b454	0.09751192
13	0x3e72bb07	0.23704158
14	0xbe63f86b	-0.22262733
15	0x3cdbe85a	0.026844192
16	0xbe60d147	-0.21954833
17	0xbeb57784	-0.35442746
18	0xbee39799	-0.44451597
19	0xbec35a14	-0.38154662
20	0xbe84daf0	-0.25948286
21	0xbe927727	-0.2860653
22	0xbe3ee072	-0.18640307
23	0xbd80da17	-0.06291597
24	0xbf07418c	-0.5283439
25	0xbfd38ad4	-1.6526742
26	0x3f8fcc41	1.1234208
27	0x3eb372e5	0.35048595
28	0x3f00de5e	0.50339305
29	0x3e1ce2a4	0.15320832
30	0xbe8e6906	-0.27814502
31	0xbd4a837e	-0.049441807
32	0xbd2eaa8e	-0.042643122
33	0xbda58cbe	-0.08083485
34	0x3d6c5593	0.057698797
35	0xbe0176af	-0.1264293
36	0x3dc0df55	0.09417597
37	0xbe742f8a	-0.2384626
38	0x3dd6e0ba	0.10492082
39	0xbeabea3c	-0.33577144
40	0xbe023fa6	-0.12719592
41	0x3e6f761a	0.23384896
42	0x3ec08a2e	0.37605423
43	0x3efa38ff	0.4887161
44	0x3f0571ef	0.52126974
45	0xbd723b30	-0.059138477
46	0xbe0ee8f4	-0.13956052
47	0x3da4df54	0.08050409
48	0xbfa4bf01	-1.287079
49	0xbf94fb26	-1.1639144
50	0x3e1f8b59	0.155805
51	0xbe7c8eba	-0.24663821
52	0xbe238f22	-0.1597257
53	0xbd9e8f86	-0.07742219
54	0x3dfeff71	0.12451065
55	0x3d02375e	0.031791084
56	0xbf0aeb4f	-0.542653
57	0x3d6655ab	0.056234043
58	0x3eaeb435	0.34121862
59	0x3c54e594	0.012994189
60	0xbe318655	-0.173364
61	0xbe0e91d8	-0.13922822
62	0xbe9ee080	-0.31030655
63	0xbeb679cf	-0.35639808
64	0xbdfbe84e	-0.12300168
65	0xbbbf66ba	-0.0058411034
66	0x3d6488fc	0.0557947
67	0xbdf0c1e3	-0.11755731
68	0xbd685e9c	-0.05673085
69	0xbe2aca5d	-0.16678758
70	0xbe3a303c	-0.18182462
71	0xbe9d9f2a	-0.30785495
72	0xbd8b793e	-0.068102345
73	0xbebe1e00	-0.37132263
74	0xbf00e850	-0.5035448
75	0xbdcda8ee	-0.100419864
76	0x3eb09f0a	0.34496337
77	0xbdc97388	-0.09836489
78	0x3ed2e3a3	0.41189298
79	0x3c4699ec	0.012121659
80	0x3e59680c	0.21231097
81	0xbd15a540	-0.036534548
82	0xbc653d22	-0.013991626
83	0xbf5cf811	-0.8631602
84	0xbd323df2	-0.043516107
85	0xbd2d1d2c	-0.04226415
86	0x3dfe1dd4	0.12408033
87	0x3e1fff8b	0.15624826
88	0xbdeced26	-0.1156867
89	0x3e8ae6e9	0.27129295
90	0xbd14c713	-0.036322664
91	0xbea74664	-0.3267089
92	0x3eca6323	0.3952876
93	0x3eabb1d5	0.33534113
94	0x3ea7a2b8	0.32741332
95	0x3e336980	0.17520714
96	0xbeb1c727	-0.34722254
97	0xbf2dc3d1	-0.6787692
98	0xbf7ff80d	-0.9998787
99	0x3f651be2	0.8949567
100	0xbdd72cac	-0.10506567
101	0x3d678a81	0.056528572
102	0x3eabf95e	0.3358869
103	0xbe631228	-0.22174895
104	0xbdbdf157	-0.092745475
105	0xbc084d11	-0.008319155
106	0xbe57476b	-0.21023338
107	0x3dcfe6e9	0.101514645
108	0xbe1475fd	-0.14498134
109	0xbf02377f	-0.5086593
110	0x3f168c6a	0.58808005
111	0x3e83073c	0.25591457
112	0x3e68cc19	0.22734107
113	0x3e97db30	0.29659414
114	0xbe6b5026	-0.22979793
115	0xbed73d88	-0.42039132
116	0x3e2d3af4	0.1691702
117	0x3e26ce29	0.16289581
118	0x3e369c2d	0.17833014
119	0x3e6ac93e	0.2292833
120	0xbefe27e7	-0.49639818
121	0xbe9b2ac9	-0.3030608
122	0x3e8ce0d6	0.27515286
123	0x3e07dc5e	0.13267657
124	0x3da06cab	0.07833227
125	0xbe0304b3	-0.12794761
126	0x3e04694c	0.12930793
127	0xbd7b14d2	-0.061299153
128	0x3cd63c23	0.026151722
129	0xbdcdc7bf	-0.10047864
130	0x3dcebe80	0.10094929
131	0xbf2a6424	-0.6655905
132	0x3d2c7b55	0.042109806
133	0x3e1ecd58	0.1550802
134	0x3d9e1223	0.07718303
135	0x3eb643a0	0.3559847
136	0x3f20020b	0.6250312
137	0x3ef574e5	0.47940746
138	0x3f24451f	0.6416797
139	0x3ecbaa46	0.39778346
140	0x3cc3c0f1	0.023895713
141	0xbdb572fe	-0.08859824
142	0x3c724716	0.014787456
143	0x3d2109cd	0.039315987
144	0xbee6c485	-0.45071808
145	0x3ec468b4	0.38361132
146	0x3ebd3e54	0.36961615
147	0xbf275ddc	-0.65377593
148	0xbef63e70	-0.4809451
149	0xbe26b63c	-0.16280454
150	0xbf4e3535	-0.8054994
151	0x3d38ddfd	0.04513358
152	0xbea89dd5	-0.32932916
153	0xbe363ceb	-0.17796676
154	0xbd53b106	-0.051682495
155	0x3f1fb8eb	0.6239154
156	0xbe015ebe	-0.12633798
157	0xbdaf5028	-0.085602105
158	0x3ecf6d2a	0.40512973
159	0x3d9c27e7	0.07624798
160	0xbda6b9da	-0.08140917
161	0xbe8e963b	-0.27848992
162	0xbf1752bc	-0.5911062
163	0xbed5b44c	-0.41739118
164	0xbef7c8f8	-0.48395514
165	0xbe81acac	-0.2532705
166	0x3e52729e	0.20551535
167	0x3ddee542	0.10883571
168	0xbf391e14	-0.7231152
169	0xbe07e166	-0.13269576
170	0x3c490cd6	0.012271127
171	0xbe054868	-0.13015902
172	0xbdcc0114	-0.09961143
173	0xbc083a65	-0.008314704
174	0x3ec58d18	0.38584208
175	0x3e5bc335	0.21461184
176	0x3ef854a8	0.48502088
177	0x3e0d6119	0.13806571
178	0x3d1523fa	0.036411263
179	0x3d2947d0	0.04132825
180	0xbd9f25ec	-0.07770905
181	0xbd1b4e4a	-0.03791646
182	0x3dd67238	0.10471004
183	0x3e7f15eb	0.24910705
184	0x3eff549a	0.49869233
185	0x3ed57990	0.41694307
186	0xbe229523	-0.15877204
187	0xbe5e37df	-0.21701
188	0xbeebd3aa	-0.46059924
189	0xbf41c45f	-0.75690264
190	0xbf2e28d1	-0.6803103
191	0x3d36dbbf	0.04464316
192	0x3e43b815	0.1911319
193	0x3d2830e4	0.04106225
194	0x3f9429a8	1.1575212
195	0xbf154067	-0.58301395
196	0x3edfcc9e	0.43710798
197	0x3ebc6e21	0.36802772
198	0x3f028760	0.50987816
199	0xbea9bf78	-0.33153892
200	0xbdd053db	-0.10172244
201	0xbe6d76d2	-0.23189858
202	0x3dd32632	0.103100196
203	0xbf00d993	-0.5033199
204	0xbec0be76	-0.3764531
205	0xbdb38083	-0.08764746
206	0xbd155522	-0.036458142
207	0x3e1d48da	0.15359822
208	0xbe0fca84	-0.14042097
209	0xbdaf6fd6	-0.08566253
210	0xbdd361d7	-0.10321396
211	0xbe0460d1	-0.12927558
212	0xbde0c7c8	-0.10975605
213	0xbed98af2	-0.4248882
214	0xbd2ced9f	-0.0422188
215	0xbe64af57	-0.22332512
216	0xbe3e8c72	-0.18608263
217	0xbea0906c	-0.31360185
218	0x3f3176f9	0.6932216
219	0x3da05263	0.07828214
220	0x3e04618d	0.12927838
221	0xbdcb99e9	-0.099414654
222	0xbe21b8a5	-0.15793093
223	0xbd3f2603	-0.04666711
224	0xbe8266d5	-0.2546908
225	0xbf01c5e2	-0.5069257
226	0xbd0ad060	-0.033890128
227	0xbc12ebd2	-0.008967357
228	0xb96ffdc3	-0.0002288735
229	0xbeaa57e9	-0.33270195
230	0x3d057e7f	0.03259134
231	0xbd47d020	-0.048782468
232	0x3ec101b4	0.37696612
233	0x3f0d752d	0.5525692
234	0x3e6d369e	0.23165366
235	0x3ed0256c	0.4065355
236	0x3d11c6aa	0.03558985
237	0xbdbc78c0	-0.09202719
238	0x3e6b1e6e	0.22960827
239	0x3ef4f9ea	0.4784692
240	0x3e80b844	0.25140584
241	0xbfb4630c	-1.4092727
242	0x40147266	2.3194823
243	0xbf2bd3c5	-0.6712001
244	0xbec0495c	-0.3755597
245	0xbcd6c5db	-0.026217392
246	0xbe79ecfd	-0.2440681
247	0x3c98c99b	0.01865082
248	0xbe6d4add	-0.2317309
249	0x3e8cd53a	0.2750643
250	0xbe09e1a9	-0.13464989
251	0x3ea4eef5	0.3221356
252	0xbd922d81	-0.071375854
253	0x3e0dde51	0.13854338
254	0x3daa8abe	0.08327244
255	0x3ebbac34	0.36654818

l1.bias f4 [400]
0	0xbc85e86c	-0.016346179
1	0xbf06b5f7	-0.52621406
2	0x3e9c1b5d	0.30489627
3	0x3e36cfad	0.1785266
4	0x3de0a960	0.10969806
5	0xbe601713	-0.21883802
6	0xbe06abc8	-0.13151467
7	0xbd3186a4	-0.043341294
8	0x3e165f47	0.14684783
9	0xbc91b675	-0.017787198
10	0x3e6359dd	0.22202249
11	0xbd7b766b	-0.06139223
12	0xbde23cfe	-0.110467896
13	0xbe17c52e	-0.14821312
14	0xbe8e58ec	-0.27802217
15	0xbdced0d1	-0.10098422
16	0x3c930d15	0.017950574
17	0xbdf759c0	-0.12077665
18	0xbdb39158	-0.087679565
19	0xbe4c34a2	-0.19941953
20	0xbdc7c9fc	-0.09755322
21	0x3ebc705c	0.36804473
22	0xbde6587b	-0.11247345
23	0x3d037ff8	0.032104462
24	0x3ea3f38f	0.32021758
25	0x3ec21e22	0.37913615
26	0x3ed11d11	0.40842488
27	0x3e5411a7	0.20709859
28	0x3ded25aa	0.115794495
29	0x3e8d1bd9	0.2756031
30	0x3e4b5e67	0.1986023
31	0xbd2ddb54	-0.042445496
32	0x3e78d01d	0.24298139
33	0x3e917e18	0.28416514
34	0xbeaa5d7a	-0.33274442
35	0x3c844b9c	0.016149335
36	0xbe3e0e21	-0.18560077
37	0x3e8c3c16	0.27389592
38	0xbec8ad62	-0.3919478
39	0x3e0b496f	0.13602231
40	0x3d4796cf	0.048727807
41	0x3e518e96	0.20464548
42	0x3e74649a	0.23866501
43	0xbe4ea736	-0.20180973
44	0xbc4bf813	-0.012449282
45	0xbe988bfe	-0.29794306
46	0xbda3475f	-0.07972597
47	0x3e18ae35	0.14910205
48	0x3dc58bf6	0.09645836
49	0x3e784842	0.24246314
50	0x3d30a9e8	0.043130785
51	0xbdc20103	-0.09472849
52	0xbde2b6d4	-0.11070028
53	0xbb9db4f4	-0.004812831
54	0x3e257271	0.16156937
55	0xbd622743	-0.055213224
56	0x3df754ee	0.12076746
57	0xbdc2be98	-0.09509009
58	0x3e158219	0.1460041
59	0x3e1a7073	0.15081958
60	0xbe9aaa85	-0.3020822
61	0xbe9146f9	-0.2837446
62	0x3da4f732	0.08054961
63	0xbd3ca91e	-0.04605972
64	0x3e22a649	0.15883745
65	0xbe098379	-0.13429059
66	0xbda3dcf2	-0.08001126
67	0x3e4d511a	0.20050469
68	0xbe5bec91	-0.21476962
69	0x3e9d0ea1	0.30675223
70	0x3e481708	0.19540036
71	0xbd051efc	-0.032500252
72	0x3e8610f8	0.2618482
73	0xbdc579e9	-0.09642393
74	0x3d852dab	0.06502851
75	0x3e558c42	0.20854285
76	0x3e711aef	0.2354543
77	0xbe83061d	-0.25590602
78	0xbc8fe60c	-0.01756575
79	0x3e13da53	0.14438753
80	0xbd8be1a0	-0.06830144
81	0xbc2d743c	-0.0105867945
82	0xbddd606b	-0.10809406
83	0x3cc2ca4b	0.023778101
84	0x3e9507f6	0.29107636
85	0x3d35018b	0.044190925
86	0x3e60256b	0.21889274
87	0x3d19f0ba	0.03758309
88	0x3d6d4c26	0.05793395
89	0x3e418207	0.18897258
90	0x3d077285	0.0330682
91	0xbc50db0b	-0.012747536
92	0xbe6f79e4	-0.23386341
93	0xbdc9a363	-0.09845617
94	0x3e2734bb	0.16328709
95	0x3e511370	0.20417571
96	0x3ecdf6cd	0.40227357
97	0x3af69ee3	0.0018815662
98	0x3e114dcd	0.14189835
99	0x3d67c2dd	0.05658232
100	0xbde3e5b2	-0.11127795
101	0x3daaf866	0.083481595
102	0x3e326ce3	0.1742435
103	0xbe644213	-0.2229083
104	0x3a7bdab5	0.000960748
105	0xbd90140f	-0.07035076
106	0xbe128bea	-0.14311185
107	0x3e933436	0.2875077
108	0x3de48cd9	0.11159677
109	0xbe1b9b23	-0.15195899
110	0x3d93ea3c	0.07222411
111	0xbe287a3e	-0.16452882
112	0x3e6da5db	0.232078
113	0xbd9064cc	-0.070504755
114	0x3e76e1e8	0.24109614
115	0x3e9928e3	0.29914007
116	0xbe0a149f	-0.13484429
117	0xbb9ec42f	-0.0048451643
118	0xbd8db8cf	-0.06920015
119	0x3d05c97a	0.032662846
120	0x3d597c6c	0.053097174
121	0x3a1f545a	0.0006077938
122	0x3dae6fdb	0.085174285
123	0xbdf7b512	-0.12095083
124	0xbe6976f3	-0.22799282
125	0x3e1a8a19	0.15091743
126	0xbe8e8dce	-0.27842563
127	0xbea796ad	-0.32732144
128	0x3d810e65	0.06301574
129	0x3e0a096b	0.13480155
130	0xbe88b267	-0.2669861
131	0x3d47b666	0.048757933
132	0x3eb354be	0.3502559
133	0xbe5ae60b	-0.21376817
134	0xbebf9c28	-0.37423825
135	0xbe9136fa	-0.28362256
136	0x3e672717	0.22573505
137	0xbb39ae45	-0.0028332633
138	0x3decb3ac	0.11557707
139	0xbdf48d2e	-0.119409904
140	0xbdd8fe90	-0.10595429
141	0xbeb5b7c9	-0.3549178
142	0x3dd5278e	0.10407935
143	0xbeb700fc	-0.3574294
144	0xbe559ab4	-0.20859796
145	0xbdc03312	-0.09384741
146	0xbe30b239	-0.17255487
147	0x3df82630	0.12116659
148	0xbe057d8a	-0.1303617
149	0x3e18f619	0.14937629
150	0xbec3bca1	-0.3822985
151	0x3ea0ae38	0.31382918
152	0x3ec47952	0.3837381
153	0xbe326c75	-0.17424186
154	0xbd9fb336	-0.07797854
155	0xbebe6cc1	-0.37192348
156	0x3de2a098	0.11065787
157	0x3e26b74f	0.16280864
158	0x3e594313	0.21216993
159	0xbd178b47	-0.03699806
160	0x3d99e5bb	0.07514521
161	0xbe4899a1	-0.19589855
162	0xbe24c3a9	-0.16090263
163	0x3d6e0c69	0.058117304
164	0x3da2a428	0.079414666
165	0xbe36eb22	-0.17863134
166	0xbe8761b8	-0.2644174
167	0x3e5ed7be	0.21761987
168	0x3e16c802	0.14724734
169	0x3ee97932	0.45600277
170	0x3d88b562	0.06675221
171	0x3afc3cf7	0.0019244243
172	0x3ed14035	0.408693
173	0x3d5612cd	0.052264024
174	0x3d854852	0.06507935
175	0x3e083fc0	0.13305569
176	0xbe7944b6	-0.24342617
177	0x3e6b09fc	0.22953027
178	0xbdc80054	-0.097656876
179	0x3e057686	0.13033494
180	0xbe0a2ec2	-0.13494399
181	0x3e74756e	0.23872921
182	0xbeea4f9f	-0.4576387
183	0x3e873aa6	0.26411933
184	0x3e179653	0.14803438
185	0xbeae1397	-0.3399932
186	0x3b1fb86b	0.0024371396
187	0xbde5240b	-0.11188515
188	0x3d977e7a	0.0739717
189	0x3ddcbdfd	0.10778425
190	0x3cd97557	0.02654521
191	0x3dd1c7fc	0.10243222
192	0xbe121e20	-0.14269304
193	0xbe7e3e52	-0.24828461
194	0x3ea54d6a	0.32285625
195	0xbda1f5a7	-0.079081826
196	0xbbf570df	-0.007490262
197	0xbeab5760	-0.334651
198	0x3e47e71f	0.1952176
199	0xbdd48078	-0.10376066
200	0x3da21293	0.07913699
201	0xbe2afd51	-0.16698195
202	0x3deab0e0	0.114595175
203	0xbdbb64fe	-0.09150122
204	0x3dd2b866	0.102890775
205	0x3e60a4d4	0.21937877
206	0x3d871e49	0.06597573
207	0x3c12e6a9	0.0089661265
208	0x3bbae7e1	0.0057039117
209	0xbe16a0ce	-0.1470978
210	0xbe4a044c	-0.19728202
211	0xbe949b76	-0.29024857
212	0x3d32dbdb	0.0436667
213	0x3e92fcfc	0.28708637
214	0x3cb26a5a	0.021779228
215	0x3dff16c2	0.124555126
216	0xbd439545	-0.047749776
217	0x3e5e64a3	0.21718077
218	0xbe07fb5c	-0.1327948
219	0x3e371999	0.17880858
220	0xbc952413	-0.018205678
221	0xbdf8e5ad	-0.12153182
222	0x3e43f5a6	0.19136676
223	0xbdafc3dd	-0.0858228
224	0x3de29f3d	0.110655285
225	0x3ed51e0b	0.41624483
226	0x3e4b2f02	0.19842151
227	0x3d00b75d	0.03142487
228	0x3e5bf08e	0.21478483
229	0xbd0b1e0d	-0.033964206
230	0xbdcbf0ba	-0.09958024
231	0x3de011e2	0.10940911
232	0xbda7136c	-0.08158001
233	0xbe1ed807	-0.15512095
234	0xbe365775	-0.178068
235	0xbea84916	-0.3286826
236	0xbbb60b00	-0.0055555105
237	0xbdcae439	-0.09906811
238	0x3da9ff11	0.08300603
239	0x3e566bae	0.20939514
240	0xbe462bc7	-0.19352637
241	0x3c1e85d2	0.00967546
242	0x3e2513c3	0.1612082
243	0xbdba5e24	-0.09099987
244	0xbd6404b2	-0.05566854
245	0xbdcedbc8	-0.10100514
246	0x3d067f94	0.03283651
247	0x3c497aa0	0.0122973025
248	0x3cce8655	0.025210539
249	0xbe19c03a	-0.15014735
250	0xbeaa6a60	-0.33284283
251	0xbdd773a8	-0.105201066
252	0x3d86a4af	0.0657438
253	0x3d318472	0.0433392
254	0xbe720636	-0.23635182
255	0x3ccddfe1	0.025131168

l2.weight f4 [300, 400]
0	0xbeaa4af7	-0.3326032
1	0xbe0d3e3d	-0.13793273
2	0x3e59fac9	0.21287073
3	0xbcf80634	-0.030276395
4	0xbe4e89e1	-0.20169784
5	0x3cea050a	0.028566856
6	0xbe132b6d	-0.14372034
7	0xbe89f0ed	-0.26941624
8	0x3e8e07cc	0.27740324
9	0xbee59903	-0.448433
10	0x3d690e2a	0.056898274
11	0xbedbbfea	-0.42919856
12	0x3f26253e	0.6490058
13	0x3dd32979	0.10310645
14	0xbea60536	-0.3242585
15	0xbcf0dfbc	-0.02940356
16	0xbe82c9ad	-0.2554449
17	0xbf4c5c11	-0.7982798
18	0x3d5dd8a2	0.054161675
19	0xbe3aa100	-0.18225479
20	0x3e0fb645	0.14034374
21	0xbf25eb6f	-0.6481237
22	0x3a560e19	0.0008165553
23	0xbe0e55ed	-0.13899966
24	0xbdeeac72	-0.11653985
25	0xbde220ba	-0.11041398
26	0xbdc83979	-0.09776587
27	0xbe193afe	-0.1496391
28	0xbda87e07	-0.08227163
29	0x3e8eb924	0.27875626
30	0xbe25a137	-0.1617478
31	0xbd17e596	-0.037084185
32	0x3dc5a230	0.096500754
33	0xbf24ef17	-0.6442732
34	0xbedec559	-0.4350994
35	0x3eb70fb8	0.3575418
36	0xbee96992	-0.45588356
37	0xbeb946e7	-0.36186907
38	0xbe9504de	-0.29105276
39	0xbdc903d1	-0.09815181
40	0xbe74ec73	-0.23918323
41	0x3dd61e81	0.10455037
42	0x3dcf07a8	0.10108882
43	0x3d930cf5	0.07180206
44	0x3db910ff	0.09036445
45	0xbcc91759	-0.024547266
46	0x3e91c8be	0.28473467
47	0x3eb00947	0.34382078
48	0xbec51658	-0.3849361
49	0xbf08a995	-0.5338376
50	0x3c9ec685	0.01938177
51	0x3e011684	0.12606245
52	0xbe43d159	-0.19122829
53	0xbe85bf7c	-0.26122653
54	0x3ea7d60e	0.32780498
55	0xbefbf474	-0.4920994
56	0xbe09f59d	-0.134726
57	0xbe2ca617	-0.16860233
58	0x3bf6a8fc	0.0075274687
59	0xbf10980d	-0.5648201
60	0xbe29ca0f	-0.16580985
61	0x3d601c52	0.05471451
62	0xbdba1e88	-0.090878546
63	0x3dbf3990	0.09337151
64	0x3ca1a41e	0.019731577
65	0xbe49c4c9	-0.19703974
66	0x3e6cf6f2	0.23141077
67	0x3ef40b74	0.47664988
68	0xbe6d5fa2	-0.23181012
69	0xbedd1dea	-0.43186885
70	0xbe92668e	-0.28593868
71	0x3d88591c	0.06657621
72	0x3efc6fe3	0.49304113
73	0xbe95eb56	-0.2928111
74	0xbe8ad82d	-0.27118054
75	0x3df24653	0.118298195
76	0x3e1a4885	0.15066727
77	0x3db732df	0.0894525
78	0x3c2323b6	0.009957245
79	0xbeb63e58	-0.3559444
80	0xbcc5ed30	-0.024160951
81	0xbea3f6a7	-0.32024118
82	0x3e0f2364	0.13978344
83	0xbe0151e5	-0.12628897
84	0xbdd63aa2	-0.10460402
85	0xbf077fed	-0.52929574
86	0xbbf3c5ec	-0.0074393656
87	0xbe9ba29e	-0.30397505
88	0xbefa6b7c	-0.4891013
89	0xbdebb383	-0.115088485
90	0x3f0bb544	0.54573464
91	0xbc969415	-0.018381158
92	0xbc2f4467	-0.010697461
93	0xbf4e9409	-0.80694634
94	0xbeb647b8	-0.35601592
95	0xbee41bc3	-0.4455243
96	0xbefe58f3	-0.49677238
97	0xbe370978	-0.17874706
98	0x3d97b9d5	0.074084915
99	0xbeb58e8f	-0.35460326
100	0xbf1af786	-0.6053394
101	0xbe33d398	-0.17561185
102	0xbe8b057d	-0.27152625
103	0xbdb99120	-0.090608835
104	0xbf05cb35	-0.52263194
105	0x3e62224a	0.22083393
106	0xbe81b06d	-0.25329915
107	0x3e0ba734	0.13638002
108	0x3e0880f4	0.13330442
109	0x3e7fec14	0.249924
110	0x3dfcef3b	0.12350317
111	0xbd928e66	-0.071560666
112	0x3dbe0f1f	0.09280228
113	0x3c72b864	0.01481447
114	0xbec33900	-0.38129425
115	0x3e6eddaa	0.23326746
116	0xbf0be104	-0.5464022
117	0x3c82b23c	0.01595413
118	0xbf6a8aa3	-0.9161779
119	0xbe267106	-0.16254053
120	0x3e8f08d5	0.27936426
121	0x3e86bfbc	0.26318157
122	0xbc2144ce	-0.0098430645
123	0xbd88401c	-0.06652853
124	0xbf62cef3	-0.8859703
125	0x3c9909c5	0.018681416
126	0x3e636363	0.22205882
127	0xbe8755bd	-0.264326
128	0xb91458fe	-0.00014147532
129	0x3cb8476f	0.022495
130	0xbe29f697	-0.16597973
131	0x3e9b1214	0.3028723
132	0xbd8d30f5	-0.068941034
133	0x3ddf0249	0.10889108
134	0xbecd56d9	-0.40105322
135	0x3dd98599	0.10621185
136	0x3e489800	0.19589233
137	0xbe500e2a	-0.20317903
138	0xbccc8a29	-0.024968224
139	0x3ddaa6aa	0.1067632
140	0x3c194b65	0.009356354
141	0x3cf72083	0.03016687
142	0xbe4cbc29	-0.19993652
143	0xbe8e1ce5	-0.2775642
144	0xbea1e687	-0.3162119
145	0xbe90a16d	-0.28248158
146	0xbf396f88	-0.7243581
147	0xbf0f3495	-0.5593961
148	0x3dca7c61	0.09887005
149	0xbe900dc5	-0.28135505
150	0xbe16b8cd	-0.14718933
151	0xbdebcbbb	-0.11513468
152	0xbea9e17e	-0.3317985
153	0xbe639242	-0.22223762
154	0x3e05c29c	0.13062519
155	0xbf0406dd	-0.5157297
156	0xbb2c6797	-0.0026306862
157	0x3e2302e6	0.15919074
158	0xbd637ebb	-0.05554078
159	0xbe29bfe6	-0.1657711
160	0xbf091565	-0.5354827
161	0xbe4f03c1	-0.20216276
162	0x3ee4e16a	0.44703227
163	0xbe36afa0	-0.17840433
164	0xbe0685ed	-0.13137026
165	0x3d9eeb3e	0.07759713
166	0xbe20bc17	-0.1569675
167	0x3d2dbdc7	0.042417314
168	0x3d0fdafc	0.03512095
169	0xbe89cdc5	-0.26914802
170	0xbdb1bc6f	-0.08678519
171	0x3ba8dfae	0.005153618
172	0xbf318110	-0.6933756
173	0x3d7bfe9b	0.061522108
174	0xbe6b1d83	-0.22960477
175	0xbcd61e82	-0.026137594
176	0xbdc368a8	-0.09541446
177	0x3cb25400	0.02176857
178	0xbc8f97cc	-0.017528437
179	0xbbffd56c	-0.0078074243
180	0xbf97bcf6	-1.1854541
181	0xbedd2a6a	-0.43196422
182	0x3d5f9c31	0.054592315
183	0x3eb8f02f	0.36120746
184	0xbec00321	-0.37502387
185	0xbca7513e	-0.020424481
186	0xbf2289cf	-0.6349153
187	0x3eda81f1	0.42677262
188	0xbf1d9445	-0.61554366
189	0xbd682f83	-0.056685936
190	0xbb9f7c8d	-0.0048671425
191	0xbe61b5b3	-0.22041969
192	0x3df0806b	0.11743244
193	0x3c60875a	0.013704145
194	0xbd6433fb	-0.055713635
195	0x3eb9f137	0.36316845
196	0xbdf25914	-0.118333966
197	0xbe24025f	-0.1601653
198	0x3e08ef1c	0.13372463
199	0xbe0334b5	-0.12813075
200	0xbe68f783	-0.22750668
201	0xbed6785a	-0.41888696
202	0x3e5e5411	0.21711756
203	0x3e0f5ba4	0.13999802
204	0xbd86e3ad	-0.065863945
205	0x3b341538	0.0027478468
206	0xbe9a07ad	-0.3008398
207	0xbf61dcc3	-0.8822748
208	0x3af4c563	0.0018674548
209	0xbe0922ad	-0.13392134
210	0xbdd59ff1	-0.10430897
211	0xbe7f6293	-0.24939947
212	0xbe0f3495	-0.13984902
213	0xbe1349e6	-0.14383659
214	0xbf827935	-1.019324
215	0x3dcf3b38	0.10118717
216	0x3daa3066	0.083100125
217	0xbf0a9fec	-0.5415027
218	0xbeb8f0f8	-0.36121345
219	0xbe1ddb5d	-0.15415712
220	0xbe98d636	-0.2985093
221	0xbe6e40a2	-0.23266843
222	0x3e5992e1	0.21247436
223	0xbebc75c0	-0.36808586
224	0x3ebbbeef	0.36669108
225	0xbd62288b	-0.055214446
226	0xbe9c037d	-0.3047141
227	0xbed85b29	-0.4225705
228	0xbf2250c7	-0.63404506
229	0x3e2254af	0.15852617
230	0xbcb214b8	-0.021738395
231	0xbeb78358	-0.35842395
232	0xbed150d2	-0.40881974
233	0x3e9369ed	0.28791752
234	0xbfa03fde	-1.2519491
235	0xbdabacdf	-0.08382582
236	0xbe847825	-0.25872913
237	0xbe9f09b6	-0.31062096
238	0xbe2a5cef	-0.16637014
239	0xbe56a28a	-0.20960441
240	0xbe8f611d	-0.2800378
241	0xbe903fc6	-0.28173655
242	0x3ed7d979	0.42158106
243	0xbee3228a	-0.4436229
244	0xbeb81d40	-0.35959816
245	0xbe498008	-0.19677746
246	0xbd14b52e	-0.0363056
247	0xbf0e5395	-0.55596286
248	0xbf31bc70	-0.6942816
249	0x3ef79b2b	0.4836057
250	0xbf8982c4	-1.0743032
251	0xbf21ddef	-0.6322927
252	0x3ebe2438	0.37137008
253	0xbc891dfc	-0.01673793
254	0x3d72633b	0.059176665
255	0x3f093635	0.5359834

l2.bias f4 [300]
0	0xbe1c4c26	-0.15263423
1	0x3e26531e	0.16242644
2	0x3e3dee9e	0.18548056
3	0xbeb01e60	-0.34398174
4	0xbe292532	-0.16518095
5	0x3e2ad1ad	0.16681547
6	0xbe86075c	-0.2617749
7	0x3ca4a0f6	0.020096283
8	0x3d36420f	0.044496592
9	0xbdc9ae5b	-0.09847709
10	0xbcc20308	-0.023683086
11	0xbdcbffe1	-0.099609144
12	0x3c83c3d0	0.016084582
13	0x3d2607c0	0.040534735
14	0x3d2825c1	0.04105163
15	0x3e3f5543	0.18684869
16	0xbd45e374	-0.04831262
17	0x3e31df40	0.1737032
18	0xbe3fe5c8	-0.18739998
19	0x3c6e2ac2	0.014536561
20	0x3ca4bd9d	0.020109946
21	0xbe3827b2	-0.17983893
22	0x3ca553de	0.020181593
23	0x3aa66202	0.0012694004
24	0x3d7e8f0f	0.06214815
25	0x3d94d3f4	0.07266989
26	0xbe6c49ad	-0.2307498
27	0xbdece9ab	-0.11568006
28	0x3d27383e	0.04082512
29	0xbe7b9226	-0.2456747
30	0x3d437338	0.047717303
31	0x3df6350a	0.12021835
32	0x3da83c4b	0.08214625
33	0x3d90f9f3	0.07078924
34	0x3e147068	0.14496005
35	0x3e511cd2	0.2042115
36	0xbdef0ee2	-0.116727605
37	0xbdc413c1	-0.0957408
38	0xbd7970f5	-0.06089874
39	0xbd4ead78	-0.0504584
40	0xbd499779	-0.04921672
41	0x3d358a0c	0.044321105
42	0xbdd225a5	-0.102610864
43	0xbccad7c9	-0.024761098
44	0xbe10b273	-0.14130573
45	0xbe247836	-0.16061482
46	0xbe99d821	-0.30047706
47	0x3d2dfb56	0.04247602
48	0x3ccd3228	0.02504833
49	0x3cbc9e63	0.023024743
50	0xbdbbc5cf	-0.09168588
51	0x3e17d30c	0.14826602
52	0xbdee0b53	-0.11623254
53	0xbd5575be	-0.05211424
54	0xbe2181bf	-0.1577215
55	0xbe7a5072	-0.2444475
56	0x3de19a3f	0.11015748
57	0xbcb77a23	-0.022397107
58	0x3b190c1d	0.0023353167
59	0xbe6b0274	-0.22950155
60	0xbe52b2d0	-0.20576024
61	0xbe0054f6	-0.1253241
62	0x3cae6256	0.021287125
63	0xbda63151	-0.08114875
64	0xbdd80922	-0.10548617
65	0xbe8e064a	-0.27739173
66	0x3d384ae5	0.0449933
67	0xbdff385a	-0.1246192
68	0xbc6e95a8	-0.014562048
69	0x3d1cf924	0.038323537
70	0x3deb8c72	0.11501397
71	0xbe54a710	-0.20766854
72	0xbcc745b9	-0.024325239
73	0x3c94a419	0.018144654
74	0xbd66c43c	-0.056339487
75	0xbe57c63b	-0.21071713
76	0xbdaf2273	-0.085514925
77	0xbd77713e	-0.06041073
78	0x3deba426	0.11505918
79	0x3dab5bab	0.08367094
80	0xbd13a54e	-0.03604632
81	0x3dca7620	0.09885812
82	0x3d7a7d4b	0.061154645
83	0xbdb99b24	-0.09062794
84	0xbdb83c2f	-0.08995854
85	0x3cb75157	0.022377653
86	0x3e1f6faa	0.1556994
87	0xbda68260	-0.08130336
88	0xbe7ca7dc	-0.24673408
89	0xbd24656a	-0.04013578
90	0xbce5c36a	-0.028047282
91	0xbd5b55aa	-0.053548492
92	0xbd82dbe0	-0.06389594
93	0x3de112fd	0.1098995
94	0xbe75ae34	-0.23992234
95	0x3dcccada	0.09999628
96	0xbce947da	-0.028476644
97	0xbe15d3f4	-0.14631635
98	0x3db6747d	0.08908937
99	0xbe1c7739	-0.15279855
100	0xbcf17814	-0.029476203
101	0x3d83d047	0.0643621
102	0xbd481e26	-0.048856877
103	0xbe77d446	-0.2420207
104	0xbdbe8a6f	-0.09303748
105	0xbe2db787	-0.16964541
106	0x3decfe35	0.11571924
107	0xbe887475	-0.2665135
108	0xbe12c480	-0.14332771
109	0xbc256607	-0.010095126
110	0x3d9ac416	0.07556932
111	0x3d84e4e3	0.06488969
112	0x3e4ccfb0	0.20001101
113	0xbcf21d24	-0.029554911
114	0xbcda6122	-0.026657645
115	0xb9aa470f	-0.0003247787
116	0x3e3be644	0.18349558
117	0xbdb35ff8	-0.08758539
118	0x3ce9fc08	0.02856256
119	0x3cbc1072	0.02295706
120	0xbc2b4bef	-0.010455116
121	0xbdc213e1	-0.09476448
122	0x3e1cdfb8	0.15319717
123	0xbe8738d5	-0.26410547
124	0xbe75a8bc	-0.23990148
125	0xbdfba7c6	-0.122878596
126	0x3c1dfc08	0.009642608
127	0xbe8c4a50	-0.27400446
128	0xbe64de4b	-0.22350423
129	0x3d11d6cd	0.03560524
130	0xbea87fd8	-0.32910037
131	0xbe922927	-0.28547022
132	0x3c234c23	0.009966883
133	0x3e0f8124	0.14014107
134	0xbe02b7c5	-0.12765415
135	0x3d632585	0.055455703
136	0xbc535a85	-0.0128999995
137	0xbd07b0a9	-0.03312746
138	0x3d9178ba	0.07103105
139	0xbdb04890	-0.0860759
140	0xbd0956b4	-0.033529952
141	0xbd946ede	-0.07247709
142	0xbe045c7b	-0.12925903
143	0x3dfc962b	0.1233333
144	0xbdbd4018	-0.092407405
145	0x3e09a866	0.13443145
146	0xbd4b0af6	-0.049571
147	0x3e08f1c2	0.13373473
148	0xbe0eaf10	-0.13933969
149	0x3d83a9d5	0.06428877
150	0x3e03b9e5	0.12863882
151	0x3df0b333	0.117529295
152	0xbd6b9301	-0.05751324
153	0xbe476c77	-0.1947497
154	0x3cf84292	0.03030518
155	0xbc5c18a3	-0.013433608
156	0xbc80f2be	-0.015740748
157	0xbe914953	-0.28376254
158	0x3ce7436f	0.028230397
159	0x3d8267bd	0.06367443
160	0xbbf57ddc	-0.0074918102
161	0x3d7afbc8	0.061275274
162	0xbe038980	-0.12845421
163	0xbddc3d8d	-0.107539274
164	0xbdd82d12	-0.105554715
165	0x3dd54117	0.104128055
166	0x3e00821e	0.12549636
167	0xbe0a8266	-0.13526306
168	0xbe7e09e3	-0.24808459
169	0x3dd7a512	0.105295315
170	0xbdd75f63	-0.105162404
171	0x3e44f511	0.1923411
172	0x3de03bf2	0.10948934
173	0xbdf6a101	-0.12042428
174	0x3c80218f	0.015641002
175	0xbe6b568b	-0.22982232
176	0x3df69016	0.12039201
177	0x3dcdeeb0	0.10055292
178	0xbd5bcdf9	-0.053663228
179	0xbe84d5c2	-0.25944334
180	0xbdc705b5	-0.097178854
181	0xbe3ab10f	-0.18231605
182	0xbe89959e	-0.2687196
183	0x3d699985	0.057031173
184	0xbdad7f25	-0.084715165
185	0xbcf67f94	-0.03009013
186	0x3df49d48	0.119440615
187	0x3da2df87	0.07952791
188	0x3e50517e	0.20343587
189	0x3d08cdf1	0.033399526
190	0x3d6be3cd	0.057590295
191	0x3db7e11b	0.08978482
192	0xbe912d9a	-0.28355104
193	0xbe87335d	-0.26406375
194	0xbd847e8d	-0.0646945
195	0xbaba056a	-0.0014192287
196	0x3da7b676	0.081890985
197	0x3e6324bf	0.22181986
198	0xbe6e543a	-0.23274317
199	0xbc62787d	-0.013822672
200	0xbe379947	-0.17929564
201	0xbddde9f2	-0.10835637
202	0xbdfca744	-0.12336591
203	0xbdac0a8f	-0.084004514
204	0x3dc08d88	0.09401995
205	0xbd70211c	-0.058625326
206	0xbe30027e	-0.1718845
207	0xbe901726	-0.2814266
208	0xbe2a9917	-0.16659962
209	0xbda006d7	-0.078138046
210	0xbe1f6bc3	-0.15568452
211	0xbe80209f	-0.25024888
212	0x3cbec4f9	0.023287283
213	0x3b37131a	0.002793497
214	0xbd9ef143	-0.07760861
215	0x3e1b743c	0.15181059
216	0x3cb1c620	0.021700919
217	0xbd6f7197	-0.058457937
218	0x3eba93b7	0.36440822
219	0x3e2a4006	0.16625986
220	0x3e58db78	0.2117747
221	0xbe82ea7d	-0.25569525
222	0x3d4f5305	0.050616283
223	0xbd3bb018	-0.045822233
224	0x3d0e1a37	0.03469297
225	0x3b92d89d	0.0044813887
226	0xbc42d9b1	-0.011892722
227	0x3d37a77c	0.04483746
228	0xbe560bc6	-0.20902929
229	0xbd8e241a	-0.069404796
230	0xbe4afedb	-0.19823782
231	0x3e389697	0.18026195
232	0xbe1484be	-0.14503762
233	0x3e0c4c77	0.13701044
234	0x3bd2d9c9	0.0064346534
235	0xbdcf2df1	-0.101161845
236	0x3d1463d8	0.03622803
237	0x3e2c3ec0	0.16820812
238	0x3c3f19b4	0.011663843
239	0xbdc0a3da	-0.09406252
240	0xbe9183e3	-0.28420934
241	0xbde79663	-0.11307981
242	0x3e182db4	0.14861184
243	0xbd92135f	-0.07132601
244	0xbe3a70be	-0.1820707
245	0xbdba70ee	-0.09103571
246	0xbe19d7c7	-0.15023719
247	0xbdb6423e	-0.088993534
248	0xbd822d9c	-0.063563555
249	0xbc887409	-0.016656892
250	0x3d63fd4e	0.055661492
251	0xbe4fc5b7	-0.20290266
252	0xbe6e8a73	-0.23295002
253	0x3c931818	0.017955825
254	0xbd696df9	-0.056989644
255	0x3d98bae0	0.074575186

l3.weight f4 [4, 300]
0	0xbf8b6ef4	-1.0893235
1	0x3dfa852a	0.1223243
2	0xbeff3d66	-0.4985153
3	0xc00c2fec	-2.190425
4	0x3f82d1de	1.0220296
5	0x3ec934c9	0.39298084
6	0xc016dd86	-2.3572707
7	0x3f5b0dca	0.85567915
8	0x3e542227	0.20716153
9	0xbe972b13	-0.2952505
10	0x3f7fd388	0.99932146
11	0x3fe357aa	1.7761128
12	0xbf98959e	-1.192066
13	0xbfa660a5	-1.2998244
14	0x3db02037	0.085998945
15	0x3cb787e9	0.022403674
16	0xbf1b3ca8	-0.6063943
17	0xbe95588c	-0.29169118
18	0x3e772aa7	0.24137364
19	0xbf8d4ea4	-1.1039624
20	0x3e5fb0e8	0.21844828
21	0x3f58cd30	0.8468809
22	0xbcf29c43	-0.029615527
23	0x3e336917	0.17520557
24	0xbf4e304a	-0.80542433
25	0xbec6cb57	-0.3882701
26	0x3e9c5352	0.30532318
27	0xbe96eacd	-0.29476014
28	0x4005ea74	2.092435
29	0x3f5421fe	0.8286437
30	0x3f2b0792	0.66808426
31	0xbf726ec1	-0.9470025
32	0x3f3dbba5	0.7411445
33	0xbe020e5c	-0.1270079
34	0xbfa2df22	-1.2724345
35	0x3ebc84a1	0.36819938
36	0x4035a249	2.83803
37	0xbf075685	-0.52866393
38	0x3f811283	1.0083774
39	0xbedeea1f	-0.43537995
40	0xbd6685ba	-0.056279875
41	0xbf277ed5	-0.65427905
42	0xb9923221	-0.0002788464
43	0xbe6ff3ca	-0.23432842
44	0xbe936e58	-0.28795123
45	0xbe8192fd	-0.25307456
46	0xbf16aa33	-0.58853453
47	0x3fd08e41	1.6293412
48	0x3e4c653e	0.19960496
49	0x3f89b6fc	1.0758967
50	0x3e2c09ac	0.16800565
51	0x3eaa2155	0.33228555
52	0xbfdd5aa1	-1.7293283
53	0x3f25059f	0.644617
54	0x3f7a70f3	0.97828597
55	0x3e17be5e	0.14818713
56	0x3e1dac63	0.15397792
57	0xbdf87a0a	-0.12132652
58	0x3f3d089f	0.7384128
59	0x3f6ac01d	0.9169939
60	0x3f77529f	0.96610445
61	0x3ec258f6	0.37958497
62	0x3f89fbbf	1.0779952
63	0xc046fd49	-3.1092093
64	0xbf1ea295	-0.6196683
65	0x3dc73da2	0.097285524
66	0xc007f6c7	-2.124437
67	0x404b53cf	3.1769903
68	0x3e95bc65	0.29245296
69	0x3f22ac4a	0.6354414
70	0x3f6c602a	0.92334235
71	0x3f423603	0.75863665
72	0xbd3a03f7	-0.045413937
73	0x3f9ddeef	1.2333659
74	0xbd48d9a0	-0.04903567
75	0xbd52eb07	-0.05149367
76	0xbf4f7c74	-0.81049275
77	0xbf1d2608	-0.61386156
78	0x3eb2bc68	0.34909368
79	0xbf3fbe27	-0.74899524
80	0xbcd34bda	-0.025793005
81	0x3e472cb8	0.19450653
82	0x3f040555	0.51570636
83	0x3e11790e	0.14206335
84	0x3f074899	0.5284515
85	0x3c093185	0.008373623
86	0xb900be43	-0.00012277909
87	0xbdb35c29	-0.087578125
88	0xbf81d716	-1.0143764
89	0xbeab3704	-0.3344041
90	0x3f67851a	0.9043747
91	0xbe4be0a1	-0.19909908
92	0xbf1fdd0d	-0.6244667
93	0xbea7c559	-0.32767752
94	0x3b82fa1d	0.003997101
95	0xbe7fe1b8	-0.24988449
96	0xbe2793a0	-0.16364908
97	0x3eec6f07	0.46178457
98	0xbdb9576d	-0.09049878
99	0xbfd91ff4	-1.6962876
100	0x3fdffc49	1.7498866
101	0xbedac521	-0.42728522
102	0xbf5e3a5b	-0.86807793
103	0x3ed92761	0.42412856
104	0x3f8c5308	1.0962839
105	0xbf80cc4d	-1.0062348
106	0x3f71c71f	0.9444446
107	0xbdd22a01	-0.10261918
108	0xbdf5c42b	-0.12000307
109	0xbf403cec	-0.7509296
110	0x3f9b8974	1.2151322
111	0x3cfd6678	0.03093265
112	0x3fec7223	1.8472332
113	0x3e4ff6b9	0.20308961
114	0x3f0921e4	0.5356734
115	0xbd0a021c	-0.033693418
116	0x3fb624b5	1.4229952
117	0xbf6e0c4b	-0.9298751
118	0xbf55b869	-0.8348451
119	0xbd0a8b4c	-0.03382425
120	0x3f618fc6	0.88110006
121	0x3e39b305	0.18134697
122	0xc0479629	-3.11854
123	0x3e131e26	0.1436697
124	0xbf3efe02	-0.74606335
125	0xbefafbba	-0.49020177
126	0x3f2aa280	0.66654205
127	0x3f37ab8d	0.7174614
128	0xbfc5f500	-1.5465393
129	0x4080f425	4.029803
130	0x3c0b4c8c	0.008502137
131	0x3f8b635d	1.0889698
132	0xbfa50549	-1.2892238
133	0x3ef9e38b	0.48806414
134	0xbee917e2	-0.45526034
135	0xbc85e672	-0.016345236
136	0xbf1cea39	-0.61294895
137	0x3f4ba653	0.79550666
138	0xbfe3ebcd	-1.7806336
139	0x3f3cdb4f	0.7377214
140	0xbeeb1b3b	-0.45919213
141	0xbdf0838c	-0.117438406
142	0xbeb86d33	-0.36020812
143	0x400e23ec	2.2209425
144	0xbe91a1ae	-0.28443664
145	0xbef83478	-0.4847753
146	0x3f57ee21	0.8434773
147	0x3fab6244	1.3389363
148	0x40488fe1	3.1337817
149	0xc00f3246	-2.2374434
150	0xbf3ab7b7	-0.72936577
151	0x3ebc0c47	0.36728117
152	0xbfeab0a6	-1.8335159
153	0xbfc1cc3d	-1.5140454
154	0x3f21b548	0.6316724
155	0x3f11c212	0.5693675
156	0xbf2941eb	-0.6611621
157	0xbf48919c	-0.7834718
158	0x3f5d8ee2	0.86546147
159	0xbdcadf8f	-0.09905922
160	0xbd48de3a	-0.049040057
161	0x3f945d54	1.1590981
162	0xbf22bb9e	-0.6356753
163	0xbde1ba7a	-0.11021896
164	0x401026c6	2.2523665
165	0xbf422651	-0.75839716
166	0x3cdbbb89	0.026822822
167	0xbf156e77	-0.5837168
168	0x3db6aef9	0.08920092
169	0x3f9da5be	1.2316206
170	0x3ea58358	0.3232677
171	0xbf80ac4f	-1.0052584
172	0xbec32b55	-0.38118997
173	0xbec17d62	-0.37790972
174	0x3f5e6161	0.8686734
175	0xbf27590e	-0.6537026
176	0xbf45b5b0	-0.7723036
177	0xbf481980	-0.7816391
178	0x3f9b1085	1.2114416
179	0xbf85c2cf	-1.0450076
180	0xbf221371	-0.63310915
181	0x3fa173c9	1.261346
182	0xbee73b50	-0.4516244
183	0xbed74e70	-0.4205203
184	0x3f1302e1	0.5742627
185	0x3c612dc2	0.01374382
186	0xbe8d2eb6	-0.275747
187	0xbfd5545d	-1.6666371
188	0x3da71ea1	0.08160139
189	0xbeb09aa8	-0.34492993
190	0x3ebc5494	0.36783278
191	0x3ec948a0	0.3931322
192	0x3ebf97b8	0.3742044
193	0xbec71098	-0.38879848
194	0xbee7cfdc	-0.45275772
195	0xbe923e0c	-0.28562963
196	0x3f43472a	0.7628046
197	0xbec8a6fb	-0.39189896
198	0xbeffbe4f	-0.4994988
199	0xbdac5ed3	-0.08416524
200	0x3f62198e	0.88320243
201	0x3f42703f	0.75952524
202	0x3f40bb53	0.75285834
203	0x3f3b9942	0.7328073
204	0xbe9cc5d9	-0.30619696
205	0xbf443eb8	-0.766582
206	0xbe025cba	-0.12730685
207	0xbba0ac77	-0.004903372
208	0x3f476b38	0.7789798
209	0x3f503471	0.8133002
210	0x3eeb665e	0.45976537
211	0xbf4e3d51	-0.8056231
212	0xbe75404e	-0.23950312
213	0x3f2d3e49	0.67673165
214	0x3f9524f1	1.1651899
215	0x3ff81dd3	1.9384102
216	0xbdcd61b0	-0.10028398
217	0xbf74db58	-0.9564719
218	0x3fd75105	1.68216
219	0x4001174c	2.017047
220	0xbf6b5b74	-0.9193642
221	0xc009c2d5	-2.1525166
222	0xbe63a5ee	-0.22231266
223	0x3e816ae4	0.25276864
224	0x3fbde7b0	1.483633
225	0xbd1b961d	-0.037984956
226	0xbf08a5ad	-0.533778
227	0x3f0a10a1	0.53931624
228	0x3f9b7708	1.21457
229	0xbe85da5c	-0.26143157
230	0xbd1e3930	-0.038628757
231	0xc0161877	-2.3452432
232	0x3fa5731f	1.2925757
233	0xbeebff90	-0.46093416
234	0x3cb534b8	0.022119865
235	0xbf89a77c	-1.0754237
236	0x3f7cf335	0.98808604
237	0x3cb0df4f	0.021590857
238	0x3eabba01	0.33540347
239	0x401422cf	2.3146245
240	0x3f8c029d	1.0938298
241	0xbf3d9ab8	-0.7406421
242	0x3f9098d1	1.1296636
243	0xbf8e1c47	-1.110238
244	0xbf66e8e8	-0.90199137
245	0xbf590b76	-0.84783113
246	0x3f8b1cb3	1.0868133
247	0xbf3226f2	-0.69590676
248	0x400c2b33	2.1901367
249	0xbfa019c0	-1.2507858
250	0xbe0d9566	-0.13826522
251	0x3f048649	0.517674
252	0xbf087fc3	-0.5331995
253	0xbebd3f84	-0.3696252
254	0x3ecc9a8c	0.3996166
255	0xbe95c361	-0.29250625

l3.bias f4 [4]
0	0x3de4f9e2	0.11180474
1	0x3d49b56c	0.049245283
2	0x3d403ebd	0.046934832
3	0x3e169882	0.14706615
