preTrained/500TD3_BipedalWalkerHardcore-v3_0_crtic_1.pth (torch_old, 529892 bytes, 5 tensors)

l1.weight f4 [400, 28]
0	0xbec4e8a9	-0.38458756
1	0x400c60e2	2.1934133
2	0xbf826c13	-1.0189232
3	0x3f8b1bb9	1.0867835
4	0xbee04009	-0.43798855
5	0xbd7e4645	-0.062078733
6	0x3eddc26a	0.4331239
7	0xbf02664f	-0.5093736
8	0xbeb8c839	-0.36090258
9	0xbf860cbf	-1.047264
10	0xbeaaea8c	-0.3338207
11	0xbe27ca0a	-0.16385666
12	0xbef43d04	-0.477028
13	0x3f03fa6d	0.51553994
14	0x3ec81039	0.39074877
15	0x3f08cae6	0.534346
16	0x3e92c0e4	0.2866279
17	0x3e6e1ba1	0.23252727
18	0x3f1bde52	0.6088611
19	0x3f38f75e	0.7225245
20	0x3e9e4f1d	0.30919734
21	0x3ee8fd12	0.45505577
22	0x3dfff2d3	0.12497487
23	0x3d905990	0.07048333
24	0xbf18bf99	-0.59667355
25	0xbd1838a2	-0.037163384
26	0xbe9686f6	-0.29399842
27	0xbf015c24	-0.5053122
28	0xbea034b2	-0.31290203
29	0xbda72762	-0.081618086
30	0xbf2c7ccb	-0.6737792
31	0xbf246380	-0.64214325
32	0x3f234705	0.6378024
33	0x3d2ff0e1	0.04295433
34	0xbf00089f	-0.50013155
35	0x3eea1eba	0.45726568
36	0x3e561501	0.2090645
37	0xbe0b2e2b	-0.1359183
38	0xbebba152	-0.36646515
39	0x3d2e54ee	0.042561464
40	0x3f629710	0.88511753
41	0xbebcd198	-0.36878657
42	0x3e8171d7	0.25282165
43	0x3e93dd8a	0.28879958
44	0x3e28fefb	0.16503517
45	0xbc8e23ad	-0.017350996
46	0xbe82f499	-0.25577238
47	0xbf258b39	-0.6466556
48	0xbe0fd1e7	-0.14044915
49	0xbe8669ed	-0.2625269
50	0xbe9616a0	-0.29314137
51	0xbccb68e4	-0.02483029
52	0xbb313687	-0.0027040557
53	0xbf0536f6	-0.5203699
54	0xbef0214b	-0.469004
55	0x3ecaca20	0.39607334
56	0xbfabcdf5	-1.3422228
57	0xbf961138	-1.1724005
58	0x3f86e7c8	1.0539484
59	0x3f68a3f6	0.90875185
60	0xbe032232	-0.12806013
61	0x3df1bc88	0.118035376
62	0x3ef581bd	0.47950545
63	0x3dec589a	0.11540337
64	0xbdae76e3	-0.085187696
65	0x3e096f1d	0.13421293
66	0xbe0df6a1	-0.13863613
67	0x3d447b47	0.04796913
68	0x3c4140a9	0.011795201
69	0x3e316ba9	0.17326225
70	0x3e5b5a7d	0.21421237
71	0x3f26ddb2	0.6518203
72	0x3f5180cf	0.8183717
73	0x3ecfa655	0.4055659
74	0x3f1c44a8	0.6104226
75	0x3ecde272	0.40211827
76	0x3daeff70	0.085448146
77	0xbd9dad57	-0.076990776
78	0xbdb78b7c	-0.089621514
79	0xbe01d971	-0.12680604
80	0x3dbd6430	0.09247625
81	0x3c7a3747	0.015271968
82	0xbc4952fa	-0.01228785
83	0x3dc2cb45	0.09511427
84	0xbe4e5da0	-0.20152903
85	0x3ee9e19d	0.45679942
86	0x3f001b8a	0.5004202
87	0x405c2923	3.4400108
88	0xbff02872	-1.8762343
89	0x3d933499	0.071877666
90	0xbe6afb9d	-0.22947545
91	0xbe057912	-0.13034466
92	0xbe9c3863	-0.3051177
93	0xbf177787	-0.5916676
94	0xbe8e3de4	-0.27781594
95	0x3eb2182b	0.34784064
96	0xbdd7a1d6	-0.10528915
97	0xbe0b101d	-0.13580365
98	0xbeab6055	-0.33471933
99	0x3eaecb47	0.34139463
100	0x3f7127c6	0.94201314
101	0x3ef6ace4	0.4817878
102	0xbdf3a885	-0.11897377
103	0xbeda8c18	-0.42685008
104	0xbeaf21e6	-0.3420555
105	0x3e9e57e5	0.30926433
106	0x3f2495a6	0.64290845
107	0x3ddcffa6	0.107909486
108	0x3f2498cd	0.64295655
109	0x3ead78f2	0.33881336
110	0x3c719009	0.014743813
111	0xbe8f18a7	-0.27948496
112	0xbefeca79	-0.4976385
113	0x3f3118e5	0.6917861
114	0xbe1857e0	-0.14877272
115	0xbf8e4f90	-1.111803
116	0x3f82d2d6	1.0220592
117	0x3e391d24	0.18077523
118	0x3edd52d0	0.43227243
119	0xbda2e8e5	-0.07954577
120	0xbd1bfc1e	-0.038082235
121	0xbf7808ae	-0.96888244
122	0xbdedf090	-0.11618149
123	0xbf00d924	-0.5033133
124	0xbe725a6e	-0.23667309
125	0xbd095ff7	-0.033538785
126	0xbe44653c	-0.19179243
127	0x3d524845	0.051338453
128	0xbe9a1e98	-0.30101466
129	0xbf41da5a	-0.75723803
130	0xbf0cefee	-0.55053604
131	0xbf1da376	-0.61577547
132	0x3db0b2c8	0.0862785
133	0xbed5475d	-0.41656008
134	0x3bfdcf7a	0.0077456804
135	0x3e1f23bc	0.15540975
136	0xbdcd61e1	-0.100284345
137	0xbdf5a86c	-0.119950145
138	0xbf146b41	-0.57976156
139	0xbdce42f2	-0.100713626
140	0x3fc4e06e	1.538099
141	0x406439de	3.566032
142	0x3f242948	0.6412549
143	0xbfbcde97	-1.4755429
144	0xbd94939d	-0.072547175
145	0x3e291cb1	0.16514851
146	0x3edcb631	0.4310775
147	0xbd7f70ad	-0.062363315
148	0xbe702fb7	-0.23455702
149	0x3f83f07e	1.0307767
150	0xbd4ff009	-0.050766025
151	0xbd87bb40	-0.06627512
152	0xbe89a1f9	-0.26881388
153	0x3f0d4fb4	0.5519974
154	0x3fc5922c	1.5435233
155	0x3ee4725a	0.44618493
156	0x3ed6dbbd	0.41964522
157	0xbe7a5f54	-0.24450427
158	0xbea56c6a	-0.32309276
159	0x3d5ffddc	0.05468546
160	0xbe17b358	-0.14814508
161	0xbd8448f4	-0.06459227
162	0xbe6a1af0	-0.22861838
163	0x3de7acc6	0.11312251
164	0x3e3d6541	0.18495657
165	0xbcada278	-0.021195635
166	0xbe3130a8	-0.17303717
167	0xbe5a2b0f	-0.21305488
168	0xbf8da42b	-1.1065725
169	0xbfb5d5a0	-1.4205818
170	0x3f1933ee	0.59844863
171	0xbf0bb81c	-0.54577804
172	0xbf070db6	-0.52755296
173	0x3e702994	0.23453361
174	0xbefd0d11	-0.4942403
175	0xbcf59033	-0.029975986
176	0xbd1f2e21	-0.03886235
177	0xbecd044d	-0.40042344
178	0xbe6aa725	-0.22915323
179	0xbb18164c	-0.002320665
180	0x3eea5ce7	0.45774004
181	0x3ec52c81	0.38510516
182	0xbecc4d55	-0.3990275
183	0xbe0bdc10	-0.13658166
184	0xbeece17c	-0.4626578
185	0xbd987fa9	-0.07446224
186	0x3e89e257	0.26930496
187	0xbdadfb3e	-0.08495186
188	0xbe6130d7	-0.21991287
189	0xbc8bb192	-0.017052446
190	0x3d145569	0.036214266
191	0xbe4978af	-0.19674943
192	0xbd87c097	-0.066285305
193	0xbe3769b0	-0.1791141
194	0x3cc8940f	0.024484662
195	0x3dfba870	0.12287986
196	0xbfc12ede	-1.5092428
197	0x3df4d38b	0.11954411
198	0x3f1fadea	0.62374747
199	0x3f129b0d	0.5726784
200	0xbfa1d0b6	-1.2641819
201	0x3eb9596d	0.3620104
202	0xbf9b8ad0	-1.2151737
203	0xbe4cf439	-0.20015039
204	0xbd235d04	-0.03988363
205	0xbe7c1930	-0.24618983
206	0x3dc1a8f3	0.09456053
207	0x3ecf9224	0.40541184
208	0x3e331725	0.17489298
209	0xbe33bf24	-0.17553383
210	0xbe852af6	-0.2600934
211	0x3d8e8a95	0.06960026
212	0x3f54312b	0.82887524
213	0x3f30e1fa	0.6909481
214	0x3e7a33bd	0.24433799
215	0x3cb9787c	0.02264046
216	0xbdefc187	-0.11706834
217	0xbe161396	-0.14655909
218	0x3e03d7ae	0.12875244
219	0xbf3af214	-0.7302563
220	0xbd4128f1	-0.047158185
221	0xbcf3c554	-0.02975718
222	0xbd13dd29	-0.036099587
223	0xba32aae8	-0.0006815628
224	0x3f3d012b	0.7382991
225	0x40226e9e	2.5380015
226	0xc023c61f	-2.5589674
227	0x3fc47b98	1.5350218
228	0xbe85f848	-0.26165986
229	0x3e066161	0.13123085
230	0x3cbd113b	0.023079505
231	0xbba02ef0	-0.004888408
232	0x3c9e46b9	0.019320833
233	0xbea8e275	-0.32985273
234	0x3e19b46d	0.15010233
235	0x3e87021f	0.26368806
236	0x3dadbb48	0.08482987
237	0x3e22ed61	0.15910865
238	0xbe91c4ae	-0.28470367
239	0xbe89b610	-0.26896715
240	0xbdd366cf	-0.103223436
241	0x3c43d3fd	0.011952397
242	0x3e6ffc96	0.23436198
243	0x3e1192fb	0.14216225
244	0x3ce46d97	0.027884288
245	0xbdafe7b6	-0.08589117
246	0xbcd6f668	-0.026240543
247	0x3ec82b35	0.39095464
248	0xbdb564fa	-0.088571504
249	0xbccf0a5f	-0.0252735
250	0xbe4484f1	-0.19191338
251	0x3d38b2bb	0.045092326
252	0x3f7ddae2	0.99162114
253	0x400dade9	2.2137396
254	0xbf8b2c79	-1.0872947
255	0xbea30417	-0.31839058

l1.bias f4 [400]
0	0xbf1a62fe	-0.603073
1	0x3eea1279	0.4571722
2	0xbebf167e	-0.37321848
3	0xbdb40ec4	-0.08791879
4	0x3e9aca94	0.3023268
5	0x3ea6a81d	0.32550135
6	0x3f834455	1.0255228
7	0x3eb75f86	0.35815066
8	0x3dcf523f	0.10123109
9	0xbf06d746	-0.5267223
10	0xbf294af2	-0.6612998
11	0xbf0e044d	-0.5547531
12	0xbe61d2f6	-0.22053131
13	0x3ea5cf45	0.32384697
14	0x3f9b8818	1.2150908
15	0xbf323267	-0.6960816
16	0x3df58ee3	0.11990144
17	0xbf43e609	-0.7652288
18	0x3e1db04b	0.15399282
19	0xbe49aa83	-0.19693951
20	0x3f489e18	0.7836623
21	0x3f12d760	0.57359886
22	0xbeb01907	-0.34394094
23	0xbf0c5cf2	-0.54829323
24	0x3c550d5c	0.013003673
25	0x3f8ea6a2	1.1144602
26	0xbf01ecb2	-0.50751793
27	0x3f89e135	1.0771853
28	0xbee97432	-0.45596462
29	0xbca9bced	-0.02071997
30	0xbcee7b67	-0.029111577
31	0xbef0aa1f	-0.47004792
32	0x3d637b2c	0.055537388
33	0x3e5a6bdf	0.21330212
34	0xbe3e5fcf	-0.18591236
35	0x3ee46c4f	0.44613883
36	0xbe663e1c	-0.2248463
37	0x3f31ecde	0.69502056
38	0x3df0c71e	0.117567286
39	0x3f1230bd	0.5710562
40	0xbe7e411f	-0.24829529
41	0xbf18421e	-0.59475887
42	0xbf132189	-0.57473046
43	0xbc3961d0	-0.011314824
44	0xbf37bea7	-0.7177529
45	0x3eada79b	0.33916935
46	0xbbad6429	-0.005291481
47	0x3e30ef40	0.17278767
48	0xbe22fe81	-0.15917398
49	0x3f4c4c86	0.79804265
50	0x3e69f7b4	0.22848397
51	0xbe5f7b4c	-0.21824378
52	0x3cf77ca3	0.030210799
53	0x3f591d60	0.8481045
54	0x3f1b582d	0.6068142
55	0xbf264271	-0.6494513
56	0x3e91d344	0.28481495
57	0xbe555e62	-0.20836785
58	0xbd81f752	-0.06346001
59	0xbf09f236	-0.5388521
60	0x3f31e3f5	0.6948846
61	0x3d9e5fd6	0.07733123
62	0xbca09c26	-0.019605707
63	0xbeb1975e	-0.34685796
64	0xbeb7fb03	-0.35933694
65	0x3eb71c06	0.35763568
66	0x3e2cb3d1	0.1686547
67	0xbe84201b	-0.25805745
68	0xbbb827db	-0.0056199855
69	0xbd83f8ec	-0.064439625
70	0x3ee245d7	0.4419391
71	0x3f8ca17c	1.0986781
72	0x3f3b239e	0.7310122
73	0x3e059199	0.13043822
74	0x3ed89ad7	0.42305633
75	0x3f1caa84	0.61197686
76	0x3f815d2e	1.0106561
77	0x3f68f75d	0.91002446
78	0xbf4017d6	-0.7503637
79	0xbe89c482	-0.26907736
80	0xbdea913c	-0.114534825
81	0x3e0aa38d	0.13538952
82	0x3edca48a	0.43094283
83	0xbf0fa3eb	-0.56109494
84	0x3f5c7cb5	0.8612779
85	0xbed26696	-0.41093892
86	0x3e2a8048	0.16650498
87	0xbe8ea4e5	-0.2786018
88	0x3d805cc6	0.06267695
89	0xbf1b8779	-0.6075359
90	0xbeb65500	-0.35611725
91	0x3f590164	0.84767747
92	0xbf03971d	-0.51402456
93	0x3dcaba8c	0.09898862
94	0x3f57a08d	0.84229356
95	0x3eb4d3b1	0.35317758
96	0x3f73cb90	0.95232487
97	0xbdeb412b	-0.11487039
98	0xbcde073d	-0.02710306
99	0xbe8c00c5	-0.27344337
100	0xbee786f0	-0.45220137
101	0xbf46dc79	-0.77680165
102	0xbeca11c2	-0.39466673
103	0x3da19de2	0.07891442
104	0x3f0aaa94	0.5416653
105	0xbea3f068	-0.32019353
106	0x3e09957b	0.13435929
107	0x3f0dd1f2	0.55398476
108	0x3ecc011f	0.39844605
109	0xbe25e261	-0.16199638
110	0x3ea3e392	0.3200956
111	0xbf2f358e	-0.6844109
112	0xbf761945	-0.9613231
113	0xbee706aa	-0.45122272
114	0x3e13debf	0.1444044
115	0xbf04982e	-0.5179471
116	0x3f2d2af6	0.6764368
117	0xbd6626d5	-0.056189377
118	0x3de0b356	0.109717056
119	0x3ee32e13	0.4437109
120	0x3d927961	0.071520574
121	0x3f202003	0.62548846
122	0x3f84dd0b	1.0379957
123	0x3f20c37f	0.62798303
124	0x3de8911d	0.11355803
125	0xbe8b12f1	-0.2716289
126	0x3e4c08fc	0.19925302
127	0xbf0fd10d	-0.5617836
128	0xbf565faf	-0.8373975
129	0xbdc920fe	-0.09820746
130	0xbf331e74	-0.6996834
131	0x3eb0530f	0.3443837
132	0xbf0d2c70	-0.5514593
133	0x3dd401f1	0.10351933
134	0xbf2c213c	-0.6723821
135	0x3e5f5d53	0.21812944
136	0x3f370169	0.71486527
137	0xbf377af4	-0.71671987
138	0xbcd952a1	-0.026528658
139	0xbb07abfb	-0.0020701874
140	0xbed060ef	-0.40698954
141	0x3ef036b0	0.46916723
142	0x3eb5ce26	0.3550884
143	0xbef812fa	-0.48451978
144	0xbdcdd940	-0.10051203
145	0x3c80681d	0.015674645
146	0xbefb376e	-0.49065727
147	0x3ed0aebd	0.40758315
148	0xbe5633b1	-0.20918156
149	0x3f4c72b8	0.79862547
150	0xbe396ff4	-0.18109113
151	0xbf134ebc	-0.57542014
152	0x3f16f27a	0.5896374
153	0xbf18ad5c	-0.59639525
154	0x3eb3646f	0.35037562
155	0xbaf77b3b	-0.001888133
156	0x3f785285	0.97000915
157	0x3e1ee76a	0.15517965
158	0x3ebdfb4f	0.37105796
159	0xbf3b1ab1	-0.730876
160	0xbf06c8b3	-0.5264999
161	0xbf15286c	-0.58264804
162	0x3f1a5162	0.6028043
163	0x3f80cf8a	1.0063336
164	0xbedaefb1	-0.42760995
165	0xbea714f2	-0.32633168
166	0xbe3946f2	-0.1809347
167	0xbe896107	-0.26831838
168	0x3e9796ec	0.29607332
169	0xbd669737	-0.056296553
170	0x3ee8b08f	0.45447204
171	0xbe9b0b1d	-0.30281916
172	0xbefcd488	-0.49380898
173	0xbe5900a0	-0.21191645
174	0x3cb089df	0.021550117
175	0x3ed0ffee	0.4082026
176	0xbe8ef897	-0.27924034
177	0xbf43fa74	-0.76554036
178	0x3f38f53f	0.72249216
179	0x3c39d691	0.0113426605
180	0x3f7180de	0.9433726
181	0x3e7373a4	0.23774582
182	0x3f34cad7	0.7062201
183	0xbe2eb15c	-0.17059845
184	0xbe1ff002	-0.156189
185	0x3f6f48eb	0.9347064
186	0x3e6fbeec	0.23412675
187	0x3c0e9c4a	0.008704254
188	0x3f398cdd	0.72480565
189	0x3e2ef4db	0.17085592
190	0x3e55d563	0.20882182
191	0xbecaa2e5	-0.39577404
192	0xbf245640	-0.6419411
193	0x3f807055	1.0034281
194	0xbe71b658	-0.23604715
195	0xbee0c1b9	-0.438978
196	0x3f9c500d	1.221193
197	0x3e3595ce	0.17732927
198	0x3f948ad5	1.1604868
199	0xbedd7f2e	-0.43261093
200	0x3d09aa47	0.033609655
201	0x3f6f42d1	0.9346133
202	0x3c9d2b74	0.01918576
203	0x3f31f62d	0.6951626
204	0xbe91b56d	-0.2845873
205	0x3e5d8f35	0.2163666
206	0xbf3df7f8	-0.74206495
207	0x3e967b86	0.29391116
208	0x3eeff0fe	0.4686355
209	0xbf119078	-0.56861067
210	0x3cec4fe3	0.028846687
211	0xbe324738	-0.1740998
212	0xbf026f1b	-0.50950783
213	0x3f603d7f	0.87593836
214	0x3f743f84	0.9540942
215	0x3f6600b8	0.89844847
216	0x3ec4a559	0.384074
217	0x3c101c61	0.008795829
218	0x3f224b77	0.633964
219	0x3f2a2e2c	0.664767
220	0xbf001851	-0.50037104
221	0x3e094b1a	0.13407555
222	0x3ef9ce14	0.48790038
223	0xbd402c30	-0.04691714
224	0x3f026150	0.5092974
225	0xbd81ef83	-0.06344511
226	0x3e9af583	0.30265436
227	0xbe2a1387	-0.16609012
228	0xbef47355	-0.4774424
229	0xbf6e088a	-0.9298178
230	0xbe3a604d	-0.18200798
231	0x3f20df16	0.628404
232	0x3f5c2530	0.85994244
233	0xbe89f6d2	-0.2694612
234	0x3eb5fae9	0.35542992
235	0x3ee78d21	0.4522486
236	0x3f2de688	0.6792989
237	0x3f58b22b	0.8464686
238	0x3e02b84d	0.12765618
239	0xbde6c17c	-0.11267373
240	0x3d673b69	0.056453142
241	0x3f62df18	0.88621664
242	0xbdbcb5e8	-0.09214383
243	0xbe8849a5	-0.26618686
244	0x3f0ed7bc	0.55797935
245	0x3e950334	0.29104006
246	0xbf015855	-0.5052541
247	0xbef54a1f	-0.47908112
248	0x3e887c3f	0.26657292
249	0xbcbf9598	-0.023386762
250	0x3f2cb948	0.67470217
251	0xbbc0f9bb	-0.005889145
252	0xbf113f2b	-0.5673701
253	0xbe383d4f	-0.17992137
254	0xbf511f8a	-0.8168875
255	0x3e576420	0.21034288

l2.weight f4 [300, 400]
0	0x3ec5ab39	0.38607195
1	0x3e128cd4	0.14311534
2	0x3e28340c	0.16426104
3	0xbdc356e4	-0.095380574
4	0x3e0a0133	0.1347702
5	0x3e49ee2e	0.19719765
6	0xbf31bc66	-0.694281
7	0xbec91ec5	-0.39281288
8	0x3e44d3a0	0.19221354
9	0x3d88f329	0.06687004
10	0xbd049473	-0.032368135
11	0x3e84bdb5	0.25925985
12	0xc03342b5	-2.8009465
13	0x3c915fac	0.017745815
14	0x3eb28db4	0.34873736
15	0x3d5e2e23	0.05424322
16	0xbe27a384	-0.1637097
17	0x3eb41dae	0.35178894
18	0x3f13673f	0.57579416
19	0x3f93ae66	1.1537597
20	0x3e4066e9	0.18789257
21	0x3e5c940f	0.21540855
22	0x3f1c67f6	0.6109613
23	0x3d80b3a4	0.06284264
24	0x3e51ad3c	0.2047624
25	0xbe9f11ad	-0.31068173
26	0xbf403c42	-0.75091946
27	0xbeb1e0b8	-0.3474176
28	0xbe82bc60	-0.25534344
29	0x3f923b35	1.1424319
30	0xbe7a06c5	-0.24416645
31	0xbe0ac46d	-0.13551493
32	0x3eb19f2c	0.3469175
33	0x402edd02	2.7322392
34	0x3dcd8905	0.100359
35	0xbdb20d73	-0.086939715
36	0xbf4154da	-0.755201
37	0x3f1d68d3	0.61488074
38	0x3e4700f9	0.19433965
39	0x3e50d1d3	0.20392542
40	0x3f221d98	0.63326406
41	0xbe4a7775	-0.19772132
42	0x3ee4b0b6	0.4466607
43	0xbf0251d6	-0.5090612
44	0xbfe0abc0	-1.7552414
45	0x3d8283c1	0.06372786
46	0x3e9fdd42	0.31223494
47	0x3ea109d3	0.31452808
48	0x3de09896	0.109666035
49	0xbea585ca	-0.32328635
50	0x3e92ce70	0.28673124
51	0xbe739fa6	-0.2379137
52	0x3e8619f4	0.26191676
53	0xbcf82a3c	-0.030293576
54	0xbe5fa844	-0.21841532
55	0x3bd6feab	0.0065611205
56	0x3f38d068	0.72193
57	0x3eca7f7a	0.39550382
58	0x3e76debc	0.24108404
59	0x3b5283c9	0.0032122007
60	0x3f33f73e	0.70299137
61	0x3e0af1d7	0.13568817
62	0x3d95632d	0.07294307
63	0xbd5fc514	-0.054631308
64	0xbed9f263	-0.4256774
65	0x3c498065	0.012298678
66	0xbf1e05d5	-0.6172765
67	0x3eb0ad99	0.34507445
68	0x3df70e88	0.120633185
69	0x3e71a40a	0.23597732
70	0xbe7c16fc	-0.24618143
71	0xbc2b9703	-0.010473016
72	0xbc9ec286	-0.019379865
73	0xbe9230e4	-0.28552926
74	0x3e6653bf	0.22492884
75	0xbddc0c5b	-0.10744544
76	0xbf1462a0	-0.5796299
77	0x3e61bc07	0.22044383
78	0x3e9e598c	0.30927694
79	0x3b913cdb	0.0044323034
80	0x3846fb43	4.7440884e-05
81	0xbe663ce1	-0.22484161
82	0x3da760e1	0.08172775
83	0xbb725707	-0.0036978142
84	0x3e853329	0.26015595
85	0xbcad4f97	-0.021156115
86	0xbe557ecd	-0.20849152
87	0xbc8c0970	-0.017094344
88	0xbd99429c	-0.07483408
89	0x3f2cdc32	0.6752349
90	0x3ebe32fa	0.37148267
91	0xbd94e984	-0.07271102
92	0xbf199f8a	-0.6000906
93	0x3ec66cef	0.38754985
94	0xbf345c1b	-0.7045304
95	0xbe992fc0	-0.29919243
96	0x3f75988e	0.95935905
97	0xbf1692c6	-0.5881771
98	0x3f4a7c0d	0.79095536
99	0xbfb8478b	-1.4396833
100	0x3e3141fd	0.17310329
101	0x3dc85d69	0.097834416
102	0xbe9290c6	-0.28626078
103	0x3ff8cb76	1.9437091
104	0xbe50c5fc	-0.20388025
105	0xbe8374df	-0.25675103
106	0x3ef4be11	0.4780126
107	0xbe4acab1	-0.19803883
108	0xbea2ab57	-0.31771347
109	0x3e1927bb	0.14956562
110	0x3ff2d5bb	1.8971475
111	0xbf6c323a	-0.9226414
112	0x3d3402ba	0.043947913
113	0x3eb2aba4	0.34896576
114	0x3e0d38ce	0.137912
115	0xbfed9f04	-1.8564153
116	0xbe878b98	-0.2647369
117	0x3d2721fd	0.040803898
118	0x3d4f0a79	0.050547097
119	0xbfebc656	-1.8419902
120	0x3d274606	0.040838264
121	0x3f07e4c3	0.5308344
122	0xbe6d59c1	-0.2317877
123	0x3d8be0be	0.068299755
124	0xbe81eac3	-0.2537442
125	0x3e888573	0.26664314
126	0x3f458d25	0.77168494
127	0x3e0db43d	0.13838287
128	0xbb88e371	-0.0041775038
129	0x3ec3376b	0.38128218
130	0xbe94c509	-0.29056576
131	0xbe9c25be	-0.30497545
132	0xbf491cab	-0.7855937
133	0x3f2afae6	0.6678909
134	0x3e2f4762	0.17117074
135	0x3e9ddbaf	0.30831668
136	0xbeb9a9f4	-0.36262476
137	0x3f15a404	0.58453393
138	0x3e5c324f	0.21503566
139	0xbfba370b	-1.4548048
140	0x3f61b83d	0.8817175
141	0x3da02ac9	0.078206606
142	0x3f202d89	0.6256948
143	0x3e42a9ce	0.19010088
144	0x3f22718e	0.6345452
145	0x3ed89e18	0.42308116
146	0xbe6ef70f	-0.23336433
147	0xbc9fb612	-0.019495998
148	0xc0239ca6	-2.556436
149	0x3c8de25f	0.017319856
150	0x3db5cae2	0.088765875
151	0x3db36ffd	0.087615944
152	0xbe476f57	-0.19476067
153	0x3e874b41	0.26424602
154	0xbfe18119	-1.7617522
155	0x3f290953	0.6602985
156	0x3f14f63a	0.5818821
157	0x3df1b31a	0.11801739
158	0x3f1612af	0.5862226
159	0x3e932b41	0.28743938
160	0xbe978795	-0.29595628
161	0x3e27bfa8	0.16381705
162	0xbdba4415	-0.09095017
163	0xbe440f55	-0.19146474
164	0xbd106100	-0.035248756
165	0x3e90d664	0.28288567
166	0x3cd42cac	0.025900207
167	0xba001539	-0.0004885975
168	0xbd85e522	-0.06537844
169	0xbefc2f8e	-0.4925503
170	0x3f39d8c2	0.7259637
171	0x3d149b0d	0.03628068
172	0x3d898b5c	0.06716034
173	0x3f5c97cf	0.8616914
174	0x3e744690	0.23855042
175	0xbf8a0da9	-1.0785419
176	0x3dde28d2	0.108476296
177	0xbe111a0f	-0.14170097
178	0xbf0e6cd5	-0.55634815
179	0x3cb3055f	0.021853147
180	0xbf1edeb2	-0.62058556
181	0x3f1c942d	0.611636
182	0xbf18e90d	-0.5973061
183	0x3edd5d5b	0.43235287
184	0xbe16c6e2	-0.14724305
185	0xbfa25592	-1.2682364
186	0xbec6e619	-0.38847426
187	0xbfbf190f	-1.4929522
188	0x3ee5bdfe	0.44871515
189	0xbf1a6b53	-0.60320014
190	0xbeb7a41c	-0.35867393
191	0x3dd0856f	0.101817004
192	0xbedbae3e	-0.42906374
193	0xbe95730b	-0.29189333
194	0x3d194c4b	0.037426274
195	0xbe0ece57	-0.139459
196	0x3e8807cb	0.26568446
197	0xbf773541	-0.96565634
198	0xbf2c71e4	-0.67361283
199	0x3dc2684f	0.094925515
200	0x3e09e3e5	0.13465841
201	0x3eb0f4ed	0.34561864
202	0xbf275cd3	-0.65376014
203	0x3fdf7c73	1.7459854
204	0x3f22e840	0.63635635
205	0x3be9ac4b	0.0071311346
206	0x3d9728a3	0.07380798
207	0x3ed62ca6	0.4183094
208	0x3d62b484	0.055347934
209	0x3e739d7c	0.23790544
210	0xbb32e0b0	-0.0027294569
211	0x3ef5951d	0.47965327
212	0x3f0d2057	0.5512747
213	0x3efd4c6c	0.49472368
214	0xbeff3a2a	-0.49849063
215	0x3c81ef3f	0.015861152
216	0xbf50c7d7	-0.8155493
217	0x3edb1a3f	0.42793462
218	0x3f275a4c	0.6537216
219	0xbf2acd93	-0.6671993
220	0x3da9f537	0.08298724
221	0xbeae3988	-0.34028268
222	0x3e29ef3a	0.16595164
223	0xbd27bb46	-0.040950082
224	0x3e903f8a	0.28173476
225	0x3e835d65	0.25657192
226	0x3eaeb836	0.34124917
227	0x3ede31af	0.4339728
228	0xbda458b4	-0.08024731
229	0x3eb3942e	0.3507399
230	0x3e98d856	0.2985255
231	0x3ed4b544	0.41544545
232	0x3ebd6c2f	0.369966
233	0xbf021415	-0.5081189
234	0xbdfced8f	-0.12349998
235	0xbf360ad6	-0.71110284
236	0x3fa46efd	1.2846371
237	0xbf3d773d	-0.7401007
238	0xbf0ea884	-0.55725884
239	0x3eea0912	0.45710045
240	0x3dda40d5	0.10656897
241	0x3dad6f62	0.0846851
242	0x3f038dec	0.5138843
243	0xbe75444a	-0.23951831
244	0x3f0492b1	0.51786333
245	0x3d2123bd	0.039340723
246	0x3ee5b2c3	0.44862947
247	0x3da01e21	0.07818247
248	0xbf119122	-0.5686208
249	0x3ec81e8f	0.39085814
250	0x3e2a9edf	0.16662167
251	0x3d64ac14	0.05582817
252	0x3e895e22	0.2682963
253	0xbdd69310	-0.10477269
254	0x3f39f1ca	0.72634566
255	0xbe38cd05	-0.18046959

l2.bias f4 [300]
0	0x3e822da1	0.25425437
1	0x3f16edb1	0.5895644
2	0xbe8f8b8e	-0.2803616
3	0x3dae16c7	0.08500438
4	0x3f2296a2	0.635111
5	0x3e42d31b	0.19025843
6	0x3e28bc42	0.16478065
7	0x3eb4b779	0.3529623
8	0xbc0015a0	-0.007817656
9	0xbdd82150	-0.10553229
10	0x3f5ef1a3	0.8708746
11	0x3ee3926d	0.44447652
12	0x3e81c2bf	0.25343892
13	0x3f004056	0.5009817
14	0xbe134bb5	-0.14384349
15	0x3ddec243	0.10876896
16	0xbee014bd	-0.43765822
17	0x3dcf32ae	0.10117088
18	0x3ebf1950	0.37324
19	0xbe318b34	-0.17338258
20	0xbe92e573	-0.2869068
21	0x3f3666d4	0.71250653
22	0x3c66cc49	0.014086791
23	0x3f3f748c	0.7478721
24	0xbc1994c9	-0.009373852
25	0x3f595db4	0.84908605
26	0x3ebe7a0f	0.37202498
27	0x3e153aab	0.14573161
28	0x3e980512	0.29691368
29	0x3e11dded	0.14244814
30	0x3e063136	0.1310471
31	0x3be057b1	0.006846391
32	0xbe1a564d	-0.15071984
33	0x3ef6256d	0.4807543
34	0x3ed1dca0	0.40988636
35	0xbd156e47	-0.03648212
36	0x3ec23502	0.37931067
37	0xbbc7f1aa	-0.0061018066
38	0x3e42e229	0.19031586
39	0xbcee3beb	-0.029081305
40	0x3ddfbf8a	0.10925205
41	0x3f0e25a2	0.55526173
42	0x3f278885	0.6544269
43	0xbe40a4e3	-0.188129
44	0x3f1606c3	0.5860407
45	0x3e1f6e77	0.15569483
46	0x3e33bdbd	0.17552848
47	0xbce7fa35	-0.02831755
48	0x3f297b90	0.66204166
49	0x3e6263d4	0.22108394
50	0x3e9b4423	0.30325422
51	0x3e51591b	0.20444147
52	0x3c56e302	0.013115646
53	0xbcd3eb65	-0.02586908
54	0x3dde66b9	0.108594365
55	0xbe0b59e4	-0.1360851
56	0x3c136f98	0.008998774
57	0x3f3f35e0	0.7469158
58	0xbb8aaac9	-0.004231785
59	0x3e195104	0.14972311
60	0x3b10cd77	0.0022095123
61	0x3cdf141a	0.027231265
62	0x3f17b06c	0.59253573
63	0x3ef4dd24	0.47824967
64	0x3e56e1d9	0.20984592
65	0xbd0c4d99	-0.03425369
66	0x3d8cc29e	0.06873058
67	0xbd5c9664	-0.05385436
68	0x3f0e8196	0.5566648
69	0xbdc81e56	-0.09771411
70	0xbd4d88c2	-0.05017925
71	0x3eabeb63	0.33578023
72	0x3e4534b1	0.19258381
73	0x3f3236d7	0.6961493
74	0x3e7e2d9b	0.24822085
75	0x3f491371	0.7854529
76	0x3e4a19ba	0.19736376
77	0x3e1b66b9	0.15175904
78	0x3c26346b	0.010144333
79	0x3f32c8b6	0.6983751
80	0x3f16ac94	0.58857083
81	0x3d8a6573	0.06757631
82	0xbc2f71e8	-0.01070831
83	0x3e8ed3a1	0.27895835
84	0x3c6e39b1	0.014540122
85	0xbd1ab67d	-0.03777169
86	0x3e55eb64	0.20890576
87	0x3c681dcd	0.014167261
88	0xbe09231b	-0.13392298
89	0x3d8898be	0.06669758
90	0x3f216669	0.6304689
91	0xbbc4d98a	-0.006007378
92	0xbd1e83ec	-0.03870003
93	0x3bb413d4	0.0054955278
94	0xbcf7bb41	-0.030240657
95	0x3f100903	0.5626375
96	0x3efc117c	0.4923209
97	0x3b64e0e6	0.003492409
98	0xbe27ed52	-0.16399124
99	0x38ecb35f	0.000112867674
100	0x3f23db24	0.6400626
101	0x3e3bde28	0.18346465
102	0x3e78e360	0.24305487
103	0xbe876cd1	-0.26450208
104	0x3d8a0adb	0.06740352
105	0x3e23285f	0.15933369
106	0x3f0e87d3	0.55676
107	0x3eb1fe0d	0.34764138
108	0x3e5b4e26	0.2141653
109	0x3cb7a55b	0.022417715
110	0xbcb251ca	-0.021767516
111	0x3db86f49	0.09005601
112	0x3e82e20a	0.2556308
113	0x3e0ded45	0.13860042
114	0x3f0cdb22	0.5502187
115	0xbc1c1b02	-0.009527924
116	0x3e4f1e3c	0.20226377
117	0xbdc8ae19	-0.097988315
118	0x3e1b4eb5	0.15166743
119	0x3dd05c12	0.10173811
120	0x3e34e07b	0.17663758
121	0x3bcb952d	0.0062128515
122	0x3ea5b906	0.32367724
123	0x3c1cadea	0.009562949
124	0x3ec8c319	0.39211348
125	0x3e707eeb	0.23485915
126	0x3da4254c	0.08014926
127	0x3e1fdb01	0.15610887
128	0xbea51a41	-0.32246593
129	0x3efbe137	0.49195263
130	0x3e4f44f6	0.2024115
131	0xbc51eade	-0.012812344
132	0x3e95104a	0.2911399
133	0xbda7003d	-0.08154342
134	0x3f0be132	0.54640496
135	0x3e58a34b	0.21156041
136	0x3da480be	0.08032368
137	0x3eeffdb0	0.46873236
138	0xbcd8f2a2	-0.026482884
139	0x3f25e916	0.64808786
140	0x3e5ba0ee	0.21448109
141	0x3ec309c0	0.38093376
142	0x3e49e914	0.19717818
143	0x3f09a70a	0.53770506
144	0x3caa01bd	0.020752782
145	0xbe55d1ce	-0.20880815
146	0x3c214dde	0.009845225
147	0xbd7bb53b	-0.06145213
148	0x3ea01fc0	0.31274223
149	0xbc48ba09	-0.0122513855
150	0x3edb2c24	0.42807114
151	0x3d212b3c	0.039347872
152	0x3ee4af07	0.44664785
153	0x3f086c56	0.5329031
154	0xbed5f9f6	-0.41792268
155	0x3e09a0de	0.13440272
156	0x3e9b180b	0.3029178
157	0x3f1fb8aa	0.6239115
158	0xbe4e5aab	-0.20151775
159	0xbe80088d	-0.25006524
160	0xbe38370a	-0.17989746
161	0x3ecbb390	0.39785433
162	0x3ef081ab	0.4697393
163	0x3f4eef46	0.8083385
164	0x3d0b25ed	0.033971716
165	0x3dece045	0.115662135
166	0x3ed31fab	0.41235098
167	0x3f011753	0.50426215
168	0x3f0c9870	0.549201
169	0x3cace384	0.021104582
170	0x3dcbf166	0.099581525
171	0xbd276aad	-0.04087322
172	0x3e69d7f4	0.22836286
173	0xbcb9dd3e	-0.022688504
174	0x3ecf51d1	0.40492108
175	0xbdefea17	-0.11714571
176	0x3e7b2e87	0.24529468
177	0x3f0da01c	0.5532243
178	0x3ee66058	0.4499538
179	0xbd55a895	-0.052162725
180	0x3e9877d6	0.29778928
181	0x3f0d96d3	0.55308264
182	0xbe780fe0	-0.24224806
183	0x3ce04b11	0.027379544
184	0x3f52b74f	0.82310957
185	0x3ece1bf8	0.40255713
186	0xbeeb92cb	-0.46010432
187	0x3e43fafb	0.1913871
188	0x3f2e18c1	0.6800652
189	0x3f2d5e04	0.6772158
190	0x3ef375c6	0.47550792
191	0xbc8e2e9d	-0.017356211
192	0xbdda4627	-0.10657912
193	0xbb4003c4	-0.002929912
194	0x3e5769b7	0.21036421
195	0x3e1510b4	0.14557153
196	0xbcb08837	-0.021549327
197	0x3e1d88b6	0.15384182
198	0x3dc15e25	0.09441785
199	0xbda06fe4	-0.078338414
200	0x3f069103	0.5256502
201	0xbe839eda	-0.25707132
202	0x3ef9b88e	0.48773617
203	0xbe16029a	-0.1464943
204	0x3c80b724	0.015712328
205	0x3e94d8ea	0.29071742
206	0x3dcda826	0.100418374
207	0x3d3c31f6	0.045946084
208	0xbc2baae5	-0.010477756
209	0x3ef29f0c	0.47386968
210	0x3f0048fc	0.50111365
211	0x3ee915e6	0.4552452
212	0xbe0c1a3f	-0.13681887
213	0x3f1d4f9d	0.61449605
214	0x3e927e1b	0.28611836
215	0xbe011b62	-0.12608102
216	0x3ebe0156	0.37110394
217	0x3e8f5874	0.27997172
218	0x3f5bdccf	0.858838
219	0x3e255fa9	0.16149773
220	0x3e3cb3f5	0.18428023
221	0x3b213d68	0.0024603251
222	0x3e507af7	0.20359407
223	0xbdeb3f0f	-0.11486637
224	0xbc92cef8	-0.017920956
225	0xbdb7dd31	-0.08977736
226	0x3d7b62a8	0.061373383
227	0x3f03b75e	0.5145167
228	0x3e36aab6	0.17838559
229	0x3c99df04	0.0187831
230	0x3f37b855	0.71765643
231	0x3c352aba	0.01105755
232	0xbd1deae8	-0.038554102
233	0x3dc66f49	0.09689195
234	0x3f2676cb	0.65025014
235	0xbd303511	-0.043019358
236	0x3f5fd8a1	0.87439924
237	0x3c9aecb1	0.018911691
238	0x3e3b19d6	0.18271574
239	0x3d966b0e	0.07344638
240	0x3ec2c935	0.38044134
241	0x3ea6ab8d	0.32552758
242	0xbdf8a806	-0.12141423
243	0xbd35ab0f	-0.044352587
244	0x3ec359d6	0.38154477
245	0x3ed041e8	0.40675282
246	0xbcdaf7ba	-0.026729453
247	0x3e177ae3	0.14792971
248	0x3eb909e4	0.36140358
249	0x3d17b56f	0.037038263
250	0x3eb18865	0.34674373
251	0x3ecde1b6	0.40211266
252	0xbca0579a	-0.019573022
253	0x3e8bf8b4	0.27338183
254	0x3f153caf	0.5829572
255	0xbdc0420c	-0.093875974

l3.weight f4 [1, 300]
0	0x3fa8c159	1.3184005
1	0xc03d5bab	-2.95872
2	0xc0a82e77	-5.255672
3	0xc0207514	-2.507146
4	0x40bf8b37	5.985744
5	0x3fa724a1	1.3058053
6	0x408dde47	4.4333835
7	0xc0c2af25	-6.08388
8	0xbf8a22a7	-1.0791825
9	0x4014e29b	2.326331
10	0x40f6ae72	7.7087946
11	0xc08aeecb	-4.3416495
12	0x40b171a2	5.545121
13	0xc056702e	-3.350597
14	0xbf7f3b9f	-0.9970035
15	0x3f9d33f0	1.2281475
16	0xbfce4cda	-1.6117203
17	0xbffea982	-1.989548
18	0xc0abed3d	-5.3727098
19	0xbf5ad5c1	-0.8548241
20	0xc08666ae	-4.200034
21	0x40762427	3.8459566
22	0xbff6ff2b	-1.9296621
23	0xc09c6115	-4.886851
24	0xbe858c3e	-0.2608356
25	0x4055c44e	3.3401065
26	0xc0992815	-4.786143
27	0xbf97c204	-1.1856084
28	0x3ff82ce3	1.9388698
29	0x3fe71123	1.8052105
30	0x40093baa	2.1442666
31	0x3c8c7f1f	0.01715046
32	0xbf48c49d	-0.7842501
33	0xc074b57b	-3.8235767
34	0x40908aaa	4.516927
35	0xbf73290e	-0.9498452
36	0x40a9d562	5.3072977
37	0xbb15bdbc	-0.0022848686
38	0xbffba8c4	-1.9660878
39	0xbf98385a	-1.1892197
40	0xc092f3de	-4.592269
41	0x40dc570c	6.885626
42	0x40159685	2.337312
43	0xbf7ad123	-0.9797537
44	0x409e100f	4.9394603
45	0xbfce6f15	-1.612765
46	0x409e5daf	4.948936
47	0x3fd2b0fc	1.6460261
48	0xc0939f08	-4.613163
49	0xc001beb1	-2.0272639
50	0xc0abd0d7	-5.369243
51	0xc012e2df	-2.295097
52	0x3ba76037	0.0051079053
53	0xc01ea1ce	-2.4786258
54	0x40658736	3.5863776
55	0x3fda5bd2	1.7059271
56	0xbec0d543	-0.37662706
57	0x3fcd2a29	1.6028491
58	0x3c8c54d6	0.017130297
59	0xc04d07c1	-3.2035983
60	0xbf698eeb	-0.912337
61	0xbebb6e52	-0.36607605
62	0x40b706fc	5.7196026
63	0x40b6af4a	5.7088976
64	0x3f43d88f	0.7650232
65	0xbe5b9c19	-0.21446265
66	0xbfc55428	-1.5416307
67	0xc00c89c6	-2.195909
68	0x400170ef	2.022518
69	0xbf2e6d30	-0.68135357
70	0xbf3845dc	-0.71981597
71	0x40c419f6	6.128169
72	0xc0831241	-4.0959783
73	0x400f802c	2.242198
74	0xc0c04ce7	-6.0093875
75	0x40e25897	7.073314
76	0xc002a928	-2.0415745
77	0x3fd141a5	1.6348158
78	0xbeb75aa6	-0.35811347
79	0x40f23a0b	7.5695853
80	0xc09ea9ae	-4.958213
81	0x400c19f0	2.189083
82	0x3d2d2bd7	0.042278137
83	0xc0c5d804	-6.182619
84	0xc0635fe1	-3.552727
85	0xbaa4f0a2	-0.0012583921
86	0xc0133990	-2.3003883
87	0x3fd95746	1.6979759
88	0xbf576184	-0.8413317
89	0xc06777f9	-3.6166975
90	0x402d78e8	2.7105045
91	0x3d4beea5	0.049788136
92	0xbd226221	-0.039644364
93	0xbfd58459	-1.6681014
94	0xbf0dc003	-0.5537111
95	0x40cb5106	6.3536406
96	0x401b991c	2.43122
97	0x3faded43	1.3588032
98	0xbf5cb2a5	-0.8621009
99	0x408c1edf	4.3787684
100	0xc0d13a96	-6.5384016
101	0xc0124f3e	-2.2860866
102	0x4031cf71	2.7782862
103	0xbfe95cf7	-1.8231496
104	0xbff0f89f	-1.8825873
105	0x4012aaa8	2.291666
106	0x40df8e86	6.986148
107	0xc039e406	-2.9045424
108	0xc06b8913	-3.6802413
109	0x3c677390	0.014126673
110	0x3c82ad9b	0.015951922
111	0xc0003795	-2.0033925
112	0x4090cfb5	4.525355
113	0xc00acffa	-2.168944
114	0xc01dce22	-2.4657063
115	0xbe68a8cc	-0.22720641
116	0xbff722fe	-1.9307554
117	0xbf255da3	-0.64596003
118	0xc09b7862	-4.858445
119	0xc00b687c	-2.1782522
120	0x40297fcf	2.6484258
121	0x40715aae	3.7711596
122	0x40fab75a	7.834882
123	0xc006da64	-2.1070795
124	0x401e0709	2.4691794
125	0xc08dce2f	-4.431419
126	0xc0833b58	-4.100994
127	0xc00694ea	-2.102839
128	0xbfd7f9ea	-1.6873143
129	0xc09c428a	-4.8831224
130	0xc03012ba	-2.751143
131	0xbea8e186	-0.3298456
132	0x40484d49	3.129717
133	0xbf5743ff	-0.8408813
134	0x40b81a1d	5.7531877
135	0x403b1d9a	2.9236817
136	0xc0491fe2	-3.142571
137	0x40b3a7b3	5.614221
138	0xc02f0c55	-2.7351277
139	0x404bae26	3.1825042
140	0xc045b2cb	-3.0890377
141	0x3fd100bc	1.6328349
142	0xc0925b8c	-4.573675
143	0x40d2057f	6.563171
144	0x3cbba2bb	0.022904744
145	0xbfc190fb	-1.512237
146	0xbeb770ff	-0.35828397
147	0xbcdf2003	-0.027236944
148	0x40b03ceb	5.5074363
149	0xbecd32ec	-0.40077913
150	0x40cdd3da	6.432111
151	0x3fe92609	1.8214732
152	0x40888781	4.266541
153	0xc07be481	-3.9358218
154	0x40838753	4.110269
155	0x409fdc06	4.9956083
156	0xc09a5674	-4.8230534
157	0x3fd837a5	1.6891981
158	0xbf353a58	-0.7079215
159	0x40a6f24e	5.217078
160	0xbf2f397b	-0.68447083
161	0x40bd357c	5.912779
162	0xc08cdd2f	-4.402
163	0x402ed338	2.7316418
164	0xbfc4191b	-1.5320162
165	0x40053c61	2.0818102
166	0xc07c827f	-3.9454648
167	0xc0558f33	-3.3368652
168	0x40ee1e70	7.4412155
169	0x40292b6b	2.643275
170	0xbfe324e6	-1.7745636
171	0x3cc895cc	0.024485491
172	0xc07d3fb1	-3.9570124
173	0xbc8b1929	-0.01697977
174	0x4043dc68	3.0603275
175	0xc021a119	-2.5254576
176	0x40996439	4.793484
177	0x40b2ae0a	5.583745
178	0x3ff2d938	1.897254
179	0xbd2d95dd	-0.04237925
180	0xc01ce513	-2.4514816
181	0x40ba4a58	5.821575
182	0x406a8bd2	3.664784
183	0x3c14e115	0.009086867
184	0x4072a185	3.7911084
185	0xc099c2f3	-4.8050475
186	0xc0078ba2	-2.1178975
187	0xc044b050	-3.0732613
188	0x40b1d152	5.556802
189	0x404d3366	3.206262
190	0x40b7fba3	5.7494674
191	0xbeb77168	-0.3582871
192	0xbf988efd	-1.1918637
193	0xbd11302a	-0.035446323
194	0x3fa3d38a	1.2798932
195	0xbf9cb742	-1.2243426
196	0x400309ed	2.0474808
197	0xbfb187d3	-1.3869575
198	0xc02d5e80	-2.7088928
199	0xc010c128	-2.2617893
200	0x402e6f1f	2.7255323
201	0xbfb40cc0	-1.4066391
202	0x3fb43651	1.4079076
203	0x3fc2e7ca	1.5226986
204	0xbfef0cd8	-1.8675795
205	0x408d0df5	4.4079537
206	0x3fb10512	1.3829672
207	0xbeb63074	-0.35583842
208	0xbec1c0d2	-0.37842423
209	0xc092afe0	-4.583969
210	0xc061f988	-3.5308552
211	0xc0c755a7	-6.2292056
212	0xc001dab8	-2.0289745
213	0x3fe91883	1.8210605
214	0x3fa85729	1.3151599
215	0xc027bd39	-2.6209242
216	0x4031f0d9	2.7803252
217	0x40fa8b51	7.8295064
218	0x3fc31d8a	1.524339
219	0x3fffefac	1.9995017
220	0x40392584	2.8929148
221	0xbfafe6f2	-1.3742354
222	0xc0937697	-4.6082263
223	0x3fde35d8	1.7360182
224	0xbeb9819e	-0.36231703
225	0xc014eb8d	-2.3268769
226	0x3fad9090	1.3559742
227	0x4018d43d	2.387954
228	0x3fed2444	1.8526692
229	0xbebfd9eb	-0.37470946
230	0x408b1341	4.3461003
231	0xba2cdb30	-0.0006593941
232	0xbec7a065	-0.3898956
233	0x4023b5b5	2.5579655
234	0x3fa6f246	1.3042686
235	0xc00af7dd	-2.1713784
236	0x40aae886	5.340884
237	0xbea52332	-0.32253414
238	0x4002d44d	2.0442078
239	0xc0c16b8d	-6.0443788
240	0x3ff10932	1.8830931
241	0xc0a02d1d	-5.005507
242	0x40229819	2.5405333
243	0xbf7f2bbb	-0.996761
244	0xc04ae439	-3.1701796
245	0xc08c6a65	-4.3879876
246	0xbd1c0bdd	-0.03809725
247	0xc0187fa2	-2.38279
248	0xc0581416	-3.376226
249	0xbeb08966	-0.34479827
250	0xc095b35c	-4.6781445
251	0x408f482d	4.4775605
252	0xbfc3e794	-1.5305047
253	0x40db0bd3	6.8451934
254	0xc08af88a	-4.3428392
255	0xc00c6968	-2.1939335
