preTrained/500TD3_BipedalWalkerHardcore-v3_0_actor.pth (torch_old, 527104 bytes, 6 tensors)

l1.weight f4 [400, 24]
0.5266756 0.74848217 -1.228964 -0.23274802 -1.2342862 0.050996285 -0.14235267 0.03823639
0.12203781 0.59225154 0.038651418 -0.15327185 0.097524725 0.23654544 -0.22249435 0.02647188
-0.21982203 -0.35474232 -0.4448351 -0.3818452 -0.2597725 -0.2864113 -0.18673249 -0.0632133
-0.53001684 -1.6521275 1.1236894 0.35017294 0.50303334 0.15283167 -0.27837887 -0.048510015
-0.042744398 -0.08138715 0.05815396 -0.12648304 0.09309275 -0.23828642 0.10474348 -0.33608693
-0.12749617 0.2336206 0.3759849 0.48851088 0.52113336 -0.059342887 -0.13954535 0.080341145
-1.2870688 -1.1652267 0.15708764 -0.24694046 -0.16039145 -0.07913975 0.12568843 0.033459622
-0.5441236 0.054867186 0.3424266 0.01395146 -0.17345625 -0.13905922 -0.308671 -0.35482
-0.121691346 -0.004402062 0.057419345 -0.11581164 -0.054920636 -0.16493613 -0.18002915 -0.30680045
-0.06825954 -0.3707083 -0.50648344 -0.1006358 0.3450247 -0.0974046 0.41197264 0.012317681
0.21253026 -0.03714598 -0.014001318 -0.8631678 -0.043882288 -0.041955598 0.12380079 0.15626888
-0.115546845 0.27137983 -0.036285467 -0.3268289 0.39515892 0.33540994 0.32753196 0.1753351
-0.34858534 -0.6794133 -1.0027249 0.8960455 -0.104562834 0.05857756 0.33623856 -0.22216634
-0.09255271 -0.00827429 -0.20972662 0.10174046 -0.14424895 -0.5085348 0.5885154 0.25617036
0.22753167 0.29682505 -0.22951858 -0.42015642 0.16939323 0.16313767 0.1788068 0.22961076
-0.49712706 -0.30391645 0.27669814 0.13119383 0.07796547 -0.12818779 0.12923624 -0.06032312
0.025786951 -0.10036768 0.10149146 -0.6659151 0.041085895 0.1551697 0.07688542 0.35581386
0.6246797 0.47894254 0.6414839 0.39779356 0.024088794 -0.08827464 0.015561433 0.039408706
-0.45097902 0.38372886 0.3696811 -0.6555165 -0.47981253 -0.1617808 -0.8070614 0.044817604
-0.32859188 -0.17677002 -0.051602118 0.6243738 -0.12566979 -0.08601225 0.40555963 0.07687514
-0.08074169 -0.27800608 -0.5905873 -0.41645578 -0.4828913 -0.2523356 0.2065732 0.109668344
-0.7230143 -0.13134651 0.010267194 -0.12974824 -0.09969167 -0.008300807 0.38521668 0.21461202
0.48527604 0.13809642 0.03641615 0.041570004 -0.07754587 -0.03748893 0.104689784 0.24915704
0.4987668 0.41698796 -0.15877026 -0.21701847 -0.46062315 -0.75690913 -0.6801949 0.044802677
0.19191724 0.040005546 1.1575845 -0.58223563 0.4361626 0.3673478 0.5102648 -0.32968763
-0.1024175 -0.23331164 0.103032544 -0.5045659 -0.37609062 -0.0866547 -0.03690406 0.1529976
-0.14102429 -0.086059876 -0.10343343 -0.12958367 -0.10979377 -0.42466098 -0.04215377 -0.2232089
-0.18719704 -0.3132641 0.69307053 0.0775343 0.1289708 -0.099402934 -0.15807192 -0.046284292
-0.25523916 -0.50670904 -0.034421317 -0.009308635 -0.00074290164 -0.3328053 0.031989116 -0.04915759
0.37653807 0.5521945 0.23128666 0.4062645 0.035361066 -0.09238908 0.22942384 0.47813636
0.25167167 -1.4084877 2.318504 -0.67034984 -0.37583318 -0.02666068 -0.24447148 0.019123467
-0.23196019 0.27498156 -0.1348539 0.32207835 -0.07097179 0.1382903 0.08318206 0.36637732
00000000: 36d4 063f 879c 3f3f b14e 9dbf 7f55 6ebe
00000010: 17fd 9dbf 7be1 503d e6c4 11be c39d 1c3d
00000020: f6ee f93d cc9d 173f f350 1e3d 4cf3 1cbe
00000030: 0bbb c73d f838 723e 8fd5 63be 8edb d83c
00000040: 0719 61be c9a0 b5be 6dc1 e3be 3781 c3be
00000050: e700 85be 80a4 92be cd36 3fbe fa75 81bd
00000060: 2faf 07bf ea78 d3bf 0ed5 8f3f de49 b33e
00000070: cbc6 003f e87f 1c3e ad87 8ebe 70b2 46bd
00000080: c014 2fbd 4eae a6bd d932 6e3d c584 01be
00000090: 69a7 be3d 5b01 74be c083 d63d 9613 acbe
000000a0: 5b8e 02be 3d3a 6f3e 1881 c03e 191e fa3e
000000b0: ff68 053f 8711 73bd fae4 0ebe e689 a43d
000000c0: acbe a4bf 2626 95bf 95db 203e f6dd 7cbe
000000d0: a83d 24be 0514 a2bd 78b4 003e f50c 093d
000000e0: af4b 0bbf 6abc 603d 8a52 af3e aa94 643c
000000f0: 849e 31be 8a65 0ebe 200a 9ebe f8aa b5be
00000100: 5039 f9bd 2c3f 90bb 8c30 6b3d a72e edbd
00000110: 76f4 60bd 04e5 28be 9059 38be f314 9dbe
00000120: a8cb 8bbd 7acd bdbe e6a8 01bf 241a cebd
00000130: 14a7 b03e 107c c7bd 14ee d23e 19d0 493c
00000140: 88a1 593e 6226 18bd c965 65bc 91f8 5cbf
00000150: eabd 33bd a2d9 2bbd 458b fd3d f304 203e
00000160: d3a3 ecbd 4cf2 8a3e 12a0 14bd 1e56 a7be
00000170: 4552 ca3e daba ab3e 45b2 a73e 0b8b 333e
00000180: c779 b2be 08ee 2dbf 4a59 80bf 3d63 653f
00000190: 0a25 d6bd 06ef 6f3d 7627 ac3e 937f 63be
000001a0: 468c bdbd e390 07bc 93c2 56be 4d5d d03d
000001b0: ffb5 13be 562f 02bf f2a8 163f c328 833e
000001c0: 10fe 683e 74f9 973e eb06 6bbe be1e d7be
000001d0: 6b75 2d3e 900d 273e 2119 373e 151f 6b3e
000001e0: 7087 febe f09a 9bbe 61ab 8d3e ad57 063e
000001f0: 5cac 9f3d a943 03be 8156 043e 6015 77bd
00000200: 283f d33c 928d cdbd c1da cf3d 6979 2abf
00000210: af49 283d cee4 1e3e 1a76 9d3d 3c2d b63e
00000220: 02eb 1f3f f537 f53e 4a38 243f 99ab cb3e
00000230: dd55 c53c 56c9 b4bd 61f5 7e3c 066b 213d
00000240: b9e6 e6be 1c78 c43e d746 bd3e eecf 27bf
00000250: fda9 f5be dea9 25be 939b 4ebf aa92 373d
00000260: 323d a8be 3303 35be be5c 53bd f6d6 1f3f
00000270: 95af 00be 3127 b0bd 83a5 cf3e b770 9d3d
00000280: e65b a5bd d056 8ebe bb30 17bf b139 d5be
00000290: 873d f7be 2232 81be ed87 533e cc99 e03d
000002a0: 7717 39bf b37f 06be bc37 283c b9dc 04be
000002b0: 252b ccbd 1c00 08bc 1f3b c53e 41c3 5b3e
000002c0: 1a76 f83e 2669 0d3e 1a29 153d 4f45 2a3d
000002d0: 5ed0 9ebd fe8d 19bd 9967 d63d 0623 7f3e
000002e0: 5d5e ff3e 727f d53e ac94 22be 173a 5ebe
000002f0: ccd6 ebbe ccc4 41bf 4121 2ebf 0383 373d
00000300: f485 443e dbdc 233d bb2b 943f 650d 15bf
00000310: b450 df3e 0315 bc3e b7a0 023f d1cc a8be
00000320: 44c0 d1bd 3fe9 6ebe ba02 d33d 3b2b 01bf
00000330: f38e c0be 0578 b1bd b628 17bd 67ab 1c3e
00000340: ac68 10be 2940 b0bd e8d4 d3bd 95b1 04be
00000350: 8edb e0bd 2a6d d9be 6ea9 2cbd e090 64be
00000360: 95b0 3fbe 2764 a0be 126d 313f 4eca 9e3d
00000370: ec10 043e c493 cbbd 9bdd 21be 9994 3dbd
00000380: b5ae 82be afb7 01bf 5efd 0cbd 3f83 18bc
00000390: 49bf 42ba 7565 aabe 0507 033d 7859 49bd
000003a0: 99c9 c03e 9e5c 0d3f 69d6 6c3e e701 d03e
000003b0: c4d6 103d 7c36 bdbd 15ee 6a3e 4ace f43e
000003c0: 1cdb 803e 5349 b4bf 5f62 1440 0c9c 2bbf
000003d0: 356d c0be 8067 dabc bb56 7abe d1a8 9c3c
000003e0: f986 6dbe 62ca 8c3e 2417 0abe 74e7 a43e
000003f0: a859 91bd f99b 0d3e 5b5b aa3d cf95 bb3e

l1.bias f4 [400]
-0.017210793 -0.52642965 0.30616686 0.17855313 0.11009442 -0.21917725 -0.13107023 -0.04323856
0.14635703 -0.01826594 0.22191 -0.06128874 -0.1109174 -0.14807402 -0.27756178 -0.10156895
0.017199151 -0.120867155 -0.08645392 -0.19936714 -0.097395875 0.367909 -0.11328751 0.032409232
0.32097656 0.37884706 0.4078936 0.20701733 0.1152786 0.2761815 0.19826452 -0.04236146
0.24356423 0.28436685 -0.3330907 0.016596643 -0.18493895 0.27343762 -0.39172813 0.13558914
0.048367724 0.20418873 0.23856379 -0.20222704 -0.012658482 -0.29809397 -0.079546735 0.14819334
0.09602413 0.24244663 0.043452337 -0.09489951 -0.11062441 -0.0048038415 0.1617845 -0.054570317
0.12081248 -0.09530077 0.14613606 0.14949948 -0.30288538 -0.28442025 0.08081606 -0.04559638
0.1590397 -0.13490576 -0.080182366 0.20007776 -0.21597758 0.3065894 0.19552031 -0.032712165
0.26149976 -0.09651162 0.06522737 0.20866412 0.23496166 -0.25641218 -0.018005239 0.14340465
-0.067882575 -0.01160991 -0.10794811 0.02355701 0.29078385 0.0438636 0.21926026 0.037512172
0.058686536 0.18935344 0.03285211 -0.012410011 -0.23437701 -0.09842582 0.1631331 0.2032636
0.4024286 0.0010372201 0.14200608 0.05648178 -0.1111264 0.08281762 0.17459697 -0.2229898
0.0012253661 -0.0707951 -0.14316663 0.28774667 0.11153234 -0.15194438 0.072108544 -0.16456093
0.23111129 -0.07050042 0.24098934 0.29932532 -0.13530536 -0.00538943 -0.070664875 0.033004556
0.05237208 0.00018799053 0.083924726 -0.12037498 -0.22822446 0.1509235 -0.28014424 -0.32703266
0.06301732 0.13476987 -0.26695225 0.050107956 0.35008487 -0.21353544 -0.3748816 -0.28295085
0.22600953 -0.0029834472 0.115936145 -0.11980408 -0.10579101 -0.35433376 0.10412137 -0.35763475
-0.20859411 -0.09476634 -0.1727441 0.12147994 -0.13174708 0.14964122 -0.38157868 0.31253144
0.38362086 -0.1735722 -0.07839717 -0.37255916 0.11051395 0.16239111 0.21292591 -0.0375879
0.075153485 -0.19590674 -0.16139185 0.057490166 0.079489835 -0.1778611 -0.26427314 0.21777466
0.14657804 0.4555245 0.06686318 0.0023359852 0.40881684 0.052239183 0.06479312 0.13241017
-0.24356897 0.22853288 -0.097727895 0.13054614 -0.13460618 0.23889102 -0.45854905 0.26430517
0.14869969 -0.33991042 0.0023218307 -0.11210027 0.07443062 0.10787061 0.026172236 0.10283323
-0.14271136 -0.24795684 0.32299653 -0.0783916 -0.008074392 -0.33442983 0.19586757 -0.10408611
0.079249166 -0.16667102 0.11426166 -0.09105657 0.10296818 0.21870306 0.06536851 0.008750604
0.005591817 -0.14633141 -0.19732128 -0.29058367 0.04236747 0.28666276 0.023205467 0.124375194
-0.04753752 0.21736477 -0.13374923 0.17927288 -0.016733903 -0.12190581 0.1913879 -0.0849753
0.11060965 0.4165241 0.19785582 0.029713852 0.21422032 -0.03305503 -0.09943674 0.11012682
-0.08166793 -0.15535767 -0.17734861 -0.32916754 -0.0052811075 -0.09979957 0.08172996 0.2091617
-0.19376995 0.008751922 0.16133757 -0.09085686 -0.055180583 -0.10095653 0.03338401 0.01229291
0.025099628 -0.14990997 -0.33253345 -0.10492724 0.065814264 0.043294184 -0.2373856 0.025881948
00000000: a6fd 8cbc 18c4 06bf e7c1 9c3e a2d6 363e
00000010: 2f79 e13d 0070 60be 4637 06be eb1a 31bd
00000020: 9ede 153e 74a2 95bc 603c 633e e709 7bbd
00000030: a928 e3bd b7a0 17be 941c 8ebe 6203 d0bd
00000040: 3ce5 8c3c 3389 f7bd c10e b1bd e626 4cbe
00000050: 7d77 c7bd 925e bc3e 4803 e8bd 8bbf 043d
00000060: 0a57 a43e 3ef8 c13e 6ed7 d03e 5afc 533e
00000070: 3017 ec3d a967 8d3e db05 4b3e 3683 2dbd
00000080: e768 793e 8898 913e dd8a aabe aff5 873c
00000090: a360 3dbe 0400 8c3e 9790 c8be e1d7 0a3e
000000a0: 3c1d 463d da16 513e 114a 743e 9b14 4fbe
000000b0: 8665 4fbc c69f 98be 66e9 a2bd ffbf 173e
000000c0: 4da8 c43d ee43 783e 14fb 313d ad5a c2bd
000000d0: 0d8f e2bd 8b69 9dbb d6aa 253e 2085 5fbd
000000e0: 896c f73d 0d2d c3bd b1a4 153e 6416 193e
000000f0: cb13 9bbe 889f 91be e482 a53d 45c3 3abd
00000100: 4edb 223e bc24 0abe a736 a4bd 2fe1 4c3e
00000110: 3a29 5dbe 49f9 9c3e 7a36 483e 31fd 05bd
00000120: 4ce3 853e e2a7 c5bd ed95 853d 0cac 553e
00000130: ca99 703e 7548 83be b97f 93bc abd8 123e
00000140: 0506 8bbd 7e37 3ebc e613 ddbd a1fa c03c
00000150: 9fe1 943e 51aa 333d c385 603e 5da6 193d
00000160: 4b61 703d dee5 413e ef8f 063d 5c53 4bbc
00000170: 8700 70be 7a93 c9bd 5d0c 273e 5524 503e
00000180: 1f0b ce3e 55f3 873a 0b6a 113e 7059 673d
00000190: 3d96 e3bd 499c a93d 8cc9 323e 7057 64be
000001a0: 779c a03a 05fd 90bd 469a 12be 8853 933e
000001b0: 116b e43d 4f97 1bbe a5ad 933d a982 28be
000001c0: 70a8 6c3e 8662 90bd e9c5 763e 2b41 993e
000001d0: 7d8d 0abe d199 b0bb bfb8 90bd c92f 073d
000001e0: 1b84 563d 531f 4539 bae0 ab3d 2887 f6bd
000001f0: acb3 69be b18b 1a3e 116f 8fbe d370 a7be
00000200: 3a0f 813d 1d01 0a3e f7ad 88be 003e 4d3d
00000210: 533e b33e 09a9 5abe 7bf0 bfbe efde 90be
00000220: 0b6f 673e f085 43bb ee6f ed3d d75b f5bd
00000230: f5a8 d8bd 3c6b b5be 963d d53d e71b b7be
00000240: b299 55be db14 c2bd d4e3 30be 7aca f83d
00000250: b5e8 06be 8c3b 193e 485e c3be 1f04 a03e
00000260: f469 c43e e9bc 31be b28e a0bd 13c0 bebe
00000270: 2355 e23d db49 263e 4009 5a3e c5f5 19bd
00000280: 12ea 993d c79b 48be e843 25be cf7a 6b3d
00000290: 91cb a23d 3821 36be cf4e 87be 5200 5f3e
000002a0: 8e18 163e 823a e93e 90ef 883d 5417 193b
000002b0: 7150 d13e c1f8 553d 41b2 843d 8896 073e
000002c0: 256a 79be 8604 6a3e 9025 c8bd e3ad 053e
000002d0: 34d6 09be d99f 743e f1c6 eabe 0253 873e
000002e0: bb44 183e bd08 aebe db29 183b d494 e5bd
000002f0: 156f 983d 44eb dc3d 2867 d63c 3a9a d23d
00000300: ed22 12be 66e8 7dbe cd5f a53e c68b a0bd
00000310: 744a 04bc 633a abbe 8291 483e 192b d5bd
00000320: 634d a23d cfab 2abe 0402 ea3d de7b babd
00000330: fbe0 d23d b2f3 5f3e eddf 853d b25e 0f3c
00000340: 903b b73b e7d7 15be 970e 4abe 62c7 94be
00000350: 8389 2d3d 76c5 923e 6419 be3c 6cb8 fe3d
00000360: b4b6 42bd df94 5e3e 8ff5 08be 4f93 373e
00000370: 8a15 89bc c1a9 f9bd 31fb 433e 8807 aebd
00000380: 5087 e23d a642 d53e b79a 4a3e 776a f33c
00000390: 925c 5b3e b664 07bd 7da5 cbbd 2c8a e13d
000003a0: 8441 a7bd 1516 1fbe e09a 35be a688 a8be
000003b0: 240d adbb b863 ccbd 0a62 a73d 7c2e 563e
000003c0: a16b 46be 3964 0f3c ad35 253e 2913 babd
000003d0: 0905 62bd 4cc2 cebd acbd 083d 3468 493c
000003e0: bc9d cd3c 0082 19be d341 aabe 18e4 d6bd
000003f0: a1c9 863d 3e55 313d 3615 73be 6106 d43c

l2.weight f4 [300, 400]
-0.33260718 -0.1379331 0.21286859 -0.030276638 -0.20170054 0.028566578 -0.14371943 -0.26941958
0.2773976 -0.44843385 0.05689768 -0.42920044 0.64900374 0.10310556 -0.32425353 -0.029403597
-0.2554455 -0.79828596 0.05416208 -0.18225709 0.14034455 -0.64813393 0.00081654504 -0.13900071
-0.11653899 -0.11041355 -0.0977669 -0.14963956 -0.082272746 0.27875158 -0.16174862 -0.0370846
0.09649953 -0.6442782 -0.43509793 0.35754225 -0.45587984 -0.36186305 -0.2910568 -0.098153
-0.23918161 0.1045499 0.101087846 0.071801916 0.09036352 -0.024547324 0.2847378 0.34381527
-0.3849353 -0.53384364 0.019381616 0.1260616 -0.19123079 -0.26122212 0.32780135 -0.49210063
-0.13472806 -0.16860372 0.007527507 -0.56480944 -0.16581102 0.054714065 -0.090879254 0.09337222
0.019731363 -0.19704162 0.23140854 0.4766521 -0.23180921 -0.43187335 -0.2859426 0.0665761
0.49303913 -0.2928136 -0.27118087 0.11829806 0.15066627 0.08945216 0.009957098 -0.3559472
-0.024160616 -0.32024652 0.13978149 -0.12629019 -0.10460501 -0.5292968 -0.0074394094 -0.30397725
-0.4891058 -0.11508966 0.54573005 -0.018381115 -0.010697624 -0.8069511 -0.35601872 -0.44552508
-0.4967709 -0.17874786 0.07408343 -0.35459745 -0.60534793 -0.17561172 -0.2715298 -0.09060905
-0.5226358 0.22083184 -0.25330007 0.13637815 0.13330305 0.24992499 0.12350287 -0.07156137
0.092800856 0.014814585 -0.38129222 0.23326531 -0.5463989 0.015954005 -0.9161842 -0.16253959
0.2793673 0.26317543 -0.009842934 -0.0665274 -0.8859761 0.018681299 0.22206019 -0.26432747
-0.00014147702 0.022494968 -0.1659803 0.3028661 -0.06894153 0.108890384 -0.40105566 0.106210776
0.19589104 -0.20317946 -0.024968263 0.10676349 0.009356309 0.030166497 -0.19993807 -0.27756718
-0.31621635 -0.28248104 -0.7243683 -0.5594039 0.098870195 -0.2813526 -0.14718826 -0.11513565
-0.33179262 -0.22223659 0.13062496 -0.5157409 -0.0026307236 0.15918985 -0.05554139 -0.16577041
-0.53548634 -0.20216496 0.4470294 -0.17840552 -0.13137206 0.07759812 -0.15696858 0.042417686
0.035120618 -0.26914802 -0.08678397 0.005153603 -0.69337994 0.061521865 -0.22960703 -0.026137661
-0.09541413 0.021768577 -0.017528394 -0.00780745 -1.1854553 -0.43196678 0.05459155 0.3612044
-0.3750253 -0.020424403 -0.6349226 0.42677212 -0.6155395 -0.056686148 -0.0048670582 -0.22041982
0.117431425 0.0137039805 -0.055713885 0.36316597 -0.11833481 -0.16016634 0.13372347 -0.12813324
-0.22750913 -0.41888988 0.21711688 0.13999732 -0.065863945 0.0027478624 -0.30083594 -0.8822821
0.0018674339 -0.13392381 -0.10430808 -0.24939811 -0.13984923 -0.14383683 -1.0193245 0.10118642
0.083098724 -0.54150194 -0.3612181 -0.15415524 -0.29851386 -0.23266749 0.21247369 -0.36809075
0.36668622 -0.055214416 -0.30471185 -0.42256898 -0.6340474 0.15852895 -0.021738626 -0.35842726
-0.40882453 0.2879153 -1.2519296 -0.08382639 -0.25873104 -0.31062502 -0.16637075 -0.20960651
-0.2800417 -0.28173846 0.4215788 -0.4436174 -0.35960326 -0.19677697 -0.036305692 -0.55597174
-0.69428605 0.48360375 -1.0742863 -0.63229525 0.37137556 -0.016737891 0.059176277 0.53599125
00000000: 7d4b aabe 563e 0dbe 39fa 593e b606 f8bc
00000010: 968a 4ebe 7504 ea3c 302b 13be 5df1 89be
00000020: 0f07 8e3e 1f99 e5be 8b0d 693d 29c0 dbbe
00000030: 1c25 263f 0229 d33d 8f04 a6be d0df f0bc
00000040: c1c9 82be 785c 4cbf 0fd9 5d3d 9aa1 3abe
00000050: 7bb6 0f3e 1bec 25bf 690d 563a 3456 0ebe
00000060: feab eebd 8020 e2bd 033a c8bd 1d3b 19be
00000070: 9d7e a8bd 87b8 8e3e 6ea1 25be 06e6 17bd
00000080: 8ca1 c53d 6bef 24bf 28c5 debe c70f b73e
00000090: 1569 e9be 1d46 b9be 6605 95be 7104 c9bd
000000a0: 06ec 74be 421e d63d 2507 cf3d e20c 933d
000000b0: 8210 b93d 7817 c9bc 27c9 913e 8e08 b03e
000000c0: 3d16 c5be faa9 08bf 32c6 9e3c 4b16 013e
000000d0: 01d2 43be e8be 85be 94d5 a73e 9df4 fbbe
000000e0: 27f6 09be 74a6 2cbe 4ea9 f63b 5a97 10bf
000000f0: 5dca 29be db1b 603d e71e babd ef39 bf3d
00000100: aba3 a13c 47c5 49be 5cf6 6c3e be0b f43e
00000110: 655f 6dbe 811e ddbe 1267 92be 0d59 883d
00000120: a06f fc3e aaeb 95be 38d8 8abe 4146 f23d
00000130: 4248 1a3e b232 b73d 1923 233c b63e b6be
00000140: 7cec c5bc 5af7 a3be e122 0f3e 3752 01be
00000150: 273b d6bd ff7f 07bf 4ac6 f3bb e8a2 9bbe
00000160: 136c fabe 21b4 ebbd f7b4 0b3f fe93 96bc
00000170: 1645 2fbc 5994 4ebf 1648 b6be dd1b e4be
00000180: c158 febe ae09 37be 0eb9 973d cc8d b5be
00000190: 15f8 1abf 8fd3 33be f405 8bbe 3d91 b9bd
000001a0: 76cb 05bf be21 623e 8cb0 81be b7a6 0b3e
000001b0: 9880 083e 56ec 7f3e 13ef fc3d c48e 92bd
000001c0: 600e be3d e0b8 723c bc38 c3be 1add 6e3e
000001d0: cce0 0bbf f9b1 823c 0c8b 6abf c770 26be
000001e0: 3b09 8f3e eebe 863e 4244 21bc 843f 88bd
000001f0: 54cf 62bf 8609 993c bf63 633e ee55 87be
00000200: 7359 14b9 5e47 b83c bdf6 29be 4411 9b3e
00000210: 3831 8dbd ec01 df3d 2b57 cdbe 0985 d93d
00000220: a997 483e 470e 50be 3e8a ccbc d1a6 da3d
00000230: 344b 193c bb1f f73c 91bc 4cbe 491d 8ebe
00000240: 1ce7 a1be 5ba1 90be 3370 39bf 1835 0fbf
00000250: 757c ca3d 730d 90be 85b8 16be 3dcc ebbd
00000260: b9e0 a9be fd91 63be 8dc2 053e 9807 04bf
00000270: 3868 2cbb aa02 233e 5e7f 63bd b8bf 29be
00000280: a215 09bf 5504 4fbe 0ae1 e43e f0af 36be
00000290: 6686 06be c3eb 9e3d 5fbc 20be 2bbe 2d3d
000002a0: a3da 0f3d c5cd 89be cbbb b1bd 8edf a83b
000002b0: 5981 31bf 5afe 7b3d 1b1e 6bbe a61e d6bc
000002c0: 7c68 c3bd 0454 b23c b597 8fbc a3d5 ffbb
000002d0: 00bd 97bf c02a ddbe 649b 5f3d c8ef b83e
000002e0: 5103 c0be 1451 a7bc 4a8a 22bf e081 da3e
000002f0: ff93 1dbf bc2f 68bd d87b 9fbb bcb5 61be
00000300: e37f f03d a986 603c 3e34 64bd e4f0 b93e
00000310: 8559 f2bd a502 24be ceee 083e 5c35 03be
00000320: 27f8 68be bc78 d6be e353 5e3e 755b 0f3e
00000330: ade3 86bd 7b15 343b 2b07 9abe 3ddd 61bf
00000340: afc4 f43a 5323 09be 7a9f d5bd 3862 7fbe
00000350: a334 0fbe f649 13be 3a79 82bf d33a cf3d
00000360: aa2f aa3d df9f 0abf 94f1 b8be dfda 1dbe
00000370: cfd6 98be 6340 6ebe b492 593e 6476 bcbe
00000380: 4cbe bb3e 8328 62bd 3103 9cbe f65a d8be
00000390: ee50 22bf 6a55 223e 3415 b2bc c783 b7be
000003a0: 7351 d1be a269 933e 3b3f a0bf 2cad abbd
000003b0: 6578 84be 3e0a 9fbe 185d 2abe 17a3 56be
000003c0: a061 8fbe 0640 90be 2dd9 d73e d221 e3be
000003d0: eb1d b8be e77f 49be 47b5 14bd 2a54 0ebf
000003e0: bbbc 31bf e99a f73e 3782 89bf 1ade 21bf
000003f0: f024 be3e e71d 89bc d362 723d b936 093f

l2.bias f4 [300]
-0.15263472 0.16251424 0.1850505 -0.34398258 -0.16499682 0.16711465 -0.26177102 0.020096125
0.04455549 -0.09856649 -0.022826383 -0.09960982 0.0159911 0.041095186 0.04089141 0.18623082
-0.048664443 0.17345908 -0.18711415 0.014536482 0.01981792 -0.1799955 0.020181522 0.0010540509
0.062249873 0.0740414 -0.23126748 -0.115681246 0.04082474 -0.2454764 0.047658753 0.120279595
0.082512535 0.0710089 0.14505157 0.20366202 -0.11684518 -0.09574195 -0.061147574 -0.05039922
-0.049217362 0.04427965 -0.10200915 -0.024761444 -0.14184223 -0.16011424 -0.30030066 0.043406375
0.024587069 0.022826178 -0.09126192 0.14828478 -0.11640624 -0.052418858 -0.15772198 -0.24426588
0.10999801 -0.022688964 0.0023352976 -0.22968413 -0.2056349 -0.124115646 0.020676868 -0.07942059
-0.105486706 -0.27708465 0.045187417 -0.12450084 -0.014051153 0.03773103 0.11501361 -0.20741172
-0.024325445 0.01856639 -0.056340177 -0.20925476 -0.0855612 -0.06061358 0.11492136 0.0832675
-0.036046445 0.09885738 0.06060944 -0.090590134 -0.08993008 0.022377366 0.15619957 -0.08110045
-0.24547382 -0.0399437 -0.028229088 -0.053548895 -0.06404948 0.10991279 -0.23992446 0.099985465
-0.027433973 -0.1463574 0.08892991 -0.15238447 -0.029476522 0.06435336 -0.049025167 -0.24249242
-0.09316382 -0.16964535 0.11615799 -0.2665173 -0.14325367 -0.009484911 0.0758201 0.064650245
0.20000832 -0.030420221 -0.02665769 -0.00032478297 0.18340799 -0.0875856 0.028336605 0.023065949
-0.010439056 -0.094735935 0.15326396 -0.26411086 -0.2393476 -0.12248079 0.008945557 -0.27393052
-0.22350469 0.035605185 -0.32893533 -0.2849625 0.010171953 0.1401396 -0.12752415 0.055083074
-0.013006169 -0.032578293 0.07155171 -0.08607728 -0.034664053 -0.07247728 -0.12885518 0.12333208
-0.09240861 0.13471943 -0.049457792 0.13393031 -0.14044844 0.06476148 0.12887914 0.11752793
-0.05769293 -0.19376275 0.030313218 -0.013021014 -0.01545863 -0.28398862 0.02809903 0.06324554
-0.007116145 0.06159105 -0.12831117 -0.10729478 -0.10555517 0.10376984 0.12531586 -0.13540433
-0.24843147 0.10521974 -0.10594709 0.19254068 0.10954874 -0.120049976 0.015608487 -0.22982419
0.1197234 0.10026257 -0.053662457 -0.25910494 -0.09775487 -0.18106446 -0.26906428 0.057684105
-0.084621854 -0.030090157 0.11952347 0.07989796 0.20314519 0.033581838 0.058014512 0.08997674
-0.2837015 -0.26406598 -0.062907025 -0.0015184797 0.08200214 0.22202785 -0.23276065 -0.013908857
-0.17946266 -0.10843614 -0.12280104 -0.08379287 0.09386655 -0.05862593 -0.17181936 -0.28143018
-0.1666002 -0.07813907 -0.15613526 -0.25025207 0.023386288 0.0026839054 -0.07800482 0.15184635
0.021849604 -0.05837287 0.36369395 0.16625862 0.21061316 -0.25569773 0.05033373 -0.045822337
0.034664284 0.0044813394 -0.011892731 0.04505429 -0.20900127 -0.06900453 -0.19884953 0.18005021
-0.14503777 0.13756484 0.0064345943 -0.101162605 0.0364769 0.16888958 0.011695044 -0.09416076
-0.2842971 -0.11308018 0.14790006 -0.07177535 -0.18197247 -0.09154221 -0.15011401 -0.08869917
-0.06337659 -0.016499123 0.055367548 -0.20224564 -0.23336872 0.017877107 -0.05708355 0.07527399
00000000: 474c 1cbe 226a 263e e17d 3d3e 7c1e b0be
00000010: edf4 28be 1a20 2b3e da06 86be a1a0 a43c
00000020: d17f 363d 3add c9bd 65fe babc 3c00 ccbd
00000030: c4ff 823c 6d53 283d c07d 273d 4bb3 3e3e
00000040: 5e54 47bd 429f 313e da9a 3fbe 6d2a 6e3c
00000050: 3159 a23c be50 38be b853 a53c 1428 8a3a
00000060: b9f9 7e3d 04a3 973d 62d1 6cbe 4aea ecbd
00000070: d837 273d 2a5e 7bbe d335 433d 2655 f63d
00000080: 55fc a83d 1d6d 913d 6688 143e c78c 503e
00000090: 874c efbd 5b14 c4bd e175 7abd 6a6f 4ebd
000000a0: 2598 49bd 945e 353d 2cea d0bd 83d8 cabc
000000b0: 173f 11be fdf4 23be 02c1 99be e2ca 313d
000000c0: d26a c93c f7fd ba3c 88e7 babd f7d7 173e
000000d0: 6566 eebd 28b5 56bd df81 21be d620 7abe
000000e0: a346 e13d 35de b9bc cb0b 193b 5132 6bbe
000000f0: f591 52be 5830 febd 8962 a93c 43a7 a2bd
00000100: 6a09 d8bd 0ade 8dbe 7116 393d 4cfa febd
00000110: cf36 66bc da8b 1a3d 418c eb3d bd63 54be
00000120: 2846 c7bc 8b18 983c f5c4 66bd e146 56be
00000130: b63a afbd f245 78bd e45b eb3d 2788 aa3d
00000140: 70a5 13bd bd75 ca3d 9b41 783d 5287 b9bd
00000150: 432d b8bd bd50 b73c c8f2 1f3e fe17 a6bd
00000160: 7d5d 7bbe 019c 23bd b040 e7bc 1656 5bbd
00000170: 602c 83bd f519 e13d c2ae 75be 2ec5 cc3d
00000180: 36bd e0bc b7de 15be e220 b63d ad0a 1cbe
00000190: bf78 f1bc b2cb 833d 9dce 48bd ef4f 78be
000001a0: accc bebd 83b7 2dbe 3ee4 ed3d f574 88be
000001b0: 17b1 12be 9a66 1bbc 9247 9b3d 5967 843d
000001c0: fbce 4c3e d433 f9bc 3a61 dabc a247 aab9
000001d0: 4ecf 3b3e 1460 b3bd 2b22 e83c cdf4 bc3c
000001e0: 9308 2bbc ea04 c2bd 3af1 1c3e 8a39 87be
000001f0: 8a17 75be 35d7 fabd 6390 123c 9f40 8cbe
00000200: 6ade 64be bed6 113d 366a a8be 9be6 91be
00000210: 43a8 263c c180 0f3e b195 02be ca9e 613d
00000220: d417 55bc d170 05bd b489 923d 4949 b0bd
00000230: e5fb 0dbd f86e 94bd 9df2 03be 8895 fc3d
00000240: ba40 bdbd e4f3 093e 4194 4abd 0725 093e
00000250: b7d1 0fbe aba1 843d e5f8 033e 7cb2 f03d
00000260: 6c4f 6cbd be69 46be 6d53 f83c 1756 55bc
00000270: 3246 7dbc f566 91be f02f e63c e186 813d
00000280: 8d2e e9bb e646 7c3d 0164 03be 5ebd dbbd
00000290: 4f2d d8bd 4885 d43d cd52 003e 6fa7 0abe
000002a0: d264 7ebe 727d d73d cafa d8bd 6229 453e
000002b0: 175b e03d c3dc f5bd bdba 7f3c 0857 6bbe
000002c0: 8b31 f53d 7656 cd3d 2acd 5bbd 67a9 84be
000002d0: b533 c8bd f668 39be cbc2 89be 2b46 6c3d
000002e0: 394e adbd a27f f6bc b9c8 f43d 8ba1 a33d
000002f0: 4b05 503e 1c8d 093d a0a0 6d3d ba45 b83d
00000300: 5341 91be a833 87be 66d5 80bd b907 c7ba
00000310: bdf0 a73d 455b 633e cf58 6ebe f9e1 63bc
00000320: 0fc5 37be c413 debd 1d7f fbbd 999b abbd
00000330: 1b3d c03d be21 70bd 6af1 2fbe 9e17 90be
00000340: 3e99 2abe 6007 a0bd ece1 1fbe 0a21 80be
00000350: 9a94 bf3c 76e4 2f3b fec0 9fbd 9c7d 1b3e
00000360: f1fd b23c 6418 6fbd 1836 ba3e b33f 2a3e
00000370: faaa 573e d0ea 82be be2a 4e3d 34b0 3bbd
00000380: 23fc 0d3d 33d8 923b bbd9 42bc d98a 383d
00000390: 6e04 56be 3f52 8dbd 369f 4bbe 155f 383e
000003a0: c884 14be ccdd 0c3e 4ad9 d23b 572e cfbd
000003b0: cd68 153d 64f1 2c3e 929c 3f3c 5bd7 c0bd
000003c0: 648f 91be 9596 e7bd 1d73 173e f4fe 92bd
000003d0: fe56 3abe 7b7a bbbd 7db7 19be e9a7 b5bd
000003e0: 96cb 81bd 2b29 87bc 15c9 623d 7b19 4fbe
000003f0: 36f8 6ebe 0373 923c 71d0 69bd 4029 9a3d

l3.weight f4 [4, 300]
-1.0893122 0.12240559 -0.49816933 -2.1904018 1.0221608 0.39292243 -2.35731 0.855679
0.20704705 -0.294861 0.9991611 1.7761096 -1.190944 -1.2991453 0.08571547 0.019168934
-0.6059378 -0.29184186 0.24189691 -1.1039381 0.21849707 0.8472832 -0.02961513 0.17540246
-0.80517083 -0.38868505 0.30401367 -0.29475778 2.0923955 0.82836205 0.6678312 -0.94681287
0.7411578 -0.12673523 -1.2729281 0.36857924 2.8381042 -0.5286683 1.0082601 -0.43482262
-0.056279764 -0.6541816 -0.00028456535 -0.23432812 -0.2878495 -0.25522682 -0.5886895 1.6297129
0.19897231 1.0764242 0.16827685 0.33231416 -1.7294779 0.6443141 0.9782769 0.14779013
0.15389629 -0.121338405 0.7384024 0.91671014 0.9651538 0.38042372 1.0780047 -3.1108508
-0.61965996 0.09736438 -2.124366 3.1782851 0.29218242 0.63639855 0.92334 0.7587663
-0.045413155 1.2331353 -0.04903548 -0.050227664 -0.81040394 -0.6138674 0.349286 -0.7482725
-0.0257933 0.1945054 0.5156578 0.14228189 0.52800244 0.008373693 0.00035308106 -0.08713369
-1.0137596 -0.3338845 0.90432703 -0.19909947 -0.6247853 -0.32797688 0.0039971876 -0.2495745
-0.16373704 0.4617887 -0.090741746 -1.6947426 1.7498821 -0.42720485 -0.8678638 0.42380258
1.0958438 -1.0062453 0.94432896 -0.10261773 -0.12003844 -0.7511828 1.2176659 0.030802272
1.8472319 0.20077282 0.5356714 -0.033693198 1.422399 -0.9298775 -0.834522 -0.034123268
0.88095444 0.1813864 -3.1184237 0.14367017 -0.7462982 -0.4905577 0.66592455 0.7174155
-1.546535 4.0298038 0.00834879 1.0876417 -1.2902769 0.4880608 -0.45544228 -0.016741728
-0.61242443 0.794095 -1.7803843 0.737718 -0.45919827 -0.11743838 -0.36083385 2.2209203
-0.28444165 -0.48475215 0.8456226 1.3371892 3.1324015 -2.238818 -0.7293648 0.36727726
-1.8341007 -1.514839 0.63123333 0.5701936 -0.6614885 -0.7833659 0.86561304 -0.09829383
-0.04949717 1.1588318 -0.63631994 -0.110124424 2.2524056 -0.75890404 0.026824422 -0.58386415
0.08919772 1.2318325 0.32276163 -1.004944 -0.3812232 -0.37934408 0.86872876 -0.6536926
-0.7722646 -0.7816587 1.2114183 -1.0454695 -0.6329149 1.262711 -0.45108634 -0.4200594
0.57387924 0.01374371 -0.27558655 -1.6662534 0.08183445 -0.34516484 0.3675224 0.39285251
0.37463996 -0.38879582 -0.45449284 -0.28576314 0.7623911 -0.39190271 -0.4994484 -0.08420205
0.8836193 0.75909245 0.752851 0.7349826 -0.3061457 -0.76658016 -0.12743893 -0.004903436
0.778974 0.81329197 0.4605741 -0.80562407 -0.23925522 0.6766211 1.1650829 1.9373401
-0.10463813 -0.95642954 1.6814365 2.0170002 -0.9188582 -2.1525474 -0.22174719 0.25276423
1.4835494 -0.037984617 -0.53378475 0.53895706 1.2129508 -0.2613677 -0.037073575 -2.344995
1.292589 -0.46140432 0.02211988 -1.0754085 0.98803335 0.02176571 0.33745912 2.3147569
1.0929016 -0.74064285 1.1295922 -1.1097957 -0.9021119 -0.847661 1.0864694 -0.69566345
2.18951 -1.2509198 -0.13805376 0.5173125 -0.53239805 -0.3697744 0.3996186 -0.29233032
00000000: 956e 8bbf c8af fa3d 0d10 ffbe 8b2f 0cc0
00000010: 2ad6 823f 212d c93e 2bde 16c0 c70d 5b3f
00000020: 2404 543e 05f8 96be 06c9 7f3f 8f57 e33f
00000030: da70 98bf 654a a6bf 988b af3d 2b08 9d3c
00000040: bd1e 1bbf 4c6c 95be d3b3 773e d84d 8dbf
00000050: b2bd 5f3e 8de7 583f 6e9b f2bc b49c 333e
00000060: ad1f 4ebf ba01 c7be aea7 9b3e 7eea 96be
00000070: cfe9 0540 890f 543f fcf6 2a3f 5462 72bf
00000080: 85bc 3d3f e1c6 01be 4fef a2bf 6bb6 bc3e
00000090: 80a3 3540 ce56 07bf ab0e 813f 12a1 debe
000000a0: 9c85 66bd 7278 27bf b731 95b9 b6f3 6fbe
000000b0: 0261 93be 17ad 82be 5bb4 16bf 6f9a d03f
000000c0: 66bf 4b3e 45c8 893f c450 2c3e 1525 aa3e
000000d0: 885f ddbf c5f1 243f 5b70 7a3f 4c56 173e
000000e0: fd96 1d3e 4580 f8bd f107 3d3f 84ad 6a3f
000000f0: 5214 773f e6c6 c23e 0ffc 893f 2e18 47c0
00000100: 09a2 1ebf fa66 c73d 9df5 07c0 0669 4b40
00000110: ef98 953e 04eb 223f 0360 6c3f 823e 423f
00000120: 2503 3abd 61d7 9d3f 6dd9 48bd 86bb 4dbd
00000130: a276 4fbf 6a26 1dbf 9dd5 b23e c98e 3fbf
00000140: 784c d3bc 6c2c 473e 2602 043f 58b2 113e
00000150: 2b2b 073f d031 093c bd1d b939 2673 b2bd
00000160: e0c2 81bf e9f2 aabe fa81 673f bbe0 4bbe
00000170: eef1 1fbf 96ec a7be d7fa 823b 7590 7fbe
00000180: afaa 27be 926f ec3e cfd6 b9bd 53ed d8bf
00000190: 23fc df3f 98ba dabe 522c 5ebf a7fc d83e
000001a0: 9c44 8c3f a5cc 80bf 8bbf 713f 3f29 d2bd
000001b0: b7d6 f5bd 844d 40bf 7adc 9b3f 0c55 fc3c
000001c0: 1872 ec3f 6497 4d3e c321 093f e101 0abd
000001d0: 2c11 b63f 740c 6ebf 3ca3 55bf d7c4 0bbd
000001e0: 3b86 613f 5bbd 393e 4194 47c0 461e 133e
000001f0: 660d 3fbf 612a fbbe 087a 2a3f 8ba8 373f
00000200: dcf4 c5bf 27f4 8040 5dc9 083c d837 8b3f
00000210: cb27 a5bf 1be3 f93e bb2f e9be f325 89bc
00000220: d9c7 1cbf cf49 4b3f a2e3 e3bf 16db 3c3f
00000230: 091c ebbe 8983 f0bd 37bf b8be 8f23 0e40
00000240: 56a2 91be 6f31 f8be b97a 583f 0429 ab3f
00000250: 4479 4840 cb48 0fc0 a7b7 3abf c40b bc3e
00000260: d0c3 eabf 3fe6 c1bf 8298 213f 35f8 113f
00000270: 4f57 29bf ab8a 48bf d198 5d3f 474e c9bd
00000280: 8bbd 4abd 9a54 943f dde5 22bf ea88 e1bd
00000290: 6a27 1040 8947 42bf e4be db3c 1f78 15bf
000002a0: 4bad b63d b0ac 9d3f 0341 a53e 01a2 80bf
000002b0: b02f c3be 6339 c2be 0265 5e3f 6658 27bf
000002c0: 22b3 45bf c91a 48bf c10f 9b3f f2d1 85bf
000002d0: b606 22bf 84a0 a13f caf4 e6be 0712 d7be
000002e0: c0e9 123f 4c2d 613c ae19 8dbe cb47 d5bf
000002f0: d298 a73d 72b9 b0be e52b bc3e f723 c93e
00000300: cfd0 bf3e 3f10 c7be 49b3 e8be 8c4f 92be
00000310: 102c 433f 79a7 c8be b3b7 ffbe 2072 acbd
00000320: e034 623f e253 423f d8ba 403f d227 3c3f
00000330: 21bf 9cbe 993e 44bf 5a7f 02be 01ad a0bb
00000340: d76a 473f e733 503f 5ed0 eb3e 613d 4ebf
00000350: 52ff 74be 0a37 2d3f 7021 953f c3fa f73f
00000360: 844c d6bd 91d8 74bf 5039 d73f 8816 0140
00000370: 4a3a 6bbf 56c3 09c0 b211 63be 506a 813e
00000380: f2e4 bd3f c295 1bbd 1ea6 08bf 17f9 093f
00000390: f941 9b3f fdd1 85be 76da 17bd 6614 16c0
000003a0: 8e73 a53f 303d ecbe c034 b53c fca6 89bf
000003b0: c1ef 7c3f 014e b23c 71c7 ac3e fa24 1440
000003c0: 33e4 8b3f c59a 3dbf 7a96 903f c90d 8ebf
000003d0: cef0 66bf 5000 59bf 6e11 8b3f 0017 32bf
000003e0: ef20 0c40 241e a0bf f75d 0dbe 986e 043f
000003f0: 3d4b 08bf 1253 bdbe cf9a cc3e 52ac 95be

l3.bias f4 [4]
0.11172129 0.049364585 0.047009412 0.14721166
00000000: 22ce e43d 8532 4a3d f18c 403d a7be 163e
