preTrained/500TD3_BipedalWalkerHardcore-v3_0_critic_2_target.pth (torch_old, 529892 bytes, 5 tensors)

l1.weight f4 [400, 28]
0	0xbf15524d	-0.58328706
1	0xbfb1395e	-1.3845632
2	0x3f24a2d3	0.6431095
3	0xbf425396	-0.7590879
4	0xbe7f0a5f	-0.249063
5	0xbe5b0633	-0.21389084
6	0xbe806c2d	-0.25082532
7	0x3d81df6f	0.06341445
8	0xbee8960c	-0.45426977
9	0x3f5d7c31	0.86517626
10	0x3d56e26c	0.052462026
11	0x3f1d00e6	0.61329496
12	0x3e0fd9e2	0.1404796
13	0xbe8e5efd	-0.27806845
14	0xbf3c451b	-0.73542947
15	0xbe433adb	-0.1906542
16	0x3b554e4a	0.0032547885
17	0x3f1e3fa9	0.6181589
18	0x3f392989	0.72329
19	0x3f0c8044	0.5488322
20	0xbe8465a7	-0.25858805
21	0xbe7778eb	-0.2416722
22	0xbe282530	-0.16420436
23	0xbc9577e2	-0.018245641
24	0xbdb51cf3	-0.08843412
25	0xbe8ff166	-0.2811386
26	0x3e6b40b4	0.22973901
27	0x3deabb57	0.114615135
28	0xbd1bd1ce	-0.038041882
29	0x3ff2f918	1.8982267
30	0x3f9053e9	1.1275607
31	0xbefb72cc	-0.4911102
32	0x3f134171	0.5752173
33	0xbdd5f52c	-0.104471534
34	0xbe3fd096	-0.18731913
35	0x3f02966a	0.51010764
36	0xbdf3142f	-0.11869084
37	0x3e11be79	0.14232816
38	0xbf075447	-0.5286297
39	0xbdd04a28	-0.10170394
40	0x3e4d721c	0.2006306
41	0xbd7f3bbe	-0.062312834
42	0x3f2559da	0.6459023
43	0x3f00184c	0.50037074
44	0x3db63c5b	0.08898231
45	0xbdfa849c	-0.122323245
46	0xbe7f7eb5	-0.24950679
47	0xbebd77bc	-0.37005413
48	0xbf01aff3	-0.506591
49	0xbf05fb5f	-0.52336687
50	0xbea21db4	-0.31663287
51	0xbe23edc3	-0.16008668
52	0xbee5243f	-0.44754216
53	0xbe85a58b	-0.26102862
54	0x3ed21dfb	0.41038498
55	0xbe22ccfc	-0.15898508
56	0x3f85b331	1.044531
57	0x4067f324	3.6242151
58	0xbf186ac8	-0.59537935
59	0x3eb0eadd	0.34554186
60	0x3f3622a4	0.7114661
61	0x3dbd8bf3	0.09255209
62	0xbe40c834	-0.18826371
63	0x3e0e2e09	0.13884749
64	0x3e2ba33f	0.16761492
65	0x3e9a2375	0.30105177
66	0x3e9e1852	0.3087793
67	0xbe24943a	-0.16072169
68	0x3e2b0b45	0.16703518
69	0xbf637314	-0.8884747
70	0x3e10a89e	0.14126822
71	0xbe1b49fc	-0.15164942
72	0xbea09a5b	-0.31367764
73	0xbe5b6e11	-0.21428706
74	0x3e9fb2a0	0.31190968
75	0x3f2a8a95	0.6661771
76	0x3e2431c5	0.1603461
77	0xbd67e39c	-0.05661355
78	0xbe339ec9	-0.1754104
79	0x3e360f3a	0.17779246
80	0x3d88e9f9	0.06685252
81	0x3d2304c5	0.03979947
82	0x3da4519d	0.08023379
83	0x3d887cc2	0.06664421
84	0xbea60c68	-0.3243134
85	0x3ee488c4	0.44635594
86	0xbfaa02ab	-1.3282064
87	0x3f1714ba	0.59016
88	0x3e90d654	0.2828852
89	0xbe1df6a2	-0.15426114
90	0x3daffea3	0.0859349
91	0x3e4520af	0.19250749
92	0xbe71a728	-0.23598921
93	0x3f26ac67	0.65106815
94	0xbea9bc77	-0.331516
95	0xbed6c83c	-0.41949642
96	0xbe7c82cb	-0.24659269
97	0x3df66329	0.12030632
98	0x3f1b060e	0.60556114
99	0xbd704e2c	-0.0586683
100	0x3e8c17fa	0.27362043
101	0x3d74cdd3	0.0597666
102	0xbe90e59f	-0.28300187
103	0xbeccee65	-0.4002563
104	0xbd967c38	-0.073479116
105	0x3f183f9d	0.59472066
106	0x3eddbca3	0.4330798
107	0x3d881942	0.066454425
108	0x3f1b1063	0.6057188
109	0x3e14a1ad	0.145148
110	0xbd703b6d	-0.058650423
111	0x3ebc3aaf	0.36763522
112	0xbefb2e26	-0.49058646
113	0x3f1d3c7e	0.6142043
114	0xbdbab458	-0.09116429
115	0xbeee8d59	-0.46592215
116	0xbf244286	-0.64164007
117	0xbecf151b	-0.4044579
118	0x3f8969ee	1.0735452
119	0x3e688eea	0.22710767
120	0xbdef39ba	-0.11680932
121	0xbf1fc21a	-0.6240555
122	0xbe1a9fc1	-0.15100004
123	0xbd70d276	-0.05879446
124	0xbe27d994	-0.16391593
125	0xbf8dd941	-1.1081926
126	0x3f9cb037	1.2241277
127	0x3e583d5e	0.2111716
128	0x3dd3ac14	0.10335556
129	0xbe8233ef	-0.25430247
130	0xbeffb7a9	-0.4994481
131	0xbf1d1bf6	-0.6137079
132	0xbf3c5150	-0.73561573
133	0xbf1bb6b3	-0.6082565
134	0xbef5660c	-0.47929418
135	0xbe802f4e	-0.2503609
136	0xbdc80b9f	-0.097678415
137	0x3ef1ed1f	0.47251222
138	0xbe4a12da	-0.19733754
139	0xbd8ec95c	-0.06972
140	0xbedec725	-0.4351131
141	0xc01fea09	-2.4986594
142	0x4004c0d5	2.0742695
143	0x3e5e4e32	0.21709517
144	0x3e0426af	0.12905382
145	0x3d3fa29e	0.046785943
146	0x3e013ee7	0.12621652
147	0x3d4cea32	0.050028034
148	0x3edf085c	0.43561065
149	0xbf284ace	-0.6573914
150	0xbe18b6c8	-0.14913476
151	0xbf1e14db	-0.6175057
152	0xbdbcb9fa	-0.0921516
153	0x3d7b3f9b	0.061339956
154	0x3d9c8096	0.07641713
155	0x3e41f694	0.18941718
156	0x3e69af39	0.22820748
157	0xbf3e84e2	-0.74421513
158	0xbe78a1a5	-0.24280412
159	0x3ecd3072	0.40076023
160	0x3ef027be	0.4690532
161	0xbd9b7d6a	-0.0759228
162	0xbdb69cc8	-0.089166224
163	0x3ed3bcfc	0.4135512
164	0x3cba947f	0.022775887
165	0x3d4fc2bd	0.050722826
166	0xbc9dd500	-0.019266605
167	0xbcba2ff1	-0.022727938
168	0x3eee1f5f	0.4650831
169	0xbf0b7aa3	-0.54484004
170	0xbe52f48d	-0.20601101
171	0xbe12a21d	-0.14319654
172	0x3e98aa0f	0.29817244
173	0x3d3712ae	0.04469555
174	0xbeff4c7e	-0.49863046
175	0xbc6c040a	-0.01440526
176	0x3f43a505	0.76423675
177	0xbbadbeab	-0.0053022704
178	0xbe9bb132	-0.30408627
179	0xbe9c3dde	-0.3051595
180	0xbe90b0fb	-0.28260025
181	0xbeb2efeb	-0.34948668
182	0xbf1c28eb	-0.60999936
183	0xbed3d61a	-0.41374284
184	0x3eb59a3c	0.35469234
185	0x3f473de5	0.7782882
186	0x3ee4ef0a	0.44713622
187	0xbeac1225	-0.33607593
188	0xbf12a1a8	-0.5727792
189	0x3c078379	0.008271092
190	0xbd37905c	-0.044815406
191	0xbe31359f	-0.17305611
192	0xbcefc7bc	-0.029270045
193	0xbe545620	-0.20735979
194	0xbce24b4e	-0.027623799
195	0xbcf1a168	-0.02949591
196	0xbf03e4e5	-0.5152114
197	0xbfe0c452	-1.7559912
198	0xbf1c8b51	-0.6115008
199	0x40729874	3.790555
200	0xbe899d49	-0.26877812
201	0xbce13f76	-0.02749608
202	0xbf0925bd	-0.5357321
203	0x3e187d49	0.14891542
204	0xbe19a08b	-0.15002649
205	0xbd8f27ab	-0.06989988
206	0x3d4b3aec	0.04961674
207	0xbdbbd041	-0.09170581
208	0xbe1c27bb	-0.15249531
209	0xbced1d41	-0.028944613
210	0xbe5a5ee1	-0.21325256
211	0x3d6ceae7	0.057841208
212	0xbec5f276	-0.38661546
213	0xbef55e44	-0.4792348
214	0x3df2fb2d	0.11864314
215	0x3f791d99	0.9731079
216	0x3f7d8f69	0.9904695
217	0x3f6516d2	0.89487946
218	0x3f4853cf	0.7825288
219	0x3e591414	0.21199065
220	0xbdc69962	-0.09697224
221	0x3dfc0c8c	0.123070806
222	0xbb524907	-0.0032086985
223	0xbc27011a	-0.010193134
224	0xbecfb72c	-0.40569437
225	0x3e86404e	0.26220936
226	0x3f1c1235	0.6096528
227	0x3f7bd84e	0.9837693
228	0xc002ee72	-2.0458035
229	0x3e727ce8	0.2368046
230	0xbec29c9a	-0.38010103
231	0xbc0f98a2	-0.008764418
232	0xbd0c2e42	-0.034223802
233	0x3f0294f0	0.5100851
234	0xbcbdc58e	-0.02316549
235	0xbf025fe5	-0.50927573
236	0xbc40dd86	-0.011771565
237	0x3ece33eb	0.40273985
238	0xbe12e1b2	-0.14343908
239	0x3f0ddb16	0.55412424
240	0x3dc15c44	0.094414264
241	0x3e81c4b2	0.2534538
242	0x3ec83a1b	0.3910683
243	0x3e4ac451	0.19801451
244	0x3d683678	0.05669257
245	0x3e7630c2	0.24042037
246	0x3f09099f	0.53530306
247	0x3ea92d2e	0.33042282
248	0xbe4283bb	-0.18995564
249	0x3e373ddf	0.17894696
250	0x3c361fb4	0.011115957
251	0x3d761785	0.060081024
252	0xbf2ea676	-0.6822275
253	0x3ffb0017	1.9609402
254	0x3f377786	0.71666753
255	0x3f07399e	0.5282229

l1.bias f4 [400]
0	0x3dcaf08e	0.099091634
1	0x3da602ac	0.08105978
2	0xbd279dfd	-0.040922154
3	0xbcd00f99	-0.025398063
4	0x3cdf17dd	0.027233059
5	0x3d873c6f	0.06603324
6	0x3ea24707	0.31694815
7	0xbf81bbde	-1.0135458
8	0xbe1ec3e3	-0.15504412
9	0x3f0b60d5	0.5444463
10	0x3ebdac95	0.37045732
11	0x3edc2480	0.42996597
12	0xbf857492	-1.04262
13	0x3f1d674f	0.6148576
14	0xbf27cf56	-0.65550745
15	0xbf0fd6c0	-0.5618706
16	0x3f22d485	0.6360553
17	0x3f626c44	0.8844645
18	0x3f7f2b48	0.99675417
19	0x3f836188	1.0264139
20	0x3f60104a	0.87524855
21	0xbda97523	-0.08274295
22	0xbe920b99	-0.28524473
23	0xbde37218	-0.11105746
24	0xbe843ded	-0.25828496
25	0x3e8513a9	0.25991562
26	0xbefca37a	-0.49343473
27	0x3f9f22ef	1.2432536
28	0x3f3e21f9	0.7427059
29	0x3f3d3dbc	0.73922324
30	0xbebbdfdc	-0.3669423
31	0xbc516353	-0.012780028
32	0xbf450530	-0.7696104
33	0x3da6d931	0.08146895
34	0x3efe4978	0.49665427
35	0xbe8ea866	-0.27862853
36	0x3f859601	1.0436403
37	0x3eb39d21	0.35080817
38	0xbdd219ca	-0.10258825
39	0xbf00bc59	-0.50287396
40	0xbf824ff9	-1.0180656
41	0xbf057ed4	-0.5214665
42	0xbed0c356	-0.4077403
43	0x3f1bf3c2	0.6091882
44	0xbeb1ec48	-0.3475058
45	0xbe1f05fb	-0.15529625
46	0x3b40131f	0.0029308272
47	0x3e62e800	0.22158813
48	0xbe9ad91b	-0.30243763
49	0x3ead74d4	0.33878195
50	0x3f7dfcc9	0.99213845
51	0x3f3247a1	0.6964055
52	0xbd4b9379	-0.049701188
53	0x3f2e24ac	0.68024707
54	0x3eb6e286	0.357197
55	0xbf32621e	-0.69680965
56	0x3f417496	0.7556852
57	0x3e7cdf82	0.24694636
58	0x3f38e009	0.7221685
59	0x3ebf8edc	0.3741368
60	0xbf2c524e	-0.67313087
61	0x3d770c0a	0.060314216
62	0x3f1fba9a	0.62394106
63	0x3f331253	0.69949836
64	0x3f71451b	0.9424607
65	0x3e0895c0	0.13338375
66	0x3e2be592	0.16786793
67	0x3db0f7ee	0.08641039
68	0x3ecf2558	0.4045818
69	0x3e987ae4	0.29781258
70	0xbf24a0a4	-0.6430762
71	0xbdaef404	-0.08542636
72	0x3efe9062	0.4971953
73	0x3db184b4	0.08667889
74	0xbef33249	-0.47499302
75	0xbd22dc26	-0.03976073
76	0x3e9298be	0.28632158
77	0xbecee7ce	-0.40411228
78	0x3f08e3d3	0.5347263
79	0x3f59b4ee	0.850417
80	0xbd858164	-0.0651882
81	0xbed4c3f9	-0.41555765
82	0x3ee1233b	0.4397219
83	0xbd1ec622	-0.038763173
84	0x3c707509	0.014676341
85	0x3ed2385a	0.41058618
86	0xbf30a5ba	-0.6900288
87	0x3ddcdb7d	0.107840516
88	0x3dcd0e8c	0.1001254
89	0x3ea78146	0.32715815
90	0xbe23a5dd	-0.1598124
91	0x3efece8d	0.4976696
92	0xbc03b18a	-0.008037934
93	0xbf53ed2f	-0.8278379
94	0x3ea6e18b	0.3259395
95	0xbe1a1084	-0.15045363
96	0x3e405df1	0.18785836
97	0x3ea24fea	0.31701595
98	0x3d21e198	0.039521784
99	0xbf216782	-0.63048565
100	0x3ce5d02c	0.028053366
101	0x3d3f5838	0.04671499
102	0xbdf6b1d3	-0.12045636
103	0x3e8b1149	0.27161625
104	0x3d84943a	0.064735845
105	0xbebd7a02	-0.37007147
106	0x3f13cedc	0.5773752
107	0xbf5a51f1	-0.8528128
108	0xbf45a77b	-0.7720868
109	0xbec9b943	-0.39399156
110	0x3ebdd3c3	0.37075624
111	0x3f770b30	0.96501446
112	0xbed30b50	-0.41219568
113	0xbed105e3	-0.40824804
114	0xbe44342e	-0.1916053
115	0x3f036add	0.51334935
116	0x3f0a53dc	0.5403421
117	0xbd89b9a6	-0.06724863
118	0xbf12a82c	-0.5728786
119	0x3f01781f	0.50573915
120	0xbe495dea	-0.19664732
121	0x3e16f581	0.1474209
122	0xbf1c7ae8	-0.6112504
123	0xbdd2b579	-0.102885194
124	0xbe51d6f4	-0.20492154
125	0x3edcb912	0.43109947
126	0xbed3489b	-0.4126633
127	0x3d13d496	0.03609141
128	0x3ef929c3	0.48664674
129	0xbe39ab59	-0.1813177
130	0x3eba8ee5	0.36437145
131	0xbd5b2799	-0.05350456
132	0xbdefa58d	-0.11701498
133	0x3f15a903	0.58461016
134	0xbf8b8172	-1.0898879
135	0xbe874aa7	-0.26424143
136	0xbf44361b	-0.7664506
137	0xbd9e0078	-0.07714933
138	0x3f33ea82	0.70279706
139	0x3ef8efbf	0.48620412
140	0xbedcb4b5	-0.4310662
141	0x3d45ebb2	0.04832048
142	0x3f30a081	0.6899491
143	0xbf0e4c98	-0.5558562
144	0x3e869967	0.26288912
145	0x3ebc0b5b	0.36727414
146	0x3e80bce1	0.25144103
147	0x3e8569f5	0.260574
148	0x3e86a20c	0.26295507
149	0x3e00cad4	0.12577373
150	0xbe72aa4c	-0.23697776
151	0x3d602946	0.05472686
152	0x3db231ee	0.087009296
153	0xbf4b1d0d	-0.793412
154	0xbe49155f	-0.19637059
155	0xbee2cb6d	-0.44295827
156	0xbed87533	-0.42276916
157	0xbf0c8b3f	-0.5489997
158	0x3f8d835b	1.1055712
159	0x3f254702	0.64561474
160	0x3f0e5fd7	0.5561499
161	0xbe22d49b	-0.15901415
162	0x3f2fd436	0.68683183
163	0x3f086cb7	0.53290886
164	0xbf0e4592	-0.55574906
165	0x3f08c506	0.53425634
166	0xbd048095	-0.032349188
167	0xbd7eeca2	-0.06223739
168	0x3f142f3c	0.57884574
169	0xbce28a49	-0.02765383
170	0xbc5ed2ac	-0.013600033
171	0xbf311b4a	-0.69182265
172	0xbd26c8ed	-0.04071896
173	0xbd6551ef	-0.05598634
174	0x3e9759d7	0.2956073
175	0x3d9cc617	0.0765497
176	0x3f0e5f8e	0.55614555
177	0x3c39fb95	0.011351486
178	0xbe9909bf	-0.29890248
179	0xbdf885fb	-0.1213493
180	0x3f4191ef	0.756133
181	0x3e5283c0	0.20558071
182	0xbe45033c	-0.19239515
183	0x3e116ab2	0.14200857
184	0x3d637ef9	0.055541012
185	0xbd3fd550	-0.04683429
186	0x3ea1b8c1	0.3158627
187	0xbe16b0a5	-0.14715822
188	0x3d8c9c5a	0.06865759
189	0x3f0017c1	0.50036246
190	0xbf477fb8	-0.7792926
191	0xbf037c3b	-0.51361436
192	0xbf1becf4	-0.60908437
193	0xbe329256	-0.17438635
194	0xbf20e27d	-0.62845594
195	0x3ecd5b9d	0.40108958
196	0xbe012fc7	-0.12615882
197	0xbddf45a1	-0.109019525
198	0xbf13a701	-0.576767
199	0xbf06ca72	-0.5265266
200	0x3ed2f621	0.41203406
201	0xbe62ca8e	-0.22147581
202	0x3da313e6	0.0796278
203	0xbd89ee1a	-0.067348674
204	0x3e67d6af	0.22640489
205	0xbf008177	-0.5019755
206	0xbe44519a	-0.19171754
207	0xbcd0bba1	-0.025480093
208	0xbdf6fce9	-0.120599575
209	0x3f309653	0.68979377
210	0x3f458b66	0.7716583
211	0x3ee5087e	0.44733042
212	0xbeee134b	-0.46499094
213	0x3e2b30ae	0.16717789
214	0x3f065c65	0.5248473
215	0xbe3221c9	-0.173957
216	0x3f057b17	0.52140945
217	0xbe98bd9b	-0.29832157
218	0x3d550704	0.052008644
219	0x3ee823a4	0.45339692
220	0xbf176c9a	-0.5915009
221	0x3f09d5a6	0.53841627
222	0x3f25ab34	0.6471436
223	0x3d0a9081	0.033829216
224	0xbeae382e	-0.34027237
225	0x3eb08c42	0.34482008
226	0x3e7a33e3	0.24433856
227	0x3eb21005	0.34777847
228	0xbf1d1047	-0.6135296
229	0xbe8ff7a7	-0.2811863
230	0x3f6d1b53	0.9261982
231	0x3e9b70ad	0.30359402
232	0x3f0dbacc	0.55363154
233	0xbe98c0d2	-0.2983461
234	0xbf42e9e5	-0.76138145
235	0xbebc076d	-0.36724415
236	0x3f3c0564	0.73445725
237	0x3cf83913	0.030300653
238	0x3ed2cbb5	0.4117104
239	0xbde876a0	-0.11350751
240	0x3eaa49a9	0.33259323
241	0xbece228c	-0.40260732
242	0x3e25560f	0.1614611
243	0xbe25d99d	-0.16196294
244	0x3e9a78cf	0.30170295
245	0xbdb636e8	-0.08897191
246	0x3edef394	0.4354521
247	0x3f1b2bd3	0.60613745
248	0xbf6aa529	-0.91658264
249	0xbf524cfe	-0.8214873
250	0xbe859d75	-0.26096693
251	0x3f5598ef	0.83436483
252	0xbec405ea	-0.38285762
253	0xbd39293f	-0.04520535
254	0x3f470937	0.77748436
255	0x3d39516b	0.04524366

l2.weight f4 [300, 400]
0	0x3e9be46f	0.30447719
1	0x3f023544	0.50862527
2	0xbea982cd	-0.33107606
3	0x3ea867e8	0.32891774
4	0xbfa96b65	-1.3235899
5	0xbf77f6e7	-0.9686112
6	0x3f6bf917	0.92176956
7	0xc036882d	-2.8520615
8	0xbf16e5a0	-0.5894413
9	0x3eb29ec5	0.34886757
10	0xbfdad751	-1.7096959
11	0x3faa0b79	1.3284751
12	0xbfd5d650	-1.6706028
13	0x3f8c572a	1.09641
14	0xbf4d0c85	-0.8009723
15	0xbe8499c3	-0.2589856
16	0x3f34330b	0.70390385
17	0x3ef3078c	0.47466695
18	0xbc8032af	-0.015649168
19	0x3f116820	0.5679951
20	0x3f022397	0.50835556
21	0xbea67824	-0.32513535
22	0xc01267f0	-2.2875938
23	0xbefba445	-0.49148765
24	0xbfbdc3ed	-1.4825417
25	0xbdc224f2	-0.09479703
26	0xbf70d919	-0.94081265
27	0x3ec0cfc5	0.37658516
28	0x3ee7ee9e	0.45299238
29	0x3f38c987	0.72182506
30	0xbf966655	-1.1749979
31	0xbe58c080	-0.21167183
32	0xc04c3ac7	-3.1910875
33	0xbfa4cccc	-1.2874999
34	0x3e0f2ecc	0.13982695
35	0xc06ed18c	-3.7315397
36	0x3f146977	0.57973427
37	0x3ea48c9b	0.32138523
38	0x3ef92760	0.48662853
39	0xbfefb9cf	-1.8728579
40	0xc0086902	-2.1314092
41	0xbfc3e61c	-1.5304599
42	0x3f124662	0.57138646
43	0x3f0beea4	0.5466101
44	0xc05accbc	-3.418746
45	0xbfab9140	-1.3403702
46	0xbd077dbc	-0.033078894
47	0x3f5c50d6	0.86060846
48	0xbe4013fb	-0.18757622
49	0x3db18c78	0.086693704
50	0x3fba21cc	1.4541564
51	0x3f877e18	1.0585356
52	0xbfd84408	-1.6895761
53	0x3ee79d68	0.4523728
54	0x3f375bc3	0.7162439
55	0xc02ba14c	-2.6817198
56	0x3e2867cb	0.16445844
57	0x3eaa96a2	0.3331805
58	0xbea1ec2e	-0.31625503
59	0x3ef1f660	0.47258282
60	0x3eb76735	0.35820928
61	0xbe8f41c1	-0.27979854
62	0x3f231dfb	0.6371762
63	0x3f3223f7	0.6958613
64	0x3f139a79	0.5765758
65	0xbe29ddb5	-0.16588481
66	0x3e9e378d	0.30901757
67	0x3ddf636c	0.10907635
68	0x3f52506e	0.82153976
69	0xbe861f99	-0.26195982
70	0xbfaf6e3d	-1.3705517
71	0x3efdae3e	0.49547
72	0x3e50c621	0.2038808
73	0x3cc71403	0.024301535
74	0xbeaf6bd9	-0.3426197
75	0xbf30c07f	-0.69043726
76	0x3eb53bac	0.3539709
77	0xc072dbcc	-3.7946653
78	0xbfae91ea	-1.363828
79	0x3f24ef9b	0.6442811
80	0xbf32e0cd	-0.6987427
81	0xbf91f08a	-1.1401532
82	0x3e763829	0.24044861
83	0x3ed3faaa	0.4140218
84	0x3f131435	0.5745271
85	0x3ebc06e7	0.36724016
86	0xbf03daa8	-0.5150552
87	0x3f89a77d	1.0754238
88	0xbf61b4bc	-0.88166404
89	0x3fa76d1f	1.3080176
90	0x3f7c3b49	0.9852796
91	0xbd755edc	-0.059904918
92	0xbd90120f	-0.070346944
93	0xbf4d3158	-0.8015342
94	0x3f9db522	1.2320902
95	0xbf10b701	-0.5652924
96	0x3f748156	0.9550985
97	0x3ed3b04a	0.41345435
98	0x3eebe685	0.4607431
99	0xbe93ab1f	-0.28841493
100	0x3d0dfddd	0.03466593
101	0xbfa1bf04	-1.2636418
102	0xbfc7b7d0	-1.560297
103	0x3cf8ed50	0.030386597
104	0xbdc015b5	-0.0937914
105	0xc0a506d5	-5.157084
106	0xbd912515	-0.07087151
107	0x3d4331ad	0.047654796
108	0x3e45bdf1	0.19310738
109	0xbf3b2394	-0.7310116
110	0x3f8f06f5	1.1173998
111	0x3f0d09fa	0.5509335
112	0xbf411c3f	-0.75433725
113	0xbfa56ac6	-1.292321
114	0xbd4c165b	-0.049826007
115	0x3f3a30dd	0.7273081
116	0xc01e85c4	-2.4769144
117	0x3eb43ce3	0.35202703
118	0xc0a82a90	-5.2551956
119	0x3f47af50	0.7800188
120	0xbdbbb3b9	-0.09165139
121	0x3e6c407d	0.23071475
122	0xbc32668e	-0.010888709
123	0x3f0c714c	0.5486038
124	0x3e7a67eb	0.24453704
125	0x3f6ca5ec	0.92440677
126	0xbfb2909c	-1.3950381
127	0x3edea2a9	0.43483475
128	0x3c50f5f5	0.012753953
129	0xbf73bcca	-0.95209944
130	0x3ef04501	0.46927646
131	0xbebded88	-0.37095284
132	0xbf0a87f3	-0.5411369
133	0x3ef99e6f	0.48753688
134	0xc09bc379	-4.8676114
135	0xbf1d8ad6	-0.6153997
136	0xbf5ad089	-0.8547445
137	0x3f28b37d	0.6589888
138	0x3f71ea81	0.9449845
139	0x3e3ae0c4	0.18249804
140	0x3e0a871c	0.13528103
141	0x3ebd6511	0.3699117
142	0x3e782122	0.24231389
143	0xc00527dd	-2.080558
144	0x3f17b415	0.5925916
145	0x3f3b1f51	0.7309466
146	0xbf7c96fe	-0.98667896
147	0x3f4e9395	0.8069394
148	0xbfa0267e	-1.2511747
149	0xbf65e145	-0.8979686
150	0xbfd58547	-1.6681298
151	0x3f091dce	0.53561103
152	0xbf43316f	-0.76247305
153	0x3eb9a4ea	0.36258632
154	0xbee7bde0	-0.4526205
155	0xbf3e296c	-0.74281955
156	0xbec6af5b	-0.3880566
157	0xbfc8e952	-1.5696204
158	0x3e5774fd	0.21040721
159	0x3dcb0f55	0.09915034
160	0x3c4d8582	0.012544038
161	0xbddb1a54	-0.10698381
162	0x3e3fd508	0.18733609
163	0x3f20cb8c	0.6281059
164	0xbecbe256	-0.39821118
165	0x3f37dc33	0.7182037
166	0x3fd01d19	1.625888
167	0xbf5a0522	-0.8516408
168	0x3f3e89c9	0.74428993
169	0x3f4ed8a2	0.80799305
170	0xbfcf4e75	-1.6195818
171	0xbe938a55	-0.28816476
172	0xbff8675c	-1.9406543
173	0xbeb70483	-0.3574563
174	0xbff8b33e	-1.94297
175	0xc062849b	-3.5393436
176	0x3edeec74	0.43539774
177	0xbf1707c8	-0.5899625
178	0x3f3a7e3b	0.7284886
179	0x3e0c1f0d	0.1368372
180	0x3f2db4c1	0.67853934
181	0x3eeab537	0.4584138
182	0xc0805cec	-4.011343
183	0x3eeef724	0.46672928
184	0xbf39991b	-0.72499245
185	0x3f71950a	0.9436804
186	0x3e5efb07	0.21775447
187	0x3fc5699c	1.5422854
188	0xbf68fb8d	-0.91008836
189	0x3f89eb55	1.0774943
190	0xbec0fe52	-0.3769403
191	0xbefe1e53	-0.4963251
192	0xbf22a616	-0.6353468
193	0x3fb651e7	1.4243745
194	0xbf598866	-0.8497375
195	0x3e8c6a88	0.27425027
196	0xbf55eec7	-0.8356747
197	0xbeeb02c1	-0.4590054
198	0xbe528fad	-0.2056262
199	0xbf60db27	-0.878344
200	0xbd7a464b	-0.061102193
201	0x3f32d3b1	0.69854265
202	0x3ef61f1a	0.48070604
203	0xbf1afe41	-0.6054421
204	0xc05c5a8c	-3.4430265
205	0x3ef0bf40	0.47020912
206	0xc00361c6	-2.0528426
207	0x3d0b4af6	0.034007035
208	0x3f182c79	0.5944286
209	0x3f0cb1ba	0.5495869
210	0x3e7690a9	0.24078621
211	0x3c899497	0.016794486
212	0xbd1d5858	-0.03841433
213	0xbffe8cec	-1.9886756
214	0x3f325519	0.696611
215	0x3e216983	0.15762906
216	0x3de0782c	0.10960421
217	0xbec49e0d	-0.38401833
218	0xbf63def6	-0.89012086
219	0xbd94fb41	-0.072744854
220	0xbe477074	-0.19476491
221	0x3eea0b53	0.45711765
222	0x3d4712e8	0.048602015
223	0xc08b43fd	-4.3520494
224	0xbfcbcb2f	-1.5921382
225	0x3f08cbe5	0.5343612
226	0x3ecef427	0.40420648
227	0xbed6fb1c	-0.41988456
228	0xbfa19c28	-1.262578
229	0xbfa73956	-1.3064373
230	0x3ea76c40	0.32699776
231	0xbfd5aa00	-1.6692505
232	0x3ff014a6	1.8756301
233	0xbe90e8ec	-0.28302705
234	0xbec8e74c	-0.39238966
235	0xc0559687	-3.3373125
236	0x3f3dbbaa	0.7411448
237	0x3e1757c3	0.14779572
238	0xba8be7dc	-0.0010673958
239	0x3ec8b147	0.39197752
240	0x3fd736dd	1.6813618
241	0xbf170802	-0.58996594
242	0x3f65782e	0.89636505
243	0x3f1755ca	0.5911528
244	0xbd9dc16a	-0.077029064
245	0x3f242b7f	0.6412887
246	0xbf2bc946	-0.67103994
247	0x3dcd01eb	0.100101314
248	0xbe2552a7	-0.1614481
249	0xbf6526f7	-0.8951258
250	0xbf899696	-1.074908
251	0x3f15f021	0.5856953
252	0xbfa5dcd6	-1.2958019
253	0x3f1c6ce5	0.6110366
254	0x3f7ee21d	0.9956377
255	0xc0283842	-2.6284337

l2.bias f4 [300]
0	0x3ed8cbc1	0.42342952
1	0x3f29baeb	0.6630084
2	0xbd5e1722	-0.05422128
3	0xbe2f67c4	-0.17129427
4	0xbca087bf	-0.019595979
5	0xbd1163f6	-0.03549572
6	0x3a5f51f9	0.000851899
7	0x3c103537	0.00880175
8	0x3c0977d4	0.008390386
9	0x3f251790	0.6448908
10	0x3ee29691	0.44255498
11	0x3eb16f42	0.34655195
12	0xbd909d86	-0.07061295
13	0xbd3ec078	-0.04657027
14	0x3ef98108	0.48731256
15	0x3f000e72	0.5002204
16	0xbc343860	-0.010999769
17	0xbea27c34	-0.31735384
18	0xbcb3de88	-0.021956697
19	0x3e38fbd7	0.1806482
20	0x3f1df36c	0.6169956
21	0x3e7b55f1	0.24544503
22	0x3ebcac11	0.36850026
23	0x3eae5e1c	0.34056175
24	0x3ec44afb	0.38338456
25	0x3e0587f5	0.13040145
26	0x3f5267d1	0.8218966
27	0x3e91f6c2	0.28508574
28	0xbd3ab2f8	-0.045580834
29	0xbd06a84d	-0.032875348
30	0x3e5b572c	0.21419972
31	0x3e23d62c	0.15999669
32	0x3e681c29	0.22666992
33	0x3ef0cfd1	0.4703355
34	0xbe582ed0	-0.21111608
35	0x3e92fbf3	0.28707847
36	0xbcb40340	-0.021974206
37	0xbe184991	-0.14871813
38	0x3b85698c	0.00407142
39	0xbbaf6537	-0.005352642
40	0x3cea5ee2	0.028609697
41	0x3f06a724	0.52598786
42	0x3de70c68	0.11281663
43	0x3de200b3	0.110352896
44	0x3e91ce92	0.28477913
45	0x3f02ede4	0.5114424
46	0x3ee0d9c8	0.43916154
47	0x3f019626	0.50619733
48	0x3ee5db31	0.44893792
49	0x3c0b79e4	0.008512948
50	0x3d89a2ff	0.06720542
51	0x3f2f7783	0.68541735
52	0x3eebb617	0.4603736
53	0xbc06adc5	-0.008220141
54	0x3dc87401	0.09787751
55	0xbe58c89a	-0.21170273
56	0xbba22e67	-0.0049493792
57	0x3ee531ab	0.44764456
58	0x3ec02b9d	0.37533274
59	0xbc1f205e	-0.009712307
60	0xbd1c1f3e	-0.038115732
61	0x3e942dde	0.28941244
62	0xbd5d1dea	-0.053983606
63	0x3defdf6f	0.117125385
64	0xbe1133df	-0.14179944
65	0x3c3bbc97	0.011458538
66	0xbd1825a6	-0.03714528
67	0xbc98b734	-0.018642046
68	0x3cd36f3b	0.025809875
69	0x3e62aeea	0.22137037
70	0x3f1c5c76	0.61078584
71	0xbd87894d	-0.06617985
72	0x3efc57b1	0.49285653
73	0x3ce88a22	0.02838618
74	0x3efc3dfc	0.4926604
75	0x3eef680f	0.46759078
76	0x3db1b334	0.086767584
77	0x3e4625f1	0.19350411
78	0xbe7bd944	-0.24594599
79	0x3f14bbf9	0.58099324
80	0xbd4089b1	-0.047006313
81	0xbebcf2ba	-0.36903936
82	0xbd06638d	-0.032809783
83	0x3ed460b3	0.41480026
84	0x3f1ae120	0.60499763
85	0xbd056f05	-0.03257658
86	0x3f04427a	0.51663935
87	0x3f0bdb7a	0.5463177
88	0xbc2a3d21	-0.010390551
89	0xbdc51a92	-0.096242085
90	0x3f459b92	0.77190506
91	0x3e348f15	0.17632706
92	0xbbe2f7b2	-0.0069265002
93	0xbcc059d9	-0.023480343
94	0xbe8d6c9d	-0.27621928
95	0xbd427359	-0.047473285
96	0xbe3619c2	-0.17783263
97	0xbc64c163	-0.013962123
98	0x3d02b55c	0.03191124
99	0x3ee2c30b	0.4428943
100	0xbd9cbe7a	-0.07653518
101	0x3e4a2204	0.19739538
102	0x3e4ee146	0.20203122
103	0xbd7e63e4	-0.062106982
104	0x3f297c97	0.66205734
105	0x3e10d04d	0.1414196
106	0x3f00f643	0.50375766
107	0xbdb74583	-0.08948805
108	0x3bf3411b	0.0074235327
109	0xbe92b134	-0.2865082
110	0x3b9a9f9f	0.0047187353
111	0x3e285cfb	0.16441719
112	0xbce491bb	-0.027901521
113	0x3d2bcbd6	0.04194244
114	0x3e51e164	0.20496136
115	0xbe633757	-0.22189079
116	0xbceeee13	-0.029166257
117	0x3f11bb67	0.5692658
118	0x3eb4918a	0.35267287
119	0xbd454b79	-0.04816768
120	0x3e0587ce	0.13040087
121	0xbe60a479	-0.21937741
122	0xbc4a3099	-0.012340688
123	0x3d4c0ebd	0.049818743
124	0x3d8b0c84	0.067894965
125	0xbc1a9cc3	-0.009436789
126	0x3eafcb60	0.3433485
127	0xbd488043	-0.048950445
128	0xbceaba28	-0.02865322
129	0x3e88c9b4	0.26716387
130	0x3cf2d86b	0.029644212
131	0x3d098330	0.033572376
132	0x3dbcc800	0.092178345
133	0x3eda7494	0.42667067
134	0x3e3c1142	0.18365958
135	0x3de05c17	0.10955065
136	0x3edae77a	0.42754728
137	0xbd222443	-0.039585363
138	0x3e113a61	0.14182426
139	0xbec3836c	-0.38186204
140	0xbd1d8cac	-0.038464233
141	0x3d8337fb	0.06407162
142	0x3d8ba9b8	0.06819481
143	0x3f20e301	0.6284638
144	0x3e3414a8	0.17586005
145	0x3ede1df6	0.43382233
146	0x3d213af3	0.03936286
147	0xbcabb3a2	-0.020959679
148	0x3bd4ec41	0.00649789
149	0x3d985996	0.07438962
150	0x3f357289	0.7087789
151	0xbe0f06e9	-0.1396748
152	0x3e7b1b14	0.24522048
153	0x3e206947	0.1566516
154	0x3d05b554	0.03264363
155	0xbe87069f	-0.2637224
156	0x3f08febe	0.53513706
157	0x3dd75387	0.105139785
158	0x3f1bf745	0.6092418
159	0xbde0d2a4	-0.109776765
160	0x3f3c8fad	0.7365673
161	0xbe259be3	-0.16172747
162	0x3e699472	0.22810534
163	0x3c73b7db	0.0148753775
164	0xbe1cb96e	-0.15305111
165	0x3df0da3e	0.117603764
166	0xbd17b396	-0.0370365
167	0xbce3ac0b	-0.027791997
168	0x3f4b1126	0.7932304
169	0x3f2288d6	0.63490045
170	0x3b17b205	0.002314688
171	0xbce26963	-0.027638143
172	0x3cdb5031	0.026771637
173	0xbd42e63f	-0.04758286
174	0x3e5bc82a	0.21463075
175	0x3f1a5bd7	0.60296386
176	0x3e3dfd39	0.18553628
177	0x3f3d6c39	0.7399326
178	0xbe2cf3fb	-0.16889946
179	0x3f1e026f	0.61722463
180	0x3ee45575	0.4459645
181	0xbd1c71d1	-0.03819448
182	0xbe88aa34	-0.26692355
183	0x3eed48ac	0.46344507
184	0x3ed067cc	0.4070419
185	0x3f0fa834	0.5611603
186	0x3e9b5c34	0.30343783
187	0x3d3909f7	0.04517552
188	0xbc8091c8	-0.015694514
189	0x3baa3836	0.005194689
190	0xbd318756	-0.043341957
191	0x3ed29931	0.411325
192	0x3f1efd2e	0.6210507
193	0xbe467aca	-0.19382778
194	0x3f1bb7f7	0.60827583
195	0xbe13287e	-0.14370915
196	0x3c22b92e	0.009931846
197	0xbd843319	-0.064550586
198	0x3f2225f4	0.6333916
199	0x3ed0fa04	0.40815747
200	0x3e92ba2f	0.28657672
201	0x3e939b3a	0.28829366
202	0xbe543f50	-0.20727277
203	0x3ec1f2e4	0.37880623
204	0x3f0a18af	0.53943914
205	0x3e83afb1	0.2571998
206	0x3f107ae0	0.5643749
207	0xbc74ff34	-0.014953423
208	0xbe69214e	-0.22766611
209	0x3eb3c585	0.35111633
210	0x3e85afd2	0.26110703
211	0xbc2f94df	-0.010716646
212	0x3dcc8b69	0.09987528
213	0x3ec1e8e5	0.37872997
214	0x3e87aa0d	0.26496926
215	0xbe64995e	-0.2232413
216	0x3e2c0611	0.16799189
217	0x3e2c32b0	0.16816211
218	0x3de4f4de	0.11179517
219	0x3d70426b	0.05865709
220	0x3f0217fc	0.5081785
221	0xbd2cdd90	-0.042203486
222	0xbe5a2ce5	-0.21306188
223	0x3d58ffdc	0.05297838
224	0x3e2f22c9	0.17103113
225	0x3e3fc531	0.18727566
226	0x3f001229	0.5002771
227	0xbb7ac48c	-0.0038264124
228	0x3f1576ee	0.583846
229	0x3eee7ec3	0.46581087
230	0x3d26a17b	0.040681344
231	0x3f52f0ab	0.8239848
232	0xbdb85603	-0.090007804
233	0x3d356616	0.04428681
234	0x3dc58d5c	0.09646103
235	0xbd2c016d	-0.041993547
236	0x3e454e54	0.19268161
237	0x3e7222b0	0.23646045
238	0x3d655b02	0.055994995
239	0x3e7b2768	0.24526751
240	0x3f2188bb	0.6309926
241	0x3cb5852f	0.022158233
242	0xbcffb9a3	-0.031216448
243	0x3e28beb8	0.16479003
244	0x39396793	0.00017681559
245	0x3d974dcf	0.07387888
246	0x3f5a278c	0.85216594
247	0x3f19ce5a	0.6008049
248	0x3cf0b8ab	0.029384932
249	0x3dd860c4	0.105653316
250	0xbc87047d	-0.016481632
251	0x3d254e66	0.04035797
252	0x3d98a81d	0.0745394
253	0x3d86e154	0.06585947
254	0x3d40cbe8	0.04706946
255	0x3c27d34d	0.010243249

l3.weight f4 [1, 300]
0	0x40939e56	4.613078
1	0x3f5a5723	0.8528921
2	0x3fc3d9f0	1.5300884
3	0xbfd789cc	-1.6838927
4	0xbef0c84b	-0.4702781
5	0xbeab36e6	-0.33440322
6	0xbea74a36	-0.32673806
7	0xbfe90eba	-1.8207619
8	0x3c296c4e	0.010340763
9	0x3fcbd872	1.5925429
10	0x406ecafa	3.7311387
11	0x3f66cbfc	0.90155005
12	0xc042b750	-3.0424385
13	0x3ceb6562	0.028734867
14	0x40adc731	5.4305654
15	0xc0c186b6	-6.047694
16	0xbfc06c98	-1.503314
17	0xc0282176	-2.6270423
18	0xb9c246d0	-0.00037055323
19	0x3fa6e5eb	1.3038915
20	0xc0a4c49c	-5.149
21	0xbffe9cdd	-1.9891621
22	0xc0a0333b	-5.0062537
23	0x40a21f3d	5.0663133
24	0x404cd77e	3.2006526
25	0x401b30e0	2.424858
26	0x40bbc113	5.8673186
27	0xc09e08ab	-4.938558
28	0x400c155c	2.1888037
29	0xbeb4754f	-0.3524575
30	0x406e32df	3.721855
31	0x3f9737ec	1.1813941
32	0xc04d86ce	-3.2113528
33	0xc0b75b03	-5.72986
34	0xc0e4ced3	-7.150247
35	0x40a16fc3	5.044893
36	0x3bbbd0e7	0.00573169
37	0xc0079303	-2.118348
38	0xbeaee8fe	-0.34162134
39	0x3c29615e	0.010338156
40	0xbea179ee	-0.31538337
41	0xc0b2a747	-5.5829196
42	0x402731fe	2.6124263
43	0x3fec46fd	1.8459164
44	0x40a5e48e	5.1841497
45	0x40cb271e	6.348525
46	0x40c8170c	6.2528133
47	0x40958d1e	4.673476
48	0x404ca2fa	3.1974473
49	0xbeb026f7	-0.34404728
50	0xc0987c9f	-4.7652125
51	0x40c5e348	6.1839943
52	0x404f0145	3.2344525
53	0xbeb0e65f	-0.3455076
54	0xc05570ce	-3.33501
55	0xbf9724df	-1.1808127
56	0x3d05cf1c	0.032668218
57	0x40c9cb3a	6.306058
58	0x40b02498	5.504467
59	0xbed2d5e1	-0.41178802
60	0x3fb660a2	1.424824
61	0x404cd877	3.200712
62	0xbd2ad796	-0.041709505
63	0x3fa8c78f	1.31859
64	0xbfba3f4f	-1.455057
65	0xbfe1ea0a	-1.7649548
66	0xbee2738a	-0.44228774
67	0xc01cf828	-2.4526463
68	0xbfbbf808	-1.4685068
69	0xbfea7652	-1.8317358
70	0x40b5ef7e	5.685485
71	0xbef48f7b	-0.47765717
72	0x4042dce9	3.0447333
73	0x3cc7e130	0.02439937
74	0x40c2fc6e	6.093314
75	0xc048b16e	-3.1358294
76	0x4008effe	2.139648
77	0x3fc4a242	1.5362017
78	0xbfe3d0be	-1.7798078
79	0x40a12658	5.0359306
80	0xc0bb2ee8	-5.849476
81	0xc021f719	-2.5307066
82	0xbcb501ef	-0.022095649
83	0x40dd0acc	6.907568
84	0xc06c686a	-3.693873
85	0xbf0321f4	-0.51223683
86	0xc0cc3e38	-6.382595
87	0x40fc759e	7.8893576
88	0x3fd78964	1.6838803
89	0xbf50b230	-0.8152189
90	0x3fd26426	1.6436813
91	0xc04e3f37	-3.2226083
92	0x3fefff5b	1.8749803
93	0xbeaa745e	-0.33291906
94	0xc06a235d	-3.6584084
95	0xbcb5bfc7	-0.022186173
96	0x3fcd4da7	1.6039323
97	0xbeb3d13f	-0.3512058
98	0xbe9ccab5	-0.30623403
99	0x3fa9430d	1.3223587
100	0xbf9549de	-1.1663167
101	0x408f52bd	4.47885
102	0x3fc02f63	1.5014461
103	0x3d31473f	0.043280836
104	0xc0b51c03	-5.6596694
105	0xc00451dc	-2.0674963
106	0x4087da06	4.245364
107	0xbf8326d5	-1.0246226
108	0xbefd98c3	-0.4953061
109	0x40091d21	2.142403
110	0xbf992ade	-1.1966207
111	0x4053c888	3.3091145
112	0x3d33c00f	0.043884333
113	0x4091327b	4.537412
114	0x40f54dd8	7.6657524
115	0xc037bc19	-2.8708556
116	0xbe9e2275	-0.30885664
117	0x40bb2f43	5.8495193
118	0x3f9bd4ed	1.2174355
119	0x3a62463b	0.0008631681
120	0xc07aef01	-3.9208376
121	0xc03fd4dd	-2.9973671
122	0x3b143f36	0.0022620684
123	0xc0350388	-2.8283405
124	0xbfe30fca	-1.7739193
125	0xbf8f9091	-1.1215993
126	0xc0afa6f2	-5.489129
127	0xbf6ea70b	-0.9322364
128	0x40afb010	5.490242
129	0xc014fe1e	-2.32801
130	0xbfa2c786	-1.271714
131	0xbf5d72d7	-0.86503357
132	0xc010459f	-2.2542493
133	0xc08ecef9	-4.462765
134	0x40901226	4.5022154
135	0x404f0593	3.2347152
136	0x40d07773	6.514581
137	0xc083324c	-4.0998898
138	0xbff62a7b	-1.9231714
139	0x4044fa8f	3.077793
140	0xbf5b6106	-0.8569492
141	0xbfde1066	-1.7348754
142	0x401703cc	2.3596067
143	0x40597b42	3.398148
144	0x3fafb534	1.3727174
145	0x405c7381	3.4445498
146	0xc0537821	-3.304207
147	0x400747b4	2.1137514
148	0x3b2a0637	0.0025943646
149	0xbfa01bf7	-1.2508534
150	0x3f8a89c7	1.0823296
151	0x404ba70c	3.1820707
152	0x40367e5b	2.8514621
153	0xc04f34f9	-3.2376082
154	0x3cc5cc60	0.024145305
155	0xbfe97932	-1.8240111
156	0x40362a14	2.8463182
157	0xbfdf1060	-1.7426872
158	0x40a3b8ce	5.116309
159	0xbfec9885	-1.8484045
160	0x3fd1b516	1.6383388
161	0xc0143765	-2.315881
162	0xc017426a	-2.3634286
163	0xbe856d74	-0.2606007
164	0xbffb39fe	-1.9627073
165	0xc0672840	-3.6118317
166	0xbea8436e	-0.32863945
167	0xbf00604a	-0.50146925
168	0x40cf82a6	6.4846983
169	0x409f766f	4.983207
170	0xbeeaeb82	-0.45882803
171	0xbeb889d7	-0.36042663
172	0xbe975cdd	-0.29563037
173	0x4029de1c	2.6541815
174	0xc09c3d93	-4.8825164
175	0x403314f4	2.7981539
176	0x3fae8324	1.3633771
177	0x404c25a0	3.1897964
178	0x3ffa107e	1.9536283
179	0x40b06e30	5.5134506
180	0x40855805	4.1669946
181	0xc04fa197	-3.2442377
182	0x4052c8cf	3.2935064
183	0x40d57e2d	6.6716523
184	0x40b802df	5.7503505
185	0x3ffb5ba4	1.9637341
186	0x40864059	4.195355
187	0xbed6dde9	-0.4196618
188	0xbfe947e4	-1.8225064
189	0xbe99d28d	-0.3004345
190	0x400ce1f6	2.2012916
191	0x409e6dba	4.9508944
192	0x40b5b00c	5.67774
193	0xbf4e2941	-0.805317
194	0x408fc7bb	4.493131
195	0xc08a7386	-4.326602
196	0xc010eeda	-2.2645783
197	0xc0a7e91b	-5.2472053
198	0xc0462de0	-3.09655
199	0x40adc631	5.4304433
200	0x40f90967	7.7823977
201	0xbfe93570	-1.8219433
202	0xbf6ede16	-0.93307626
203	0x4098c68d	4.774237
204	0x405d4ea6	3.4579253
205	0x40dc8010	6.8906326
206	0x40ecf21b	7.404554
207	0xbea7bab6	-0.32759637
208	0xc0b0a72b	-5.5204062
209	0xc0b1dbb6	-5.55807
210	0xbfbcc01b	-1.4746126
211	0xbeee3102	-0.46521765
212	0x3ff92e94	1.946734
213	0x40bba92d	5.8644013
214	0xc0933e54	-4.6013584
215	0xc03ce239	-2.9513075
216	0xbfb18cbf	-1.3871077
217	0x4016890c	2.3521147
218	0xc08b24c3	-4.3482375
219	0xbfda2fea	-1.7045872
220	0x40a8a40c	5.2700253
221	0xbcb8f4df	-0.022577701
222	0x4080ceed	4.0252595
223	0xc034ca6f	-2.8248556
224	0xc03abc0e	-2.917728
225	0xc0647367	-3.5695436
226	0xc0b081e5	-5.5158563
227	0xbff9c383	-1.951279
228	0xc09b8aa6	-4.860675
229	0xc0acd4c4	-5.4009724
230	0x408200f3	4.062616
231	0x3fa5f98e	1.2966783
232	0xc04bd3ca	-3.1848016
233	0x3fd49885	1.6609045
234	0xbf989816	-1.1921413
235	0x400890d8	2.1338406
236	0xbfec64ec	-1.8468299
237	0xc040756b	-3.0071666
238	0xc03b99fa	-2.931273
239	0xbfe92d1c	-1.8216891
240	0x3fe6a5cc	1.8019347
241	0xbea53ade	-0.32271475
242	0x4011f907	2.2808244
243	0xc0036bb7	-2.0534494
244	0xbffba722	-1.966038
245	0x403eb00a	2.9794946
246	0x3fb0f832	1.3825743
247	0xc0964f8e	-4.6972113
248	0xbfe2d532	-1.7721312
249	0x3fc72c85	1.5560461
250	0xbeb53007	-0.35388204
251	0xbc6c9162	-0.014438959
252	0xbfc81330	-1.5630856
253	0xc00b1b5c	-2.173545
254	0xbfdbe249	-1.7178432
255	0x3fbfebeb	1.4993871
