preTrained/500TD3_BipedalWalkerHardcore-v3_0_actor_target.pth (torch_old, 527104 bytes, 6 tensors)

l1.weight f4 [400, 24]
000000 11 0d 2e 3f c5 de cf 3f d4 bd 0a c0 bf 77 09 c0
       0.6798869 1.6239859 -2.1678362 -2.1479337
000010 81 6f 50 bf e8 47 c4 3c a7 d4 5b be 2f 8e bf bd
       -0.8142014 0.023960069 -0.21467839 -0.09353291
000020 7d fd e3 bc be c7 8d 3f d7 cd 77 bd 5c 7b b1 bd
       -0.027830834 1.1076581 -0.06049904 -0.08666107
000030 a0 ca 86 bd 2f 00 cd bc a4 c1 07 3e 23 64 c8 3e
       -0.065816164 -0.025024502 0.13257462 0.39138898
000040 dd f2 19 bd 1f ea 93 be 9a 96 a0 be 26 91 82 be
       -0.037585128 -0.28889558 -0.313649 -0.25501364
000050 0b 27 0f be 73 c5 b6 3a 00 8e 47 3c 5e 04 59 3e
       -0.13979737 0.0013944342 0.0121798515 0.21193072
000060 90 04 8c bc 35 4d 1f 3a 17 1d 0e 3f 1b 7f 7a 3f
       -0.01709202 0.00060768734 0.5551314 0.978502
000070 c3 7a a2 3d 62 e7 ad 3c a7 31 80 3b 7b eb ed bb
       0.07933571 0.021228496 0.003912169 -0.0072607375
000080 e5 0f 1d bd 1c 12 a5 be 31 7b ab 3c 01 8b bb bd
       -0.038345236 -0.3224038 0.020932766 -0.09157372
000090 12 ee 07 3c 80 e2 d4 bc d0 09 bd be bc e3 30 bf
       0.0082965065 -0.02598691 -0.3692155 -0.69097495
0000a0 7a 8c 2b bf 86 b5 a2 be b2 72 9a 3f 17 b5 cf 3f
       -0.67011225 -0.31779116 1.2066252 1.6227139
0000b0 64 7d e2 3e 40 03 3f 3e 1f 4f 63 bd 71 c4 54 be
       0.4423629 0.18653584 -0.055495378 -0.20778061
0000c0 ea ac a3 bf be a6 f9 bf 79 db 28 3f 7c c4 f3 3e
       -1.2787144 -1.9504011 0.6595989 0.47610843
0000d0 80 fb 81 bf 20 14 e1 be 67 34 c1 bd 79 b5 5d bd
       -1.0154877 -0.43960667 -0.09433823 -0.054128144
0000e0 9d ee 86 bf ca c5 04 be e0 4a 80 3e a1 84 87 be
       -1.0541569 -0.12966076 0.25057125 -0.26468375
0000f0 fa 9b 01 be ec b2 bd be 93 df fd be 40 7e 0a bf
       -0.12657157 -0.3705057 -0.49584636 -0.5409889
000100 59 10 1b be ca 1f b1 be 5a 68 81 be f6 d1 59 be
       -0.15142955 -0.34594566 -0.25274926 -0.212715
000110 27 b5 27 be 10 21 3b 3d b5 8f 64 be 3f 09 be bd
       -0.16377698 0.045685828 -0.22320445 -0.09279107
000120 58 fd 39 3d 67 50 95 bf 52 64 e3 be e8 91 70 3f
       0.045407623 -1.1665162 -0.44412476 0.93972635
000130 36 6e b3 3e d1 86 f2 bb 6b b0 d4 3e a2 4d 2f b7
       0.35045022 -0.0074013253 0.41540846 -1.0448888e-05
000140 07 39 5d bc a0 d8 1c bf 2c ba 32 bd 4f 31 51 be
       -0.013502366 -0.61268044 -0.04363458 -0.20428966
000150 cb fd e0 bd bd 8b 41 be fa 22 06 3f 4f 9f d2 3e
       -0.10985907 -0.18900962 0.5239712 0.41137168
000160 c2 95 9c 3e 06 cd b4 3e 8c ba 27 bf 5a b9 b3 bf
       0.30583006 0.3531267 -0.6551902 -1.404094
000170 35 81 40 bf 77 d3 21 bf b7 36 80 bd 52 46 ea 3d
       -0.75197154 -0.63213295 -0.06260436 0.11439194
000180 e7 65 31 bf ea 14 be bf 18 ea e0 bf 4e 5c 16 3f
       -0.69296116 -1.4850132 -1.757144 0.58734596
000190 21 76 cd be 0a 57 6a 3c f2 e6 ca 3d e9 f4 63 3e
       -0.40129188 0.014302978 0.099073306 0.22261395
0001a0 be ae 26 3e d5 bd be be bf 94 e0 3c 55 1b 92 be
       0.16277596 -0.37254205 0.027414678 -0.28536478
0001b0 45 e7 a4 3c 7b 38 76 bf 45 d7 b2 3e a5 bc a6 3c
       0.02012981 -0.9617993 0.34929863 0.020353625
0001c0 d1 bb 83 be 8d 11 e8 be a9 53 93 bf 60 58 93 bf
       -0.2572923 -0.4532589 -1.1509906 -1.1511345
0001d0 3b b6 8d be 00 9b 15 3e 47 6c 1f be ad b9 89 be
       -0.27678093 0.14609909 -0.15568648 -0.26899472
0001e0 0f b6 44 be d4 1d 9c 3e 2f 48 dd 3f 1a 8f 4a 3f
       -0.19210075 0.30491507 1.7287654 0.79124606
0001f0 e1 72 82 be 5e ba e1 3c cb 10 f1 3e b8 60 c5 bc
       -0.2547827 0.027554687 0.47083125 -0.02409397
000200 f4 d0 12 bd cc 18 2b be 98 b7 96 3d b8 af 41 be
       -0.035843804 -0.16708678 0.073592365 -0.18914688
000210 53 d2 11 3c 95 05 a7 bd b7 24 7e 3d de 19 a7 3e
       0.008900243 -0.081553616 0.062046733 0.32636923
000220 f2 81 5d 3f 0a f8 ab 3e 9c 68 57 3f e9 d5 e0 3e
       0.86526406 0.33587676 0.84143996 0.439132
000230 af 23 87 be cd f2 de be 20 b7 c2 3d 8c 4a 73 be
       -0.26394412 -0.43544617 0.095075846 -0.23758906
000240 41 83 68 bf c5 01 16 bf 6f 75 9e be 1f 11 fb bf
       -0.9082528 -0.5859645 -0.3094897 -1.96146
000250 0c 08 a2 bf d1 7b d2 3d 18 4e 75 bf f1 9d 98 be
       -1.2658706 0.10277522 -0.95822287 -0.29808
000260 dc 12 44 bf e6 ab 79 3e 98 1f fb bd 8a b0 8f 3f
       -0.7659128 0.2438198 -0.122618854 1.122575
000270 40 82 95 bd f5 da 33 3e c7 8a 88 3e e6 2d 08 3e
       -0.07300234 0.17563994 0.2666838 0.13298759
000280 55 b0 ed bd 3b 19 a0 be f6 30 15 bf 99 f9 dc be
       -0.11605898 -0.3126925 -0.58277833 -0.43159178
000290 13 da 1f be fb 47 56 be d2 2a 72 3e 9b 2c c9 3e
       -0.15610532 -0.20925896 0.23649147 0.39291844
0002a0 51 a7 39 bf bf d7 5f bf 5f 57 b9 3e cd 3a 77 3e
       -0.7252093 -0.8743858 0.3619947 0.24143524
0002b0 4c 46 d5 be ef e0 de 3d d3 13 de bd 22 3b 81 3d
       -0.41655195 0.108827464 -0.10843625 0.06310107
0002c0 7b ab 43 3f 08 6c 81 bd 47 d2 96 bc 71 c2 9d be
       0.76433533 -0.063194335 -0.018410815 -0.3081241
0002d0 72 7a 1e be 85 1a 95 be 4a aa 96 3e eb a6 48 3e
       -0.15476397 -0.29121795 0.29426795 0.19594924
0002e0 72 36 00 3f d9 c0 0d 3f b4 f4 d6 be aa 3a 8e be
       0.50083077 0.5537239 -0.4198357 -0.27779132
0002f0 86 93 28 bf c7 6a 9c bf 25 00 0b bf 23 ea e8 3b
       -0.658501 -1.2220086 -0.54297096 0.0071079894
000300 21 41 37 3f 3b 6d b7 3f ff 09 46 bf 68 b1 8b be
       0.71583754 1.433021 -0.77359 -0.27283788
000310 55 8a 12 3f d4 9b 2d 3e e2 da e8 3e da db c2 3c
       0.5724233 0.16953975 0.45479494 0.023786474
000320 26 da bb 3d 0e d0 4a bf f9 03 a2 be f1 14 0c bf
       0.09172468 -0.79223716 -0.31643656 -0.54719454
000330 77 91 c8 3d 87 19 b9 be ea a7 c1 be 81 50 fd be
       0.0979337 -0.36152288 -0.3782342 -0.49475482
000340 36 41 4f bf 5b a1 09 bf f2 52 9d be 8a 54 ab be
       -0.8095888 -0.53761834 -0.30727345 -0.33462936
000350 46 b9 a7 be 85 24 0e bf 62 8f 77 3d 4b fe b2 be
       -0.3275854 -0.55524474 0.060439475 -0.34959635
000360 90 05 83 3c 72 09 13 bf 1f 86 c6 3f 7a e3 1e 3f
       0.015993863 -0.5743629 1.550968 0.6206585
000370 e0 04 7b 3e 12 7a 03 bd fd b7 49 3e df de d9 bc
       0.24513578 -0.032098837 0.19699092 -0.026595531
000380 28 dd 96 bd 88 af bf be 14 87 b6 bc ab b9 a2 bc
       -0.07366401 -0.37438607 -0.022281207 -0.019863924
000390 eb 3d 11 bd 1c 0f fc be be f2 74 bd 7b de d4 3d
       -0.03545944 -0.49230278 -0.05980181 0.10393997
0003a0 48 15 1f 3f 14 77 7b 3f 4c 08 10 3f 59 f0 98 3d
       0.6214185 0.98228574 0.5626266 0.07467718
0003b0 01 c8 d9 be f9 7b 46 bf 6b 74 aa be 55 d6 2c 3e
       -0.42535403 -0.7753292 -0.33291945 0.16878636
0003c0 de 8b 85 3d 5e 61 fb be ee ae ea 3f 95 f9 a9 3d
       0.06520818 -0.49097723 1.8334634 0.08299557
0003d0 2a 0d ab bf 75 e0 ec 3d 0f ac a4 3e 81 00 11 3e
       -1.3363392 0.11566249 0.3216252 0.14160348
0003e0 a7 c0 a0 be 49 6e ce 3e b8 e1 8a be 93 42 ff 3d
       -0.31396982 0.40318516 -0.27125335 0.1246387
0003f0 e7 75 c9 bd 73 45 09 3f 26 3f da 3d 07 bb dc 3e
       -0.09836941 0.53621596 0.10656576 0.4311144

l1.bias f4 [400]
000000 82 63 b2 3c 8b 26 39 bf c0 0f b9 3e 29 4b 99 3e
       0.021775965 -0.72324437 0.3614483 0.29940155
000010 a2 38 69 be 1d 8d d1 be 26 65 86 3d d4 e3 d6 bd
       -0.2277551 -0.40927973 0.06562261 -0.104926735
000020 cc ff 9e 3d 69 e5 5e bd 88 df a9 3e 76 17 8a 3d
       0.07763633 -0.054418 0.33178353 0.06742756
000030 3b 9f 2c be c4 c6 06 bf 31 42 31 be 53 9f 8c be
       -0.16857617 -0.5264704 -0.17310406 -0.27465305
000040 f6 2d 1a bf 14 eb b1 3e e5 3c 2f bd 89 3e 89 be
       -0.6022638 0.34749663 -0.042782683 -0.26805523
000050 e5 5f 88 be 8b 6d 4e 3d 65 db 6b 3c c8 40 a5 be
       -0.26635662 0.050397437 0.014395569 -0.32275987
000060 33 e5 f2 3c 66 06 05 3f ca d2 37 3e f8 3d 0b 3e
       0.029650306 0.5196289 0.17951503 0.13597858
000070 37 8a 25 3e 2f cc a5 3d 9b 92 7f bd 1b f3 95 be
       0.16166006 0.080955856 -0.062395673 -0.29287037
000080 ff dd 3d bd a8 12 f8 3e 4b e7 36 bf 09 29 5a bc
       -0.04635429 0.48451734 -0.71446675 -0.013315448
000090 01 33 ad be 9f d8 e2 bd 49 23 37 be e1 7b d2 bd
       -0.33827975 -0.110764734 -0.17884554 -0.10277534
0000a0 a9 6c e3 3c 7a 00 4f 3e 4d f8 89 3e a1 63 fa be
       0.027761774 0.20215026 0.2694725 -0.48904136
0000b0 e6 72 07 3f bf a2 f6 be 90 04 11 be 3b 53 2d 3e
       0.52909696 -0.4817104 -0.14161897 0.16926281
0000c0 92 50 4c be ef a4 b5 bc c8 b1 1b be 77 48 47 be
       -0.1995261 -0.022173373 -0.15204537 -0.19461237
0000d0 74 16 cc be da 9c 38 be 71 e6 11 bd 6f 77 04 be
       -0.3986088 -0.18028584 -0.035620157 -0.12936185
0000e0 52 cd d0 bd 07 e3 71 be d7 34 d0 3e ff 71 25 3e
       -0.10195412 -0.2362176 0.40665314 0.16156767
0000f0 3b fb ba be 4f 8c 1a bf 46 b4 10 3e ba 19 76 be
       -0.365198 -0.60370344 0.14131269 -0.24033251
000100 b0 26 c6 3e 8f 52 5e be 8f 78 1f be b3 b4 43 3e
       0.3870139 -0.21711181 -0.15573333 0.191119
000110 08 f1 60 be 54 70 c2 bd 8d c6 55 bc ff 4d 7d 3d
       -0.21966946 -0.09494081 -0.0130478265 0.06184196
000120 92 78 db 3d e2 c1 dd be f3 21 85 3d 54 f7 cf 3e
       0.10716356 -0.43311983 0.06500616 0.40618384
000130 b8 2f de 3e d6 5c cc be 21 47 c8 be 96 7a 15 bc
       0.43395782 -0.39914578 -0.39116767 -0.009123465
000140 35 80 13 be 08 b1 05 3e e7 08 61 bc 4c d7 82 be
       -0.14404376 0.13055813 -0.013735033 -0.25554883
000150 92 03 a1 3e 2c cf 0e bd 20 16 8c bc d9 89 8a 3b
       0.31448036 -0.034865543 -0.017100394 0.0042278585
000160 43 2e a9 3e 3c cd 09 3e 11 89 06 be 1c 19 f1 bc
       0.33043107 0.13457197 -0.13138224 -0.029430918
000170 9a c9 81 be 0d f5 6d be 36 bb aa 3c a0 e3 33 3b
       -0.25349122 -0.2323801 0.020841222 0.0027448907
000180 5e c5 10 3f 0c 28 04 bf 20 91 7d 3e fc 26 b5 bd
       0.5655116 -0.51623607 0.24762392 -0.08845326
000190 39 70 b1 be d1 63 b6 3d 29 f9 63 3e 75 96 00 bf
       -0.34655932 0.08905757 0.22263016 -0.5022958
0001a0 89 0e dc 3e fe 7e 5d be eb e4 be be ee d6 03 3f
       0.4297984 -0.21630475 -0.37284026 0.5149983
0001b0 e8 0f df 3d 07 fd 0a bf 14 12 54 bd 6a 66 b4 be
       0.10891706 -0.5429234 -0.051775053 -0.35234386
0001c0 cc 08 ce 3e fc 89 00 be 2a 8e e4 bc 0e 9f 88 3d
       0.40241086 -0.12552637 -0.02789982 0.06670962
0001d0 d5 17 04 3e 8b b1 f2 bd b4 34 5c 3e ad d8 9b bd
       0.12899716 -0.1185027 0.2150448 -0.07609687
0001e0 84 6f b1 3c d9 8b ac be ff 6d 89 3d 10 bc f0 bc
       0.02165962 -0.33700445 0.06710433 -0.02938655
0001f0 42 e0 56 be 65 1d 19 3e 5e a2 dd be 3f cb 34 bf
       -0.20983985 0.1495262 -0.4328794 -0.7062263
000200 7e 87 25 be e0 54 36 be f6 1d 2a bf b6 c0 21 3c
       -0.16164967 -0.17805815 -0.66451967 0.009872606
000210 18 bb fd 3e ff 87 27 be fa 14 b8 be ee d8 e7 be
       0.49556804 -0.16360472 -0.35953504 -0.45282692
000220 d1 4c e3 3d 08 d3 02 be dc d0 97 be 83 68 4a 3d
       0.11098636 -0.12775815 -0.29651535 0.049416076
000230 f3 8c 9d bd 50 02 cc be 8d a7 4d 3e 2a ba 41 bf
       -0.076928996 -0.39845514 0.20083447 -0.7567469
000240 12 fc 30 be c1 ca ca be ee 6f 51 3e 28 8a f7 bd
       -0.17283657 -0.39607814 0.20452854 -0.12086898
000250 ec 37 db be 05 41 39 be 57 d8 d4 be 70 dd 5c 3e
       -0.42816103 -0.18091209 -0.41571304 0.21568847
000260 a5 b6 d2 3e f2 80 ab be 44 b3 28 bd 64 d2 1b bf
       0.41154972 -0.33496815 -0.041186586 -0.60867906
000270 ea 24 87 be 32 b6 de bc 70 6c 23 3d d6 b2 1b be
       -0.2639535 -0.027186487 0.039898336 -0.15204939
000280 95 4b 92 3d 9a 0a d0 be 24 90 c9 bd 26 7a 6a bd
       0.071433224 -0.40633088 -0.09841946 -0.057245396
000290 d8 bc 8a 3d 86 47 16 bf 4d f6 20 bf 97 70 e9 3e
       0.067743 -0.58702886 -0.62875825 0.45593712
0002a0 4e 43 7d bd 39 d2 22 3f 08 31 f6 3d f4 19 97 be
       -0.061831765 0.63602024 0.12021071 -0.29511988
0002b0 41 a5 c4 3e 32 0e 26 3e 48 27 97 3e dc 98 43 3d
       0.3840733 0.16216353 0.29522157 0.0477532
0002c0 f9 9a 93 3c c1 72 a8 3e 1f eb 9c be 16 56 bd 3e
       0.018018233 0.3290005 -0.30648133 0.3697974
0002d0 7b db 39 3e 15 b1 09 3e 58 37 dd be 76 54 6e 3e
       0.18150131 0.13446458 -0.43206286 0.23274407
0002e0 ef dc 41 bd 34 2b 0f bf 8e c1 82 3e 3c 50 b1 3e
       -0.04732984 -0.559253 0.25538296 0.34631526
0002f0 59 9a 96 3e ef 7d c5 3b 8f 6f 50 be e1 51 77 be
       0.29414633 0.0060269753 -0.20355056 -0.24152328
000300 3b 1c 32 be 2e 3c 0e bf 67 03 c6 ba 69 0c ec 3d
       -0.17393582 -0.55560577 -0.0015107215 0.115258045
000310 bc 58 7b bd 97 d6 b4 be 54 a5 df 3d dc 4e 80 be
       -0.06136392 -0.3531997 0.10920206 -0.25060165
000320 49 40 8d be c8 72 9b be 82 0d 65 bd 57 75 86 be
       -0.27588108 -0.3036101 -0.055921085 -0.26261398
000330 5c 6a a3 3e a1 90 28 3d 77 51 3a 3e ac f5 54 3d
       0.31917083 0.041153554 0.18195139 0.051992103
000340 3e 21 1e 3e 2d c4 0d be 1d bc 09 bf 68 4c c5 be
       0.15442368 -0.13844366 -0.53802663 -0.38534856
000350 a5 80 73 3d c8 ed 27 3e 06 cb ae 3e 24 5c 02 bf
       0.059448857 0.163993 0.3413927 -0.50921845
000360 23 d2 c9 bd f0 d8 50 bd 2e 3c a9 be 44 a0 3b 3e
       -0.098545335 -0.050988138 -0.33053726 0.18322855
000370 ba 50 e8 be 83 ad 28 be c2 f6 c0 3d 66 72 16 be
       -0.4537409 -0.1647244 0.09422065 -0.14692077
000380 46 6d 64 be 36 d1 2f 3f 4b 9c 7c 3d f4 47 ce bd
       -0.2230731 0.68678606 0.06167249 -0.10072318
000390 d6 ab 37 3d ca 34 8e bc 80 19 49 be c2 66 67 3d
       0.04484161 -0.017359156 -0.19638634 0.05649448
0003a0 fc 5a b8 be 82 88 af be e6 37 cc be 66 3b 24 bf
       -0.36006916 -0.34283835 -0.39886397 -0.64153135
0003b0 19 cd e3 bd 3c 00 a9 be c1 6c 86 bd cc 6a fc 3c
       -0.11123104 -0.3300799 -0.06563712 0.030812643
0003c0 7b b8 c4 be ce 40 18 3e 78 2c 85 3c 34 22 3a be
       -0.38421997 0.14868471 0.016256556 -0.1817711
0003d0 89 9d bb be d6 3e 1b be 4c 17 cd bd a8 16 23 be
       -0.36643627 -0.15160689 -0.10014209 -0.15926611
0003e0 90 53 6a 3e cd 2b 80 be 49 f1 26 bf ab 08 99 bd
       0.22883439 -0.25033417 -0.6521192 -0.074723564
0003f0 ec ab 01 3e 13 42 3a be cc bf 89 be bb a3 1a 3e
       0.12663239 -0.18189268 -0.26904142 0.1510152

l2.weight f4 [300, 400]
000000 64 45 01 bf bd de d1 bf a6 8d e2 bd 89 77 c0 be
       -0.50496507 -1.6396099 -0.110621735 -0.37591198
000010 18 25 4e be 5e 09 2d 3f 2d a2 93 be 1a d8 59 3e
       -0.20131338 0.6759242 -0.28834668 0.21273842
000020 f3 cf 7f 3e 90 da b4 be 36 65 9b 3e 44 a2 b7 be
       0.2498167 -0.35323 0.30350655 -0.35865986
000030 0a b4 6a 3f 5f af b5 bc 12 47 a8 be 1f d7 45 3e
       0.9168097 -0.02217835 -0.32866722 0.19320343
000040 07 4a a0 be 2c 2a 8b bf 8b 69 ec 3d 6a 84 c0 3e
       -0.31306478 -1.0872245 0.11543568 0.37601024
000050 f9 0b ca bd ca 7c d5 be 35 82 4a 3f 3d 80 9b be
       -0.09865565 -0.4169677 0.7910493 -0.30371276
000060 48 29 88 3d 58 0a da bd 22 94 5e 3e 35 30 0a bf
       0.06648499 -0.10646504 0.21736196 -0.5397981
000070 45 82 11 3e e6 df 93 3e e3 19 e9 be b0 28 b1 bd
       0.1420985 0.28881758 -0.45527562 -0.08650339
000080 60 55 44 3d 8c df 6e bf 71 9e 9a bf 85 d7 65 bd
       0.047932982 -0.93309855 -1.2079602 -0.05611374
000090 e5 e1 02 bf 6b 7e e8 be ce 9d 9a 3d 3f e1 21 3f
       -0.5112594 -0.4540895 0.0754963 0.63234323
0000a0 2a 25 c9 be e3 18 ac be 5a 96 ea 3e 43 93 67 be
       -0.39286166 -0.33612737 0.45817834 -0.2261477
0000b0 d6 a2 3e bb 3f 0a ea bd bd 68 cc 3e 48 ac 51 3f
       -0.0029088757 -0.114277355 0.3992366 0.81903505
0000c0 7c 1c a4 3e 32 5c d9 be a9 f2 5e 3f 75 4e c8 be
       0.32052982 -0.42453152 0.8708902 -0.39122358
0000d0 48 73 50 bf ec 43 bd be 40 fc 34 3e e3 5e d6 be
       -0.81425905 -0.36965883 0.1767435 -0.41869268
0000e0 a6 f9 84 be 17 a6 2c be 2d 94 8d 3e 4f 19 22 bf
       -0.25971717 -0.16860233 0.27652112 -0.6331987
0000f0 81 cc c6 be bc dc 81 3e ee 61 34 be 47 80 b1 bc
       -0.388279 0.2536372 -0.17615482 -0.021667613
000100 55 45 f8 3d b0 63 22 be 0e d8 8b 3d 79 62 26 3e
       0.12122599 -0.1585834 0.068283185 0.16248502
000110 be 3f de be a4 c3 06 3f b7 9f cd be 33 29 93 3e
       -0.43408006 0.52642274 -0.40160915 0.2874237
000120 5f 8d aa 3e 69 9b 92 3e ad f0 49 3e 9d 07 87 3e
       0.33310983 0.28634194 0.19720717 0.26372996
000130 e9 eb ee 3d 72 92 ee bd b1 c4 2c 3f c6 23 1d be
       0.1166609 -0.11649026 0.6748763 -0.15345678
000140 24 20 02 be a1 66 90 3e f9 cf c7 ba 0c a3 8a 3e
       -0.12707573 0.282033 -0.0015244476 0.2707752
000150 23 84 39 bd 6a cb c6 bf c3 f5 14 be 5b 59 f0 3e
       -0.04529203 -1.5530827 -0.14546876 0.46943173
000160 fb 56 6e bd 00 fd 95 be ec f6 08 3f a0 b5 b5 3e
       -0.05818842 -0.29294586 0.5350177 0.3549013
000170 af cb 23 be b4 7b 73 bf a1 40 d5 be a6 75 9d bf
       -0.15995668 -0.9511063 -0.4165087 -1.2301528
000180 a9 5d c0 bf cf 60 ad 3e a2 9c 9b 3c 72 7f 69 3e
       -1.5028583 0.33862922 0.018995587 0.22802523
000190 27 9b 74 bf a9 e3 c5 be b4 b3 66 3d 0b 83 61 bf
       -0.95549244 -0.38650253 0.056323722 -0.8809058
0001a0 4e 5a 91 bf ac 99 8a be 70 c4 b8 bd e4 19 b9 be
       -1.1355684 -0.27070367 -0.090218425 -0.36152565
0001b0 a2 57 e6 3e 24 aa 0e bf 01 ef f6 be b6 26 2f be
       0.44988734 -0.55728364 -0.4822922 -0.17104611
0001c0 78 b3 3c 3d d7 fd 2d 3f a4 61 a9 be 0e ac 15 3f
       0.046069592 0.67965454 -0.33082306 0.5846566
0001d0 26 1e 13 bf 35 00 56 bd e8 54 1b be a2 ed 53 3e
       -0.5746788 -0.05224629 -0.15169108 0.20696118
0001e0 66 46 fe be f2 89 3a be 9b c7 a5 3e 60 91 08 3d
       -0.49663085 -0.18216684 0.3237885 0.033341765
0001f0 f3 ce 62 bf f7 3c bd be 28 b2 58 3f 7d c5 84 be
       -0.8859703 -0.36960575 0.84646845 -0.25931922
000200 5a e1 48 3f c4 e5 85 be a1 5b 44 be 8b 06 37 3f
       0.7846886 -0.2615186 -0.19175579 0.7149436
000210 37 cc 89 3b 5a 39 9e 3e 55 cb 55 bf 38 f1 0a 3e
       0.0042052525 0.3090313 -0.83513385 0.1356858
000220 75 00 93 bc a1 66 d7 be a7 59 b9 3d 92 df 51 3d
       -0.017944554 -0.42070487 0.09050303 0.051238604
000230 dc 69 8c bf 5f f1 ae 3c e0 f7 05 3c 0e f3 92 3e
       -1.0969806 0.02135533 0.008176774 0.2870106
000240 8d 7b 1b bf 85 ce d0 3e 14 7a 57 3e 76 fa 24 bf
       -0.607354 0.40782562 0.21042663 -0.64444673
000250 ac 4c c1 3e 54 3c 7c bf 4e f5 d6 be 90 df 35 3e
       0.37753808 -0.98529553 -0.41984028 0.17761064
000260 c3 72 62 be 2b c0 bb be db d3 e6 3d ec 6a 8a bf
       -0.2211409 -0.3667005 0.11270877 -1.081388
000270 b4 c0 74 bf d9 f2 02 3e 73 6f 5a bd 28 6e 38 3d
       -0.9560654 0.12787952 -0.053328943 0.04502693
000280 31 fe 95 3d 64 71 ce be af 62 40 3f 0b 6e 7f be
       0.07323874 -0.40320885 0.7515058 -0.24944322
000290 93 ae 6a 3d 66 71 9b be e7 3c 03 be 66 70 1c 3f
       0.057295393 -0.30359954 -0.12816201 0.61109006
0002a0 2e 77 2f 3e 74 38 a3 bf d3 88 69 be 93 b3 be bd
       0.17135307 -1.2751603 -0.228061 -0.09311595
0002b0 7c 35 97 be 14 99 70 bf c2 1a 3e 3f 5b 26 0e 3f
       -0.29532993 -0.9398358 0.7425958 0.55527276
0002c0 3c a2 d8 be b6 03 90 be be 13 0f bf e5 6f 53 3c
       -0.42311275 -0.2812783 -0.558895 0.012905096
0002d0 5b 11 d8 bf 5c 53 8a be 0c 3c 25 3f 3b c7 0e 3f
       -1.6880296 -0.27016723 0.6454475 0.5577275
0002e0 f6 b2 02 bf 3e 51 a7 bc 4a c2 82 bf f1 81 da 3e
       -0.5105432 -0.020424481 -1.0215542 0.42677262
0002f0 79 96 de be 09 39 d9 3d 50 4e 7b 3e 5a 65 18 3f
       -0.43474177 0.10606582 0.24541593 0.5952965
000300 ab 6d 34 3e 3d 72 00 3e cc 16 23 3f 97 90 db 3e
       0.1761996 0.12543578 0.6370666 0.4288375
000310 2e 1a 99 be 28 1b 9f be b0 54 3b 3f d3 e3 77 be
       -0.29902786 -0.31075406 0.731761 -0.24208002
000320 17 17 9e be 64 b7 07 bf e5 07 05 3d db 22 c9 bc
       -0.3087699 -0.53014207 0.032478232 -0.024552753
000330 b5 d9 8d bd 13 09 b5 be a0 9f 97 bf 4f 09 b5 be
       -0.0692629 -0.35358486 -1.1845589 -0.35358664
000340 b9 da c3 be fc cf fc bd 53 41 34 c0 65 cd 05 3f
       -0.3825281 -0.12344357 -2.816487 0.5226653
000350 16 a6 69 3e 07 11 b6 3d 70 dc cd bf 46 aa 11 3f
       0.22817263 0.088899665 -1.6082897 0.5690044
000360 fc 8e 05 be d6 44 9e be 49 6c 02 bf 9f 15 3f 3d
       -0.13042825 -0.30911893 -0.5094648 0.04665148
000370 8b e1 b0 3d 20 ed 32 bf 75 33 ac 3e 99 23 c8 be
       0.08636769 -0.69893074 0.3363301 -0.3908966
000380 6d f6 86 3f 03 dd dd be 9d 60 0d be 70 32 48 3e
       1.0543953 -0.4333268 -0.13806386 0.1955049
000390 34 ee b0 bf 8e 54 19 3d 47 5f aa bc ba 54 71 bf
       -1.3822694 0.037434153 -0.020797385 -0.9426991
0003a0 c0 13 05 be 80 d2 6d bf 8d fc 92 bf e0 9e 3e bf
       -0.12995815 -0.9289932 -1.1483322 -0.74461174
0003b0 71 f8 50 bf 55 94 f0 3e 6d 07 c6 3c b3 ba 85 be
       -0.8162909 0.46988168 0.024173463 -0.26119003
0003c0 81 3e 7c bf 0c ac 9a be 79 54 0a bf 2b 56 11 be
       -0.98532873 -0.30209386 -0.54035145 -0.14193027
0003d0 9e f3 1a bf d5 44 05 bf 14 ed 83 3d 9c c5 78 bf
       -0.6052798 -0.52058154 0.064417034 -0.9717653
0003e0 cc 7e d1 be 55 d5 88 3f a8 bd be bf 5e 61 10 bf
       -0.4091705 1.0690104 -1.4901628 -0.5639857
0003f0 f8 c2 f4 3c 18 83 36 be 7f a9 aa 3c 55 d7 90 3e
       0.029878125 -0.17823446 0.020832775 0.28289285

l2.bias f4 [300]
000000 b8 e7 63 3b 9d c6 15 3e c4 43 87 3e 8a a2 d6 be
       0.0034775566 0.14626546 0.2641889 -0.41920882
000010 99 00 20 bf 11 66 80 be 5c 07 86 be a0 38 24 bc
       -0.6250091 -0.2507787 -0.2617749 -0.010023266
000020 47 e7 9c 3d a1 63 64 3d b8 65 b8 3e 20 a4 45 3e
       0.076613 0.055759076 0.36015105 0.1930089
000030 86 6d 44 3e 7f 3a 7a be 43 31 78 3e 96 a5 91 be
       0.19182405 -0.24436377 0.24237542 -0.28446645
000040 c8 b9 86 be cc be 7e 3e e5 e5 08 be 5e e6 9c 3e
       -0.26313615 0.2487747 -0.13368948 0.30644506
000050 2d 66 63 3b 2c 2a be 3c 32 ef 05 3e 75 43 b4 3d
       0.0034698353 0.023213468 0.13079527 0.08801929
000060 9c 55 94 be 6b d0 e2 be 26 d6 9e be 63 fa 26 be
       -0.28971565 -0.44299635 -0.31022757 -0.16306452
000070 88 22 af bd 65 2e 94 be 2a 39 66 be 77 d1 80 3e
       -0.08551508 -0.28941646 -0.22482744 0.2515981
000080 8e ef 83 be 1e 5a 65 3e f8 96 03 bd 87 80 0c be
       -0.25768703 0.22397658 -0.032126397 -0.13720904
000090 05 9a 82 be f3 43 2f 3e 1a 3a 29 be fa aa 65 be
       -0.25508133 0.17115764 -0.1652607 -0.22428504
0000a0 7f 49 11 bd 28 37 3f be a8 a8 9d be 2d 0f 9f be
       -0.035470482 -0.18673384 -0.30792737 -0.31066266
0000b0 2d ab 8c be 7c 7f 8e be a1 d4 4d bf ed da 8b bd
       -0.27474347 -0.27831638 -0.8040257 -0.06828866
0000c0 4a d1 73 be 70 65 9b be 99 cd e6 bd d6 24 47 3e
       -0.23810306 -0.30350828 -0.112696834 0.19447646
0000d0 90 7f 16 be 07 b2 97 bd 73 a1 bd bd c9 38 57 be
       -0.14697099 -0.07407003 -0.092593096 -0.21017756
0000e0 1c e0 a4 bd 62 8e e0 be 13 3d 18 bd 80 23 4e bf
       -0.08050558 -0.4385863 -0.03716762 -0.8052292
0000f0 64 62 ec be 34 e1 e5 be 85 8d 4f be 96 52 a6 be
       -0.46168816 -0.4489838 -0.20268829 -0.32484883
000100 72 0c df bd 80 ff 93 bd c5 b8 80 be b7 67 a7 be
       -0.10891046 -0.07226467 -0.25140968 -0.32696316
000110 4a 9b eb 3d 14 1b 24 be 86 76 a3 3d 6f dd b3 be
       0.115042284 -0.16025954 0.07981591 -0.35129878
000120 b9 45 c7 bc c4 66 eb 3d 95 82 82 bd f6 45 96 be
       -0.024325239 0.1149421 -0.06372563 -0.2935025
000130 c7 06 cb 3d c3 f1 70 be 98 c0 40 3e 4c c8 57 3e
       0.09913402 -0.23529725 0.18823469 0.21072501
000140 d0 4f a1 be 7f ed 96 3e 60 48 01 be bd 97 06 bf
       -0.31506205 0.2947807 -0.12625265 -0.52575284
000150 2d 5e c7 be 4b 90 71 3c ef 49 96 3e 34 5b 87 be
       -0.38939038 0.014743875 0.29353282 -0.2643677
000160 3d c9 f0 be 65 46 34 be 31 d6 9a 3d 38 be 26 be
       -0.47028533 -0.17604978 0.07560385 -0.162835
000170 67 be 26 3d ee b1 01 3d 92 89 47 be fc 3a 92 bd
       0.040708926 0.031663828 -0.19486073 -0.071401566
000180 99 7f 41 bf 9d 09 26 be aa d4 09 3e 04 1f 0a be
       -0.75585324 -0.16214605 0.13460031 -0.13488394
000190 85 f2 32 3d ea e9 54 be a1 0d 8b be 1e 14 33 bf
       0.043688316 -0.20792356 -0.27158836 -0.6995257
0001a0 13 46 d9 3e 88 7e 8a bd 52 3d 23 3e 80 16 b6 be
       0.42436275 -0.06762415 0.1594136 -0.3556404
0001b0 71 38 f9 be f0 73 85 bd 2c 49 ad 3d 75 7e a8 be
       -0.48675874 -0.06516254 0.08461222 -0.3290898
0001c0 38 f4 45 3e 5a 84 f4 3d d1 2a 0e 3e e9 48 03 bd
       0.19331443 0.119393066 0.1388352 -0.032051954
0001d0 81 be a2 bc 4e 67 ae bb 26 e4 08 bd 26 ac 56 be
       -0.01986623 -0.0053223735 -0.033420704 -0.20964107
0001e0 c2 a4 af 3d c8 be 35 be db 52 cd 3d 28 67 bd be
       0.08576347 -0.17748559 0.10025569 -0.36992764
0001f0 34 87 df be 6c e9 b8 bd 99 e0 ce be 3d f2 e7 bc
       -0.4365784 -0.09028897 -0.4040573 -0.02831375
000200 c3 91 d0 3d aa c4 55 be e9 0a 14 bd 68 5a 8f be
       0.10184052 -0.20875803 -0.036143217 -0.27998662
000210 6b 0d ef bd f5 22 ae 3e c3 6c 8a be d5 66 37 3d
       -0.11672481 0.34011045 -0.27036104 0.044775803
000220 99 ac 13 bf f9 b6 cc 3e c0 ce 2e 3e d5 4a 57 3e
       -0.5768524 0.39983347 0.17071056 0.2102464
000230 28 8b 37 bf ce 53 19 be 42 30 c0 bd 37 16 b8 3d
       -0.7169671 -0.14973375 -0.093842044 0.08988612
000240 65 a0 6f be 2d 8e c8 3e 8c d7 38 3d a0 9d fa 3d
       -0.2340103 0.39170972 0.045127437 0.12237096
000250 35 fc 2d be 38 62 a1 3d 32 31 cb bd 87 0a b3 3e
       -0.1699074 0.07880062 -0.09921493 0.3496897
000260 97 58 b4 3e 0f ad 10 bd cf 13 36 3e 1f a8 4e bd
       0.3522384 -0.03532129 0.17780994 -0.0504533
000270 f2 70 0b be c5 0d 3e bf 9a a9 26 3e 03 fc 61 be
       -0.13617304 -0.7423976 0.16275635 -0.22068791
000280 a8 79 a2 be 40 ba 3c bd ed 1a a1 be 47 c3 2a be
       -0.3173344 -0.04607606 -0.31465855 -0.16676055
000290 4f 6d 3e be e3 2a 58 3e a1 41 85 3e 3f ee d8 bd
       -0.18596385 0.2111011 0.26026633 -0.10592317
0002a0 34 c3 fe be 86 38 f9 3d d7 93 2e be 44 bd 2f 3d
       -0.49758303 0.12168984 -0.17048584 0.042905107
0002b0 8a f6 96 3e a4 40 aa be a7 4c 37 bd a4 8c 72 be
       0.2948497 -0.33252442 -0.044750836 -0.23686463
0002c0 f7 ed 05 3e 23 a7 7f be 75 64 05 3e 81 6a 56 be
       0.13079058 -0.24966101 0.13026603 -0.20939066
0002d0 db 77 6d be ca 6f a5 be 6d cb 1b bf 86 96 2b be
       -0.23190252 -0.3231185 -0.6085728 -0.16756639
0002e0 4c c4 f5 be 02 22 40 3c f4 b6 a5 bd 93 64 04 be
       -0.48001325 0.011726858 -0.08091536 -0.12928991
0002f0 2b d8 78 3e ee 4d 80 3e 56 45 b7 be aa db 3e 3e
       0.24301212 0.25059456 -0.35795087 0.18638483
000300 89 0b d6 3d a7 cb de be 80 51 fb bd 13 1a d5 bd
       0.10451419 -0.4351475 -0.12271404 -0.10405364
000310 44 5e 97 be 67 e8 dd 3e 1d 45 d6 be 16 93 5b bd
       -0.29564106 0.4334137 -0.41849604 -0.05360707
000320 9e f1 92 be 3e 95 a4 be f0 ef c5 be e3 f4 84 bd
       -0.28699964 -0.32145113 -0.3865962 -0.06492021
000330 84 88 a3 bd 33 42 9c be d6 83 82 be 7c ad b1 bd
       -0.07985023 -0.30519256 -0.25491208 -0.08675668
000340 e6 ae 24 be bb c4 8a 3c 58 db cb 3c 8d c8 1c be
       -0.16082343 0.016939512 0.024884865 -0.15310879
000350 91 c2 52 be fa 6f 53 3e 84 ff 4c be 33 2a 63 3e
       -0.20582034 0.20648184 -0.20019346 0.22184066
000360 33 42 94 bd 8e fe 2c bd eb 93 92 3e b8 15 4f 3e
       -0.07239189 -0.04223495 0.28628477 0.20223129
000370 1b 90 5a 3e 54 dd 1d 3e 3e 73 29 3e b2 05 8b bd
       0.21344034 0.15416461 0.16547868 -0.06788196
000380 ec 3f e9 bc 9d a8 81 bb 38 cb 59 bc 8c ed 0d be
       -0.028472863 -0.003956868 -0.01329308 -0.13860148
000390 d5 4a 03 bf 4c 87 72 bc 30 81 e7 3d 84 3b 17 3f
       -0.5128606 -0.014802765 0.113039374 0.5907519
0003a0 2c 71 76 be 7b 80 9b 3e 67 99 7e bd ab 96 bf bd
       -0.24066609 0.3037146 -0.062158015 -0.093549095
0003b0 f0 c6 b9 be 8f a7 08 3e 5d 9b ae 3d cc 6f 00 bd
       -0.3628459 0.13345169 0.08525727 -0.031356618
0003c0 08 be 13 bf 25 ec 99 be 76 5e 5f 3e 3d b2 82 be
       -0.5771184 -0.30062976 0.21813378 -0.2552661
0003d0 e4 9a 5b 3e a9 2d c0 3d 87 7d 86 be 0b de ab 3d
       0.21445805 0.09383709 -0.26267645 0.08391961
0003e0 21 73 57 be e6 a4 83 be 84 a7 f3 3d 72 17 bf bd
       -0.21040012 -0.25711745 0.118971854 -0.09330644
0003f0 59 05 e9 be ae db 28 3e 57 8f d8 3d 47 92 ae bd
       -0.45511892 0.16490051 0.10574215 -0.08523994

l3.weight f4 [4, 300]
000000 ce f3 26 bf ee 38 97 3f 7a 1e d9 bf ed a5 09 c0
       -0.65215766 1.1814249 -1.6962426 -2.1507523
000010 94 06 9c 3f 00 4b 1b 3f 86 dd 16 c0 a9 5d 94 3f
       1.2189507 0.60661316 -2.3572707 1.1591083
000020 25 70 6c 3e 3f fd be be 8b 89 be 3e c3 75 e4 3f
       0.23089655 -0.37302586 0.37214312 1.7848438
000030 8d 69 72 bf 30 01 1e c0 22 d2 78 3f 74 9f 05 40
       -0.9469231 -2.4688225 0.9719564 2.0878572
000040 d0 45 84 be f2 a8 c9 bf 23 eb 03 3f 57 19 43 c0
       -0.25834513 -1.5754683 0.51530665 -3.0484216
000050 b5 03 34 3f a4 24 73 3f 33 98 70 bf fc b8 1e 3f
       0.70318156 0.94977784 -0.9398224 0.62001014
000060 5c 2e 24 be 07 b3 10 bf b8 39 c9 3d ae eb a4 bf
       -0.1603331 -0.56523174 0.09825462 -1.2884424
000070 e1 48 08 40 c5 d5 ce 3e 58 a0 b9 3f 0d 12 26 bf
       2.1294482 0.40397468 1.4502058 -0.64871293
000080 04 cf 37 3e ae be 10 3e 9e 07 8c be a5 ed 64 3f
       0.17950064 0.14135239 -0.2734956 0.89425117
000090 91 0f 46 40 02 c9 89 3f 0b 1b c7 3f 28 06 b0 bf
       3.0947 1.0764468 1.5555128 -1.3751879
0000a0 db 0d 97 bf dd 29 15 bf 6c 1c 0f bf b7 5d aa bf
       -1.1801103 -0.58267003 -0.55902743 -1.330985
0000b0 09 a2 26 c0 76 95 9e 3f 1b 11 7b bf 1e fa 06 3f
       -2.6036398 1.2389362 -0.98072976 0.527254
0000c0 7e d2 3d 3f 24 f9 c1 bd 92 7e 9a be cc ee be 3e
       0.7414931 -0.09471348 -0.3017469 0.37291563
0000d0 df 2d e1 be f2 fb 7c 3f cc 73 36 bf 51 f7 8d 3e
       -0.4398031 0.9882194 -0.7127044 0.2772775
0000e0 bc 01 2d 3e 7d e4 03 3e c9 a6 b0 3f af ce 2f 3f
       0.16895193 0.1288013 1.3800899 0.6867475
0000f0 7a 73 90 3f d2 c2 7e 3f cd ed ed 3f 6b d2 47 c0
       1.1285241 0.9951602 1.8588196 -3.122218
000100 36 7a 1f bf f7 4e 9d 3e 4e 2b 1f c0 68 d6 da 3f
       -0.62295854 0.30724308 -2.487018 1.7096682
000110 8b 34 f9 bf b0 9e f7 3e 2a 2b 60 3f ac f5 b2 bd
       -1.946916 0.48363256 0.87565863 -0.087382644
000120 f7 03 3a bd 3f 27 b4 3c 36 bb 29 bd 77 e2 30 3f
       -0.045413937 0.02199137 -0.041438304 0.6909556
000130 40 0f 1b bf 4d 00 20 3e a5 38 fe be 36 d2 d0 3d
       -0.60570145 0.15625115 -0.4965259 0.101963446
000140 04 6c 9b 3f 97 b6 d5 3e 35 5e 03 3f 1e 1e 16 3f
       1.2142339 0.41740867 0.51315624 0.58639705
000150 49 65 c2 3f 14 a4 f2 3b 20 de 36 40 d1 dc 42 3e
       1.518716 0.0074048135 2.8573074 0.19029547
000160 ef 10 e0 be 6c af ec bf 23 6d a3 3e 97 52 46 3f
       -0.4376292 -1.8491035 0.31919202 0.7746977
000170 2a b2 a1 bf 2f f6 f8 be 01 4a ee 3e d7 24 98 3e
       -1.2632496 -0.48625323 0.46540835 0.29715607
000180 8f f8 b4 be 44 47 43 3f 18 d5 29 bf 38 22 cf be
       -0.35345885 0.7628062 -0.6634078 -0.40455794
000190 8c 43 03 40 07 90 25 be 22 9b 4d bf 44 f2 d1 3f
       2.0509977 -0.16168223 -0.8031484 1.6402059
0001a0 3e 49 98 be 58 12 69 bf 39 53 a6 3f 30 8b b4 be
       -0.2974338 -0.91043615 1.2994148 -0.35262442
0001b0 63 88 82 3e f6 1b 20 bf 1e db 01 be a8 e4 a9 3e
       0.2549468 -0.62542665 -0.12681243 0.33182263
0001c0 e2 65 ed 3f 98 d8 b8 3e f9 a1 b9 3f 8d bb 7a 3d
       1.8546717 0.36102748 1.4502555 0.06121402
0001d0 43 a3 88 3f 25 8c 89 3f 74 33 d3 bf e1 49 b5 bf
       1.0674824 1.0745894 -1.6500077 -1.4163171
0001e0 86 30 cb 3e 56 78 ab bf 1e ae 4e c0 77 d1 b7 3e
       0.39685458 -1.3396099 -3.2293773 0.35901996
0001f0 7b 0f 11 bf c2 05 be be 37 1c b7 3f 46 e2 fe 3d
       -0.56664246 -0.37113768 1.4305485 0.12445502
000200 2a 01 05 c0 81 61 4f 40 6e 47 ca 3e f9 3a 85 3e
       -2.078196 3.2403262 0.39507622 0.26021555
000210 1c 25 0d bf 74 4a 17 be 9d 3d 9a bf 06 10 91 3d
       -0.5513475 -0.14774495 -1.2050053 0.07083134
000220 ed a8 d8 bf c9 2c 7f 3f c6 ec aa bf 0a 1a e0 3f
       -1.6926552 0.9967771 -1.3353508 1.7507946
000230 e5 1a 1f 3f a9 c1 49 3e 5b 40 b8 3f 35 12 0f 40
       0.6215041 0.19702782 1.439464 2.2354863
000240 2d ec b3 be 19 fd 64 bf 47 ab ab 3e 2e e9 9a 3f
       -0.35141125 -0.89448696 0.33529112 1.2102411
000250 e3 cd 4b 40 51 ce 2e c0 1d 28 bd be ec c3 ee 3f
       3.1844413 -2.7313426 -0.36944667 1.8653541
000260 39 8d 8d bf d1 28 11 c0 bc 53 8d 3f 05 67 3b 3e
       -1.1058723 -2.2681162 1.1041179 0.18301018
000270 26 94 6b bf b8 27 9e be 8e 3e a1 3f 5d 7d 03 40
       -0.9202293 -0.30889678 1.2597215 2.0545266
000280 92 61 db be 3e 5e 90 3f df 3f d3 be 7d cd 8b be
       -0.42847878 1.127876 -0.41259667 -0.27305213
000290 c3 d3 6f 40 b5 3f 49 bf 13 58 bc be ed 4e 90 bf
       3.7473 -0.78612834 -0.36785945 -1.1274086
0002a0 06 63 80 bd f2 84 4c 3f 35 1f 11 40 b3 f1 a3 bf
       -0.06268887 0.7989036 2.2675297 -1.2808136
0002b0 3a fe 82 bd 43 e2 7e 3f f5 5f 01 40 15 2b 1b bf
       -0.06396146 0.99564 2.0214818 -0.6061261
0002c0 83 5e ea bf 68 57 bb bf 46 33 c1 3f 55 d3 f8 bf
       -1.8310093 -1.4636049 1.5093772 -1.9439493
0002d0 c2 e3 64 be e1 46 0a 3e cb 94 a0 bf 97 95 de bf
       -0.22352508 0.135036 -1.2545408 -1.7389401
0002e0 e3 43 62 bf ee 5d a4 3d 46 21 b2 be 87 79 af bf
       -0.88384837 0.08025728 -0.3479101 -1.3708962
0002f0 bc 43 20 bf aa 94 2f bf 6b ab aa 3f 7f ea 3b 3e
       -0.62603354 -0.6858622 1.3333563 0.18351172
000300 11 e1 78 3f 69 76 4f bf f5 09 87 be 26 4a 43 3f
       0.97218424 -0.81040055 -0.26374784 0.76285017
000310 c6 d4 f8 3e d8 30 38 bf a2 48 1d 40 43 bc 8b bd
       0.48599833 -0.7194953 2.4575582 -0.068230174
000320 a2 df 60 3f 7b d0 fe 3e 7e 45 84 3f 84 46 a5 3f
       0.87841237 0.49768433 1.0333707 1.2912145
000330 5b 4c e6 be b6 bb c2 bf 99 5e f6 be 39 f8 81 3e
       -0.4498013 -1.5213535 -0.48119047 0.2538469
000340 1c 24 7c 3f a9 07 85 3f 31 a1 1f 3e 20 09 a1 bf
       0.984926 1.0392963 0.15588833 -1.258091
000350 e3 ea 98 bf fd 90 71 3f de f1 65 3f c5 63 4c 3f
       -1.1946682 0.9436186 0.89822185 0.79839736
000360 02 85 14 bd 34 73 e0 be 64 35 f9 3f d1 7e c1 3f
       -0.03625966 -0.43837893 1.9469419 1.5116826
000370 1d 1a b9 bc 06 06 00 c0 9a 1c 34 3f 21 84 17 3f
       -0.02259546 -2.0003676 0.7035614 0.5918599
000380 52 23 94 3f 0b 35 fb bc 5f 5b 03 bf bf 17 5c 3f
       1.1573279 -0.030664941 -0.51311296 0.85973734
000390 8e e2 f2 3f 81 3a ab be 32 84 06 c0 d5 5d 14 c0
       1.8975389 -0.33443072 -2.1018186 -2.318227
0003a0 5a 68 4d 3f 81 76 1a 3e 71 b9 cc 3f 0d 6c b9 bf
       0.8023735 0.15084268 1.5994092 -1.44861
0003b0 cb 3e 98 3e 8c 76 d8 bf fb 39 19 bf d8 19 4b 40
       0.29735407 -1.6911178 -0.59854096 3.1734524
0003c0 25 89 b5 3f 52 04 e5 bf 09 91 ba 3e 06 6e 1a bf
       1.4182478 -1.7891943 0.36438778 -0.6032413
0003d0 0d 31 11 bf 63 03 83 bf 98 12 92 3f 93 9b 38 bf
       -0.5671547 -1.0235409 1.1411924 -0.7211239
0003e0 4e af 22 40 9f 93 e3 bf 84 65 9b bf 63 c2 2f 3f
       2.5419497 -1.7779425 -1.2140355 0.68655986
0003f0 bf ee 14 bf 5b bc c2 3f 50 43 28 be f9 c7 5c 3f
       -0.581768 1.5213732 -0.16431928 0.86242634

l3.bias f4 [4]
000000 7c bd 2a 3e b4 3b 25 be 19 2f a2 3d 98 ff dc 3d
       0.16673845 -0.16136056 0.079191394 0.10790938
