preTrained/DeepTD3_BipedalWalkerHardcore-v3_0_crtic_1.pth (torch_old, 175167 bytes, 7 tensors)

l1.weight f4 [64, 28]
1.082461 1.6406142 0.13134591 -1.3193293 0.23593202 0.112063624 0.1454658 0.19736323
0.018107966 0.63401645 0.074543364 0.1504088 0.0029089649 -0.14975631 -0.27352408 -0.100650966
0.048397347 0.44782707 0.69573534 0.3553639 -0.3901986 -1.1194141 0.057277057 0.45375586
-0.049827613 -0.01483829 0.07772682 0.01892726 1.0121477 2.4392805 -3.2639334 2.8788707
0.109371394 0.050398104 -0.17865191 0.034789763 0.10201255 0.22436124 0.051175408 -0.75554
-0.0050151036 -0.056654528 0.6357828 0.4276141 0.32780185 0.18039253 0.41951844 0.2712116
-0.3461026 -0.1617894 -0.71248645 0.05071637 0.05504749 -0.04658142 -0.034161255 0.08135881
1.6193593 0.7903781 0.80471706 -0.5429146 1.8250259 0.07600348 0.46145558 -0.19503924
-0.34983304 -0.729132 0.1829448 -0.19639388 -0.37935543 0.07949911 -0.037750714 -0.13737862
0.036069818 0.05175298 0.07648158 -0.16094859 -0.13204323 -0.13898191 0.029855015 -0.07787059
0.017274743 0.05566926 0.2719244 -0.1789328 1.3267161 -3.852552 -1.4530207 3.3353953
0.4875479 -0.08710843 -0.059850764 0.020215115 0.15029448 0.07534169 -0.1563068 -0.36566845
-0.049303763 0.05074346 0.32833812 0.119384 0.31943652 0.16764633 0.051601768 0.1631708
0.16521844 0.50987756 0.46180555 -0.011518743 0.04098016 0.0066723716 0.027862065 0.06971528
1.1680616 -0.34515956 -0.5454837 -1.2445225 -0.6304307 0.06961146 0.24570568 0.007953728
0.15994248 0.57033634 -0.32624203 -0.21266864 0.036355846 0.35659176 0.28337333 -0.038709555
-0.35775703 -0.056632623 0.18335298 0.162493 0.0022526125 -0.12071995 -0.021913351 -0.26811314
0.091353714 -0.1084733 0.00028633166 -0.017458366 -0.20566708 0.21475296 -1.0511388 0.1329313
0.0446272 -0.012608685 0.3073177 0.01989133 -0.12264247 0.4510205 -0.12314106 0.026280679
-0.070490636 -0.2794165 -0.24734937 -0.4498123 -0.6280415 0.13111916 1.0929487 1.2644695
0.5560833 -0.70609987 -0.89020187 -0.31254417 -0.021688756 0.053285554 -0.05488755 0.008185582
0.7509413 2.5885706 -3.1772807 1.3895078 -0.04341621 0.1338419 -0.011652825 0.11215828
-0.2373736 0.50447255 0.06688833 0.27643105 0.084816106 0.23206647 0.58945674 0.34553304
-0.056690294 0.03558961 0.30967247 0.6116632 0.442924 -0.088931255 -0.4599451 -0.8131857
-0.007025206 -0.0025731046 -0.0049888333 0.010479574 0.04872571 0.55150664 1.0098971 0.5738857
-0.79005516 0.22528939 -0.6212591 0.07409349 0.13964358 -0.019069787 -0.1369351 -0.011724271
0.0014396504 -0.010797753 0.046687465 -0.16762519 0.038846835 0.048184782 -0.46827182 -0.29307646
0.59387535 1.0801594 0.6387438 0.255605 0.03384972 -0.03687942 -0.014953367 -0.0043621585
-0.9990309 -3.208695 2.2843368 1.0503982 -0.03185508 0.07048289 0.019806601 -0.12734258
-0.24386342 -0.7328491 0.010555239 -0.5382788 -0.085124955 0.12854378 -0.11738202 0.1280725
-0.27580637 -0.08091764 0.4896739 0.21702985 -0.13218081 -0.30386558 -0.15334065 -0.06590128
0.0087957475 -0.093487956 -0.018164052 0.0734398 -1.6834567 -2.5567966 0.28732476 -0.975994
00000000: 158e 8a3f a5ff d13f 8b7f 063e c8df a8bf
00000010: 2a98 713e 9d81 e53d fdf4 143e 9619 4a3e
00000020: 2857 943c e74e 223f 31aa 983d c404 1a3e
00000030: 55a4 3e3b b859 19be 590b 8cbe 1822 cebd
00000040: 4c3c 463d 9749 e53e b61b 323f 42f2 b53e
00000050: 1cc8 c7be f648 8fbf 599b 6a3d b052 e83e
00000060: 0a18 4cbd 4d1c 73bc 3d2f 9f3d 570d 9b3c
00000070: 0e8e 813f 2c1d 1c40 49e4 50c0 6b3f 3840
00000080: 1cfe df3d 3e6e 4e3d 87f0 36be b67f 0e3d
00000090: f5eb d03d f4be 653e 4e9d 513d 126b 41bf
000000a0: bd55 a4bb 940e 68bd a9c2 223f 3cf0 da3e
000000b0: a5d5 a73e d2b8 383e 1fcb d63e 3fdc 8a3e
000000c0: 5c34 b1be 1fac 25be 8365 36bf f8bb 4f3d
000000d0: 7a79 613d 29cc 3ebd acec 0bbd 739f a63d
000000e0: 2a47 cf3f 3856 4a3f f001 4e3f 74fc 0abf
000000f0: 739a e93f b6a7 9b3d e843 ec3e 5eb8 47be
00000100: 511d b3be 65a8 3abf e255 3b3e 7a1b 49be
00000110: e03a c2be 6ed0 a23d 7ea0 1abd fbac 0cbe
00000120: f2bd 133d effa 533d 60a2 9c3d b5cf 24be
00000130: 5736 07be 4651 0ebe 8192 f43c 9e7a 9fbd
00000140: c383 8d3c 7305 643d ad39 8b3e 293a 37be
00000150: d5d1 a93f 3690 76c0 95fc b9bf 1e77 5540
00000160: e19f f93e e865 b2bd 1326 75bd 2b9a a53c
00000170: cce6 193e be4c 9a3d e40e 20be e538 bbbe
00000180: bef2 49bd 60d8 4f3d ef1b a83e 997f f43d
00000190: 2f8d a33e 7bab 2b3e 605c 533d 3f16 273e
000001a0: 062f 293e 5687 023f c771 ec3e 1cb9 3cbc
000001b0: d0da 273d e9a3 da3b fc3e e43c e2c6 8e3d
000001c0: 0b83 953f c1b8 b0be d2a4 0bbf 834c 9fbf
000001d0: e863 21bf 7490 8e3d 459a 7b3e 5a50 023c
000001e0: f6c7 233e 9001 123f 3209 a7be cfc5 59be
000001f0: dee9 143d 3293 b63e 4f16 913e e98d 1ebd
00000200: ee2b b7be 9cf7 67bd e2c0 3b3e 9164 263e
00000210: 91a0 133b 053c f7bd a183 b3bc 2046 89be
00000220: a817 bb3d 4027 debd c91e 9639 d904 8fbc
00000230: 649a 52be 33e8 5b3e b78b 86bf 251f 083e
00000240: 03cb 363d a894 4ebc bf58 9d3e 24f3 a23c
00000250: fa2b fbbd 29ec e63e 6131 fcbd 944a d73c
00000260: 655d 90bd ae0f 8fbe 2749 7dbe cc4d e6be
00000270: 54c7 20bf 1a44 063e bee5 8b3f 23da a13f
00000280: 7a5b 0e3f f6c2 34bf 45e4 63bf ca05 a0be
00000290: 9eac b1bc f441 5a3d c5d1 60bd d21c 063c
000002a0: b03d 403f 24ab 2540 9158 4bc0 64db b13f
000002b0: 32d5 31bd da0d 093e 7eeb 3ebc 3eb3 e53d
000002c0: 1112 73be 1d25 013f c0fc 883d 5f88 8d3e
000002d0: 11b4 ad3d d5a2 6d3e a3e6 163f b5e9 b03e
000002e0: 1534 68bd 69c6 113d 648d 9e3e f695 1c3f
000002f0: efc6 e23e 9721 b6bd ed7d ebbe f02c 50bf
00000300: b333 e6bb 88a1 28bb 5e79 a3bb 85b2 2b3c
00000310: 9c94 473d 8a2f 0d3f 4f44 813f 2cea 123f
00000320: 0e41 4abf 43b2 663e d60a 1fbf 54be 973d
00000330: bafe 0e3e 3e38 9cbc b738 0cbe 2817 40bc
00000340: a7b2 bc3a 0fe9 30bc 5b3b 3f3d f0a5 2bbe
00000350: dc1d 1f3d 685d 453d 53c1 efbe 1e0e 96be
00000360: 3708 183f aa42 8a3f b784 233f a9de 823e
00000370: 01a6 0a3d e00e 17bd f8fe 74bc 70f0 8ebb
00000380: 7dc0 7fbf 425b 4dc0 9332 1240 7373 863f
00000390: 797a 02bd 5559 903d 7441 a23c 1866 02be
000003a0: 55b7 79be 009c 3bbf e2ef 2c3c a4cc 09bf
000003b0: fe55 aebd fba0 033e fc65 f0bd 7025 033e
000003c0: 7e36 8dbe 26b8 a5bd 8ab6 fa3e 133d 5e3e
000003d0: 685a 07be 4594 9bbe 5505 1dbe 40f7 86bd
000003e0: 0a1c 103c 9d76 bfbd c7cc 94bc 9b67 963d
000003f0: 827b d7bf 8ea2 23c0 3b1c 933e beda 79bf

l1.bias f4 [64]
0.38672012 -0.39554948 -0.50876814 -0.33969447 -0.7401547 -0.008618516 -0.35199252 -0.43508372
0.49937737 0.028752912 0.15300775 0.5060897 -0.51615226 0.38532808 0.017877996 -0.28255326
-0.17651577 0.27542418 -0.42503703 0.29855287 0.06258231 -0.13455433 0.2842107 -0.29767612
0.046396345 -0.6855564 0.40836933 -0.5280914 -0.26495796 -0.53457516 0.33413595 0.11489718
-0.38900536 -0.29845887 -0.027234012 -0.26142472 -0.02489773 -0.86941093 0.10224915 -0.41161716
0.10016922 0.52117455 -0.12561575 0.04578725 0.37949124 0.9525238 -0.5060534 -0.39342502
-0.634518 1.182986 -0.013945195 0.5844024 -1.1063968 -0.4655756 -0.2945907 0.057121053
0.390729 -0.14505784 -0.8572724 -0.19453889 -0.39883032 0.059935123 -0.35368815 -0.5905386
00000000: 2e00 c63e 7685 cabe a13e 02bf 6fec adbe
00000010: c77a 3dbf ad34 0dbc 5d38 b4be 4bc3 debe
00000020: 64ae ff3e 3a8b eb3c 10ae 1c3e 188f 013f
00000030: 8e22 04bf b949 c53e e074 923c d2aa 90be
00000040: 8dc0 34be 6604 8d3e 749e d9be ecdb 983e
00000050: 272b 803d 9cc8 09be 1184 913e 0169 98be
00000060: 180a 3e3d a080 2fbf c915 d13e ff30 07bf
00000070: 92a8 87be ebd9 08bf de13 ab3e 364f eb3d
00000080: b62b c7be 9acf 98be dd19 dfbc 76d9 85be
00000090: 53f6 cbbc b791 5ebf 0168 d13d 7cbf d2be
000000a0: 8525 cd3d b26b 053f 6aa1 00be 698b 3b3d
000000b0: ad4c c23e 9ad8 733f b78c 01bf 016f c9be
000000c0: c66f 22bf 166c 973f 637a 64bc 659b 153f
000000d0: 699e 8dbf ed5f eebe 98d4 96be c4f7 693d
000000e0: a20d c83e 0b8a 14be 3476 5bbf 3435 47be
000000f0: 7d33 ccbe 887e 753d 9d16 b5be 8a2d 17bf

l2.weight f4 [128, 64]
-0.073558256 -1.0630007 -0.17662726 0.6403483 -0.43796247 -0.7795802 -0.82675284 -0.23543221
0.26486242 -0.0931452 0.48070186 -0.14944878 -0.44096428 0.10390725 -0.08569289 -0.556713
-1.9951584 0.09599719 -0.6251828 0.26748997 -0.7311992 -0.31352186 0.19046737 -0.12974778
0.4483543 -0.6190108 -0.18789946 0.24459395 -0.22625867 -0.2948512 -0.23569748 0.31741863
-1.0930363 -0.52207935 -0.82252 -0.29200613 -0.86717063 -0.7148715 -0.5564578 -0.40551412
0.115507856 -0.15241697 -0.4054245 0.09281746 -0.48012105 -0.3464184 -1.6857755 -0.8021694
-1.1531699 -0.5278939 0.06400565 0.30788162 -1.5196809 -0.059288237 -1.2464757 -0.18794824
-0.22930528 0.5370816 -0.44878563 -1.486338 -0.14346896 -0.4744329 0.6311417 -1.0355245
-1.1868981 -0.20253487 0.5827659 0.027680043 -0.16877583 -0.40135413 -0.05448372 0.5050517
0.48459014 -0.1935597 -0.050070796 -0.24542454 0.055190656 -0.28923607 -0.109575324 0.06179347
1.0453528 -0.44095638 0.5159801 -0.48380563 -0.04448337 0.1406635 -1.1099956 0.096856736
-0.04726848 -1.6909695 -1.9559246 -0.72202134 0.47645026 -0.004980936 0.1645441 -0.116033256
0.45047235 -0.033704862 -0.075916745 -0.42745486 -0.22726743 -0.66878617 0.03815337 -0.08108248
0.26606843 0.39956802 -0.20933387 -0.32159027 -0.08319728 0.954334 0.84266853 0.25466487
-0.46056163 0.4963373 0.41247296 0.035615504 -0.2885953 0.26302835 0.4771779 -0.6703085
0.16267674 0.1926994 0.26672247 0.74254626 -0.42321587 -0.19086292 0.23885086 0.69471294
-0.13411263 0.0040611387 -0.07619076 0.033769466 -0.11023299 -0.054204155 -0.010824294 0.07275271
-0.09746568 0.021994222 0.03336142 0.17363118 0.024108674 0.03492053 -0.08250657 -0.26534346
-0.121111244 -0.33842206 -0.09603527 -0.09391538 -0.23072818 -0.26151147 -0.1363003 0.07759902
0.011539805 -0.2734053 0.07816952 -0.15289424 -0.054707553 -0.22823912 -0.15973179 -0.14332272
-0.21114822 -0.24653618 -0.03817655 0.13901207 0.04497248 -0.044512633 0.06809116 0.03295132
-0.13235216 -0.10683048 -0.1687978 0.03663222 -0.28396124 -0.15688197 -0.046147164 -0.047945116
-0.4227424 -0.23179165 -0.015056143 -0.061687678 -0.20088807 -0.04654467 -0.15053137 0.15557088
0.03243816 -0.14460532 0.15932912 -0.054720443 0.02506474 -0.16532236 -0.01593862 -0.019647228
-0.5295659 -0.06095797 -0.2872858 0.13577326 -0.891887 0.82562125 -0.21902841 0.010231985
0.014304614 -0.039704494 -0.21444643 -0.6009564 -0.1916815 0.34283918 0.32648036 -0.09850942
-0.4990042 -0.56009936 0.18060529 -0.16591303 0.48936725 -0.25017872 0.20757613 -0.22221069
-0.14950341 -2.4196851 -0.36732167 -1.7192296 0.43774536 -0.60037696 -0.07732967 -0.039398655
-0.030895617 -0.94269377 -0.46407446 0.21619268 0.09309892 -0.32830977 -0.15484753 0.43050146
0.14354281 0.35691777 0.02101064 -0.30362847 0.35609633 -0.8251215 -0.21921283 -0.33927697
-1.3820721 0.51247567 0.41185993 0.07623102 -1.8731227 -0.3438723 -0.30987528 -0.5417154
-0.4486136 0.65061504 -0.08522129 -0.2662539 -0.5244097 -0.5387902 0.14443822 -0.23630467
00000000: b6a5 96bd 6810 88bf c7dd 34be deed 233f
00000010: 9e3c e0be 9192 47bf 13a6 53bf 2415 71be
00000020: 0c9c 873e e9c2 bebd 8e1e f63e 1a09 19be
00000030: 12c6 e1be 53cd d43d c17f afbd be84 0ebf
00000040: 5a61 ffbf 2d9a c43d fb0b 20bf 72f4 883e
00000050: df2f 3bbf f085 a0be e109 433e 9adc 04be
00000060: b28e e53e 7e77 1ebf b768 40be d676 7a3e
00000070: 5ab0 67be bdf6 96be ae5a 71be b284 a23e
00000080: 9de8 8bbf fea6 05bf ac90 52bf d481 95be
00000090: e5fe 5dbf d201 37bf 0574 0ebf 8c9f cfbe
000000a0: 628f ec3d 3213 1cbe cd93 cfbe 1517 be3d
000000b0: 6dd2 f5be c15d b1be 7ec7 d7bf f95a 4dbf
000000c0: 129b 93bf 0e24 07bf 6515 833d a9a2 9d3e
000000d0: e784 c2bf 39d8 72bd 848c 9fbf 8175 40be
000000e0: 01cf 6abe 2e7e 093f 3bc7 e5be 5340 bebf
000000f0: 87e9 12be dee8 f2be 8192 213f 118c 84bf
00000100: 47ec 97bf 4d65 4fbe 2530 153f 42c1 e23c
00000110: 92d3 2cbe 4a7e cdbe 522a 5fbd 114b 013f
00000120: 331c f83e 8434 46be 0917 4dbd 9250 7bbe
00000130: 990f 623d c016 94be 0769 e0bd 261b 7d3d
00000140: 1fce 853f 09c5 e1be 4617 043f 5fb5 f7be
00000150: 3234 36bd 180a 103e 5614 8ebf d35c c63d
00000160: 989c 41bd b071 d8bf bd5b fabf 64d6 38bf
00000170: 4af1 f33e 1f37 a3bb 407e 283e d8a2 edbd
00000180: 50a4 e63e 1c0e 0abd 3d7a 9bbd 5ddb dabe
00000190: cbb8 68be 9235 2bbf b546 1c3d 920e a6bd
000001a0: 1f3a 883e 2e94 cc3e 9e5b 56be 7ba7 a4be
000001b0: 5663 aabd 3c4f 743f 20b9 573f 6f63 823e
000001c0: bcce ebbe ec1f fe3e a82f d33e 90e1 113d
000001d0: c3c2 93be a7ab 863e a950 f43e 5699 2bbf
000001e0: bb94 263e fe52 453e d98f 883e 8317 3e3f
000001f0: c0af d8be 9271 43be 5295 743e b5d8 313f
00000200: d254 09be 4d13 853b e709 9cbd da51 0a3d
00000210: d5c1 e1bd 2d05 5ebd 6158 31bc 5fff 943d
00000220: 169c c7bd 3a2d b43c fca5 083d 5fcc 313e
00000230: 8e7f c53c d408 0f3d 34f9 a8bd 19db 87be
00000240: 2c09 f8bd a845 adbe 24ae c4bd b556 c0bd
00000250: 0244 6cbe d5e4 85be 4e92 0bbe 3cec 9e3d
00000260: 7311 3d3c c8fb 8bbe 5717 a03d 4f90 1cbe
00000270: 0715 60bd 84b7 69be bb90 23be 31c3 12be
00000280: 3d37 58be fb73 7cbe 045f 1cbd 2e59 0e3e
00000290: 1035 383d e152 36bd 6173 8b3d f7f7 063d
000002a0: 5387 07be f0c9 dabd 55d9 2cbe ab0b 163d
000002b0: 5e63 91be aba5 20be cf04 3dbd 1962 44bd
000002c0: b171 d8be ca5a 6dbe 0aae 76bc 38ac 7cbd
000002d0: 9ab5 4dbe a0a5 3ebd e524 1abe f94d 1f3e
000002e0: e0dd 043d 6b13 14be 2c27 233e 8b22 60bd
000002f0: 9254 cd3c 444a 29be b591 82bc 39f3 a0bc
00000300: a191 07bf 10af 79bd 2017 93be 2508 0b3e
00000310: b552 64bf ea5b 533f fc48 60be 0ea4 273c
00000320: e65d 6a3c 2ea1 22bd d897 5bbe 47d8 19bf
00000330: 2848 44be 9e88 af3e 6f28 a73e 4fbf c9bd
00000340: 7a7d ffbe ac62 0fbf 98f0 383e 1be5 29be
00000350: 588e fa3e 6d17 80be d68e 543e 338b 63be
00000360: 6c17 19be 1fdc 1ac0 9611 bcbe b70f dcbf
00000370: 2920 e03e 4eb2 19bf 055f 9ebd 7c60 21bd
00000380: ce18 fdbc 6154 71bf 2b9b edbe 9d61 5d3e
00000390: a6aa be3d 3818 a8be 5a90 1ebe b06a dc3e
000003a0: e3fc 123e edbd b63e 811e ac3c 3175 9bbe
000003b0: 4252 b63e 2a3b 53bf 5479 60be b6b5 adbe
000003c0: bde7 b0bf 9b31 033f 4edf d23e 021f 9c3d
000003d0: 7cc2 efbf 0810 b0be f9a7 9ebe dcad 0abf
000003e0: afb0 e5be b58e 263f 8088 aebd 6e52 88be
000003f0: b73f 06bf 28ee 09bf 9de7 133e daf9 71be

l2.bias f4 [128]
0.88261247 0.16690066 0.060323834 0.53934133 0.9727126 0.09012087 -0.29466757 0.13378294
0.16332738 -0.022498349 -0.052217416 -0.39137757 -0.06724373 -0.09826627 -0.026388131 -0.37008125
0.00867872 -0.06673301 -0.070537224 0.864029 0.35145453 0.25262403 -0.017795054 0.81873643
0.03390759 -0.16576777 -0.16398747 0.45559773 -0.12102847 0.13754971 0.40720922 0.5087416
0.090991765 0.15621905 0.2778347 -0.763251 -0.13127322 -0.14742315 -0.2978662 -0.14505486
0.14963208 0.04819095 -0.042072337 0.11594822 -0.09288531 0.1982415 0.27646655 0.7388439
-0.42851827 0.69841725 0.109263666 0.04683643 0.46675676 -0.15508546 0.15658888 -0.56741935
0.36661008 0.2586463 0.10952798 0.14696668 -0.36081734 0.4025754 -0.12732723 0.090964235
-0.0077240905 -0.14921303 0.038101606 0.46288386 0.12663253 0.8165217 0.051357508 -0.36006784
0.1156036 0.6851452 -0.1248763 -0.2154651 -0.33333668 -0.107682556 0.22163528 0.00023507442
0.14217189 0.009690729 -0.6172631 -0.05782766 -0.3379674 -0.04280033 -0.20117183 0.029193304
-0.06373988 -0.051147725 -0.04015965 0.62359864 0.94489557 -0.19130783 -0.029698756 0.13994376
0.13845621 0.05887685 -0.21947537 0.19011335 0.1937678 -0.09683903 0.04850422 0.36045137
0.14550227 -0.22753859 0.03801452 -0.07008081 0.23705333 0.3528462 -0.15646875 -0.4485532
0.19525206 0.38865992 0.44875005 0.14964661 -0.1327897 -0.1598672 0.19306386 -0.026489079
-0.117330484 0.12677829 -0.1795897 0.15811938 -0.23649092 -0.028265 0.3072567 -0.43465278
00000000: e4f2 613f 02e8 2a3e 2016 773d 4612 0a3f
00000010: b103 793f 4a91 b83d abde 96be 65fe 083e
00000020: 4b3f 273e 754e b8bc eee1 55bd a462 c8be
00000030: 15b7 89bd d33f c9bd ec2b d8bc 4a7b bdbe
00000040: 3131 0e3c 51ab 88bd d275 90bd 0131 5d3f
00000050: d9f1 b33e f057 813e efc6 91bc b698 513f
00000060: afe2 0a3d 07bf 29be 55ec 27be 1b44 e93e
00000070: c6dd f7bd d5d9 0c3e ba7d d03e e43c 023f
00000080: e459 ba3d e3f7 1f3e 5a40 8e3e 6b64 43bf
00000090: 7d6c 06be 18f6 16be eb81 98be 4389 14be
000000a0: 2739 193e e063 453d 0b54 2cbd 4376 ed3d
000000b0: a73a bebd d2ff 4a3e 068d 8d3e e024 3d3f
000000c0: bf66 dbbe 79cb 323f a1c5 df3d 8ed7 3f3d
000000d0: befa ee3e b9ce 1ebe d658 203e 6542 11bf
000000e0: 51b4 bb3e 4a6d 843e 3550 e03d 6f7e 163e
000000f0: 0dbd b8be 5d1e ce3e 1262 02be 754b ba3d
00000100: 5e1a fdbb 4dcb 18be 6e10 1c3d 1dff ec3e
00000110: f5ab 013e 9107 513f 405c 523d d05a b8be
00000120: 95c1 ec3d ad65 2f3f 25bf ffbd e2a2 5cbe
00000130: 1bab aabe ac88 dcbd 5cf4 623e 4f7e 7639
00000140: 8295 113e ddc5 1e3c f404 1ebf b2dc 6cbd
00000150: 100a adbe 664f 2fbd fdff 4dbe cc26 ef3c
00000160: 0e8a 82bd 4780 51bd 727e 24bd 29a4 1f3f
00000170: ade4 713f 33e6 43be ce4a f3bc 6b4d 0f3e
00000180: 77c7 0d3e da28 713d 27be 60be 13ad 423e
00000190: 116b 463e 8b53 c6bd 5cac 463d 158d b83e
000001a0: 8cfe 143e e0ff 68be 1db5 1b3d 8786 8fbd
000001b0: 1cbe 723e 42a8 b43e 5839 20be c4a8 e5be
000001c0: 28f0 473e 6ffe c63e 91c2 e53e f63c 193e
000001d0: 06fa 07be 3ab4 23be 88b2 453e a0ff d8bc
000001e0: f74a f0bd 2bd2 013e 5de6 37be 0cea 213e
000001f0: ad2a 72be 008c e7bc c050 9d3e cf8a debe

l3.weight f4 [256, 128]
-0.20804998 0.5422576 0.13210148 -0.25823653 0.25116608 -0.1532223 -0.41100568 0.15018933
0.3338395 -0.07358392 0.15000354 0.06468211 -0.67508626 -0.4092084 0.07030681 0.5435903
0.10319135 0.27160585 -0.8298149 0.17667997 -0.82887036 -0.20094249 0.08591314 -1.2522833
0.029971715 0.18312435 -0.5339113 0.20243435 0.31708804 0.10932558 0.09796242 -1.4122263
0.49373177 0.04380366 0.14096731 -1.2767649 0.29733276 -0.043250393 0.3546176 0.100147605
0.11665703 -0.124858156 0.028748125 0.143493 0.037523493 0.28668025 -0.47107646 -0.2218121
-0.26589674 0.11191868 0.31034747 0.34148252 -1.2099059 0.33245623 0.10049935 0.30753988
0.16265538 0.9339454 0.13200907 0.26093015 -1.0766698 0.22502087 -0.05341123 0.23839976
0.10428363 0.34515238 -0.50023615 0.267639 -0.20086621 0.02421096 -0.1769395 -0.047638007
0.06486137 -0.616775 0.16678792 -0.04039943 -0.08640106 -0.53102756 0.12123554 -0.10635685
-0.2744049 -1.5761336 0.29790318 -0.80755246 -0.39843595 -0.3127806 -0.097098604 0.08589451
0.62713194 0.51606905 0.14061171 -0.1075017 -1.0651242 -0.1605165 0.16296281 0.20270754
0.29574776 -0.43638438 -0.68395495 0.30451983 0.179524 0.31748044 0.045496654 0.6755032
-0.24189727 -0.4906189 -0.271278 -0.20395826 0.19392459 -0.19525208 -0.15529485 0.04598402
-0.3497622 0.12243655 -0.20640355 0.6469582 0.08789381 -0.11269965 0.6913207 -0.91022
-0.35147682 -0.91951567 0.4809891 0.0337716 -0.20161659 -0.61788815 0.1824016 -0.8385513
-0.4828274 -0.32638475 0.104116 -0.19298871 -0.25588393 -0.32262933 -0.5833724 0.06852753
0.0707992 -0.40929002 -0.026254686 -0.51202226 -0.06399287 -0.42145526 0.12180363 0.045081154
0.30084306 0.39579386 -0.6095574 -0.48512554 -0.54016936 0.123144716 0.13734485 -0.3200621
-0.81995803 -0.10882092 -0.02165422 -0.42670554 0.31570438 -0.17811535 0.43377453 -0.06681057
-0.063960634 -0.04485001 0.1541764 -0.52301514 -0.23578697 -0.47586188 0.17137286 0.63051724
0.018036475 -0.11071065 0.20605804 0.19549587 -0.12747128 0.055130918 -0.3934961 0.23415977
-0.53551596 0.20185201 0.06416081 0.055472214 -0.07020323 -0.48114127 -0.3029419 -0.3385347
-0.1549921 -0.057564348 -0.081587695 0.036292315 -0.8094128 0.08703879 -0.43923402 0.18873653
-0.008620398 -0.7150753 0.102506295 -0.091271274 0.055312593 -0.03905398 -0.043992527 -0.331786
0.03538786 0.0026475214 -0.5367633 -0.28720802 -0.46180645 -0.49716365 0.54902524 -0.06873889
-0.16520837 -0.4399823 -0.3979034 -0.7190842 0.3434969 -0.12503326 -0.13250265 0.08130771
0.10024148 0.13949414 -0.018333504 0.069536746 -0.4367023 -0.23189358 -0.13422012 0.05086737
0.2918384 -0.62933666 -0.36287212 0.32976887 0.2972787 0.17780371 -0.06278818 -0.28025538
-0.6499462 0.07044581 -0.5381138 -0.1302816 0.28284758 0.16034 -0.06757255 -0.22147515
0.16414846 -0.081153505 -0.20685872 -0.22761206 -0.3856399 -0.25392815 -0.21146569 -0.21672705
-0.32987216 -0.4786026 0.101397246 0.029538702 -0.24286722 0.11155196 -0.12896296 -0.5868334
00000000: 0e0b 55be 65d1 0a3f 9c45 073e 9437 84be
00000010: d798 803e 4ee6 1cbe 566f d2be 3bcb 193e
00000020: 03ed aa3e 2bb3 96bd 879a 193e 0e78 843d
00000030: 74d2 2cbf c383 d1be 04fd 8f3d bc28 0b3f
00000040: fd55 d33d ec0f 8b3e c06e 54bf 98eb 343e
00000050: d930 54bf dec3 4dbe 3af3 af3d d24a a0bf
00000060: 3e87 f53c f384 3b3e 69ae 08bf f34a 4f3e
00000070: 5d59 a23e 17e6 df3d 85a0 c83d d5c3 b4bf
00000080: 69ca fc3e 776b 333d bc59 103e 086d a3bf
00000090: 003c 983e 5327 31bd 7090 b53e 301a cd3d
000000a0: e2e9 ee3d a2b5 ffbd 3081 eb3c d4ef 123e
000000b0: 3cb2 193d c1c7 923e ef30 f1be b622 63be
000000c0: 9e23 88be 9f35 e53d dde5 9e3e ccd6 ae3e
000000d0: 32de 9abf b437 aa3e 9ad2 cd3d de75 9d3e
000000e0: 228f 263e 0c17 6f3f 632d 073e a398 853e
000000f0: 51d0 89bf df6b 663e bcc5 5abd 111f 743e
00000100: a892 d53d d0b7 b03e 7a0f 00bf fb07 893e
00000110: dfaf 4dbe 1056 c63c a12f 35be 1220 43bd
00000120: 0ad6 843d f7e4 1dbf 74ca 2a3e df79 25bd
00000130: 0af3 b0bd 6cf1 07bf 574a f83d 9fd1 d9bd
00000140: cd7e 8cbe bfbe c9bf c486 983e c2bb 4ebf
00000150: ccff cbbe c724 a0be a2db c6bd 76e9 af3d
00000160: b88b 203f 1a1d 043f 84fc 0f3e da29 dcbd
00000170: fd55 88bf 705e 24be b9df 263e 9192 4f3e
00000180: 406c 973e c66d dfbe ac17 2fbf 06ea 9b3e
00000190: 24d5 373e cc8c a23e b35a 3a3d c7ed 2c3f
000001a0: ebb3 77be 6732 fbbe f3e4 8abe 6fda 50be
000001b0: 2b94 463e 29f0 47be 9d05 1fbe bd59 3c3d
000001c0: 0814 b3be 04c0 fa3d 745b 53be 0d9f 253f
000001d0: ab01 b43d 13cf e6bd 65fa 303f 2e04 69bf
000001e0: c5f4 b3be 6165 6bbf 3444 f63e 1754 0a3d
000001f0: 9474 4ebe eb2d 1ebf 7cc7 3a3e 4cab 56bf
00000200: 2735 f7be e71b a7be c53a d53d d59e 45be
00000210: 3803 83be ac2f a5be e557 15bf 2958 8c3d
00000220: 2cff 903d 768e d1be 1114 d7bc e413 03bf
00000230: b20e 83bd fcc8 d7be 2e74 f93d 04a7 383d
00000240: 1a08 9a3e 7ea5 ca3e f40b 1cbf 6062 f8be
00000250: 8a48 0abf 4c33 fc3d 21a4 0c3e 2edf a3be
00000260: c5e8 51bf 81dd debd 3164 b1bc 2679 dabe
00000270: 01a4 a13e df63 36be b217 de3e fbd3 88bd
00000280: cbfd 82bd a5b4 37bd 6be0 1d3e 52e4 05bf
00000290: 2472 71be 2ba4 f3be 5e7c 2f3e 9469 213f
000002a0: 3bc1 933c 44bc e2bd e100 533e 1230 483e
000002b0: d587 02be f5d0 613d 5278 c9be 94c7 6f3e
000002c0: 9317 09bf 4bb2 4e3e be66 833d d536 633d
000002d0: b6c6 8fbd 2658 f6be 331b 9bbe 6c54 adbe
000002e0: 40b6 1ebe 98c8 6bbd 7317 a7bd 40a7 143d
000002f0: ad35 4fbf 6541 b23d 48e3 e0be 2644 413e
00000300: 923c 0dbc 2d0f 37bf d2ee d13d 6fec babd
00000310: 758f 623d 11f7 1fbd 8231 34bd dbdf a9be
00000320: dcf2 103d 0a82 2d3b 5269 09bf ee0c 93be
00000330: e571 ecbe 3c8c febe eb8c 0c3f fac6 8cbd
00000340: 622c 29be 5c45 e1be ffb9 cbbe e715 38bf
00000350: d3de af3e b808 00be c6ae 07be a884 a63d
00000360: 684b cd3d 8dd7 0e3e 2530 96bc 4869 8e3d
00000370: 7297 dfbe 8375 6dbe 0071 09be 4e5a 503d
00000380: d86b 953e 351c 21bf 60ca b9be 77d7 a83e
00000390: ea34 983e 2d12 363e 1797 80bd a27d 8fbe
000003a0: e062 26bf e545 903d d3c1 09bf 8a68 05be
000003b0: 66d1 903e 2b30 243e 7a63 8abd 62ca 62be
000003c0: 8916 283e cf33 a6bd c6d2 53be 2313 69be
000003d0: 9872 c5be df02 82be 768a 58be b2ed 5dbe
000003e0: 01e5 a8be 660b f5be 5ca9 cf3d 26fb f13c
000003f0: 2fb2 78be 5b75 e43d de0e 04be b73a 16bf

l3.bias f4 [256]
0.93012923 0.09012597 -0.9518457 -0.4783259 -0.046347387 -0.026904667 -0.112733185 -0.24962738
-0.34635192 0.1409245 0.019545473 0.14326647 0.034883663 0.4349033 -0.9172546 -0.15902929
-0.8076718 -0.34513724 -0.6454291 -0.29008397 -0.062858045 -0.21305057 -0.24238776 0.3567772
0.20363162 -0.6532604 -0.8987476 0.6013963 0.5119961 -0.15811472 0.597111 0.087111756
-0.49774268 0.07725437 -1.4219967 -0.112661414 -0.70235395 0.3809223 0.33021653 -0.96666956
-0.08588732 0.30283213 0.13967665 0.12733082 0.17115028 0.095051125 -0.10305267 0.5871772
0.045148287 -0.06322649 0.18479154 0.09046283 0.17059721 0.124295786 0.047371022 0.27571845
0.5163263 0.3389781 0.40337488 0.79436165 0.2920763 -0.024784511 -1.0238218 -0.023163203
0.07708189 -0.85012907 -0.37527236 -0.5420814 0.08978006 0.35729668 -0.8500024 -0.13101372
0.5642175 0.5342691 -0.041148584 0.77615595 0.45337412 1.0104339 0.29924518 -0.45778754
-0.44724867 0.033400718 0.6310441 0.45610476 -0.58213574 0.17928934 0.13578166 1.0394766
0.9211755 0.8376839 0.3772494 -0.18215854 -0.097369306 0.29934102 -0.19681902 0.36816835
-0.27358603 0.23199004 0.44598877 0.44861355 -0.40435338 0.83947116 0.2001108 -0.21536702
-0.31290513 0.08687398 0.9267675 0.54956067 0.2592485 0.19579981 0.8107306 0.5126482
-0.19136766 0.2899759 0.0978512 -0.15931997 -0.5673659 0.106885925 0.11959995 0.37418777
0.15325888 0.70128214 0.102012105 0.86301386 0.18348907 0.6075571 0.08957403 0.06866732
-0.046928477 -0.51661277 -0.2671871 -0.3576961 -0.04024802 -0.32722571 1.2133693 0.22458504
0.10164705 0.544611 -0.14704984 -0.21833187 0.0067161303 -0.15966849 -0.02517023 0.07058181
-0.6020174 -0.16400771 -0.07156704 0.043352243 -0.906462 0.18023284 0.07701044 0.34551635
0.40430605 0.18424337 0.5224173 0.1730839 0.14859211 -0.16246006 -1.233147 0.18238325
-0.299489 0.7353293 -0.7387615 0.06836374 -0.37472183 0.07482437 0.049296692 0.51212436
0.38108253 1.2885835 -1.1598692 0.27839416 0.28633752 0.1630837 0.3170461 -0.13427527
0.068844184 -1.0937319 -0.06217454 -0.064875565 -0.6705569 0.58335227 -0.03393623 0.9068974
0.7961789 -0.84434944 0.37798297 -0.10155993 -0.04075885 -0.4041171 -0.06578895 0.8132158
-0.29232228 0.16715576 -0.0058056316 0.6544467 0.36597583 -0.09623646 -0.09195137 -0.009475695
-0.1499975 -0.7309048 0.31626484 1.2373269 0.22301516 -0.039719343 -0.37420025 0.15416393
0.17283899 0.27993405 0.12816456 0.61886716 -0.8886442 0.08145256 0.4754593 0.66991705
-0.068516016 0.5285925 -0.09509675 -0.52837574 0.28369048 -0.099667974 -0.53644454 0.4810437
0.084881134 0.21643172 0.03105837 -0.6971607 0.0017498451 -0.14748198 0.0743093 0.74261886
0.84643245 -0.9767472 -0.06324126 -0.018475667 -0.057474375 0.8990906 -0.32436416 -0.3132085
0.088697866 0.38807684 -0.5802561 0.3453508 0.017974738 -0.76563156 0.6079632 0.48051107
0.5253394 0.05512689 0.10575666 0.42473158 -0.04017807 0.0131301135 0.63506466 0.048240207
00000000: f31c 6e3f f793 b83d 29ac 73bf 22e7 f4be
00000010: c2d6 3dbd 2d67 dcbc a8e0 e6bd 529e 7fbe
00000020: 0a55 b1be 834e 103e d41d a03c 72b4 123e
00000030: 2ce2 0e3d a5ab de3e 33d1 6abf 93d8 22be
00000040: 94c3 4ebf d4b5 b0be d73a 25bf e385 94be
00000050: b8bb 80bd ee29 5abe 7f34 78be 80ab b63e
00000060: cf84 503e 133c 27bf 5314 66bf 1cf5 193f
00000070: 2d12 033f d3e8 21be 44dc 183f a667 b23d
00000080: 21d8 febe 8a37 9e3d fd03 b6bf 07bb e6bd
00000090: 78cd 33bf 3f08 c33e 2412 a93e a877 77bf
000000a0: b1e5 afbd d00c 9b3e 6507 0f3e 0363 023e
000000b0: 0542 2f3e 2aaa c23d 470d d3bd 3f51 163f
000000c0: 69ed 383d e47c 81bd fe39 3d3e 9444 b93d
000000d0: 09b1 2e3e ca8e fe3d 1e08 423d f82a 8d3e
000000e0: f62d 043f 8a8e ad3e 2787 ce3e 495b 4b3f
000000f0: 068b 953e e308 cbbc 980c 83bf c2c0 bdbc
00000100: 1cdd 9d3d 0fa2 59bf b323 c0be d9c5 0abf
00000110: 9cde b73d 97ef b63e c299 59bf 7628 06be
00000120: 8f70 103f dcc5 083f 6b8b 28bd 28b2 463f
00000130: a720 e83e e655 813f aa36 993e 2163 eabe
00000140: c7fd e4be 31cf 083d 1b8c 213f 9086 e93e
00000150: d906 15bf a097 373e 590a 0b3e 920d 853f
00000160: 28d2 6b3f 7472 563f d526 c13e c587 3abe
00000170: 8f69 c7bd 3a43 993e ed8a 49be 9080 bc3e
00000180: 7813 8cbe cc8e 6d3e a458 e43e adb0 e53e
00000190: 6807 cfbe 95e7 563f d8e9 4c3e 2c89 5cbe
000001a0: 1a35 a0be fcea b13d a340 6d3f 02b0 0c3f
000001b0: 38bc 843e bf7f 483e 0a8c 4f3f ea3c 033f
000001c0: e2f5 43be b977 943e 3666 c83d c624 23be
000001d0: e43e 11bf 02e7 da3d d2f0 f43d 8a95 bf3e
000001e0: e5ef 1c3e 3a87 333f b9eb d03d 7aee 5c3f
000001f0: 8fe4 3b3e dd88 1b3f 9772 b73d 74a1 8c3d
00000200: 1338 40bd bc40 04bf bfcc 88be f123 b7be
00000210: 1cdb 24bd 218a a7be af4f 9b3f 9ff9 653e
00000220: 542c d03d a06b 0b3f 3c94 16be 6492 5fbe
00000230: fc12 dc3b 2380 23be cc31 cebc 328d 903d
00000240: d01d 1abf a3f1 27be be91 92bd 1f92 313d
00000250: e50d 68bf f58e 383e a6b7 9d3d 85e7 b03e
00000260: 3401 cf3e 4baa 3c3e 24bd 053f e83c 313e
00000270: 8828 183e ee5b 26be c3d7 9dbf adc2 3a3e
00000280: 9f56 99be 8a3e 3c3f 791f 3dbf 4a02 8c3d
00000290: 8adb bfbe 853d 993d 54eb 493d 951a 033f
000002a0: 401d c33e 4ef0 a43f 9876 94bf ae89 8e3e
000002b0: d59a 923e 6aff 263e de53 a23e 757f 09be
000002c0: 2efe 8c3d 68ff 8bbf bbaa 7ebd 7bdd 84bd
000002d0: 9ea9 2bbf 9356 153f b700 0bbd 6e2a 683f
000002e0: 61d2 4b3f 4927 58bf fc86 c13e a7fe cfbd
000002f0: c0f2 26bd 70e8 cebe 5bbc 86bd e92e 503f
00000300: 44ab 95be e12a 2b3e 2b3d bebb d289 273f
00000310: 2f61 bb3e 9f17 c5bd 0051 bcbd f23f 1bbc
00000320: f298 19be 941c 3bbf 77ed a13e ba60 9e3f
00000330: 165e 643e c0b0 22bd 2d97 bfbe 26dd 1d3e
00000340: b4fc 303e 8453 8f3e 923d 033e 146e 1e3f
00000350: 307e 63bf 9ad0 a63d 676f f33e af7f 2b3f
00000360: 2052 8cbd d751 073f 16c2 c2bd a243 07bf
00000370: e13f 913e b91e ccbd 6e54 09bf 5c4b f63e
00000380: 29d6 ad3d 47a0 5d3e 1f6e fe3c 2079 32bf
00000390: 0f5b e53a 8405 17be 792f 983d 451c 3e3f
000003a0: ccaf 583f 1b0c 7abf a284 81bd 485a 97bc
000003b0: 406a 6bbd cd2a 663f 0f13 a6be dd5c a0be
000003c0: 3aa7 b53d 02b2 c63e aa8b 14bf d2d1 b03e
000003d0: c23f 933c 6e00 44bf 7aa3 1b3f 8c05 f63e
000003e0: a57c 063f bccc 613d f396 d83d 6b76 d93e
000003f0: c391 24bd b01f 573c 9993 223f 8697 453d

l4.weight f4 [1, 256]
-0.6378042 -0.19746716 0.402073 1.0105516 -0.5690326 -0.48380986 1.9860631 1.9399372
0.6241583 -1.5388663 -1.153632 0.48503038 -0.3075163 -1.31402 2.00913 -1.101862
0.5230297 0.54925704 1.2197957 -1.1027942 2.2966619 1.2573044 1.513891 0.6367161
-0.840867 1.6484383 1.1669917 -0.4172797 0.564008 -1.1538266 -1.7917385 -0.4384658
0.9525213 2.1321054 1.586568 0.67122114 2.4147537 0.8699959 -0.77103966 0.6026283
-1.2197639 0.8786416 -1.0305308 -0.647504 -0.8816952 -0.7079756 -0.7879516 -0.30392015
-0.47196442 -1.6973462 -0.5503829 -0.35751075 -0.47652805 -0.46906283 -1.7276357 -1.510109
-1.1099758 0.8032821 -0.79738355 1.9083464 0.28913286 -0.13630104 0.8680917 -0.30338332
-0.6889178 1.3406887 1.2320393 1.3943644 -1.4613248 0.6725995 1.8160626 -1.4569473
-0.7274355 -1.2812384 2.2603278 -0.7430783 1.0250328 -0.9491851 0.18676166 -1.0810882
1.8694247 -0.76105297 -0.8976786 -1.0310072 0.7161163 -0.92475474 -0.64560956 -0.22969352
-0.46674648 -0.36197788 -0.45918155 1.3980607 -0.47320667 -1.6658058 -0.3269382 -0.47467604
-0.572333 -1.682959 -0.47930318 -0.5289784 1.776336 -0.34973124 -0.51103246 1.56202
0.9052039 0.3023217 -0.37900898 -0.4410552 0.5545665 0.30245462 -0.5828238 0.57880694
-0.24322866 0.58690906 0.5380816 2.1352339 -2.3476036 0.57392514 1.3570983 -0.24785577
-0.36249876 -0.56265765 -0.64941317 -0.27197218 0.73565406 -0.88284516 -0.2771129 -0.5385144
-0.36543596 0.6951672 -0.6455078 2.2271395 -0.43397328 1.2659749 -0.6391281 -1.1614547
-0.63210833 -0.45918342 0.07468539 0.76608956 -0.5450826 0.099751994 0.53470445 0.51239926
2.6402118 0.7260348 -1.2138401 1.8528153 0.8019673 0.31190664 -0.7351017 0.8835148
0.63663214 -0.9824091 -0.37787777 -0.61664855 2.2641206 -0.6325262 1.9236766 -0.20607167
0.7443755 -0.868873 1.2959678 -0.40836862 1.6386338 -0.17184258 0.30355573 0.701583
-0.6627621 -0.6837454 1.0340432 -0.33879632 -0.5022687 -0.6092086 -0.83003837 -0.6087243
-0.1954255 1.4391972 1.4674697 1.6640905 0.9601827 -0.85680264 -0.6812674 -0.3531362
-0.91703963 0.91476125 1.2068615 -0.68392545 -0.65743077 -0.19235298 0.97546524 -0.35909015
1.3312253 0.48565465 0.55423737 -1.6628188 0.17396376 -0.8126369 -1.0864675 1.2015784
0.7894513 -0.9037952 -0.86895096 -0.67831236 0.3248749 -0.2011722 1.3090041 -0.6988894
0.7229706 0.65455925 -0.45504653 0.83384925 1.220044 -0.72489727 -0.7864921 0.7105239
-1.302583 0.55672306 0.39014956 1.3224355 -0.9907135 -1.1391047 -1.0061067 -1.2554606
-0.29504353 -0.80045426 -1.1030732 0.92830926 -0.3453556 -0.82495934 -0.33527547 -0.37520394
-1.4276367 1.0003552 -1.6284174 0.373785 -1.0652857 -0.21256942 -1.7687957 -1.2278979
-0.0789753 -0.59149474 -2.1357565 0.61548156 0.32784536 1.2340719 -0.5109017 0.4830194
0.5117685 0.91881424 -0.41474625 -1.2760587 -0.9521417 -0.37334454 0.42504928 -0.46533483
00000000: 2347 23bf d534 4abe 83dc cd3e c159 813f
00000010: 1fac 11bf edb5 f7be 5137 fe3f dd4f f83f
00000020: d7c8 1f3f 92f9 c4bf 37aa 93bf e755 f83e
00000030: c772 9dbe cf31 a8bf 9695 0040 d009 8dbf
00000040: 46e5 053f 1c9c 0c3f 4422 9c3f 5c28 8dbf
00000050: 82fc 1240 5aef a03f 2ec7 c13f d4ff 223f
00000060: 0f43 57bf 0700 d33f fc5f 953f afa5 d5be
00000070: d462 103f 97b0 93bf b057 e5bf 977e e0be
00000080: 70d8 733f 6a74 0840 a914 cb3f 26d5 2b3f
00000090: 538b 1a40 0db8 5e3f db62 45bf d945 1a3f
000000a0: 3921 9cbf a8ee 603f 6fe8 83bf d2c2 25bf
000000b0: c7b6 61bf e43d 35bf 32b7 49bf 6c9b 9bbe
000000c0: 52a5 f1be a442 d9bf e5e5 0cbf a60b b7be
000000d0: 7cfb f3be 0129 f0be 2b23 ddbf 404b c1bf
000000e0: b013 8ebf e5a3 4d3f 5421 4cbf b244 f43f
000000f0: 3909 943e 8092 0bbe 423b 5e3f 0f55 9bbe
00000100: eb5c 30bf b09b ab3f 77b3 9d3f 887a b23f
00000110: b10c bbbf 7b2f 2c3f bd74 e83f 407d babf
00000120: 3739 3abf 9fff a3bf 36a9 1040 613a 3ebf
00000130: 4634 833f cbfd 72bf 733e 3f3e 1961 8abf
00000140: 4f49 ef3f 5ed4 42bf 44ce 65bf 0bf8 83bf
00000150: 6653 373f babc 6cbf ab46 25bf c734 6bbe
00000160: 65f9 eebe 2a55 b9be d819 ebbe a7f3 b23f
00000170: 2548 f2be 2039 d5bf 7264 a7be bd08 f3be
00000180: 6a84 12bf 336b d7bf 3a67 f5be 216b 07bf
00000190: fa5e e33f f90f b3be 06d3 02bf 45f0 c73f
000001a0: 71bb 673f e9c9 9a3e 770d c2be fdd1 e1be
000001b0: 12f8 0d3f 55db 9a3e f133 15bf b12c 143f
000001c0: ef10 79be ac3f 163f b7bf 093f aca7 0840
000001d0: 233f 16c0 c2ec 123f 66b5 ad3f e7cd 7dbe
000001e0: 7099 b9be 550a 10bf f13f 26bf f03f 8bbe
000001f0: d353 3c3f 2402 62bf bee1 8dbe 14dc 09bf
00000200: 6c1a bbbe 7af6 313f 0040 25bf 7489 0e40
00000210: bf31 debe 770b a23f e69d 23bf 8caa 94bf
00000220: dad1 21bf 171a ebbe a7f4 983d 721e 443f
00000230: 898a 0bbf c64a cc3d 64e2 083f 992c 033f
00000240: 3bf9 2840 6bdd 393f 1d5f 9bbf 0d29 ed3f
00000250: bb4d 4d3f 3ab2 9f3e a02f 3cbf 072e 623f
00000260: 53fa 223f 2a7f 7bbf 3279 c1be aedc 1dbf
00000270: 5ae7 1040 3ded 21bf 093b f63f 7404 53be
00000280: 658f 3e3f 766e 5ebf 46e2 a53f b115 d1be
00000290: c1be d13f 80f7 2fbe a86b 9b3e f29a 333f
000002a0: c7aa 29bf f009 2fbf 875b 843f b676 adbe
000002b0: ae94 00bf 18f5 1bbf 657d 54bf 5bd5 1bbf
000002c0: 9f1d 48be 9d37 b83f 0cd6 bb3f eb00 d53f
000002d0: 89ce 753f 6b57 5bbf 8a67 2ebf 45ce b4be
000002e0: 1cc3 6abf cb2d 6a3f 707a 9a3f bd15 2fbf
000002f0: 624d 28bf 2ef8 44be 17b8 793f aada b7be
00000300: 9765 aa3f baa7 f83e 80e2 0d3f 3fd7 d4bf
00000310: 8e23 323e f908 50bf 5e11 8bbf 52cd 993f
00000320: 7b19 4a3f 1f5f 67bf 9273 5ebf e1a5 2dbf
00000330: 0156 a63e 1600 4ebe 728d a73f 6aea 32bf
00000340: 9a14 393f 3291 273f dcfb e8be 2577 553f
00000350: 672a 9c3f de92 39bf 8c57 49bf e5e4 353f
00000360: 0abb a6bf 6785 0e3f afc1 c73e 9145 a93f
00000370: 669f 7dbf 2fce 91bf 1bc8 80bf efb2 a0bf
00000380: f20f 97be 92ea 4cbf 8131 8dbf ada5 6d3f
00000390: 73d2 b0be 8930 53bf 3aa9 abbe bb1a c0be
000003a0: cdbc b6bf a40b 803f fb6f d0bf bf60 bf3e
000003b0: 485b 88bf ccab 59be e667 e2bf c22b 9dbf
000003c0: cdbd a1bd 336c 17bf 3cb0 08c0 3390 1d3f
000003d0: 59db a73e 11f6 9d3f 74ca 02bf 524e f73e
000003e0: 4303 033f 6937 6b3f 9f59 d4be e455 a3bf
000003f0: 8fbf 73bf 0427 bfbe 0fa0 d93e 5e40 eebe
