preTrained/DeepTD3_BipedalWalkerHardcore-v3_0_critic_2_target.pth (torch_old, 175167 bytes, 7 tensors)

l1.weight f4 [64, 28]
00000000: ca4a ee3f 258f 9540 4878 c3bf f494 743e
00000010: 1a4f 60bd 9fa6 ab3e c5de 1b3d f76f a83d
00000020: 6a2a ddbe f547 9e3e 82b9 d1bc 2e63 11bf
00000030: b6b5 acbc f683 ad3d 99db 533e 7a3b e93e
00000040: 5671 213e b915 4fbe 1159 40be bfba 24be
00000050: 6cbe 873d de18 9abd a2bd d5be 3c02 febd
00000060: dd28 8f3c 4f0d a4bd 105c 4c3e 1ffe ab3d
00000070: 26d2 173f 66b5 f63f 651e 7e3d 30cc 40bf
00000080: 48e3 0bbd c13f d9bd 1d50 3fbe 6833 2fbe
00000090: 2849 7abe 4144 573f 5fa3 423f b256 493f
000000a0: 088f a03e 9d4e dcbc 534c 4cbe 9d05 f5be
000000b0: 6669 50be c833 153f 9ceb 823f 8ab9 8d3f
000000c0: d527 253f 44e5 d7be 8b10 0abf aae7 18bf
000000d0: 41d5 96bd f134 db3d 7809 f73d a942 533d
000000e0: 2989 1f3f f6d6 1440 9863 0ac0 f327 d6be
000000f0: e90f c33d a58f 03bf 2226 93be b26b a1bd
00000100: 3a06 b3be e369 433f abb0 b33e fb6e 9d3d
00000110: a731 0f3e 7e00 3fbe 2c91 4b3f fe7d 1b3f
00000120: fcb2 0a3e 0b63 fe3e 3bf6 323e 301e 51be
00000130: c38e a6be 31e4 c7be 0a4b 2fbe 2139 c3be
00000140: 0777 a1bd db0f f5bc a406 d13d debf 933d
00000150: 2229 2fbf f5e0 cc3c 9bec 35bf 7de7 43bf
00000160: 90e4 9b3e 4282 70be 0459 943c 0dba 98bd
00000170: 53df 56be a4d6 8f3e 8692 613e 10ac ad3e
00000180: 90c1 a73d 867b 02be 3414 043f b475 173f
00000190: 78dd 1f3f 2509 95be 234d 48bf 83d4 85bf
000001a0: 97fc c8be 341b 53bd 8807 a53e 5881 053f
000001b0: a95e c5bd cb02 383d a972 ad3d a3ee 3bbd
000001c0: 202e de3f 4bce 3b3f 7ff2 24bf 834e 51bf
000001d0: 4e0d 3f3e 9869 02be c641 f83e cfdf 88bd
000001e0: 62c0 103d c399 903f 21f7 a73e bab5 fb3e
000001f0: 2f5d 8f3d cc7f 6a3d b6cb 213f dc1c a83e
00000200: 3fa5 c5bd 5e9c 96be 9457 febe 7036 42bf
00000210: 92d8 2cbf 8f92 a1bd 18a9 563f 1542 4b3e
00000220: 4334 eabd 43dc 273c ab7e 8c3d 00ef 5bbd
00000230: 0035 6a3f 7070 ffbf 335e 0140 49ca 1440
00000240: e66a 6abc c999 c0bd b9f2 8fbe 43e8 96bd
00000250: f05c 383e b2a1 bc3e 6af1 d1bd 1d33 8b3e
00000260: 71ba e2bc ef1f 163d 86c6 b4be 424b dbbd
00000270: 6242 e03e 037d fc3e ab14 173f 7bc7 96be
00000280: 92ad 02bf af33 adbe b1e8 2ebf 2bca 19bd
00000290: b50f 113c 7ced 383d 9c41 573c 0d1f 413b
000002a0: bda5 9bbe 215d ca3e 87cd 3a3e 1c5e ea3d
000002b0: 35ca 013f 374e b73d 6dc2 973e 9de9 8bbd
000002c0: a641 a4be b144 5fbe df7e 223e 6a9d 673e
000002d0: b98d d43d a037 31be 4057 bfbe ef70 2fbe
000002e0: f6b4 90be 3a4f d4bd 6553 07bf d63d 1bbf
000002f0: d5b5 07bf 165b 13bf 5c34 72be 2270 643e
00000300: 2149 5ebd 90a7 4e3c 44d8 81bc 2558 9a3d
00000310: 1e89 a6bf 0ef4 5bbf 98c4 ce3e b42b 183f
00000320: 1c56 8abe 0e43 a13d 64f5 02bf edb3 443e
00000330: d3a1 013e 875c b9be d530 5cbe 5b87 2f3e
00000340: 0ad7 0a3e 1468 90bd 5585 6dbf ea28 7ebf
00000350: a985 6ebf 19b7 cfbe 162e 073e 393c 3cbe
00000360: 7d9e a7bd 10a7 27be fcee a2bd 0c3a 273f
00000370: 1ba4 f4ba f59d 953c 5744 07bd b1c7 69bd
00000380: 0e38 073f e955 83c0 ca3c 42bc ea3c e640
00000390: 58c7 0f3c 496e 37be 3fd8 19bf 8c71 9fbd
000003a0: a7c3 653d dffc ee3d d170 913d 7e1c 2c3e
000003b0: 82ca 11bd 8224 e03d 2c65 c1be 9ef7 a8be
000003c0: ad09 fc3d 1be4 38bb f9fe 133e aaf7 423e
000003d0: 9d37 13bd 166b c43e 7cad bc3e 5562 08bd
000003e0: 6ca3 bf3a e7fc d1bb 44ea 97bc 635c 83bc
000003f0: 4f10 30be 1c9e 09bf 7799 b83e 3577 13bf
1.8616574 4.6737237 -1.5271082 0.23884946 -0.054762937 0.3352556 0.038054246 0.082244806
-0.43196422 0.30914274 -0.025601152 -0.5679196 -0.02108274 0.08472435 0.20689239 0.4555319
0.1576589 -0.2022313 -0.18783976 -0.16086863 0.06628117 -0.07524274 -0.4174624 -0.1240277
0.01747554 -0.08010351 0.19956994 0.08398079 0.59305036 1.9274108 0.062040705 -0.75311565
-0.0341523 -0.10607863 -0.18682905 -0.17109454 -0.2444197 0.8408852 0.76030535 0.7864791
0.31359124 -0.026892954 -0.1995099 -0.47855845 -0.20352706 0.58282137 1.0228152 1.1072247
0.64513904 -0.42167103 -0.5393149 -0.5972849 -0.07364894 0.10703457 0.12062353 0.051577244
0.62318665 2.3256202 -2.1623287 -0.41827354 0.09524519 -0.5139106 -0.2874003 -0.078818694
-0.34965688 0.76333445 0.35095724 0.076871835 0.13983785 -0.18652532 0.7951839 0.60739124
0.1354484 0.4968494 0.17476742 -0.20421672 -0.32530794 -0.39041284 -0.17118469 -0.38129523
-0.07884031 -0.029914787 0.10206345 0.0721433 -0.6842214 0.025009612 -0.71064156 -0.765251
0.30447817 -0.2348719 0.018108852 -0.07457361 -0.20983629 0.28093445 0.2202855 0.33920336
0.08191216 -0.12742433 0.5159333 0.59163976 0.6244731 -0.2910854 -0.782427 -1.0455478
-0.3925521 -0.051539615 0.32232308 0.5215049 -0.096371956 0.04492454 0.08469135 -0.04588188
1.7357826 0.73361653 -0.6443252 -0.81760424 0.18657419 -0.12735593 0.4848768 -0.06683313
0.03533972 1.1296924 0.32805732 0.49162084 0.07000195 0.057250783 0.63201463 0.32834518
-0.09650659 -0.29416174 -0.49676192 -0.75864315 -0.6751796 -0.07889282 0.83851767 0.19849427
-0.114357494 0.010245386 0.068600975 -0.053694725 0.9148712 -1.9956188 2.0213745 2.3248465
-0.014307713 -0.09404332 -0.2811487 -0.07368519 0.18004203 0.36842114 -0.10251124 0.27187434
-0.027676793 0.036651548 -0.3530771 -0.10707714 0.43800646 0.49314126 0.5901591 -0.29449067
-0.510461 -0.33828494 -0.6832381 -0.037546318 0.0088538425 0.045148358 0.013138201 0.002946797
-0.30399886 0.39524177 0.18242465 0.11443731 0.5069917 0.08950465 0.29640523 -0.068316676
-0.32081336 -0.21803547 0.1586871 0.22618642 0.10378594 -0.17306376 -0.37371254 -0.17132924
-0.28263062 -0.10366674 -0.52861625 -0.6064123 -0.5301183 -0.5756086 -0.23652786 0.223084
-0.05426896 0.012613192 -0.015850194 0.075363435 -1.3010595 -0.8591927 0.40384364 0.59441686
-0.2701882 0.07874118 -0.51155686 0.19209261 0.12659387 -0.36203405 -0.21503003 0.17141478
0.13558593 -0.07051101 -0.92781574 -0.9928118 -0.931727 -0.4056938 0.13201174 -0.18382348
-0.08184526 -0.16372323 -0.07955739 0.6532295 -0.001866463 0.018263796 -0.03302416 -0.057075206
0.5281991 -4.104237 -0.011855314 7.194936 0.008775555 -0.17913164 -0.6009559 -0.07785329
0.05609479 0.11669325 0.07101596 0.16807744 -0.035593517 0.10944463 -0.377725 -0.33001417
0.12306533 -0.0028212133 0.14452733 0.19039789 -0.03594171 0.3836295 0.36851108 -0.0332969
0.0014620847 -0.006408322 -0.018544324 -0.016035264 -0.17193721 -0.5375688 0.36054584 -0.5760377

l1.bias f4 [64]
00000000: 231a eabe efe1 9fbd cdf8 5cbe d5fc 35bd
00000010: 1c5f 1fbf e2e1 373e 034c f63d b10b 393f
00000020: ae64 95be dd3f 07bc 6c64 04bf d8ae e73d
00000030: 5e48 10be 0fc9 65be b678 19bf 23ff 99bd
00000040: df67 aabe c26c 053e 7cd4 0e3f 6dd8 f0be
00000050: 0ebb 23bf 2f59 823e 929f ce3e 7abb cabe
00000060: f031 093d b937 913d 7e25 2dbf 3e40 953e
00000070: 0431 823e 82b4 47be 2572 9e3a d29f 06be
00000080: 7139 cbbe b329 febe 0197 bd3e 0893 6ebd
00000090: bc94 e2be abcb 003e b4e8 ca3e 6213 503f
000000a0: ef2f a53e a993 7abe f66a d03d e8de a43e
000000b0: 963d 20bf 7349 5d3f fe9c e8bd b4ae 83bd
000000c0: 8efb 32bf 8d63 69be 5c91 8b3e f6e7 6abe
000000d0: a3cf a33e 6349 f0be ed22 8abf e76f 75bf
000000e0: 5a6b 413f cc22 a2be 8b2f e5bd 937b aabe
000000f0: ae21 e03a 403d bbbe 32e0 633d 18bc 1f3e
-0.45723066 -0.07806765 -0.21579285 -0.044430573 -0.622545 0.17957261 0.12026217 0.72283465
-0.29178375 -0.008254972 -0.5171573 0.11312646 -0.14090106 -0.22439979 -0.59949815 -0.075193666
-0.33282372 0.13029769 0.55792975 -0.4704012 -0.639573 0.25458667 0.40356117 -0.39596158
0.03349489 0.070907064 -0.67635334 0.29150575 0.2542802 -0.19502452 0.0012088461 -0.13146904
-0.39692262 -0.4964119 0.3702927 -0.05824569 -0.442541 0.12577693 0.39630663 0.81279576
0.32263133 -0.2447039 0.10176651 0.32201314 -0.6259397 0.864402 -0.11358069 -0.06429806
-0.6991509 -0.22791882 0.27259338 -0.22940049 0.31994352 -0.4693099 -1.0791909 -0.95873874
0.7555443 -0.31667173 -0.11190709 -0.33297405 0.0017099881 -0.36570168 0.05563373 0.15599096

l2.weight f4 [128, 64]
00000000: 5c9f f5be 519e 42be e6b5 1abf 9dc7 00bf
00000010: 0cab 78be d53d 1b3c 6696 19bb b76e bcbe
00000020: e878 b9bd 84da 8a3e 2bf7 f0be 8cd5 f3be
00000030: c6dc 2c3e c9d3 533e 721b 503e 34e2 fdbe
00000040: 5c27 09be b969 da3d c3d3 efbb 879b 21be
00000050: 4f6a 213e c0b7 4abf a31c f43c ca98 613e
00000060: dc85 73bf b0d0 b7be 3a7d ddbe e34e f53d
00000070: 1eec 2e3d dac7 e83d dfbf acbe 705f b4bd
00000080: ba00 5fbe 27d4 afbe 4630 9dbe d5da 05bf
00000090: c8ef 46bf a88f 493e b855 bcbe 86b1 15bf
000000a0: 06bc a6be 323e debe 95b5 06bf b66c 9bbd
000000b0: 0a20 d9be 5ee0 18bf eb32 ff3c dd25 83be
000000c0: 7e75 22be 049c 8a3d 5d74 113c 6d22 88be
000000d0: 2522 8abe d25e 57be 3660 1bbe 7d73 1a3f
000000e0: 01d0 47be 8965 c3be d1dc dbbd 6ab4 dfbe
000000f0: 6782 2dbf d623 97bd dc3d ffbe bc5d 0e3d
00000100: 5d9a 133f 279b 2cbe 0db9 973d 6920 4ebc
00000110: 0d25 86be c38c 66bb e2ad e13d c5c8 8ebe
00000120: 2737 acbe 2505 13bd 2c68 0c3e 741d f1bd
00000130: 1720 3a3e f068 41be 5d8a 9e3c 3c11 083e
00000140: 74c3 7f3d 9af8 e33c 08c1 3abe 5044 b8be
00000150: 004c c43c 88d2 b5be 1540 8bbd 3ade ea3d
00000160: 2d88 8fbe e26e dfbe 80eb 38be de5d 9b3e
00000170: 040b 053d fc41 833e 811d d23d 32c4 50be
00000180: 930a 64be 5330 65be 8dde 17bc 713f cabe
00000190: 426f d4bc f161 d73c 6fb3 3f3d 82eb 51be
000001a0: ea41 57be 62fd dabd 79a8 42be d881 b1be
000001b0: baee e13d 1ad7 dabe 32a4 663c bd77 923d
000001c0: baa0 d5bd 8fee a5be ec60 883e 19b7 573e
000001d0: c84a bcbe 5141 45bd 630b fa3d dd9d 08bf
000001e0: 173b a9be 6c2e 06bf 1769 32be 258c 89be
000001f0: 4030 b9be 34dc febd b756 27be 7efb ad3c
00000200: e91c d93d 19e7 4fbf f72f a2bf 5068 4b3e
00000210: 0c6c 76bf b6c8 14be d6cc 98be 3d99 023c
00000220: 6a7f ec3d c25c d53e 639e 6ebe 9d17 153e
00000230: a667 263e fde9 80be c640 2dbf 258b 9e3e
00000240: f76b b13e 8118 573d cda0 013f a433 853e
00000250: 3a10 52bf efbd b73e 3f78 adbf c716 b43d
00000260: 1dd5 84bf cea6 19be f4fe 73be 7134 50be
00000270: d52e 113e 0536 823e 1703 2a3f ee8d a63e
00000280: 0d70 1fbf 9b57 69bf fd20 953e a59d 84bf
00000290: 7b3a 65bf c1a3 5e3e b982 c1bd 1977 d13b
000002a0: 9b70 69ba 6fae 2bbf 289d 34bf 325d ddbd
000002b0: 90a8 39bf d47e 0c3f 30e9 ce38 fe4c 16bf
000002c0: 9f99 a9bf 45eb 02bf 8abb ef3e 47c2 bf3e
000002d0: 4992 47be 9562 983d 4c21 f73e 3a9b d8be
000002e0: 32c5 54bd e9a0 c33e 6990 4cbf 1381 e3bf
000002f0: 1ec2 1cbf 3c9c 0e3f 6fd2 3e3f 457b 9d3d
00000300: 95e0 1cbd 7e1b 18bd adc3 1cbf 478b abbe
00000310: a942 c1be a267 dbbd 624c 52be c8b2 cc3b
00000320: 05c5 18bd 7eb1 18be 5fb0 b93e c79b 3b3e
00000330: 8817 b7bc 624f 5ebe 5763 b4bc 8426 0f3d
00000340: 7850 403c a8ee ce3e 670f a3be c156 563d
00000350: fe31 273f c1f3 40bf b55c 8dbe dde6 00be
00000360: f781 25be afa0 a6be fa0c 5ebd 139d efbe
00000370: 11d5 553e fbba f33e 9c4f fbbe 5f65 393f
00000380: 3af7 6a3e df16 abbe 8987 4ebe fdc3 973e
00000390: c79d 2abe c56a 8dbe b6e9 1bbe a953 53bf
000003a0: fdb9 08bf b4ef 013f 96dd 29bf bd8c 9b3d
000003b0: 1fb7 bbbe 97f6 a9bd 7408 813d d472 0e3f
000003c0: c5ea 003e 87a1 20bf b226 643d 3fa9 a9be
000003d0: 1c99 f5be 8d62 82bd 7bad 6fbe 352f 86bd
000003e0: 40dd 31bf fac4 e93e 444b f3be 7a98 663d
000003f0: 6e23 25bf fb12 76be 2b2b 80be 1127 40bf
-0.47973144 -0.19005705 -0.60433805 -0.50304586 -0.24283999 0.009475191 -0.0023435592 -0.3680322
-0.09056264 0.2711984 -0.47063574 -0.4762386 0.16881093 0.20686258 0.2032297 -0.49586642
-0.1339392 0.10664696 -0.007318945 -0.15781985 0.1576321 -0.7918663 0.029798811 0.2203094
-0.9512613 -0.35901403 -0.43259603 0.11977937 0.042705648 0.11366244 -0.33740136 -0.08807266
-0.21777621 -0.34341547 -0.30700892 -0.52287036 -0.7770963 0.19683707 -0.36784148 -0.58474004
-0.32565325 -0.43406826 -0.5262082 -0.07589094 -0.42407256 -0.5971736 0.03115221 -0.25614825
-0.15865132 0.06768039 0.008877841 -0.26588765 -0.26979175 -0.21032265 -0.1517342 0.6033247
-0.19512941 -0.38163403 -0.10735477 -0.43692333 -0.67777103 -0.07379882 -0.49851882 0.03475736
0.57657415 -0.16856061 0.074083425 -0.012580969 -0.26200143 -0.0035179115 0.11019494 -0.2788755
-0.33635828 -0.035893578 0.13711613 -0.11773196 0.18176304 -0.18887687 0.019353086 0.13287824
0.062442258 0.027828503 -0.18237698 -0.35989618 0.02396202 -0.35512185 -0.06799332 0.114681676
-0.2803358 -0.43639284 -0.18058586 0.30345052 0.03248121 0.2563628 0.10259534 -0.20387343
-0.22269659 -0.22381715 -0.009269369 -0.39501527 -0.025931958 0.02629182 0.04680198 -0.20499995
-0.21021238 -0.1069286 -0.1900958 -0.34669375 0.110318616 -0.42742234 0.014077233 0.071517445
-0.10431047 -0.32408568 0.26636446 0.2106594 -0.36775804 -0.048157994 0.12209203 -0.5336588
-0.33052894 -0.52414584 -0.17422901 -0.26864734 -0.36169624 -0.12444344 -0.16341673 0.021238085
0.10601217 -0.81212 -1.2670888 0.19864011 -0.96258616 -0.1452969 -0.29843777 0.007971105
0.1154774 0.4167233 -0.23302607 0.14559789 0.16250476 -0.2517852 -0.6767696 0.30965534
0.34652683 0.052513603 0.5063599 0.2601596 -0.8205601 0.35887095 -1.3552321 0.08793407
-1.0377537 -0.15005037 -0.23827726 -0.20332505 0.14178021 0.2543184 0.66410965 0.3253016
-0.6228035 -0.911493 0.2912673 -1.0360609 -0.8954236 0.21742155 -0.094487615 0.0063923714
-0.0008905024 -0.6706304 -0.705523 -0.10808791 -0.7252283 0.54881024 9.86628e-05 -0.5871123
-1.3250006 -0.5114024 0.46822768 0.3745291 -0.19489397 0.07440678 0.4826759 -0.42305928
-0.051945873 0.38208702 -0.7990785 -1.7773765 -0.612337 0.55707145 0.74539846 0.076895274
-0.038300116 -0.037135594 -0.6123608 -0.33504698 -0.3774617 -0.10713126 -0.2053695 0.0062468983
-0.037297267 -0.14911458 0.36267373 0.18321143 -0.022350088 -0.2170997 -0.022020025 0.03494884
0.011737935 0.40416455 -0.3184769 0.05232883 0.6531066 -0.7537194 -0.27609792 -0.12588067
-0.16162859 -0.32544467 -0.054211594 -0.46799526 0.2088206 0.47603592 -0.49084175 0.72420305
0.22945872 -0.33415887 -0.2016889 0.29641715 -0.1666175 -0.2762052 -0.15225872 -0.8254953
-0.53408796 0.5075638 -0.6635374 0.07595203 -0.36663148 -0.082989864 0.063004404 0.55643964
0.12589557 -0.6274647 0.055700965 -0.33136937 -0.47968376 -0.06366453 -0.23406021 -0.06551973
-0.69478226 0.45658094 -0.4751836 0.056297757 -0.64507186 -0.24030678 -0.25032935 -0.7505961

l2.bias f4 [128]
00000000: b5ef 1a3f b107 4cbe ce73 2e3f ceca 2c3e
00000010: 4a83 ef3d c165 c7be 5d0b 963d a227 6e3c
00000020: e9da 4abe cbe6 6dbe 5dce 1b3f d34e 7b3d
00000030: 2515 08bf 3d3d 09bd e68c 25be f0b3 b53d
00000040: f857 c53d 6943 dd3e 472d 2abd efdc 363e
00000050: 47c4 063f 5c7f 8b3f ba0a 6e3f e52e 0bbe
00000060: 1701 3b3e 8f2c ba3e 692f 583e 6d07 993e
00000070: 6db8 f43e a29d 52be a8af af3e 1413 863e
00000080: 8b49 69be 6343 60be cb65 f63e 1dbf 903e
00000090: 823d ee3d 431b fb3d 87b2 b23e 7cfb fbbd
000000a0: 4998 5f3d aea3 99be 9394 663d 80fe b9be
000000b0: c3d3 efbd 9fa5 a7be 9644 9d3f f74e ba3d
000000c0: c5d3 88bd a917 44be 2470 fdbd b939 c9bd
000000d0: dbf6 6c3e 3821 4b3e 6884 b5bd 16aa 233d
000000e0: 9509 923e ee5a a23d e402 f1bb 91dd c5bd
000000f0: 78aa 31bd eba1 793d 16cb 91bd 3d4e 82be
00000100: 460e 2b3e 2df6 85bd 42a4 e03e a5eb d5bd
00000110: 707f b7be eccb 72bd 2337 e13e ae7f 923d
00000120: fafa 603e 2546 043e 837f e33e bd35 9d3c
00000130: b601 98be 2f9f 393f 3630 233e 40ba bbbe
00000140: fcba 0c3e 5e59 a23e 9471 893c c06c 4a3e
00000150: 7df0 01bf e187 c6bd 4e6d 593e 149d 883c
00000160: 915a 5fbe 25d4 db3e 2ef2 013e d7be fb3e
00000170: 1d00 1b3e b267 ee3e 7d87 06bd a82d 38be
00000180: 7b6e edbc e6fe ab3b 3356 733e 678d a7ba
00000190: dd94 163e 2ed3 283f ed5f 043f 0fb5 b93e
000001a0: 2877 b2be 6575 123f 00f6 303f e996 cdbd
000001b0: 371f 2a3f cc30 033e be29 1fbe 22bd ec3e
000001c0: a79a aabc a4bf f6bc f434 84bc 51da 513d
000001d0: 579d bb3d 0009 cbbd 35a4 983e 4607 173f
000001e0: 41a8 f23c f044 513e 4dee 8bbd 2757 2fbf
000001f0: 4b22 7b3a a52b 173f 4f13 bc3b 5365 f13d
0.60522014 -0.19924809 0.68145454 0.16874239 0.11694963 -0.3894482 0.07326386 0.014535816
-0.1981007 -0.23232572 0.6086176 0.06135447 -0.53157264 -0.033505667 -0.1616703 0.08872211
0.09635919 0.43215492 -0.041547086 0.17857717 0.52643245 1.0898242 0.9298512 -0.13592108
0.18262134 0.3636212 0.21111836 0.29888478 0.47796956 -0.20567945 0.34313703 0.2618643
-0.2278196 -0.21900706 0.48124537 0.28270808 0.116328254 0.12261059 0.3490183 -0.12303826
0.05458859 -0.3000769 0.056294035 -0.3632698 -0.11710312 -0.32743546 1.2286556 0.090970926
-0.06681017 -0.1914965 -0.12374905 -0.09825463 0.23141043 0.1983689 -0.08863145 0.03995713
0.28522936 0.079275 -0.007355081 -0.09661401 -0.043375462 0.060945433 -0.07118814 -0.25450316
0.16704664 -0.06541095 0.4387532 -0.10445336 -0.35839415 -0.059276506 0.43987378 0.07153259
0.2197074 0.12917383 0.4443322 0.019190663 -0.29688805 0.7250852 0.1593636 -0.36665535
0.13743204 0.31708807 0.016777791 0.19768047 -0.5075758 -0.096938856 0.21233103 0.016676463
-0.21811892 0.4293529 0.1269004 0.49169037 0.15136762 0.46563488 -0.032844055 -0.17986166
-0.028983345 0.005248892 0.23763351 -0.001278323 0.14705224 0.65947235 0.5170887 0.3627095
-0.34856534 0.5721038 0.69125366 -0.100385495 0.6645388 0.12811583 -0.15543267 0.46238047
-0.020825697 -0.030120678 -0.016138531 0.051233593 0.091608696 -0.09913826 0.2981278 0.58995473
0.029621245 0.20436454 -0.06832562 -0.6849236 0.000958 0.5905097 0.0057396065 0.11786904

l3.weight f4 [256, 128]
00000000: ac4f 8ebe 12b5 6b3e 882a 38bf d2b8 613e
00000010: b6d6 9abd 1453 0cbc 307b bfbc 7332 e1be
00000020: cd8e 1dbf 3e3f 2a3e 09d4 d43d 840c 0bbf
00000030: a64e 263c 4239 ddbd 45e5 1c3e f496 7c3e
00000040: 3c8f 8c3e 1260 5c3e ac40 843e c965 dd3d
00000050: 0451 71bf 1443 7ebe ebcd 7a3d 6ecc 0dbd
00000060: cf5d ba3e 5a51 50bf d56d 13bf b613 153e
00000070: 18ad 48be 05b3 023f b87f b5bf 3465 7d3e
00000080: adc6 0fbf e2f4 513c 9ea7 963d c737 a2be
00000090: 7162 40bf a6ed 98bc e038 cfbd a05b 44be
000000a0: 8576 8abe 7f60 b23d 7f8e 3bbf 4786 303f
000000b0: c8b2 b3be e1e3 d83e 9d9b 983e 829f 66be
000000c0: 40a5 4b3e 30dc 4cbd 88b2 b23d d6bd 27be
000000d0: c7de b43e 11f6 433d cdf7 98be 2793 be3c
000000e0: ce36 9bbc 8f4b 23bf 03a5 7c3e e159 563d
000000f0: 82bc 5dbf 9023 cbbe 24b8 8abe 296e d9be
00000100: 2bd4 7abf f606 2d3e 6b71 7fbe a6b4 95bd
00000110: 0067 4cbf 68de 3fbf 37c8 2bbf 5df4 9dbe
00000120: c5df 06be 20c9 38bf dae1 53bf 0eba 9bbf
00000130: 81e1 5b3e 1440 72be 318f dd3d 7c1d 073f
00000140: 33ef 7f3e 1e8b 21bf 6ed4 2dbe 1600 9e3d
00000150: e419 023e 68a3 cd3e 7004 bfbe efd3 abbe
00000160: 46cc 1c3f 11a5 5d3e 2ae3 6bbe 0e61 95be
00000170: ff6e 3a3e f13d c4be 95cc 173e 9988 cc3e
00000180: 71ec 42be 23d3 f93d 0f5f 3fbf af03 a33e
00000190: 490d c03c 2b0b f6bc 4d1b 91bd 2125 cb3e
000001a0: 579d a23d 589a c8be 7ea3 2bbe 0c6b 8bbd
000001b0: 73aa 66be 4dcb 953d ae95 ac3e 337a edbe
000001c0: d979 43bd 9512 84be 623c ddbd 478f a2be
000001d0: 0813 bebe 8781 b6be d754 2c3f 9ee0 99bd
000001e0: ce92 adbe 12a2 eabe 8482 08bf e9ad de3e
000001f0: 8967 4bbd 7388 74bc 6202 6fbe 3eee 2a3d
00000200: 0c08 0f3f b0d4 473e 1935 c33e 3ca7 883e
00000210: 3f88 3bbd 1db2 8ebd 0680 973e 6077 b6be
00000220: ee27 1e3f b565 983e 29ec c43c b923 d5be
00000230: b72a 3f3d b7fc 35be 278d 263f 4c3f 8a3d
00000240: 98cc 30be 48ee 40be f8b7 ce3e 925c e73e
00000250: 5c0b 7e3f 209f bf3e 204d 3c3f a9ca d43c
00000260: f095 463e 1c99 81be d228 e0be 2e67 a1bd
00000270: 7598 013f c1b9 d2be 90b1 35bf 08d1 48bc
00000280: 3be9 fdbc 89a1 523f fec4 1bbf 687b 43be
00000290: 96ea 2bbf b204 593c 8263 d73b ce0f 2ebd
000002a0: 63c0 603e e349 7a3e 7634 1bbf 01d6 c63e
000002b0: 02c0 52be 9111 4e3f 9053 433f 4fe7 a1bd
000002c0: 235a 703e 7082 43be 9c74 793e 2c47 85bd
000002d0: 6e0c 4d3e 9b0a 7a3d 6129 c3be eb61 f33d
000002e0: 74a8 77be 57f9 b4be 6bef ea3d b2ea ed3d
000002f0: db87 62bf e355 78be 66f0 23bf 4d89 07bf
00000300: e333 ed3d 8ae1 583d 902a b5be 75f5 cdbe
00000310: aaea 57bf 36b4 26bf 6969 46bf f3f0 76be
00000320: f77b 3fbd 7cd2 86bf ed10 0dbf 2b39 ffbe
00000330: 1497 703e ae55 26be aeed 2e3d 7e96 293e
00000340: e8f7 c13e c5dc 13bf 8c9f 153d ddc2 1fbe
00000350: 91cb 483d 85a5 173f 4aa4 183d 21e4 403e
00000360: 4570 0a3f c86d 58be ed43 d23e c495 a63d
00000370: 5e9f a7bd 06d6 913d 4f20 a53e 4787 b4be
00000380: 9823 2fbe 89b3 4fbe abb8 f0be cf63 a03e
00000390: 8caf 71be 323b eb3d 93ac fb3e 40e7 40bc
000003a0: 2eb1 9d3d a911 c53e ba22 d13e 6f37 2abd
000003b0: 2506 173f b4d8 093e dca3 873e f76b 313f
000003c0: 4cd1 7b3e cce2 f63d 095a c73d cf0d 3fbe
000003d0: c425 8cbd 8980 cbbd eeee 1a3f d484 153e
000003e0: 193a 1bbe 1cde 5f3e 6686 24bf 6d62 8e3e
000003f0: 1292 5cbe af1c bcbd 13c7 68bd 19ce 4f3e
-0.2779516 0.23018292 -0.719399 0.2204316 -0.07560484 -0.008564729 -0.02337417 -0.43983802
-0.6154602 0.16625687 0.10392005 -0.5431597 0.010150587 -0.10801937 0.15321834 0.24666959
0.2745303 0.21521023 0.2583059 0.108104296 -0.94264245 -0.24830276 0.061231535 -0.034618787
0.36399695 -0.8137413 -0.57589465 0.145583 -0.1959728 0.5105441 -1.4179602 0.24745637
-0.5616253 0.012814732 0.07356189 -0.3168318 -0.7515021 -0.018668007 -0.1011827 -0.19175577
-0.27043548 0.087098114 -0.73264307 0.6895489 -0.35097337 0.42361358 0.29806224 -0.22521785
0.19887257 -0.050014675 0.087254584 -0.1638101 0.35326216 0.04784209 -0.29876557 0.023263527
-0.018947031 -0.6378717 0.24672322 0.05233181 -0.86615765 -0.3967557 -0.27093613 -0.42466858
-0.9797999 0.16897187 -0.2494561 -0.073098466 -0.79844666 -0.7494874 -0.6710238 -0.30850497
-0.13171299 -0.7218189 -0.827665 -1.2166154 0.21472742 -0.23657256 0.10818327 0.52779365
0.24993591 -0.631029 -0.16975567 0.0771486 0.12705189 0.40163732 -0.37308073 -0.3356013
0.61249197 0.21644999 -0.23035875 -0.2917561 0.18206404 -0.38328508 0.14824136 0.39947966
-0.19035508 0.12198474 -0.7475442 0.31838748 0.023443835 -0.030034622 -0.07085285 0.39676765
0.079401664 -0.39180255 -0.16761586 -0.06807527 -0.22525959 0.07314167 0.33707947 -0.46382293
-0.047723625 -0.25795427 -0.10802533 -0.31749937 -0.37123895 -0.35645697 0.67316955 -0.075135455
-0.33901066 -0.45826775 -0.5332415 0.43492058 -0.049659286 -0.01492511 -0.23340753 0.04173111
0.55871654 0.19514728 0.38126448 0.2669009 -0.04578423 -0.06967566 0.29589862 -0.3563795
0.6177968 0.29765096 0.024038391 -0.41628817 0.046671595 -0.17772184 0.6505913 0.06750354
-0.17265546 -0.18840897 0.40374732 0.45187813 0.99236083 0.3742609 0.73555183 0.025975542
0.19393134 -0.25312126 -0.43781143 -0.07881008 0.50623256 -0.41157344 -0.70974064 -0.012256868
-0.030995002 0.82277733 -0.6084746 -0.19090044 -0.67154825 0.013245748 0.0065731416 -0.04249554
0.2194839 0.24442248 -0.60626924 0.38835147 -0.20581058 0.80495554 0.7629938 -0.07905447
0.23471884 -0.19092727 0.24360889 -0.065077156 0.20024273 0.06104527 -0.38117507 0.11883911
-0.24185354 -0.3534648 0.114714466 0.1161703 -0.8848855 -0.24251513 -0.64038694 -0.5294388
0.11582162 0.052949466 -0.35384035 -0.4022633 -0.84342444 -0.6511873 -0.77504593 -0.24115352
-0.04674908 -1.0532985 -0.5510395 -0.49848303 0.23495132 -0.16243622 0.042707138 0.16561314
0.3788445 -0.5775874 0.03652911 -0.15601678 0.04902226 0.5923694 0.037266053 0.18837024
0.5407756 -0.21135628 0.41067448 0.08134034 -0.08184694 0.071209 0.32251212 -0.35259458
-0.17103422 -0.20283331 -0.4701589 0.31326148 -0.23602122 0.114859 0.491551 -0.011773884
0.0769981 0.38490036 0.40846807 -0.04155677 0.5899375 0.13461572 0.26492202 0.69305366
0.24591559 0.12054977 0.0973397 -0.18657611 -0.06843141 -0.099366255 0.6052083 0.14601451
-0.15158881 0.21862072 -0.64267576 0.27809468 -0.21540096 -0.091851585 -0.056830477 0.20293464

l3.bias f4 [256]
00000000: b21b 51bf e5ae 81be 3cd4 0d3f 91a4 dbbe
00000010: 3d77 103e 677c 2ebf 30ee b3bd 6ed5 98bd
00000020: 518f 51bf ad06 963d d847 433d e530 92be
00000030: 29bd d03e 8630 103f 2402 873e 3a33 9a3e
00000040: 69fd 44bf 49fb c2bd d30a a23e ae10 9cbd
00000050: f912 443e 3c9c 8ebf fc18 0ebf 78e2 493e
00000060: 4887 34bf 7d18 6a3e 8512 0abe f871 303c
00000070: e37a f63e 2880 583f 5933 5f3e 3726 ad3f
00000080: 8cbe 56bd 2c2e 19bf 7c98 03bf 7d6e bebe
00000090: 7c0a 463e cd9a 9b3e dc13 063f f43b 923e
000000a0: 0f88 b43e d48b 003f fb76 033f 5db2 583e
000000b0: 01f5 45bf c78a a93e 1013 ab3d 3d57 77be
000000c0: e485 70bf 939e 5cbf e8ff 54bf 14e2 093f
000000d0: 9706 403e 8468 043f ec3b 71be 50dd 443e
000000e0: 8cb0 0ebf 7387 f0be b662 653f c628 bebe
000000f0: f6c0 7c3f af4c b4bf 822d 603e fbf5 653e
00000100: 79c7 da3e 5a2b 1f3f c077 dbbe 4d49 813e
00000110: 2401 833e cdc9 0fbf b54a 103e e46d 8d3e
00000120: cb2b ef3e d3fe 343f 1f63 783e 5675 98be
00000130: 2618 d43e 14e8 883d 2e6a 94bc e4a9 833e
00000140: e857 b23e 75af 933e 0626 983e 58f3 35bd
00000150: ebc3 6bbe 351c 1ebf 38b9 48bf fe2e 373e
00000160: 89cd 743e a2fd 643f e9d8 903f 6fac 653f
00000170: ac68 0ebe d75a abbe ba7e 633e 5ef2 153f
00000180: 112e 43bf c615 efbe d84f ca3d 1e8d 90be
00000190: e10c cebd 8f0c 21bf d1d6 c3be af4f fa3e
000001a0: edbd 9e3e 686b 1c3f 2aa4 503e bdba 0bbf
000001b0: 5b44 8cbe 76dd 1cbf 78b2 38be c157 5abe
000001c0: 48a2 bcbd 34f1 66bf 2e0e 9bbd 1477 c9be
000001d0: 82dd 923e 19dc e0bd ddbb 03bf 9e0e 23bf
000001e0: fe68 813e 3af1 2cbf 239f 303f a4ed 8d3f
000001f0: 0592 55bf e613 83be d099 303f 146c 0c3e
00000200: d9b1 42bf a424 d83e dad4 913e e11a d43e
00000210: cb4d fa3e 340c 77bc 2893 3ebe 8a5c d1be
00000220: 1a70 e7be 8b69 61bf cfd7 aa3f a50f 3d3f
00000230: ac10 68be 5423 7c3e bff3 273e 613c 5d3e
00000240: 3ae3 65be b5de 88be ad75 063f 0289 57bf
00000250: 0d3b 93be b51b 213e 51ee 913f bb72 fe3e
00000260: 2119 253e df0e a4be 17bb b53d 855e 82be
00000270: b76e fdbb ee1d 92bb 6923 c13e c1b7 cabe
00000280: c3eb c33d 73ed 783e 7f3a b13c cfa0 333e
00000290: 502d 413e c545 8f3c cc2b 883e 09a4 dc3e
000002a0: 2678 90be c70e b53e 6d53 613f 5ead 943e
000002b0: 31ef 4dbf 1f8e a33f c229 0e3f c324 efbe
000002c0: 7b26 f93e 53d4 99bf 6336 f73e 6f08 013f
000002d0: ba7f 293e b8ae 513f 27a2 2f3e 852c 26be
000002e0: c546 693f 300d c93d 3f9c 27bf da07 56bf
000002f0: becb 9d3e 37fe a23d 6110 433e 95e2 8bbf
00000300: ab29 3fbe 98d5 3b3f aaaa ea3e f0c7 98be
00000310: 744e 123f 9914 cb3e 2501 03bf e3e7 68bf
00000320: 7b36 303f f790 afbe 476a da3e 5292 dd3e
00000330: f7f3 ab3f 28af 31bf 30c3 cc3e ba34 573f
00000340: b6c8 9d3c 0093 853b e514 0cbf ca4f 50bf
00000350: eaf5 203e 2b61 f03d 7bea 15bf dc7f 74bf
00000360: 3e2f 063e df14 a3be d02f 1d3f ce76 213d
00000370: 7e01 14bd b109 e3be 55f6 0fbe 208b 81bf
00000380: 173f a0be 09d3 6a3f e0a8 b4bd b42e 043f
00000390: 0cfc d33e 6ba1 f73e a596 813e dbca f43e
000003a0: 1799 ac3d 10b3 ca3e a29e 56bf c3fb f93e
000003b0: c9b3 a5be fbb2 29bf 60d8 0e3f 43c6 6bbd
000003c0: 429b 91be 4f33 e03e 6871 4d3e d7a8 573f
000003d0: 7160 d13c 1be6 643e 3853 323f bb01 fc3e
000003e0: 7285 58bf d19d 0a3f cf1d 46bf dab9 e23d
000003f0: 00f2 393f 6989 413e c4ca 7dbf 6ff3 2c3d
-0.81682885 -0.25328746 0.5540197 -0.42898992 0.14107986 -0.6815857 -0.08785665 -0.074625835
-0.8185931 0.07325492 0.047675937 -0.2855293 0.40769318 0.5632404 0.2636882 0.30117208
-0.76949173 -0.09520585 0.31648883 -0.07620369 0.19147862 -1.1141429 -0.55506873 0.19715297
-0.7051892 0.22860904 -0.13483627 0.01076936 0.4814063 0.8457055 0.21796931 1.3527287
-0.052427813 -0.5983608 -0.5140455 -0.3719367 0.19339937 0.3039154 0.52374053 0.28561366
0.35260054 0.5021336 0.51353425 0.2116179 -0.7732697 0.3311369 0.08353245 -0.24154373
-0.939543 -0.86179465 -0.8320298 0.5386059 0.18752514 0.5172198 -0.23558015 0.19225049
-0.5573814 -0.4697834 0.89603746 -0.37140483 0.98731935 -1.4085902 0.2189236 0.22457115
0.4273031 0.62175524 -0.428648 0.25251237 0.25586808 -0.561673 0.14090998 0.27622902
0.467131 0.7070133 0.24256562 -0.2977702 0.41424674 0.066848904 -0.018117037 0.25715554
0.34832692 0.288448 0.2971651 -0.044421524 -0.23023956 -0.6176179 -0.7840762 0.1788902
0.2390653 0.8944951 1.1316196 0.8971624 -0.13907117 -0.33467743 0.22216311 0.5857295
-0.76242167 -0.466963 0.0987851 -0.28232664 -0.1006105 -0.6290979 -0.3824983 0.4888892
0.31004277 0.6110139 0.20375124 -0.54581815 -0.273959 -0.6127542 -0.1803683 -0.21322538
-0.0921064 -0.90211797 -0.07571064 -0.39348662 0.28684622 -0.1097948 -0.5145853 -0.6369418
0.25275415 -0.6755558 0.68992823 1.1088147 -0.83425933 -0.2560112 0.689847 0.13713104
-0.76052624 0.42215455 0.28482705 0.41426757 0.48887476 -0.015078593 -0.18610823 -0.40890914
-0.45202714 -0.8805167 1.334711 0.73851997 -0.2266261 0.24622852 0.16401576 0.21605064
-0.22449961 -0.26732412 0.5252331 -0.8419343 -0.2875599 0.15733226 1.1400853 0.49696907
0.16122867 -0.32042596 0.08873575 -0.25462738 -0.0077341455 -0.0044591343 0.37722328 -0.39593318
0.09566452 0.2430933 0.021634338 0.17541812 0.18864942 0.017489323 0.26595914 0.430939
-0.28216666 0.35362837 0.8801792 0.2903852 -0.804431 1.2777747 0.5553247 -0.46707734
0.4866217 -1.2017921 0.4828368 0.50403494 0.1655263 0.81907225 0.171517 -0.1622792
0.9112361 0.098169684 -0.6547279 -0.8360573 0.30819505 0.07958644 0.19049217 -1.0928522
-0.18668239 0.73372793 0.4583333 -0.2984004 0.5715096 0.39664152 -0.5117362 -0.9097883
0.6883313 -0.34290287 0.42659208 0.43275696 1.3433827 -0.6940789 0.39992666 0.8406483
0.019260745 0.0040763617 -0.5471938 -0.8137175 0.15718809 0.11737283 -0.58560914 -0.955076
0.13103959 -0.3185186 0.6140108 0.03941994 -0.036134236 -0.4434333 -0.14058812 -1.0120583
-0.31298134 0.91728264 -0.08821273 0.51633763 0.41403234 0.4836534 0.25310245 0.47811016
0.08427637 0.3958974 -0.83835804 0.4882489 -0.32363728 -0.6628873 0.5579891 -0.057562124
-0.28438765 0.43789145 0.20062792 0.84242004 0.025558682 0.22353403 0.6965823 0.4922007
-0.8457862 0.5414706 -0.77389234 0.110706046 0.7263489 0.18900074 -0.9913752 0.042224344

l4.weight f4 [1, 256]
00000000: 9af2 e43e 5fd3 bf3e 955b 15bf b998 4ebf
00000010: 3394 f1be efce b0bf cc16 043f 4001 c5bd
00000020: 7150 433f 3ecf abbe 92c9 f2be 659b bb3f
00000030: 8418 89bf 8d4c 6b3f 9c90 05be 17b4 543f
00000040: 1132 94bf 3718 a73e 6ba7 56bf 8d24 913f
00000050: 9da8 01bf b117 c13e 75fe 8a3f ebc5 f3be
00000060: 63c0 f9bf b492 74bf 1d8a 9dbf 3491 fe3e
00000070: 4a92 e0be 7dbd 0abe 50c2 233f ac36 473f
00000080: d0cb b73f 39e4 48bf e304 323f c714 813f
00000090: 4992 b7be 31e4 53be f8b1 cfbf 26cb bc3e
000000a0: 7090 c9be 0480 1abf d2e7 3dbf e1d9 6a3f
000000b0: eb03 f23f dace d2be f012 033f 18b1 ee3f
000000c0: b025 c73f 465e 7d3f 6818 1a3f a597 1ebf
000000d0: 5ae4 64bf 03fa 72be be07 ad3f ab37 f9be
000000e0: a7e9 a13f a79f be3f 1113 29bf fd79 d8bf
000000f0: 2e37 f93e b138 c83e dd4a 1abf 3a29 d23f
00000100: 180f c1bf af74 9abf 483b ce3f 4575 05bf
00000110: 9a0b 65bf 6856 453f 607c cabe ec09 8abf
00000120: 66d5 1bbf e8b6 8cbd 2f26 2c3f 863d a0bf
00000130: f931 853f 8d08 91bf cc32 8bbf 0205 edbe
00000140: f988 c1be dd50 99be ef56 8e3e 76b3 a3bf
00000150: 0b90 70bf b279 523e 9845 fd3f 2553 04bf
00000160: 1bed cbbf ad04 89bf 5a37 11bf 0839 73bf
00000170: ce03 1740 8065 463f 7546 98be 0f14 a6be
00000180: 08ef c3bf 3474 68bf 1de7 9abf 37cc bb3f
00000190: 0f52 bd3e d0e3 453f df81 ae3f a1de bebe
000001a0: 0b9d f2be adb9 45bf 9c1e 7fbe b82c 47bf
000001b0: 2a64 1a3f 00d1 4b3f 8d1b 123f ce42 99bf
000001c0: 6367 f33e c3e0 113f 947e 8bbf 2a86 803f
000001d0: 3395 1cbf cadb 63bf 9523 96bf f4b0 0040
000001e0: 42b7 db3e 70ee 023f c7b1 0abf fa98 bcbe
000001f0: 73be 0e3f 87ac b3be 85eb 03bf 4da5 13bf
00000200: 8487 833f de3a c9bf d062 dabe 4945 58bf
00000210: fcdf 8abf 1cb2 8ebf dea3 a03f 2bb5 7bbf
00000220: 8fe9 aa3e 6a21 583f 81d8 81bf 6627 f2be
00000230: 797a f73f ca4b d9be b0de 3dbf 32c3 e5be
00000240: d934 c23f c0ea 4e3f 8880 3c3f 251f 973f
00000250: d44f 7fbf e092 1740 1094 93be b131 debe
00000260: c2b3 53bf c1d3 563f 2a00 63bf 13fd 403f
00000270: 7f30 c6be fe51 2b3f 7d7b 08bf 7f75 bb3f
00000280: 9ca5 46be 60a0 44bf f9a0 a0bf 75c9 17bf
00000290: 3aae 93bf 6afe dbbe 7c6d 02bf 048e 04bf
000002a0: 3578 cdbf 0d32 963e 4ca9 d1be b2c5 d6be
000002b0: 966d abbe 714b c4be 123b ac3f d73e 383f
000002c0: 1ad5 6bbf c182 9c3e 674d 3abd f0b9 373f
000002d0: 1e1a 71bf 60e1 61bf f67e 19bf 52de 943f
000002e0: b3bf 04bf 94fa 0740 1d0a 113f bd92 1a3f
000002f0: 5b75 e3be 3ac2 5e3f 4806 bdbe 01c2 5a3f
00000300: e9d4 263f 898b 5ebf 04bb 09bf 8e18 b13f
00000310: d7ad d63f 0fc4 a6bf 1a90 513f d679 2a3f
00000320: 7928 29bf 5b8b 703f 6736 07bf fc4c fdbe
00000330: ae88 203f 291d da3f c07d 43bf 46cc 26be
00000340: f43a 55bf b438 c43e 9b96 a3be b355 71bf
00000350: 40df e73e dd6f 98bf 6064 7e3f bd01 953f
00000360: f888 51bf 831a f83f 44cb a3be d552 8b3f
00000370: 7a03 eabd f8f5 6c3f 0ff5 bf3c 109b 083f
00000380: 874e b23f 23ab 48bf 0b28 f93e 1574 13bf
00000390: 329c 193f 4689 23bf a6ae 50bf 371b b3be
000003a0: 6147 93bf 96c8 a0be 4697 293f 283c 40bf
000003b0: 8592 8d3f 6e5a b03f bfe0 d8be ace8 0140
000003c0: 8db5 87bf 18e6 53bf 51e7 d3be 0293 b5bc
000003d0: 5759 3ebf 070c 22bf 58c8 b8be fe8f a8be
000003e0: 4694 253f fefb 6fbf c0b7 3e3f 5d3d 16bf
000003f0: 5498 f5be 98ec 433f 16bc b93f d0bc 28bf
0.4471634 0.3746595 -0.5834287 -0.80701786 -0.4718338 -1.3813151 0.51597285 -0.09619379
0.7629462 -0.3355655 -0.4741941 1.4656798 -1.0710607 0.9191368 -0.13043445 0.83087295
-1.1577779 0.32635662 -0.8384921 1.133928 -0.5064791 0.37713388 1.0858904 -0.47611937
-1.9511837 -0.9553635 -1.2307774 0.49720156 -0.4386161 -0.13548847 0.6396837 0.778178
1.4359074 -0.7847324 0.69538707 1.0084466 -0.35853794 -0.20692517 -1.6226187 0.3687374
-0.3936801 -0.60351586 -0.74181855 0.91738707 1.8907446 -0.4117344 0.5120077 1.8647795
1.5558376 0.98971975 0.6019349 -0.6195014 -0.89410937 -0.23728184 1.3517988 -0.48675284
1.264943 1.4892472 -0.6604472 -1.6912228 0.4867491 0.39105752 -0.6027048 1.6418831
-1.5082731 -1.2066859 1.6111841 -0.52132064 -0.8947083 0.7708497 -0.39548016 -1.0784278
-0.60872495 -0.06870824 0.67245764 -1.2518775 1.0405875 -1.1330734 -1.0874877 -0.46292883
-0.37799814 -0.29944506 0.278007 -1.2789142 -0.9396979 0.20554236 1.9786863 -0.5168937
-1.5931734 -1.0704552 -0.56725085 -0.950089 2.3596072 0.77498627 -0.29741254 -0.32437178
-1.5307322 -0.9080231 -1.210178 1.4671696 0.36976668 0.7730074 1.3633384 -0.37279227
-0.4738544 -0.77236444 -0.2491402 -0.7780261 0.6030909 0.79615784 0.5707329 -1.1973512
0.47539815 0.56983584 -1.0898004 1.0040944 -0.6116516 -0.89007246 -1.1729609 2.0108004
0.42913252 0.51145077 -0.54177517 -0.36835462 0.5575935 -0.35092565 -0.5153125 -0.57674104
1.0275731 -1.572109 -0.42653513 -0.8448072 -1.0849605 -1.1148105 1.2550008 -0.98323315
0.33381316 0.84425986 -1.0144197 -0.47295684 1.9334251 -0.42440635 -0.7416792 -0.44875485
1.5172378 0.8082695 0.73633623 1.180638 -0.99731183 2.3683395 -0.288239 -0.43397287
-0.82696164 0.8391686 -0.88672125 0.7538616 -0.38708875 0.66921985 -0.5331343 1.4645232
-0.19399112 -0.7680721 -1.2549125 -0.59291774 -1.1537545 -0.4296754 -0.5094831 -0.517792
-1.6052309 0.2933506 -0.40949476 -0.41947705 -0.33482045 -0.38338807 1.3455527 0.71970886
-0.9212204 0.30568507 -0.045483973 0.71768093 -0.94180477 -0.8823452 -0.5995935 1.1630347
-0.5185501 2.124669 0.56656057 0.60380155 -0.44425473 0.87015116 -0.36918855 0.85452276
0.65168625 -0.86931664 -0.5380099 1.3835618 1.6771802 -1.3028582 0.81860507 0.66592157
-0.6607738 0.9396264 -0.52817386 -0.49472797 0.62708557 1.7040149 -0.76363754 -0.16288862
-0.8329308 0.3832451 -0.3195084 -0.9427139 0.45287514 -1.1909138 0.9937191 1.1641155
-0.8184962 1.9383091 -0.31991017 1.0884653 -0.11426444 0.9256282 0.023432283 0.53361607
1.3930215 -0.78386134 0.48663363 -0.57599 0.6000396 -0.6388134 -0.8151649 -0.349817
-1.1506158 -0.31403035 0.6624645 -0.7509179 1.1060339 1.3777597 -0.42358968 2.0298262
-1.060228 -0.8277297 -0.41387418 -0.022164825 -0.7435507 -0.632996 -0.3609035 -0.32922357
0.6467937 -0.93743885 0.7449913 -0.5868738 -0.4796778 0.7653289 1.4510524 -0.65913105
