preTrained/DeepTD3_BipedalWalkerHardcore-v3_0_critic_1_target.pth (torch_old, 175167 bytes, 7 tensors)

l1.weight f4 [64, 28]
00000000: e88d 8a3f 911b d23f ae12 063e bdde a8bf
00000010: f122 713e 6bb8 e63d 3f6c 153e 5b15 4a3e
00000020: 87ab 983c dc69 223f 6e6a 9a3d 0330 1a3e
00000030: cb0f 8c3a 48f7 18be 84d3 8bbe 7642 cdbd
00000040: b1fb 473d 9781 e53e c537 323f 2c2a b63e
00000050: 3c90 c7be 123b 8fbf bbad 6c3d baa5 e83e
00000060: 245c 4fbd 7fa9 6cbc 8e17 9f3d 636b 9e3c
00000070: d48e 813f 7e1c 1c40 01e5 50c0 9f3f 3840
00000080: dafd df3d 886e 4e3d 78f0 36be 1c80 0e3d
00000090: 09ec d03d 4abf 653e 9a9c 513d 816a 41bf
000000a0: 2f55 a4bb eb0d 68bd d6c2 223f e1f0 da3e
000000b0: 0ed6 a73e 7fb9 383e f1cb d63e dcdc 8a3e
000000c0: b833 b1be 27ac 25be 6865 36bf 20bc 4f3d
000000d0: c378 613d 30cc 3ebd f5eb 0bbd e69f a63d
000000e0: f146 cf3f e056 4a3f f101 4e3f e4fc 0abf
000000f0: ca9a e93f 15a8 9b3d 4343 ec3e 90b8 47be
00000100: c81c b3be 08a8 3abf 7855 3b3e 411b 49be
00000110: 513a c2be e6d0 a23d cda0 1abd b4ad 0cbe
00000120: 86bd 133d dafa 533d 16a2 9c3d d6cf 24be
00000130: 7c36 07be 0452 0ebe d491 f43c fd7a 9fbd
00000140: 8c84 8d3c 1b05 643d d439 8b3e e839 37be
00000150: 0ed1 a93f cb81 76c0 fbef b9bf c287 5540
00000160: 787c f93e 2dbd b0bd 92d7 73bd 8e23 8f3c
00000170: 6134 1a3e 53d8 9a3d 9038 20be 5330 bbbe
00000180: 54b5 4ebd 7347 523d 4a45 a83e df24 f53d
00000190: 8bb6 a33e 23fe 2b3e e4a6 543d e168 273e
000001a0: a881 293e 029c 023f c29d ec3e 95f1 37bc
000001b0: d9c5 263d f514 e33b 006a ec3c 635f 8e3d
000001c0: 0864 953f 6669 b1be 7caf 0bbf 9d3b 9fbf
000001d0: 1c78 21bf b853 903d f203 7c3e 2fa6 173c
000001e0: fdd8 233e 2914 123f 1def a6be 6334 59be
000001f0: d32e 183d 4693 b63e e938 913e 7e79 1dbd
00000200: 6609 b7be 35e3 66bd 1906 3c3e bca9 263e
00000210: 8ce8 243b d1b1 f6bd c5c0 b0bc cc0e 89be
00000220: d158 bb3d 8898 ddbd c343 d5ba afbc 8abc
00000230: d06a 52be 3f9c 5b3e f749 86bf 6cfd 073e
00000240: c5f7 373d 3c80 60bc ca31 9d3e 2d8c a73c
00000250: 3e4d fbbd 84c9 e63e fc78 fdbd 2c47 d43c
00000260: 22bf 90bd ed96 8fbe 70a2 7dbe 777a e6be
00000270: b8dd 20bf e7ea 053e 91da 8b3f fece a13f
00000280: 3e45 0e3f 5dd9 34bf 9af8 63bf 7228 a0be
00000290: 7e63 b1bc 481c 593d 1242 5abd f334 e63b
000002a0: b43d 403f 78c6 2540 de61 4bc0 74d2 b13f
000002b0: 5eda 32bd fccd 083e 3a36 3bbc aa51 e43d
000002c0: 77ca 72be 3735 013f c038 873d c093 8d3e
000002d0: 2a80 ae3d 54d8 6d3e 58f4 163f 2405 b13e
000002e0: 0f59 67bd 85a1 123d caa8 9e3e afa3 1c3f
000002f0: 59e2 e23e 14b4 b5bd 775f ebbe ad16 50bf
00000300: 4f43 debb a3d3 15bb 476b a1bb 7068 313c
00000310: 1ede 473d 74ea 0c3f 568b 813f 7b76 123f
00000320: 1e41 4abf 6a20 663e c30d 1fbf bc45 963d
00000330: 4ae8 0e3e 8441 9cbc b64c 0bbe fe32 41bc
00000340: 83a0 673a 546d 2bbc 75f4 3e3d b0b7 2bbe
00000350: f5d6 1e3d 8416 453d 42ca efbe 0517 96be
00000360: d803 183f 8540 8a3f 8d82 233f 62cf 823e
00000370: 2c13 0e3d 4144 17bd 0f5d 7bbc 08cd 68bb
00000380: 1bc1 7fbf 885b 4dc0 3632 1240 f473 863f
00000390: c47a 02bd c658 903d ee41 a23c 7466 02be
000003a0: 04b7 79be c89b 3bbf 4ef0 2c3c 35cc 09bf
000003b0: 5755 aebd 4ca1 033e dc65 f0bd dc25 033e
000003c0: 6d36 8dbe dfb7 a5bd 43b7 fa3e 693d 5e3e
000003d0: 6d5a 07be c693 9bbe 4e05 1dbe 35f7 86bd
000003e0: d61b 103c 8076 bfbd 9ecc 94bc 5568 963d
000003f0: b97b d7bf 0ea3 23c0 951c 933e 2cda 79bf
1.0824556 1.6414663 0.13093063 -1.3192974 0.23548485 0.11265644 0.14592074 0.19734709
0.018636478 0.6344278 0.07539831 0.15057378 0.0010685859 -0.1493808 -0.2730981 -0.10022442
0.048824016 0.44825432 0.6961635 0.3557905 -0.3897723 -1.1189902 0.05778287 0.4543894
-0.05062498 -0.014444708 0.077681646 0.019338315 1.0121713 2.439239 -3.2639773 2.8788831
0.1093709 0.05039838 -0.17865169 0.034790143 0.1020127 0.22436252 0.051174738 -0.7555314
-0.0050150375 -0.0566539 0.63578546 0.427619 0.32780498 0.18039511 0.4195247 0.27121627
-0.3460977 -0.16178952 -0.71248484 0.05071652 0.055046808 -0.046581447 -0.034160573 0.08135967
1.6193525 0.7903881 0.8047171 -0.5429213 1.8250363 0.076004185 0.46145067 -0.19503999
-0.34982896 -0.72912645 0.18294322 -0.19639303 -0.37935117 0.079500005 -0.037751008 -0.13738137
0.036069416 0.051752903 0.07648103 -0.16094908 -0.13204378 -0.13898474 0.029854693 -0.0778713
0.017275117 0.05566893 0.27192557 -0.17893183 1.3266923 -3.851672 -1.4526361 3.336411
0.48727775 -0.086298324 -0.059531756 0.017473008 0.15059043 0.07560792 -0.15646577 -0.36560306
-0.050465897 0.05133767 0.32865363 0.11969923 0.31975207 0.16796164 0.05191697 0.16348602
0.16553366 0.510193 0.4621411 -0.011227031 0.040716026 0.0069299885 0.028859138 0.06951787
1.1671152 -0.34650725 -0.5456464 -1.2440068 -0.630739 0.07047218 0.2461088 0.00925593
0.16000743 0.5706201 -0.32604304 -0.2121139 0.03715403 0.35659236 0.28363732 -0.038445942
-0.35749358 -0.056369025 0.18361701 0.16275686 0.0025163023 -0.120456345 -0.021576295 -0.26769102
0.091478 -0.10820109 -0.0016270805 -0.016935674 -0.20548558 0.21446322 -1.0491322 0.13280267
0.044914026 -0.013702448 0.3070205 0.020452583 -0.12270592 0.4507562 -0.123765916 0.025912844
-0.07067706 -0.28044835 -0.24768996 -0.45015308 -0.62838316 0.1307789 1.0926076 1.2641294
0.55574405 -0.7064417 -0.8905121 -0.31280857 -0.021653887 0.053005487 -0.053285666 0.007025355
0.7509415 2.5902386 -3.1778483 1.389235 -0.043665282 0.13359827 -0.011426503 0.11148389
-0.23710047 0.50471824 0.06602621 0.27651787 0.08520539 0.23227054 0.5896659 0.34574234
-0.056481417 0.03579857 0.3098815 0.6118726 0.44313315 -0.08872238 -0.4597127 -0.812846
-0.006782926 -0.002286174 -0.0049261185 0.0108281225 0.04879581 0.5504525 1.0120647 0.57212037
-0.7900561 0.22473302 -0.62130374 0.073375195 0.13955799 -0.019074209 -0.13603482 -0.011791943
0.0008835869 -0.010463078 0.04661985 -0.1676929 0.038779218 0.048117176 -0.46833998 -0.29314438
0.59380865 1.080094 0.6387108 0.25548846 0.034686252 -0.036930326 -0.015342011 -0.0035522599
-0.9990403 -3.2087116 2.2843146 1.0504136 -0.03185536 0.07048182 0.019806828 -0.12734395
-0.24386221 -0.7328458 0.01055534 -0.5382722 -0.08512371 0.12854499 -0.11738178 0.12807411
-0.27580586 -0.08091711 0.48967943 0.21703114 -0.13218088 -0.3038618 -0.15334055 -0.0659012
0.008795699 -0.09348774 -0.018163975 0.073441185 -1.6834632 -2.556827 0.28732744 -0.9759853

l1.bias f4 [64]
00000000: 6a36 c63e f984 cabe 643f 02bf f4c8 adbe
00000010: 2266 3dbf 371d 12bc 071c b4be 5ec8 debe
00000020: 23af ff3e aa8b eb3c f378 1d3e a799 013f
00000030: 3522 04bf 6b32 c53e 6575 923c ceaa 90be
00000040: 0ac8 34be 3405 8d3e 999e d9be 08f9 983e
00000050: b3c7 7e3d 8e35 0abe 082b 913e d668 98be
00000060: 6f0a 3e3d 4d92 2fbf 74f4 d03e 693b 07bf
00000070: ee8f 87be 5648 09bf 57cf aa3e 671d ec3d
00000080: b336 c6be f5cf 98be da53 e5bc 45d9 85be
00000090: e511 cebc 3cd1 5ebf 4168 d13d 92ec d2be
000000a0: a025 cd3d 1381 053f 5f28 01be 608b 3b3d
000000b0: 2670 c23e 61a4 733f fd61 01bf d96e c9be
000000c0: e390 22bf 6c72 973f 7d45 64bc 83af 153f
000000d0: ea84 8dbf 3005 efbe 2904 97be 8c97 673d
000000e0: eeea c73e e068 14be b275 5bbf b8ea 46be
000000f0: 712a ccbe 8c7e 753d 4016 b5be b332 17bf
0.3871339 -0.39554575 -0.50877976 -0.33942378 -0.7398397 -0.008918098 -0.35177633 -0.43512243
0.49938306 0.02875312 0.1537817 0.5062508 -0.51614696 0.38515028 0.017878244 -0.28255314
-0.17654434 0.27543032 -0.42503813 0.29877496 0.062202167 -0.13496992 0.28353143 -0.29767483
0.04639667 -0.6858261 0.40811503 -0.5282503 -0.26476997 -0.53626 0.33361313 0.115290456
-0.38713607 -0.2984616 -0.027994085 -0.26142326 -0.025155017 -0.87038016 0.10224963 -0.41196114
0.10016942 0.52150077 -0.12613057 0.045787215 0.37976187 0.951727 -0.50540143 -0.39342383
-0.6350233 1.1831794 -0.013932583 0.58470935 -1.1056187 -0.46683645 -0.2949536 0.05654101
0.39046425 -0.14493132 -0.85726464 -0.19425476 -0.3987613 0.059935138 -0.35368538 -0.59061736

l2.weight f4 [128, 64]
00000000: 46a5 96bd ad0f 88bf ffdd 34be 0eee 233f
00000010: 5b3c e0be 4992 47bf b2a5 53bf dc14 71be
00000020: d49c 873e d0c2 bebd b31e f63e fe08 19be
00000030: 1bc6 e1be c9cd d43d 8e80 afbd 0584 0ebf
00000040: cb61 ffbf 219a c43d 870b 20bf 94f4 883e
00000050: 302f 3bbf 6785 a0be 200a 433e ecdc 04be
00000060: da8e e53e d676 1ebf b168 40be 3377 7a3e
00000070: f2b0 67be 86f6 96be 645a 71be 1e85 a23e
00000080: d4e8 8bbf 7da6 05bf 5a90 52bf 1681 95be
00000090: b1ff 5dbf a801 37bf 9d73 0ebf 399f cfbe
000000a0: 0b8f ec3d 1e13 1cbe 8193 cfbe f016 be3d
000000b0: 24d2 f5be 205d b1be 82c7 d7bf 885b 4dbf
000000c0: 5e9a 93bf bd23 07bf 7415 833d 1da3 9d3e
000000d0: 8984 c2bf a4d7 72bd f58c 9fbf 3175 40be
000000e0: 9bce 6abe dc7e 093f 1bc7 e5be 5840 bebf
000000f0: 06e9 12be d4e8 f2be 2792 213f ad8b 84bf
00000100: d6eb 97bf 6865 4fbe d62f 153f aac1 e23c
00000110: 67d3 2cbe e97d cdbe 222a 5fbd a44b 013f
00000120: 141c f83e 4934 46be c916 4dbd 6450 7bbe
00000130: 8b0f 623d 9616 94be aa69 e0bd c31b 7d3d
00000140: 54ce 853f 52c5 e1be 4517 043f f4b4 f7be
00000150: 3034 36bd a50a 103e 1415 8ebf 215c c63d
00000160: 489d 41bd 0a71 d8bf 145b fabf 68d6 38bf
00000170: e4f0 f33e 7736 a3bb ce7e 283e d3a2 edbd
00000180: faa4 e63e d50d 0abd fe79 9bbd c9db dabe
00000190: 02b9 68be 1e36 2bbf ae46 1c3d 970e a6bd
000001a0: a43a 883e 5094 cc3e 725b 56be fea7 a4be
000001b0: 2f63 aabd 6b4f 743f 71b9 573f 5563 823e
000001c0: 13ce ebbe b320 fe3e b92f d33e bde1 113d
000001d0: 36c2 93be 34ac 863e fb50 f43e 5799 2bbf
000001e0: f694 263e 4853 453e 9490 883e b717 3e3f
000001f0: 8aaf d8be 4171 43be bb95 743e 57d9 313f
00000200: 7455 09be d512 853b be09 9cbd cd51 0a3d
00000210: 32c2 e1bd 2a05 5ebd a857 31bc 66ff 943d
00000220: a99b c7bd 6f2d b43c ada5 083d 10cc 313e
00000230: d07f c53c d508 0f3d aff8 a8bd 8dda 87be
00000240: 8c08 f8bd 3e46 adbe 70ae c4bd 8057 c0bd
00000250: 0b44 6cbe 35e4 85be 1d92 0bbe cdec 9e3d
00000260: ff11 3d3c 95fb 8bbe 3f17 a03d e590 1cbe
00000270: 4a15 60bd b2b7 69be 4f90 23be 85c3 12be
00000280: 0138 58be cc73 7cbe e65e 1cbd 0d59 0e3e
00000290: b034 383d a852 36bd dd72 8b3d fdf7 063d
000002a0: f586 07be 99ca dabd a6d9 2cbe 250c 163d
000002b0: f563 91be 36a6 20be b804 3dbd a862 44bd
000002c0: d171 d8be f25a 6dbe 73ae 76bc 0cac 7cbd
000002d0: 61b5 4dbe e7a5 3ebd 5d25 1abe ae4d 1f3e
000002e0: b5dd 043d 7513 14be 9e27 233e 5a23 60bd
000002f0: 8154 cd3c ef49 29be 6d91 82bc c7f2 a0bc
00000300: e491 07bf 33af 79bd 1e17 93be 9c08 0b3e
00000310: 3a53 64bf 415c 533f db48 60be d6a4 273c
00000320: 1a5e 6a3c 77a0 22bd 1198 5bbe 06d8 19bf
00000330: 1948 44be 2689 af3e 9e28 a73e 18c0 c9bd
00000340: eb7d ffbe 7463 0fbf f7f0 383e 9fe4 29be
00000350: a38e fa3e 0618 80be 498f 543e 3b8b 63be
00000360: 0e17 19be 2ddc 1ac0 f810 bcbe 9a0f dcbf
00000370: 731f e03e beb1 19bf 9e5e 9ebd 2760 21bd
00000380: a418 fdbc 2454 71bf 039b edbe e161 5d3e
00000390: 5fab be3d 7618 a8be 9d90 1ebe 016b dc3e
000003a0: 55fd 123e 77be b63e ee1e ac3c 4d75 9bbe
000003b0: a752 b63e aa3a 53bf 4b79 60be 2fb5 adbe
000003c0: 28e7 b0bf 9531 033f 09e0 d23e 9d1f 9c3d
000003d0: 92c2 efbf 880f b0be 0da8 9ebe fcad 0abf
000003e0: 3ab1 e5be 7e8f 263f 1f88 aebd dc52 88be
000003f0: 9d3f 06bf 94ee 09bf b5e7 133e c4f9 71be
-0.07355742 -1.0629784 -0.1766281 0.6403512 -0.43796048 -0.7795759 -0.82674706 -0.23543113
0.26486838 -0.09314501 0.48070297 -0.14944836 -0.44096455 0.10390813 -0.08569442 -0.55670196
-1.9951719 0.0959971 -0.6251759 0.26749098 -0.7311888 -0.31351778 0.19046831 -0.129749
0.4483555 -0.6190008 -0.18789937 0.24459533 -0.22626093 -0.29484957 -0.23569638 0.31742185
-1.0930429 -0.52207166 -0.82251513 -0.29200047 -0.8671828 -0.714869 -0.5564516 -0.40551165
0.11550721 -0.15241668 -0.40542224 0.09281719 -0.48011887 -0.3464136 -1.685776 -0.8021779
-1.1531484 -0.5278891 0.06400576 0.30788508 -1.5196697 -0.059287682 -1.2464892 -0.18794705
-0.22930376 0.537092 -0.44878468 -1.4863386 -0.14346704 -0.4744326 0.63113636 -1.0355126
-1.1868846 -0.20253527 0.58276117 0.027680237 -0.16877519 -0.40135124 -0.05448354 0.50506043
0.48458922 -0.19355883 -0.050070558 -0.24542385 0.055190604 -0.28923482 -0.10957654 0.061794054
1.0453591 -0.44095856 0.51598006 -0.48380244 -0.044483364 0.1406656 -1.1100183 0.09685541
-0.047269136 -1.6909497 -1.9559045 -0.7220216 0.47644722 -0.004980858 0.16454622 -0.11603322
0.45047742 -0.033704598 -0.075916275 -0.42745808 -0.22726825 -0.6687945 0.038153343 -0.081082515
0.2660724 0.39956903 -0.20933321 -0.32159418 -0.08319699 0.9543368 0.84267336 0.2546641
-0.4605566 0.49634323 0.41247347 0.03561567 -0.2885911 0.26303256 0.47718033 -0.67030853
0.16267762 0.1927005 0.26672804 0.74254936 -0.42321426 -0.19086172 0.23885243 0.6947226
-0.13411504 0.004061083 -0.07619046 0.033769418 -0.11023368 -0.054204144 -0.010824122 0.07275276
-0.09746487 0.02199432 0.033361126 0.17363 0.024108797 0.034920532 -0.08250558 -0.2653393
-0.12111005 -0.33842653 -0.09603584 -0.09391689 -0.23072831 -0.2615067 -0.13629957 0.0776001
0.011539935 -0.2734038 0.07816934 -0.15289648 -0.054707803 -0.2282398 -0.15973018 -0.14332397
-0.21115114 -0.24653548 -0.03817644 0.13901158 0.04497212 -0.04451242 0.06809018 0.032951344
-0.13235076 -0.10683174 -0.16879901 0.036632676 -0.28396574 -0.15688404 -0.04614708 -0.04794565
-0.42274335 -0.23179224 -0.01505624 -0.061687514 -0.20088722 -0.046544936 -0.15053315 0.15556976
0.032438 -0.14460547 0.15933082 -0.054721214 0.025064709 -0.1653211 -0.015938485 -0.019647015
-0.52956986 -0.0609581 -0.28728575 0.13577503 -0.89189494 0.82562643 -0.21902792 0.010232171
0.014304662 -0.039703812 -0.21444727 -0.6009525 -0.19168128 0.34284323 0.32648176 -0.09851092
-0.49900755 -0.5601113 0.18060671 -0.16591118 0.48936948 -0.25018328 0.20757784 -0.22221081
-0.14950201 -2.4196885 -0.36731696 -1.7192261 0.43773994 -0.6003684 -0.077328905 -0.03939834
-0.030895539 -0.94269013 -0.46407327 0.21619369 0.0931003 -0.32831162 -0.15484853 0.43050388
0.14354451 0.35692188 0.021010842 -0.3036293 0.35609934 -0.8251139 -0.2192127 -0.33927295
-1.3820543 0.5124753 0.4118655 0.07623217 -1.8731253 -0.3438685 -0.30987588 -0.5417173
-0.44861776 0.650627 -0.08522057 -0.26625717 -0.52440816 -0.53879666 0.14443858 -0.23630434

l2.bias f4 [128]
00000000: 6af3 613f c6e8 2a3e 9415 773d 8412 0a3f
00000010: 5403 793f a791 b83d 15df 96be bcfe 083e
00000020: 0090 273e 784e b8bc 92e1 55bd 1962 c8be
00000030: e4b7 89bd f83f c9bd 822b d8bc b07a bdbe
00000040: fc31 0e3c 25ab 88bd ae75 90bd b665 5d3f
00000050: f166 b43e 5d57 813e 66c6 91bc 7999 513f
00000060: 0f27 0b3d 57be 29be efeb 27be 1381 e93e
00000070: 94dd f7bd 75d9 0c3e 7d46 d03e 0c3d 023f
00000080: af5a ba3d fdf7 1f3e d440 8e3e f963 43bf
00000090: 256c 06be bef5 16be d681 98be a688 14be
000000a0: 6d39 193e 7864 453d d654 2cbd 1277 ed3d
000000b0: 183a bebd 6800 4b3e 248d 8d3e 8725 3d3f
000000c0: 1266 dbbe 87cb 323f 61c6 df3d 27d8 3f3d
000000d0: e31c ef3e 56ce 1ebe df58 203e 2c9f 11bf
000000e0: 00b4 bb3e 186f 843e aa50 e03d fd7e 163e
000000f0: a0bc b8be 111e ce3e d559 02be d74b ba3d
00000100: 341a fdbb 5227 1abe 19a0 1b3d 8aff ec3e
00000110: 84ac 013e 2908 513f 025c 523d 305a b8be
00000120: d2c1 ec3d fe65 2f3f c4be ffbd b372 5cbe
00000130: 0fab aabe b288 dcbd 72f4 623e cb7e 7639
00000140: f595 113e 85c6 1e3c 6b15 1ebf 63dc 6cbd
00000150: e8c9 acbe 574f 2fbd 99ff 4dbe 1a27 ef3c
00000160: 9d89 82bd b27f 51bd cf7d 24bd 65a4 1f3f
00000170: 51e1 713f 70e6 43be 7c4a f3bc 944d 0f3e
00000180: bcc7 0d3e 2b29 713d 849b 61be 28ad 423e
00000190: c06b 463e 8953 c6bd 98ac 463d bf8d b83e
000001a0: 9dfe 143e 53ff 68be 5db5 1b3d d585 8fbd
000001b0: a3be 723e dfa8 b43e d738 20be a3a8 e5be
000001c0: d0f0 473e a0fe c63e 32c3 e53e 553d 193e
000001d0: cdf9 07be 3fb4 23be 818d 453e 3aff d8bc
000001e0: 4b4b f0bd ccd2 013e c8e5 37be 6eea 213e
000001f0: fb2a 72be 738b e7bc 1551 9d3e c28a debe
0.88262045 0.16690359 0.060323313 0.539345 0.97270703 0.09012156 -0.29467073 0.13378423
0.16363525 -0.022498354 -0.052217074 -0.39137343 -0.067245275 -0.09826654 -0.026387934 -0.37007666
0.008678909 -0.06673268 -0.070536956 0.86483324 0.35234788 0.25261965 -0.017794799 0.81874806
0.033972796 -0.16576515 -0.16398595 0.45606288 -0.121028095 0.13754828 0.40678778 0.508744
0.09099328 0.15621944 0.27783835 -0.7632442 -0.13127191 -0.1474218 -0.29786557 -0.14505252
0.14963312 0.048191518 -0.042073093 0.115949765 -0.09288424 0.19824374 0.27646744 0.7388539
-0.4285131 0.6984181 0.1092651 0.046837 0.46701726 -0.15508398 0.15658902 -0.568835
0.36660767 0.25866008 0.109528854 0.1469688 -0.3608141 0.40257314 -0.1272958 0.090964966
-0.007724071 -0.15054062 0.037994478 0.4628871 0.12663466 0.81653076 0.051357277 -0.36006308
0.11560406 0.68515 -0.124875575 -0.2152813 -0.33333632 -0.1076826 0.22163561 0.00023507622
0.1421736 0.009690885 -0.6175143 -0.057827365 -0.33747792 -0.042800274 -0.20117034 0.02919345
-0.06373904 -0.05114717 -0.040159043 0.6236022 0.9448443 -0.19130874 -0.029698603 0.13994437
0.13845724 0.05887715 -0.22031981 0.19011366 0.19377041 -0.09683902 0.048504442 0.36045644
0.14550252 -0.22753648 0.03801476 -0.07007948 0.23705535 0.35285088 -0.15646683 -0.44855222
0.19525456 0.38866138 0.44875485 0.14964803 -0.13278885 -0.15986727 0.1929226 -0.026488889
-0.11733111 0.12678069 -0.17958748 0.15812084 -0.23649208 -0.028264737 0.30725923 -0.4346524

l3.weight f4 [256, 128]
00000000: ba0a 55be ecd1 0a3f 1c46 073e 4d37 84be
00000010: 5299 803e d5e6 1cbe 896f d2be 85cb 193e
00000020: 8b8a aa3e 8eb2 96bd 159b 193e 2478 843d
00000030: d7d1 2cbf 6184 d1be 5cfd 8f3d 6c29 0b3f
00000040: c956 d33d a50f 8b3e 416f 54bf aae1 353e
00000050: 691e 54bf 71c3 4dbe 66f3 af3d 964b a0bf
00000060: e0cb f43c 1f85 3b3e 0caf 08bf ae55 4f3e
00000070: 265a a23e 69e6 df3d 9324 c93d 37c4 b4bf
00000080: 83ca fc3e e86a 333d 555a 103e 266d a3bf
00000090: 4d3c 983e ff27 31bd e790 b53e e919 cd3d
000000a0: 2aea ee3d 2bb6 ffbd bb80 eb3c 0df0 123e
000000b0: 85b2 193d 35c8 923e fc30 f1be 5223 63be
000000c0: 3523 88be ca35 e53d 8de6 9e3e 06d7 ae3e
000000d0: 3fdb 9abf 3638 aa3e 10d3 cd3d c577 9d3e
000000e0: 7e8f 263e 671f 6f3f 1d2d 073e 6d98 853e
000000f0: 1dd0 89bf f26b 663e 6167 59bd c31f 743e
00000100: 7193 d53d 63cf b03e 678b ffbe 5507 893e
00000110: b0b0 4dbe a856 c63c 402f 35be c820 43bd
00000120: acd6 843d 85e5 1dbf 4fca 2a3e 8f8a 24bd
00000130: a7f3 b0bd 35f1 07bf f34a f83d 29d2 d9bd
00000140: d57e 8cbe 50bf c9bf e8c4 983e 19bb 4ebf
00000150: 96dc cbbe 8724 a0be 40dc c6bd 06ea af3d
00000160: 6e8c 203f 841d 043f 94fc 0f3e 6229 dcbd
00000170: 905f 88bf 8e5e 24be 2fdf 263e b892 4f3e
00000180: 7d6c 973e 526d dfbe 4426 2fbf 7dea 9b3e
00000190: 5fd5 373e ee8c a23e b05a 3a3d 2fed 2c3f
000001a0: 64b3 77be b332 fbbe 74e5 8abe d9da 50be
000001b0: 6094 463e 09f0 47be cd05 1fbe a059 3c3d
000001c0: 2f14 b3be a3c0 fa3d 7a5b 53be a69f 253f
000001d0: 7702 b43d 2acf e6bd f6fc 303f ca04 69bf
000001e0: 68f4 b3be 6365 6bbf fb44 f63e 5d53 0a3d
000001f0: 0174 4ebe 662d 1ebf 0fc8 3a3e e9ab 56bf
00000200: d434 f7be 571b a7be 293b d53d 499e 45be
00000210: b502 83be ee2f a5be ae57 15bf 8c58 8c3d
00000220: f5ff 903d c28d d1be d213 d7bc ac14 03bf
00000230: 6d0e 83bd 11c9 d7be 9b74 f93d c0a6 383d
00000240: 7508 9a3e c8a5 ca3e 150c 1cbf 2b63 f8be
00000250: 6d48 0abf bb33 fc3d 54a4 0c3e fedf a3be
00000260: 62e8 51bf cadc debd 2864 b1bc 5979 dabe
00000270: 57a3 a13e d863 36be e917 de3e 8cd4 88bd
00000280: 04fe 82bd 57b5 37bd d5e0 1d3e 35e4 05bf
00000290: d471 71be 53a4 f3be df7b 2f3e 4e6a 213f
000002a0: 6dc1 933c 33bc e2bd da00 533e e030 483e
000002b0: 0c88 02be 43d0 613d 0079 c9be 43c7 6f3e
000002c0: f516 09bf b9b1 4e3e 7c67 833d a237 633d
000002d0: adc6 8fbd 8358 f6be ae1a 9bbe 1655 adbe
000002e0: 1eb6 1ebe 62c9 6bbd 6f17 a7bd 1ea7 143d
000002f0: f934 4fbf 0742 b23d c3e2 e0be 3844 413e
00000300: e53b 0dbc f00e 37bf 69ef d13d 00ec babd
00000310: aa8f 623d 6ef6 1fbd 5831 34bd eedf a9be
00000320: 75f3 103d 6682 2d3b fd68 09bf f60c 93be
00000330: 5b71 ecbe bc8b febe ac8d 0c3f 7cc7 8cbd
00000340: 062d 29be fa45 e1be 58ba cbbe 3716 38bf
00000350: 4fde af3e 6708 00be 94af 07be 8f84 a63d
00000360: 214b cd3d 9cd7 0e3e 1630 96bc 7469 8e3d
00000370: ba96 dfbe 4a76 6dbe cd70 09be b95a 503d
00000380: fd6b 953e 2f1c 21bf 28ca b9be ded7 a83e
00000390: 4535 983e 9712 363e 9796 80bd 047e 8fbe
000003a0: 2f62 26bf 0546 903d 0cc2 09bf c468 05be
000003b0: ddd1 903e 7630 243e c463 8abd 43ca 62be
000003c0: e616 283e 4f33 a6bd 01d3 53be db12 69be
000003d0: 5073 c5be 3c03 82be d18a 58be 81ee 5dbe
000003e0: 26e5 a8be ec0a f5be 28aa cf3d 53fb f13c
000003f0: dbb2 78be d374 e43d ad0e 04be 3e3a 16bf
-0.20804873 0.54226565 0.13210338 -0.2582344 0.25116974 -0.1532243 -0.4110072 0.15019043
0.33308825 -0.07358275 0.15000565 0.064682275 -0.6750769 -0.4092131 0.07030746 0.5436008
0.10319287 0.27160373 -0.8298226 0.17761865 -0.828589 -0.20094086 0.085913464 -1.2523067
0.029882371 0.183125 -0.533921 0.20247528 0.31709403 0.10932619 0.09821429 -1.412238
0.49373254 0.043803126 0.14096959 -1.2767684 0.29733506 -0.043251034 0.35462114 0.100147076
0.11665757 -0.12485918 0.028747907 0.14349385 0.037523765 0.2866837 -0.47107685 -0.22181442
-0.2658936 0.111919 0.3103527 0.34148425 -1.2098159 0.3324601 0.100500226 0.3075544
0.16265675 0.9340729 0.13200803 0.26092854 -1.0766636 0.22502115 -0.053077105 0.23840241
0.10428513 0.34533224 -0.49911043 0.26763406 -0.20086932 0.024211243 -0.17693806 -0.047638685
0.06486258 -0.61678344 0.16678737 -0.040171202 -0.08640223 -0.5310243 0.121236704 -0.10635788
-0.27440515 -1.5761509 0.29837728 -0.8075424 -0.3981673 -0.31277868 -0.09709978 0.08589558
0.6271428 0.5160754 0.14061195 -0.10750081 -1.0654163 -0.16051695 0.16296075 0.20270813
0.29574957 -0.43638092 -0.68417764 0.30452338 0.17952488 0.31748146 0.045496643 0.67549413
-0.24189526 -0.49062118 -0.27128184 -0.20395984 0.19392538 -0.1952516 -0.15529557 0.04598391
-0.34976336 0.12243774 -0.20640364 0.6469673 0.08789533 -0.11269982 0.6913599 -0.9102293
-0.35147405 -0.9195158 0.48099503 0.033770908 -0.2016144 -0.6178802 0.18240379 -0.83856064
-0.48282492 -0.32638046 0.104116745 -0.19298662 -0.25588003 -0.3226313 -0.58336914 0.068528265
0.0708007 -0.40928465 -0.026254568 -0.5120342 -0.06399236 -0.4214559 0.12180444 0.0450809
0.30084577 0.39579606 -0.60955936 -0.4851316 -0.5401676 0.12314554 0.13734561 -0.3200683
-0.81995213 -0.10881956 -0.021654204 -0.42670706 0.3156993 -0.17811525 0.43377617 -0.06681165
-0.06396106 -0.044850674 0.15417798 -0.5230134 -0.23578578 -0.47586307 0.17137097 0.63052833
0.018036569 -0.110710524 0.20605794 0.19549894 -0.1274721 0.055130254 -0.39350128 0.23415856
-0.53550655 0.20184983 0.064162225 0.055472977 -0.07020316 -0.48114404 -0.30293792 -0.33853978
-0.1549916 -0.0575651 -0.081587665 0.036292188 -0.80940205 0.08704 -0.43923005 0.1887368
-0.008620237 -0.7150717 0.10250742 -0.09127045 0.05531279 -0.039053373 -0.04399237 -0.33178657
0.03538843 0.0026475429 -0.53675824 -0.28720826 -0.46180233 -0.49715984 0.54903674 -0.06873986
-0.16521081 -0.439987 -0.39790606 -0.719089 0.34349295 -0.12503205 -0.13250571 0.08130752
0.10024095 0.13949436 -0.018333476 0.06953707 -0.43669683 -0.23189655 -0.13421936 0.05086777
0.2918395 -0.6293363 -0.36287045 0.32977194 0.2972814 0.17780529 -0.06278723 -0.2802583
-0.64993566 0.07044605 -0.5381172 -0.13028246 0.28285113 0.16034111 -0.0675731 -0.22147469
0.16414985 -0.08115255 -0.2068596 -0.22761099 -0.3856454 -0.25393093 -0.21146704 -0.21673013
-0.32987326 -0.47859895 0.101398766 0.029538786 -0.24286978 0.11155095 -0.12896223 -0.5868262

l3.bias f4 [256]
00000000: 2f20 6e3f 0094 b83d 24ac 73bf fce6 f4be
00000010: dfd6 3dbd 1a67 dcbc 22e1 e6bd bb9e 7fbe
00000020: 8854 b1be f867 103e 7f1d a03c f3a3 123e
00000030: 8ce2 0e3d e1b1 de3e f3d0 6abf b6d8 22be
00000040: b0c3 4ebf b2bb b0be a63b 25bf 4d86 94be
00000050: 4b67 80bd aa29 5abe 1335 78be afa5 b63e
00000060: e984 503e 5f3b 27bf ab13 66bf c6e0 193f
00000070: 6cd7 023f 17e8 21be e1a9 183f 4f68 b23d
00000080: 4bd8 febe 8e37 9e3d c003 b6bf dff8 e6bd
00000090: 58cd 33bf 6402 c33e 7612 a93e 3c77 77bf
000000a0: 57e5 afbd ef06 9b3e df13 0f3e 5463 023e
000000b0: 0f42 2f3e d0aa c23d 920c d3bd ad51 163f
000000c0: d7ed 383d dd7c 81bd 9f3a 3d3e 5745 b93d
000000d0: 86b1 2e3e 148e fe3d ff35 413d 2c31 8d3e
000000e0: 1131 043f a888 ad3e 8887 ce3e d05b 4b3f
000000f0: 8385 953e 3908 cbbc 810f 83bf 38c0 bdbc
00000100: b5dd 9d3d 98b0 59bf 2923 c0be 6dc5 0abf
00000110: 1428 b63d bce9 b63e e999 59bf f428 06be
00000120: a477 103f f9c8 083f 4f8b 28bd d8b2 463f
00000130: 7221 e83e 9456 813f 862c 993e eb5c eabe
00000140: 652e e4be 8f0d 093d 8fb7 213f 7b86 e93e
00000150: c20e 15bf 6f98 373e f40a 0b3e 2e12 853f
00000160: 70d5 6b3f 8e8d 563f 5027 c13e 6f82 3abe
00000170: a869 c7bd 9543 993e 328a 49be fb86 bc3e
00000180: ec05 8cbe 4a8f 6d3e d208 e43e 1eb7 e53e
00000190: a807 cfbe cdf0 563f 40ea 4c3e b288 5cbe
000001a0: f215 a0be d67e b23d 2549 6d3f c6b7 0c3f
000001b0: 6db6 843e 89bc 473e 54a4 4f3f 02ed 023f
000001c0: 47a4 44be 916c 943e c866 c83d 7f24 23be
000001d0: f23c 11bf 59ea da3d fb01 f73d bf95 bf3e
000001e0: 35f0 1c3e 0887 333f 09ec d03d 4eb6 5c3f
000001f0: 3d37 3c3e 9d89 1b3f ef72 b73d fca1 8c3d
00000200: 7937 40bd ad40 04bf 94b5 88be 4023 b7be
00000210: c7da 24bd 468a a7be 064f 9b3f e2f9 653e
00000220: a12c d03d d46b 0b3f 1694 16be 349e 5fbe
00000230: 8113 dc3b e77f 23be 312d cebc 1b76 903d
00000240: 8e1d 1abf 67f1 27be 6179 92bd 7891 313d
00000250: b20e 68bf 5680 383e 6eb7 9d3d 8d9d b03e
00000260: 61fb ce3e dfaa 3c3e e6ab 053f 173d 313e
00000270: 8d66 183e ef5b 26be 76d7 9dbf 5fc3 3a3e
00000280: 5656 99be c449 3c3f 481f 3dbf d501 8c3d
00000290: 0fdc bfbe 1d3e 993d b7cb 493d b417 033f
000002a0: afa9 c23e b2ec a43f e675 94bf 448a 8e3e
000002b0: 6ca3 923e feff 263e 32b2 a13e b372 09be
000002c0: f4fe 8c3d b5fe 8bbf 34aa 7ebd eddc 84bd
000002d0: a2ac 2bbf e556 153f 0500 0bbd d22a 683f
000002e0: 638a 4b3f 992c 58bf b879 c13e 89fe cfbd
000002f0: a113 25bd 69e8 cebe 51d0 86bd 59ff 4f3f
00000300: 4db1 95be 2e2b 2b3e 3ab0 b5bb fd84 273f
00000310: 025c bb3e 2117 c5bd cf51 bcbd 9a4d 0bbc
00000320: 8599 19be 701c 3bbf 86f0 a13e c660 9e3f
00000330: e740 643e 17b0 22bd 8896 bfbe b5dd 1d3e
00000340: e0d8 303e 0347 8f3e c16a 033e d213 1e3f
00000350: ba7e 63bf 1ed1 a63d fb6f f33e da7a 2b3f
00000360: 8551 8cbd f34e 073f b39f c2bd fd42 07bf
00000370: 0540 913e 201f ccbd fb4a 09bf c257 f63e
00000380: c6d6 ad3d 61a0 5d3e 35be fa3c b878 32bf
00000390: 4a5b e53a 5e05 17be cd2f 983d 671c 3e3f
000003a0: 51b0 583f 2215 7abf ac84 81bd be59 97bc
000003b0: da6a 6bbd 832e 663f 7f12 a6be 9f4f a0be
000003c0: 8fa7 b53d 10b2 c63e fe8a 14bf 02cc b03e
000003d0: 5b45 913c 3900 44bf aea6 1b3f 640e f63e
000003e0: c779 063f 9eb5 653d 5197 d83d 6d60 d93e
000003f0: de5f 24bd 5120 573c fc92 223f 4197 453d
0.9301786 0.09012604 -0.9518454 -0.47832477 -0.046347495 -0.026904631 -0.112734094 -0.24962895
-0.34634805 0.14102161 0.019545315 0.14320354 0.03488402 0.43495086 -0.9172508 -0.15902981
-0.80767345 -0.345182 -0.6454414 -0.29008713 -0.062697016 -0.21304956 -0.24238996 0.35673282
0.20363201 -0.6532497 -0.8987376 0.601086 0.5110996 -0.15811191 0.59634215 0.087113015
-0.49774393 0.0772544 -1.4219894 -0.11277937 -0.70235205 0.3808776 0.33021897 -0.9666631
-0.08588665 0.30278727 0.13972424 0.12733203 0.17115043 0.09505236 -0.10305132 0.5871838
0.045148697 -0.06322644 0.18479393 0.09046429 0.17059907 0.12429443 0.047170635 0.27576578
0.5163737 0.33893323 0.40337777 0.7943697 0.29203424 -0.024784194 -1.0239106 -0.023162946
0.07708303 -0.85035086 -0.37526825 -0.542075 0.08894363 0.357252 -0.85000473 -0.1310156
0.5643256 0.5343166 -0.04114848 0.77616644 0.45338017 1.0104547 0.2991678 -0.45774016
-0.44566646 0.033460196 0.63170713 0.45610413 -0.58225644 0.17929243 0.13578397 1.0396173
0.92122555 0.83809745 0.37725306 -0.18213819 -0.09736949 0.29934373 -0.19681624 0.36821732
-0.27348268 0.23199192 0.4453798 0.4486627 -0.4043553 0.8396118 0.20011234 -0.2153652
-0.31266743 0.08715598 0.92689735 0.54967916 0.2592043 0.19505514 0.8111012 0.51142895
-0.19203292 0.2898908 0.09785229 -0.15931891 -0.5673362 0.106892295 0.120609246 0.37418935
0.15326007 0.70127916 0.1020127 0.86215675 0.18380447 0.60756856 0.08957469 0.068668336
-0.046927903 -0.5166119 -0.26701033 -0.3576908 -0.040247705 -0.32722682 1.2133491 0.22458604
0.10164762 0.5446141 -0.14704928 -0.21837693 0.0067161922 -0.1596676 -0.025168033 0.07053777
-0.60201347 -0.16400681 -0.071520574 0.04335162 -0.90647423 0.18017706 0.07701002 0.34495202
0.40426162 0.18424557 0.5221542 0.1730846 0.1488287 -0.16246007 -1.2331378 0.1823859
-0.29948682 0.7355006 -0.73875856 0.06836287 -0.3747258 0.0748255 0.049266543 0.51208043
0.38020083 1.2884734 -1.159848 0.27839863 0.28640306 0.16308591 0.31581265 -0.1342266
0.06884566 -1.0937105 -0.062174037 -0.06487451 -0.6706029 0.58335716 -0.033935566 0.9069034
0.79508036 -0.8444305 0.37788177 -0.101559706 -0.040301923 -0.4041169 -0.06582702 0.81249005
-0.29236832 0.1671569 -0.0055446895 0.654373 0.36593634 -0.09623552 -0.09195291 -0.008502388
-0.1499997 -0.7309027 0.31628817 1.2373283 0.22290383 -0.039718714 -0.37419534 0.15416606
0.17270231 0.27983865 0.12833692 0.61748993 -0.88865244 0.08145355 0.47546372 0.6698433
-0.06851486 0.5285484 -0.095031165 -0.5283659 0.28369156 -0.09966874 -0.53630036 0.4811383
0.084882304 0.21643211 0.030608276 -0.6971545 0.001749852 -0.14748141 0.07430992 0.7426209
0.8464404 -0.97688496 -0.06324133 -0.01847541 -0.05747495 0.8991472 -0.32435986 -0.31310746
0.0886985 0.38807726 -0.58024585 0.34530646 0.017733267 -0.7656284 0.6080121 0.48057854
0.5252957 0.056081407 0.10575736 0.4245638 -0.04013049 0.013130263 0.6350553 0.04823995

l4.weight f4 [1, 256]
00000000: 564b 23bf 8134 4abe 38dd cd3e 7c5a 813f
00000010: d6ab 11bf 83b6 f7be 5c37 fe3f a44f f83f
00000020: 1dc9 1f3f b5f7 c4bf fea9 93bf 7b67 f83e
00000030: 7573 9dbe c832 a8bf 3296 0040 1d09 8dbf
00000040: fde4 053f bf9b 0c3f f621 9c3f 5d28 8dbf
00000050: 17fd 1240 a6ef a03f b1c6 c13f 91fd 223f
00000060: 7943 57bf 1200 d33f 4560 953f e6cb d5be
00000070: b098 103f 05b1 93bf e854 e5bf c27e e0be
00000080: e4d7 733f ad73 0840 b814 cb3f 82ca 2b3f
00000090: b58b 1a40 23b5 5e3f e862 45bf 2d46 1a3f
000000a0: f521 9cbf f8e7 603f 7ce9 83bf 96c3 25bf
000000b0: 7bb6 61bf 173e 35bf 80b7 49bf 959b 9bbe
000000c0: 63a5 f1be 3143 d9bf f4e5 0cbf cf0b b7be
000000d0: d3fb f3be ec28 f0be 0a1e ddbf f24a c1bf
000000e0: 531b 8ebf 7fa4 4d3f 7821 4cbf 4345 f43f
000000f0: 7eff 933e e492 0bbe 2d2e 5e3f 4555 9bbe
00000100: a75d 30bf ab9b ab3f 85b3 9d3f 0f7b b23f
00000110: f50b bbbf 3232 2c3f 4374 e83f 107d babf
00000120: 6f30 3abf faff a3bf 05aa 1040 df3a 3ebf
00000130: b434 833f ebfd 72bf e34d 3f3e 6a64 8abf
00000140: 08a5 ef3f cdf3 42bf 99de 65bf 05f8 83bf
00000150: f05a 373f 22bd 6cbf 5e47 25bf c958 6bbe
00000160: 190f efbe bb67 b9be 621a ebbe 3ff5 b23f
00000170: e447 f2be 9939 d5bf c664 a7be f21d f3be
00000180: bb7d 12bf 516b d7bf aa76 f4be 4175 07bf
00000190: b35e e33f e162 b2be d4d3 02bf d0f0 c73f
000001a0: 23cb 673f 94a1 9a3e 781b c2be e6d1 e1be
000001b0: cffd 0d3f 8f81 9b3e 1315 15bf 5413 143f
000001c0: bf83 78be 383b 163f 7cc0 093f 04a8 0840
000001d0: 4241 16c0 edec 123f 30d1 ad3f abce 7dbe
000001e0: b799 b9be de09 10bf 9640 26bf 583d 8bbe
000001f0: 2145 3c3f 4202 62bf 4ce2 8dbe 9cdc 09bf
00000200: df1a bbbe 07f7 313f 4b41 25bf 448a 0e40
00000210: 7932 debe 3f0b a23f 979d 23bf 05ab 94bf
00000220: 36d2 21bf 621a ebbe 75f5 983d b71b 443f
00000230: 148b 0bbf e04a cc3d 28be 083f 3828 033f
00000240: 76f9 2840 afdd 393f d55f 9bbf f328 ed3f
00000250: 794d 4d3f d5ba 9f3e 702f 3cbf 8c66 623f
00000260: eef3 223f 437f 7bbf 5af3 c1be eddc 1dbf
00000270: c4e9 1040 8eed 21bf 9b3b f63f c104 53be
00000280: 0790 3e3f 8b74 5ebf d6e2 a53f 7215 d1be
00000290: 32be d13f 16f8 2fbe ee7a 9b3e 2995 333f
000002a0: 9d6c 29bf 8033 2fbf 045c 843f 7677 adbe
000002b0: cb97 00bf 6df5 1bbf 2f15 54bf a4de 1bbf
000002c0: 201e 48be 0837 b83f 5fd6 bb3f 5901 d53f
000002d0: aec9 753f 0158 5bbf 1668 2ebf 5fce b4be
000002e0: 009e 6abf 4a2b 6a3f c67b 9a3f 8715 2fbf
000002f0: 7057 28bf a8f8 44be 25aa 793f 9852 b7be
00000300: 8f6c aa3f eba7 f83e c9ef 0d3f 39d4 d4bf
00000310: c418 323e 7909 50bf fc11 8bbf dcf0 993f
00000320: 2919 4a3f b25f 67bf 1974 5ebf 9a80 2dbf
00000330: 9070 a63e 6000 4ebe 2e8e a73f c7ea 32bf
00000340: 6a6f 393f ae8f 273f db6d e9be 642f 553f
00000350: c629 9c3f 7793 39bf 3058 49bf b4d8 353f
00000360: 3ebb a6bf 2c7f 0e3f b8ca c73e 3f45 a93f
00000370: cb9f 7dbf 36ce 91bf 3ac2 80bf 93b9 a0bf
00000380: 4d10 97be 08eb 4cbf 1e34 8dbf f2a5 6d3f
00000390: d7d2 b0be 4931 53bf bea9 abbe 581b c0be
000003a0: e7bc b6bf d50b 803f d26f d0bf 6761 bf3e
000003b0: ad5a 88bf 49be 59be 9a68 e2bf 612f 9dbf
000003c0: e6bd a1bd 7d6c 17bf 9cb0 08c0 9786 1d3f
000003d0: 3fc0 a73e eef5 9d3f afc5 02bf 0e60 f73e
000003e0: f002 033f 9077 6b3f 295a d4be a753 a3bf
000003f0: 81c3 73bf 9727 bfbe f172 d93e db3f eebe
-0.6378683 -0.19746591 0.4020784 1.0105739 -0.56902826 -0.48381433 1.9860644 1.9399304
0.6241625 -1.5388094 -1.1536252 0.4851645 -0.3075215 -1.3140497 2.0091672 -1.1018406
0.52302533 0.5492515 1.2197864 -1.1027943 2.2966974 1.2573135 1.5138761 0.6366816
-0.8408733 1.6484396 1.1670004 -0.41757125 0.5648298 -1.1538397 -1.7916536 -0.4384671
0.952513 2.1320603 1.5865698 0.6710588 2.414777 0.8699514 -0.77104044 0.6026333
-1.2197863 0.87853956 -1.0305629 -0.64751565 -0.8816907 -0.70797867 -0.78795624 -0.30392137
-0.47196493 -1.697363 -0.5503838 -0.35751197 -0.47653064 -0.4690622 -1.7274792 -1.5100996
-1.1102089 0.80329126 -0.7973857 1.9083637 0.28905863 -0.13630253 0.8678921 -0.30338493
-0.688929 1.3406881 1.232041 1.3943805 -1.4613024 0.6726409 1.816048 -1.4569416
-0.72730154 -1.2812493 2.2603772 -0.7430858 1.0250459 -0.949187 0.18682055 -1.0811894
1.8722239 -0.7615326 -0.8979278 -1.0310065 0.71623135 -0.92476094 -0.6456202 -0.22983088
-0.46691206 -0.36211953 -0.45918566 1.3981093 -0.47320473 -1.6658202 -0.32694072 -0.47483784
-0.572231 -1.6829625 -0.47746783 -0.5291329 1.7763275 -0.34841064 -0.51104474 1.5620365
0.9054434 0.302014 -0.37911582 -0.44105452 0.55465406 0.30372283 -0.5823528 0.5784199
-0.24269007 0.5868411 0.5380933 2.1352549 -2.347733 0.5739277 1.3579464 -0.24785869
-0.36250088 -0.56265056 -0.649423 -0.2719524 0.7354298 -0.88284695 -0.27711713 -0.5385225
-0.3654394 0.6951756 -0.64552754 2.227189 -0.43397883 1.2659682 -0.6391234 -1.1614691
-0.6321138 -0.45918566 0.07468692 0.7660479 -0.5450909 0.09975219 0.53415155 0.51233244
2.640226 0.7260389 -1.2138621 1.8528122 0.8019634 0.3119723 -0.73509884 0.88437724
0.6365346 -0.9824106 -0.37880975 -0.6166523 2.264268 -0.63253105 1.923694 -0.20607282
0.7443852 -0.8689658 1.295985 -0.40836674 1.6386168 -0.17184481 0.30367225 0.70149475
-0.66181356 -0.6843796 1.0340581 -0.33880204 -0.5023162 -0.60921365 -0.82844824 -0.608866
-0.19542742 1.4391794 1.4674796 1.6641036 0.96010864 -0.8568116 -0.6812757 -0.353137
-0.9164734 0.91472304 1.2069023 -0.68392223 -0.6575842 -0.1923548 0.97525245 -0.35805202
1.331438 0.4856561 0.5544401 -1.6627265 0.1739226 -0.81264454 -1.0864863 1.202663
0.7894464 -0.90380394 -0.868959 -0.67774355 0.32507753 -0.2011733 1.3090265 -0.6988949
0.7243563 0.6545361 -0.45591626 0.8327544 1.2200248 -0.7249064 -0.7865019 0.7103379
-1.3025892 0.556628 0.3902185 1.3224257 -0.9907195 -1.1391056 -1.0059273 -1.2556633
-0.29504624 -0.8004613 -1.103153 0.9283134 -0.34535858 -0.8249708 -0.3352794 -0.37520862
-1.4276398 1.0003611 -1.6284125 0.37379 -1.0652672 -0.21263994 -1.7688172 -1.2280084
-0.078975484 -0.59149915 -2.1357794 0.6153349 0.3276386 1.2340677 -0.5108289 0.4831547
0.5117636 0.9197931 -0.41475037 -1.2759904 -0.9522019 -0.37334892 0.42470506 -0.46533093
