preTrained/DeepTD3_BipedalWalkerHardcore-v3_0_crtic_2.pth (torch_old, 175167 bytes, 7 tensors)

l1.weight f4 [64, 28]
00000000: 9e4a ee3f 9c8e 9540 d177 c3bf f894 743e
00000010: a84e 60bd aaa6 ab3e 70de 1b3d 6770 a83d
00000020: 952a ddbe 7b47 9e3e 88b9 d1bc 7363 11bf
00000030: 13b5 acbc 9683 ad3d e6da 533e 4d3b e93e
00000040: a970 213e 1516 4fbe 7559 40be c5ba 24be
00000050: b3bd 873d 1a19 9abd d9bd d5be 3d02 febd
00000060: eb28 8f3c b10d a4bd 9f5b 4c3e 70fe ab3d
00000070: 82c1 173f ce91 f63f 2740 7c3d 0eb7 40bf
00000080: 34db 0abd d426 d6bd ef72 3fbe 2113 2fbe
00000090: 1c7e 7abe cb36 573f 5fc8 423f ab53 493f
000000a0: cf6f a03e d5fb dcbc ce75 4cbe 4b1a f5be
000000b0: e192 50be 6329 153f 62e6 823f 49b4 8d3f
000000c0: 5e1d 253f f7f9 d7be 581a 0abf d6f5 18bf
000000d0: 2eec 96bd a0b5 da3d 54df f73d 57c8 583d
000000e0: 2154 1f3f 5e09 1540 9141 0ac0 97a5 d6be
000000f0: e249 c13d 0ad2 03bf 04d8 92be 0076 9ebd
00000100: 0eac b2be cbaa 433f f272 b33e 1809 9f3d
00000110: 047a 0d3e 27df 3cbe 2cc4 4b3f 03b1 1b3f
00000120: 2b7f 0b3e 16c9 fe3e 68c2 333e e951 50be
00000130: a028 a6be 087e c7be 3c51 2ebe cbbc c2be
00000140: 5589 a4bd 88c5 edbc da18 d13d 11ca 943d
00000150: 9f31 2fbf f102 d73c 83d6 35bf db24 44bf
00000160: 5a9b 9b3e 0653 71be ce9e 973c 96d2 99bd
00000170: 1649 56be b418 903e d1a9 603e 2be4 ad3e
00000180: d6d7 a73d 86ee 01be b92d 043f 358f 173f
00000190: fbf6 1f3f 0bd6 94be 8c33 48bf a8c7 85bf
000001a0: 77c9 c8be 5a82 51bd 2140 a53e 1b9f 053f
000001b0: b6df c3bd 9b1b 3a3d c9e7 ad3d 2dc4 3dbd
000001c0: ec25 de3f 6bf7 3b3f 74aa 24bf e39a 51bf
000001d0: b85f 3e3e 4c74 03be 3d89 f83e b2a7 89bd
000001e0: de5f 133d 24ae 903f b789 a73e 49fb fb3e
000001f0: fff3 8f3d 9c29 6d3d c7ee 213f 1863 a83e
00000200: 3a8c c4bd 1856 96be 4011 febe 4013 42bf
00000210: 5fb5 2cbf 8579 a0bd 31d0 563f d2ea 4b3e
00000220: 843d e9bd 73ad 323c cd73 8e3d e823 5bbd
00000230: 633d 6a3f a9b7 ffbf 4c77 0140 2cc4 1440
00000240: bc7b 6dbc c502 c0bd bccf 8fbe 39fd 92bd
00000250: 0f77 383e 68b3 bc3e 5b48 d3bd 7540 8b3e
00000260: 5286 e7bc 5ecc 153d 06ab b4be 5edd dabd
00000270: c75d e03e 6798 fc3e 5822 173f fcab 96be
00000280: d89f 02bf 3318 adbe b7dc 2ebf 917a 19bd
00000290: 3ee8 153c 4c2c 393d 59f2 5b3c 109e 313b
000002a0: fba4 9bbe 6c5d ca3e 77cd 3a3e d55e ea3d
000002b0: 5cca 013f 104e b73d b9c1 973e 0eea 8bbd
000002c0: fb40 a4be 5744 5fbe 157f 223e ee9c 673e
000002d0: 1a8d d43d bd37 31be 9957 bfbe 6771 2fbe
000002e0: 88b5 90be 364f d4bd f753 07bf 873e 1bbf
000002f0: 90b6 07bf 8e5b 13bf 6434 72be ea6f 643e
00000300: 6c48 5ebd 04a7 4e3c a4d7 81bc 8257 9a3d
00000310: 9996 a6bf 8137 5cbf 8f9b cf3e 15ca 173f
00000320: 7c68 8abe 8e8c 9f3d c9e9 02bf bdd4 453e
00000330: 02ee 013e 0d44 b9be f56b 5bbe 05ab 2f3e
00000340: b3a1 0a3e 61ae 90bd 4b7f 6dbf d922 7ebf
00000350: a37f 6ebf 1eab cfbe fe45 073e 4524 3cbe
00000360: a06e a7bd 128f 27be d3b3 a2bd 223e 273f
00000370: 0376 04bb 0785 963c ed2d 0ebd 0f94 6abd
00000380: 133c 073f f95d 83c0 2c81 25bc 313e e640
00000390: 0cbf 083c 9a2d 37be ecbc 19bf 9844 9dbd
000003a0: 68f4 663d 5bb8 ef3d cdfc 943d 0d70 2c3e
000003b0: 83aa 19bd 8ec7 e03d 742c c1be e4be a8be
000003c0: 36ec fc3d 8990 1cbb 4270 143e f068 433e
000003d0: 6472 11bd b3a3 c43e d9d6 bc3e 89ec 06bd
000003e0: 957d 863a fb19 c4bb 134e 8ebc fd99 8cbc
000003f0: e00f 30be 0b9e 09bf fd98 b83e 7b76 13bf
1.8616521 4.6736584 -1.527094 0.23884952 -0.054762512 0.33525592 0.03805393 0.08224564
-0.4319655 0.3091391 -0.025601164 -0.5679237 -0.021082437 0.08472364 0.20688972 0.45553055
0.15765633 -0.20223267 -0.18784125 -0.16086872 0.06627979 -0.07524319 -0.41746405 -0.12402771
0.017475566 -0.08010424 0.19956826 0.083981395 0.59279644 1.9263246 0.061584618 -0.7527932
-0.033900455 -0.104566246 -0.18696187 -0.17097141 -0.2446217 0.8406798 0.7608699 0.7864329
0.31335303 -0.026975552 -0.19966814 -0.47871622 -0.2036853 0.58266276 1.0226557 1.1070644
0.64497936 -0.42182896 -0.5394645 -0.59750116 -0.073692665 0.106791735 0.12103143 0.052925434
0.62237746 2.3286967 -2.1602519 -0.4192321 0.0943792 -0.5149237 -0.28680432 -0.077373505
-0.34896892 0.76432484 0.35048634 0.07765406 0.13816077 -0.18444501 0.7959621 0.60816973
0.1362273 0.4976279 0.17554629 -0.20343746 -0.3245287 -0.38963342 -0.17023176 -0.38034663
-0.080340065 -0.029024854 0.10209818 0.072651036 -0.6843509 0.02624652 -0.71030444 -0.76618737
0.3039196 -0.23566827 0.018508341 -0.07510869 -0.20926318 0.28143847 0.2193978 0.3396314
0.08195464 -0.12688646 0.5163227 0.5920289 0.6248624 -0.29069552 -0.78203654 -1.0451555
-0.39216205 -0.051149704 0.3227549 0.521959 -0.09564154 0.045436483 0.08491475 -0.046329666
1.7355323 0.73424405 -0.6432259 -0.81876963 0.18591201 -0.12837332 0.48542204 -0.067214385
0.035980098 1.1303144 0.32722256 0.49215153 0.070289604 0.05790101 0.6325497 0.32888103
-0.095970586 -0.2936256 -0.49622536 -0.75810623 -0.6746425 -0.07835678 0.83911425 0.19913796
-0.11388686 0.010905611 0.06955681 -0.05350104 0.9149992 -1.9977924 2.0229063 2.3244734
-0.014494833 -0.09375528 -0.28088176 -0.07177205 0.18014167 0.36855626 -0.10316535 0.27197614
-0.028262291 0.036571853 -0.3528673 -0.10686754 0.43821546 0.49335024 0.5903678 -0.2942809
-0.5102515 -0.33807525 -0.68305534 -0.037470404 0.009149609 0.04520826 0.013424479 0.002710227
-0.30399308 0.395244 0.18242441 0.11443869 0.506994 0.08950436 0.29639986 -0.06831752
-0.32080826 -0.21803413 0.1586879 0.22618458 0.103784755 -0.17306419 -0.3737152 -0.17133103
-0.28263497 -0.10366671 -0.52862495 -0.60642284 -0.53012943 -0.57561576 -0.23652798 0.22308317
-0.054268286 0.012613062 -0.015849896 0.07536222 -1.3014709 -0.8602219 0.4054837 0.5929273
-0.2703284 0.077904806 -0.5113798 0.19319434 0.12688449 -0.3618473 -0.21427901 0.17155083
0.13538246 -0.0706451 -0.9277236 -0.99271923 -0.9316351 -0.4056024 0.13210294 -0.1837321
-0.08175397 -0.1636317 -0.07944455 0.6532918 -0.0020211942 0.01837398 -0.034711767 -0.057270106
0.5282604 -4.1052213 -0.010101598 7.1950917 0.00834633 -0.1788849 -0.60053897 -0.07679099
0.056385428 0.11705085 0.072747804 0.16839619 -0.03751613 0.10975562 -0.37729228 -0.32958138
0.12349741 -0.002388986 0.14495948 0.19082999 -0.035509482 0.38406143 0.36882666 -0.03294042
0.0010260815 -0.0059845424 -0.017371213 -0.017163271 -0.17193556 -0.5375678 0.3605422 -0.5760266

l1.bias f4 [64]
00000000: 661a eabe 8641 a0bd bd1e 5cbe 5519 34bd
00000010: fc38 1fbf ee0b 383e 344b f63d f013 393f
00000020: 9430 95be 6240 07bc bb1e 04bf d67b e83d
00000030: cc48 10be d68c 66be b478 19bf fbd5 99bd
00000040: 9968 aabe 2018 043e e2d3 0e3f a7c4 f0be
00000050: ddc5 23bf 2340 823e a09c ce3e 3350 cbbe
00000060: f419 063d 36fa 903d 8731 2dbf ac40 953e
00000070: 6aa8 813e 5d5d 48be fb96 713a 3fe3 07be
00000080: ee39 cbbe 8e01 febe 8bbf bc3e eca4 6ebd
00000090: 87e6 e2be 0db7 003e 9a1a cb3e d60f 503f
000000a0: 0830 a53e 3a56 79be 4dea cf3d 0fd9 a43e
000000b0: 1d2e 20bf 1c15 5d3f 3bb2 e8bd 7e4c 82bd
000000c0: 39ef 32bf a5ae 69be 566e 8b3e f0ee 6abe
000000d0: c8af a33e 0556 f0be 1923 8abf 6157 75bf
000000e0: 7050 413f 3322 a2be f72f e5bd c54d aabe
000000f0: 18e1 d83a 643d bbbe 6ddf 633d 6cbc 1f3e
-0.45723265 -0.078249976 -0.214961 -0.04396947 -0.62196326 0.17973301 0.120260626 0.7229605
-0.29138625 -0.008255096 -0.5160939 0.11351745 -0.1409027 -0.22514662 -0.59949803 -0.07511517
-0.33282927 0.12899828 0.5579206 -0.47025034 -0.6397379 0.25439557 0.4035387 -0.39709625
0.032739595 0.07078974 -0.676537 0.29150903 0.25323802 -0.19566865 0.0009215918 -0.13270281
-0.39692634 -0.4961056 0.36864886 -0.05826275 -0.44316503 0.12569828 0.39668733 0.81274164
0.32263207 -0.24349299 0.10152111 0.32196853 -0.62570363 0.86360335 -0.1136212 -0.06362246
-0.69896275 -0.22820528 0.27232617 -0.2294271 0.31970048 -0.46940628 -1.0791961 -0.95836455
0.7551336 -0.31666717 -0.11190789 -0.33262458 0.0016546575 -0.36570275 0.055632997 0.15599221

l2.weight f4 [128, 64]
00000000: 7a9f f5be 5e9e 42be ebb5 1abf ecc7 00bf
00000010: 03ab 78be ab3d 1b3c e296 19bb 586e bcbe
00000020: 2179 b9bd dcd9 8a3e 05f7 f0be 7fd5 f3be
00000030: 7edc 2c3e 5fd3 533e a51b 503e 8ae2 fdbe
00000040: cf26 09be 4c69 da3d 4bd4 efbb 959b 21be
00000050: 6a6a 213e acb7 4abf 241c f43c 8698 613e
00000060: 3586 73bf 64d1 b7be a37d ddbe 454e f53d
00000070: 06ec 2e3d 8dc7 e83d eabf acbe da5f b4bd
00000080: d500 5fbe 6dd4 afbe d730 9dbe e1da 05bf
00000090: 48ef 46bf 3d8f 493e bd55 bcbe e4b1 15bf
000000a0: 86bb a6be a93e debe 43b6 06bf 4e6d 9bbd
000000b0: 9320 d9be 71e0 18bf 2e32 ff3c 5426 83be
000000c0: b174 22be e89b 8a3d bb73 113c 8522 88be
000000d0: cf22 8abe 085f 57be 3e60 1bbe dc72 1a3f
000000e0: 40d0 47be 8a65 c3be 6edc dbbd 7bb4 dfbe
000000f0: 9882 2dbf 3c24 97bd 5c3e ffbe 5f5d 0e3d
00000100: 0b9a 133f 869b 2cbe 45b8 973d 9720 4ebc
00000110: 6125 86be f98c 66bb 29ad e13d 07c9 8ebe
00000120: 3637 acbe 1505 13bd f067 0c3e aa1d f1bd
00000130: 0020 3a3e 2168 41be 0f8a 9e3c b210 083e
00000140: 83c3 7f3d 64f8 e33c 05c1 3abe d944 b8be
00000150: 794b c43c 0bd3 b5be 8f40 8bbd 87dd ea3d
00000160: bb88 8fbe 8a6f dfbe 21ec 38be 065e 9b3e
00000170: bf0a 053d 5341 833e 051d d23d 8dc4 50be
00000180: 9e0a 64be 9c30 65be eadd 17bc 9c3f cabe
00000190: cb6f d4bc 3c61 d73c c8b2 3f3d bfeb 51be
000001a0: 8642 57be b4fd dabd dfa8 42be 8a82 b1be
000001b0: 9bee e13d d2d7 dabe dba3 663c 7977 923d
000001c0: 1ca1 d5bd 09ef a5be 6c60 883e e0b6 573e
000001d0: d54a bcbe 5c41 45bd 030b fa3d 269e 08bf
000001e0: 7c3b a9be d42d 06bf 8468 32be b08c 89be
000001f0: 7d30 b9be 66dc febd d156 27be 0cfb ad3c
00000200: 9e1c d93d 57e7 4fbf 9730 a2bf c367 4b3e
00000210: 736c 76bf c6c8 14be 64cd 98be 5a99 023c
00000220: ae7e ec3d 515d d53e cd9e 6ebe 7317 153e
00000230: 4767 263e 41ea 80be b540 2dbf a48a 9e3e
00000240: 4d6b b13e 6a18 573d f1a0 013f ea32 853e
00000250: b310 52bf b3bd b73e 3778 adbf 0016 b43d
00000260: c0d5 84bf 77a7 19be 03ff 73be ac33 50be
00000270: 802e 113e fe35 823e 1103 2a3f 7f8d a63e
00000280: d96f 1fbf ce57 69bf f020 953e 2f9e 84bf
00000290: 133b 65bf 68a3 5e3e 1c83 c1bd b076 d13b
000002a0: fd70 69ba 7fae 2bbf ae9d 34bf 5c5d ddbd
000002b0: b6a8 39bf 817e 0c3f 79e8 ce38 954d 16bf
000002c0: 269a a9bf 48eb 02bf b7ba ef3e cfc1 bf3e
000002d0: b492 47be 4462 983d b921 f73e c89b d8be
000002e0: adc5 54bd f2a0 c33e 0d91 4cbf 7e81 e3bf
000002f0: 30c2 1cbf 789b 0e3f f2d1 3e3f 7f7a 9d3d
00000300: 00e0 1cbd 331c 18bd 70c3 1cbf 5b8b abbe
00000310: c142 c1be 1768 dbbd d94c 52be a0b2 cc3b
00000320: a6c4 18bd aeb1 18be a9af b93e 9c9b 3b3e
00000330: d317 b7bc 944f 5ebe fb62 b4bc b625 0f3d
00000340: 6850 403c 77ee ce3e fb0f a3be fc55 563d
00000350: 6b31 273f bef3 40bf d35c 8dbe 98e7 00be
00000360: 7282 25be 5aa1 a6be 4f0d 5ebd 2a9d efbe
00000370: 98d4 553e 6fba f33e 4550 fbbe de64 393f
00000380: 1cf7 6a3e 7d17 abbe ee87 4ebe 4dc3 973e
00000390: 0c9e 2abe 216b 8dbe 38ea 1bbe 1153 53bf
000003a0: 33ba 08bf 29ef 013f dddc 29bf 118c 9b3d
000003b0: d4b6 bbbe 08f7 a9bd a407 813d 0672 0e3f
000003c0: 28eb 003e a5a1 20bf ec25 643d 87a9 a9be
000003d0: 9199 f5be e662 82bd b3ad 6fbe ce2f 86bd
000003e0: c6dd 31bf 2dc4 e93e f64b f3be 1d98 663d
000003f0: 0723 25bf 3712 76be 5a2b 80be 8327 40bf
-0.47973233 -0.19005725 -0.60433835 -0.50305057 -0.24283986 0.009475152 -0.002343588 -0.36802936
-0.09056307 0.2711934 -0.4706346 -0.47623822 0.16880986 0.206861 0.20323046 -0.49586898
-0.1339371 0.10664615 -0.0073190085 -0.15782006 0.1576325 -0.7918651 0.029798575 0.2203084
-0.9512666 -0.3590194 -0.43259916 0.11977819 0.04270556 0.11366186 -0.3374017 -0.08807345
-0.21777661 -0.34341756 -0.30701324 -0.5228711 -0.77708864 0.19683547 -0.36784163 -0.58474565
-0.32564944 -0.4340718 -0.5262186 -0.075892076 -0.42407665 -0.5971747 0.031151857 -0.2561518
-0.15864827 0.06768018 0.00887769 -0.26588836 -0.26979682 -0.21032345 -0.15173432 0.6033151
-0.19513035 -0.38163406 -0.10735403 -0.43692383 -0.67777395 -0.07379958 -0.49852264 0.034757014
0.57656926 -0.16856202 0.074081935 -0.012581012 -0.26200393 -0.003517924 0.11019356 -0.27887747
-0.33635873 -0.03589352 0.13711524 -0.11773236 0.1817627 -0.18887378 0.01935294 0.13287619
0.062442314 0.027828403 -0.18237694 -0.35990027 0.02396177 -0.35512576 -0.06799423 0.11468034
-0.28034005 -0.43639785 -0.18058826 0.30345172 0.03248095 0.25635776 0.10259441 -0.20387478
-0.22269675 -0.22381824 -0.009269217 -0.39501655 -0.025932213 0.026291482 0.04680136 -0.20500086
-0.2102147 -0.10692921 -0.19009732 -0.34669906 0.110318385 -0.42742783 0.014077152 0.07151694
-0.1043112 -0.32408932 0.26636064 0.21065855 -0.36775842 -0.048158035 0.122091316 -0.53366315
-0.33053195 -0.5241368 -0.17422682 -0.2686515 -0.36169806 -0.124443814 -0.16341712 0.021237873
0.106011614 -0.8121237 -1.2671078 0.198638 -0.9625923 -0.14529714 -0.298442 0.007971132
0.115476 0.41672757 -0.23302765 0.14559726 0.16250335 -0.25178722 -0.6767686 0.3096515
0.34652176 0.052513517 0.506362 0.26015407 -0.8205673 0.35886917 -1.3552312 0.08793259
-1.0377731 -0.15005289 -0.23827748 -0.20332211 0.14177895 0.25431818 0.6641093 0.32529828
-0.6228004 -0.91149604 0.29126692 -1.0360774 -0.89543265 0.21742022 -0.09448835 0.0063923225
-0.0008905081 -0.67063135 -0.705531 -0.108088225 -0.7252306 0.5488053 9.866147e-05 -0.5871213
-1.3250167 -0.5114026 0.4682214 0.37452552 -0.19489557 0.07440618 0.48267916 -0.42306352
-0.05194633 0.3820873 -0.7990883 -1.7773893 -0.61233807 0.55705976 0.745391 0.0768938
-0.03829956 -0.037136268 -0.61235714 -0.33504757 -0.37746242 -0.10713213 -0.20537128 0.0062468797
-0.037296914 -0.1491153 0.3626683 0.18321079 -0.022350227 -0.21710044 -0.022019854 0.034948073
0.01173792 0.4041631 -0.3184813 0.052328095 0.6530978 -0.7537192 -0.27609882 -0.12588346
-0.16163042 -0.32544976 -0.05421191 -0.46799594 0.2088188 0.47603175 -0.49084678 0.72419536
0.22945827 -0.33416358 -0.2016904 0.2964119 -0.16661853 -0.27620795 -0.15226066 -0.82548624
-0.5340912 0.50755554 -0.66352636 0.07595075 -0.36662924 -0.082990706 0.063002855 0.55642736
0.12589705 -0.6274665 0.055700228 -0.33137152 -0.47968724 -0.0636652 -0.23406105 -0.06552087
-0.69479024 0.45657483 -0.4751889 0.05629741 -0.6450657 -0.24030386 -0.25033075 -0.7506029

l2.bias f4 [128]
00000000: 14ef 1a3f 5c08 4cbe ae73 2e3f 69ca 2c3e
00000010: 0583 ef3d 1166 c7be 400b 963d 3827 6e3c
00000020: 96db 4abe f2e6 6dbe 8fcd 1b3f ba4e 7b3d
00000030: 2815 08bf a93d 09bd 658c 25be 4b90 b83d
00000040: a257 c53d e942 dd3e e42d 2abd 8cdc 363e
00000050: acbc 063f c57e 8b3f 000a 6e3f 362f 0bbe
00000060: 6000 3b3e 3eea b93e d82e 583e 3107 993e
00000070: 33b3 f43e c29d 52be 7485 af3e 6c12 863e
00000080: 9349 69be b843 60be 3c65 f63e f3be 903e
00000090: 0a3d ee3d 721a fb3d 5bb2 b23e 86fb fbbd
000000a0: 9c97 5f3d 1ea4 99be fa94 663d a6fe b9be
000000b0: 78d4 efbd 1ba6 a7be 9044 9d3f 424e ba3d
000000c0: 24d4 88bd ad17 44be 6170 fdbd 063a c9bd
000000d0: 9d2c 6d3e 2221 4b3e cd84 b5bd f7a9 233d
000000e0: 0c09 923e a05a a23d 5e03 f1bb 97dd c5bd
000000f0: 97aa 31bd cca1 793d d2cb 91bd 4d4e 82be
00000100: 1f0e 2b3e 9df6 85bd 03a4 e03e 3ae7 d5bd
00000110: 737f b7be 90cc 72bd 5337 e13e 1764 933d
00000120: 43fa 603e bc46 043e ce7f e33e 7235 9d3c
00000130: 4d02 98be c49e 393f b52f 233e c8ba bbbe
00000140: f1ba 0c3e cf58 a23e 7471 893c 766c 4a3e
00000150: ecf0 01bf f887 c6bd 6629 593e 5b9c 883c
00000160: de59 5fbe 31ef db3e b673 023e 5c92 fb3e
00000170: c8ff 1a3e 2e67 ee3e 2488 06bd 282e 38be
00000180: b46e edbc 78fe ab3b c655 733e 7a8d a7ba
00000190: 4c94 163e e6d2 283f 8f60 043f 7cb4 b93e
000001a0: c477 b2be 3d75 123f 37f6 303f 3797 cdbd
000001b0: bd1f 2a3f 9430 033e e229 1fbe 87bc ec3e
000001c0: 099b aabc a1bf f6bc 3634 84bc f5d9 513d
000001d0: f49c bb3d 9f08 cbbd 9ea3 983e 2ed1 163f
000001e0: 9184 f73c a125 513e daee 8bbd 4e57 2fbf
000001f0: 1122 7b3a 8a2b 173f b512 bc3b c364 f13d
0.60521054 -0.19925064 0.68145263 0.16874088 0.11694912 -0.38945058 0.073263645 0.014535718
-0.19810328 -0.2323263 0.6086053 0.061354376 -0.5315728 -0.03350607 -0.16166838 0.09011897
0.09635855 0.4321511 -0.04154767 0.1785757 0.5263164 1.0898062 0.9298401 -0.13592228
0.18261862 0.36311525 0.2111162 0.298883 0.47792968 -0.20567992 0.34281504 0.2618593
-0.22781973 -0.21900833 0.4812411 0.28270683 0.11632736 0.122609034 0.349017 -0.12303834
0.054587945 -0.30008024 0.05629442 -0.36327094 -0.11710447 -0.32743916 1.2286549 0.09096958
-0.066810876 -0.19149657 -0.1237495 -0.0982552 0.2316155 0.19836858 -0.0886322 0.039957013
0.28522527 0.079274416 -0.0073551377 -0.096614055 -0.043375578 0.060945317 -0.07118954 -0.25450364
0.16704606 -0.065411784 0.4387513 -0.104444936 -0.35839424 -0.059277117 0.43987522 0.07196825
0.21970467 0.12917608 0.44433445 0.019190524 -0.29689255 0.7250788 0.15936168 -0.3666594
0.13743187 0.3170838 0.016777731 0.19767937 -0.5075824 -0.09693903 0.21207199 0.016676119
-0.21811625 0.42955926 0.12739453 0.491351 0.15136635 0.46563095 -0.032844678 -0.17986357
-0.028983451 0.005248841 0.23763189 -0.0012783252 0.14705008 0.65946805 0.51709837 0.3627051
-0.34857 0.5721014 0.69125694 -0.100386076 0.6645468 0.128115 -0.15543321 0.46237585
-0.02082588 -0.030120673 -0.016138177 0.05123325 0.09160796 -0.09913754 0.2981233 0.5891293
0.03021458 0.2042451 -0.06832667 -0.6849259 0.00095799664 0.5905081 0.0057395347 0.11786797

l3.weight f4 [256, 128]
00000000: 364f 8ebe 4fb4 6b3e f22a 38bf 99b8 613e
00000010: e6d6 9abd 8b52 0cbc 267b bfbc 8532 e1be
00000020: 7e8e 1dbf c83e 2a3e b4d3 d43d 550c 0bbf
00000030: 724e 263c 9939 ddbd 7de4 1c3e 4e97 7c3e
00000040: c98e 8c3e 0e60 5c3e 2140 843e 9665 dd3d
00000050: af51 71bf 9943 7ebe 38cd 7a3d 2ccd 0dbd
00000060: 4b5d ba3e c651 50bf 776d 13bf e913 153e
00000070: dcac 48be 2fb3 023f 0380 b5bf b365 7d3e
00000080: bfc6 0fbf 4af5 513c c4a7 963d 3538 a2be
00000090: 9c62 40bf 0bee 98bc 5c38 cfbd 635b 44be
000000a0: 3077 8abe 2f60 b23d bc8d 3bbf 2286 303f
000000b0: bfb2 b3be 2ae3 d83e 829b 983e 069f 66be
000000c0: 03a5 4b3e f6db 4cbd b3b2 b23d b0bd 27be
000000d0: 2bde b43e 8cf6 433d 22f7 98be ba92 be3c
000000e0: e036 9bbc 094c 23bf e2a4 7c3e 3f59 563d
000000f0: a6bc 5dbf 5123 cbbe feb7 8abe 8e6d d9be
00000100: 9ad3 7abf 6806 2d3e e970 7fbe bcb4 95bd
00000110: 6666 4cbf dade 3fbf f3c8 2bbf 46f4 9dbe
00000120: 22e0 06be 1fc9 38bf 05e2 53bf c2ba 9bbf
00000130: d2e0 5b3e c740 72be ae8e dd3d e81c 073f
00000140: dcee 7f3e 508a 21bf 59d4 2dbe 9b00 9e3d
00000150: 2319 023e 02a3 cd3e f204 bfbe 21d4 abbe
00000160: e0cc 1c3f a5a4 5d3e 9ce2 6bbe 5161 95be
00000170: 7f6e 3a3e f63d c4be 4ecc 173e 1289 cc3e
00000180: 94ec 42be 8ad2 f93d ff5e 3fbf 6304 a33e
00000190: d10d c03c 7d0a f6bc 991a 91bd 3325 cb3e
000001a0: 0e9e a23d c199 c8be c0a2 2bbe e26a 8bbd
000001b0: e9aa 66be 1fcb 953d 8095 ac3e 4b7a edbe
000001c0: 877a 43bd 3f13 84be da3c ddbd d48f a2be
000001d0: 0513 bebe c580 b6be f254 2c3f 15e1 99bd
000001e0: 8f92 adbe 7ba1 eabe 4c82 08bf 53ad de3e
000001f0: 2b68 4bbd 3488 74bc 4402 6fbe dbed 2a3d
00000200: c907 0f3f 3ad4 473e 1935 c33e 75a6 883e
00000210: c187 3bbd 53b2 8ebd 2280 973e df77 b6be
00000220: 8028 1e3f 4f65 983e c2ec c43c 5d23 d5be
00000230: 292a 3f3d 45fc 35be e38d 263f 1eb1 893d
00000240: dbcc 30be b4ed 40be b8b7 ce3e d05b e73e
00000250: 91f7 7d3f 589f bf3e 614d 3c3f 76ca d43c
00000260: 8b95 463e 1a79 81be 5528 e0be bd66 a1bd
00000270: 2b31 013f 80b9 d2be 29f9 35bf dad0 48bc
00000280: 8ee8 fdbc f5a0 523f 14c5 1bbf d47a 43be
00000290: 74ea 2bbf aa04 593c bc63 d73b b80f 2ebd
000002a0: 13c1 603e 6d49 7a3e 0335 1bbf 37d6 c63e
000002b0: 60c0 52be f311 4e3f f852 433f 06e8 a1bd
000002c0: 7659 703e 2b82 43be bd74 793e 2147 85bd
000002d0: b737 4d3e 720a 7a3d 7529 c3be 5261 f33d
000002e0: 9ea8 77be d0f8 b4be d5ef ea3d 86ea ed3d
000002f0: ea87 62bf 4955 78be d3ef 23bf d889 07bf
00000300: 4634 ed3d a4e1 583d 0a2b b5be 27a7 cdbe
00000310: d4ea 57bf deb3 26bf b169 46bf 60f7 76be
00000320: 687b 3fbd d1d1 86bf 3911 0dbf a538 ffbe
00000330: 5697 703e 3255 26be 20ed 2e3d 2696 293e
00000340: 2af7 c13e 8fdc 13bf bc9e 153d 41c2 1fbe
00000350: 42cc 483d eea4 173f d190 173d 1ce4 403e
00000360: dd70 0a3f 91f2 57be 4bb5 d23e 0379 a43d
00000370: a99e a7bd b7d6 913d 7520 a53e 0587 b4be
00000380: 5424 2fbe 7fb3 4fbe ddb7 f0be cc63 a03e
00000390: beaf 71be 793a eb3d c9ab fb3e 95e6 40bc
000003a0: 5ab1 9d3d eb11 c53e b222 d13e e837 2abd
000003b0: 5505 173f 5fd8 093e afa3 873e 996b 313f
000003c0: 6dd1 7b3e 7ee3 f63d 365a c73d 9d0d 3fbe
000003d0: 7b25 8cbd 2381 cbbd 22ef 1a3f d2d0 143e
000003e0: b46f 1bbe 50f8 5e3e 2886 24bf bf62 8e3e
000003f0: 7c92 5cbe de1b bcbd 63c7 68bd 3ece 4f3e
-0.27794808 0.23018001 -0.7194053 0.22043075 -0.0756052 -0.008564602 -0.023374151 -0.43983856
-0.6154555 0.16625512 0.10391942 -0.5431569 0.010150539 -0.108020015 0.15321536 0.24667093
0.27452686 0.21521017 0.25830176 0.108103916 -0.94265264 -0.24830474 0.061230868 -0.034619495
0.36399302 -0.81374776 -0.57588905 0.14558376 -0.1959719 0.5105466 -1.4179691 0.24745826
-0.5616264 0.012814829 0.073562175 -0.31683508 -0.75150466 -0.018668195 -0.101181716 -0.19175486
-0.27044058 0.08709752 -0.73263144 0.6895467 -0.3509731 0.42360812 0.29806143 -0.225216
0.19887166 -0.05001446 0.087254904 -0.16380954 0.3532575 0.047842547 -0.29876047 0.023263324
-0.018947065 -0.63787895 0.24672273 0.052331205 -0.8661598 -0.39675382 -0.270935 -0.42466396
-0.9797913 0.16896975 -0.24945416 -0.07309863 -0.7984375 -0.7494942 -0.671035 -0.30850428
-0.13171437 -0.72181886 -0.82766753 -1.2166369 0.21472481 -0.23657523 0.108182296 0.5277848
0.24993461 -0.63101673 -0.16975535 0.07714959 0.12704901 0.40163428 -0.3730846 -0.3356028
0.61250114 0.21644838 -0.23035663 -0.2917581 0.18206213 -0.38328522 0.1482403 0.39948326
-0.1903556 0.1219836 -0.7475433 0.31839284 0.023444088 -0.030034298 -0.07085151 0.39676818
0.07940303 -0.39179805 -0.16761303 -0.06807496 -0.22526135 0.07314133 0.3370781 -0.46382365
-0.047724273 -0.25795934 -0.10802622 -0.31750357 -0.37123886 -0.35645118 0.67317116 -0.07513634
-0.33900878 -0.45826325 -0.5332382 0.4349161 -0.04965989 -0.0149250515 -0.23340708 0.041730743
0.55871254 0.19514552 0.38126448 0.26689497 -0.045783762 -0.069676064 0.29589945 -0.3563833
0.6178055 0.29764792 0.024038676 -0.41628543 0.046671066 -0.17772014 0.6506025 0.067232355
-0.17265646 -0.18840677 0.4037454 0.45187235 0.9920588 0.37426257 0.7355557 0.025975447
0.19392984 -0.25287706 -0.4378077 -0.07880924 0.5046565 -0.4115715 -0.71083313 -0.012256825
-0.03099468 0.8227685 -0.6084759 -0.19089824 -0.6715462 0.013245741 0.0065731686 -0.04249546
0.21948652 0.24442072 -0.60627764 0.38835308 -0.20581198 0.8049614 0.76298475 -0.07905583
0.23471627 -0.19092624 0.24360938 -0.065077074 0.20040785 0.061045118 -0.38117567 0.11883797
-0.24185416 -0.3534608 0.114715256 0.116169974 -0.8848864 -0.24251284 -0.6403782 -0.5294471
0.11582236 0.052949563 -0.353844 -0.4016659 -0.84342694 -0.65118206 -0.7750502 -0.24117804
-0.04674855 -1.0532781 -0.55104405 -0.49847904 0.2349523 -0.16243437 0.04270661 0.16561183
0.37883884 -0.5775842 0.036528334 -0.15601446 0.04902292 0.5923604 0.037003342 0.18837017
0.54078466 -0.21088625 0.4115394 0.08030894 -0.08184559 0.07121032 0.32251325 -0.35259262
-0.17103702 -0.20283316 -0.47015277 0.3132614 -0.23602197 0.11485762 0.491545 -0.011773725
0.07699843 0.38490233 0.40846783 -0.041557223 0.5899251 0.13461445 0.26492068 0.69304806
0.24591608 0.120551094 0.09734003 -0.18657537 -0.06843086 -0.0993674 0.6052114 0.14532784
-0.1517933 0.21774411 -0.64267206 0.27809712 -0.21540254 -0.09185003 -0.056830775 0.20293519

l3.bias f4 [256]
00000000: 561c 51bf 158e 81be 15d4 0d3f 3aa4 dbbe
00000010: e976 103e 757c 2ebf 7464 b4bd 1cd6 98bd
00000020: 058f 51bf 4206 963d 9e47 433d fdcd 91be
00000030: e3bc d03e 8c2c 103f 8501 873e 2ddc 993e
00000040: 0607 45bf 6ffb c2bd d154 a23e 6c5a 9abd
00000050: 8013 443e 109c 8ebf 9418 0ebf 01e2 493e
00000060: 9b87 34bf 930e 6a3e 2613 0abe 1872 303c
00000070: 3d7a f63e f77d 583f d838 5f3e ec26 ad3f
00000080: d494 56bd a74f 19bf 9161 03bf 68ad bebe
00000090: 6899 463e 2a9a 9b3e 1e13 063f 4c5e 923e
000000a0: e487 b43e b2d9 003f eb6f 033f 0bb8 583e
000000b0: f9f4 45bf 368b a93e 8bc5 a93d 0025 78be
000000c0: 3686 70bf b3bb 5cbf 92fe 54bf bde1 093f
000000d0: 2f69 3f3e 5a68 043f 243c 71be 11dd 443e
000000e0: 48b0 0ebf 0d87 f0be 786f 653f 8d1a bebe
000000f0: 2de5 7c3f 5b4c b4bf b02c 603e abf6 653e
00000100: e2c6 da3e e029 1f3f aa1b dbbe 8949 813e
00000110: 0501 833e 47ca 0fbf 694a 103e 3d6d 8d3e
00000120: 332c ef3e 15fc 343f 4c19 773e b175 98be
00000130: 2009 d43e a0e7 883d c96a 94bc 41a9 833e
00000140: 5758 b23e a6ae 933e a307 983e 56f3 35bd
00000150: 4bc4 6bbe 1f1c 1ebf 21be 48bf 5e59 373e
00000160: c7cc 743e 8600 653f 92e5 903f afaa 653f
00000170: 6c68 0ebe e65a abbe 8b7e 633e 05f3 153f
00000180: 3d2e 43bf b0e4 eebe 494f ca3d 358d 90be
00000190: 020d cebd c40c 21bf 43d7 c3be 6205 fa3e
000001a0: abbd 9e3e 4e47 1c3f e4a4 503e c2ba 0bbf
000001b0: ac40 8cbe e6dd 1cbf dfb2 38be 1057 5abe
000001c0: 3da2 bcbd 0f0f 67bf 400e 9bbd 9c72 c9be
000001d0: 21da 923e 8b17 e0bd d6bb 03bf 680e 23bf
000001e0: c463 813e 92ed 2cbf 797f 303f c3ec 8d3f
000001f0: b090 55bf a414 83be 779a 303f c76b 0c3e
00000200: 54b2 42bf 6f21 d83e 88e7 913e bd1a d43e
00000210: 7a4d fa3e d20c 77bc a193 3ebe ef5c d1be
00000220: db6f e7be 1e5d 61bf e6d6 aa3f fb0d 3d3f
00000230: 8b07 68be a123 7c3e 38f4 273e 283c 5d3e
00000240: efe2 65be 2fdf 88be 3a78 063f 5389 57bf
00000250: 723a 93be 7aee 203e 5ded 913f 3e72 fe3e
00000260: c6b9 243e 5f0f a4be e2ba b53d d7e3 82be
00000270: 6f92 febb 036e 93bb 8123 c13e 1ab8 cabe
00000280: 9eea c33d 08ed 783e a816 b13c 42a0 333e
00000290: f2f9 403e 0946 8f3c af2b 883e eea3 dc3e
000002a0: c57f 90be c113 b53e 3874 613f b2ad 943e
000002b0: e8ef 4dbf ca7c a33f b52a 0e3f 3a25 efbe
000002c0: 1e26 f93e 36d6 99bf 0736 f73e b009 013f
000002d0: 6068 293e 1995 513f bba2 2f3e 9ba2 25be
000002e0: f744 693f ca0c c93d d39c 27bf 0308 56bf
000002f0: 0ccc 9d3e d8fe a23d b110 433e 32e3 8bbf
00000300: 00de 40be 19d6 3b3f e0a9 ea3e 17cc 98be
00000310: 5c50 123f 6c11 cb3e 6a01 03bf e1e7 68bf
00000320: bf34 303f 4491 afbe 2e66 da3e 7d92 dd3e
00000330: aef4 ab3f d4af 31bf 6fc2 cc3e ae32 573f
00000340: 58ea b13c fc8c 863b bf12 0cbf 6050 50bf
00000350: 467f 203e 0e61 f03d e6e8 15bf cf7f 74bf
00000360: eced 063e 4f15 a3be dc07 1d3f 6d76 213d
00000370: f001 14bd c406 e3be 7bf6 0fbe 6076 81bf
00000380: 6f3f a0be 34b6 6a3f 6fa9 b4bd 892e 043f
00000390: 94ff d33e dea0 f73e c123 813e aaca f43e
000003a0: 51e9 ac3d 97b2 ca3e 0c9f 56bf f8fa f93e
000003b0: 63b3 a5be 52d7 29bf 4d8c 0e3f 62c6 6bbd
000003c0: 5590 91be 2320 e13e bb70 4d3e aba3 573f
000003d0: c25f d13c 90e6 643e ca53 323f 7001 fc3e
000003e0: 9670 58bf 4735 0a3f 9a1b 46bf 8ab9 e23d
000003f0: 3ff2 393f cb64 403e 1bcb 7dbf 2420 2d3d
-0.8168386 -0.25303712 0.55401736 -0.42898732 0.1410786 -0.68158656 -0.088082224 -0.07462713
-0.81858855 0.07325412 0.04767572 -0.2847747 0.4076911 0.56317973 0.26368347 0.30050793
-0.7696384 -0.095206134 0.31705335 -0.07536778 0.19148064 -1.1141376 -0.55506253 0.1971512
-0.7051942 0.22857122 -0.13483867 0.01076939 0.48140135 0.8456721 0.21799028 1.3527503
-0.052388027 -0.59887165 -0.5132075 -0.37241673 0.19394457 0.30391055 0.5237292 0.28587568
0.35259926 0.50332177 0.5134265 0.21163957 -0.77326924 0.33114022 0.082896315 -0.24232864
-0.9395479 -0.86223906 -0.83200943 0.53860074 0.18692468 0.5172173 -0.23558098 0.19224955
-0.55737734 -0.46978036 0.8962321 -0.37129632 0.98787194 -1.4085802 0.21892047 0.22457378
0.4272986 0.6217327 -0.42794544 0.25251415 0.25586715 -0.56168026 0.14090885 0.27622405
0.4671341 0.70697147 0.24130744 -0.2977729 0.41413212 0.06684804 -0.018117325 0.25715068
0.34833023 0.28844184 0.29693326 -0.044421516 -0.23024099 -0.6176166 -0.78415114 0.17905185
0.23906241 0.89453924 1.1320059 0.8971357 -0.13907021 -0.33467788 0.22216241 0.58573943
-0.7624243 -0.4665885 0.09878404 -0.28232732 -0.10061075 -0.62910104 -0.3825017 0.48832232
0.3100408 0.610463 0.20375401 -0.54581845 -0.2739309 -0.6127609 -0.18036984 -0.21322274
-0.09210632 -0.9025735 -0.07571077 -0.39345253 0.28682044 -0.109419905 -0.5145849 -0.6369386
0.25271428 -0.67550004 0.6894451 1.1087879 -0.834239 -0.25601685 0.68985695 0.13712989
-0.7605336 0.42213008 0.28496957 0.4142665 0.48887235 -0.01507874 -0.18611003 -0.40891215
-0.45202526 -0.8803271 1.3346832 0.7384946 -0.22659127 0.24622966 0.16401756 0.21604979
-0.2244985 -0.26732776 0.525272 -0.84193915 -0.28755528 0.15715972 1.1400563 0.49696535
0.16086492 -0.32042977 0.08873536 -0.25564453 -0.007768921 -0.0044991984 0.377224 -0.39593583
0.09566234 0.2430917 0.021617249 0.17541602 0.18845347 0.01748945 0.26595828 0.43093818
-0.2822248 0.35366634 0.8806796 0.2903877 -0.8044419 1.2772458 0.55533916 -0.4670809
0.48661894 -1.2018497 0.48283407 0.50405407 0.16543722 0.8186813 0.1715192 -0.1617531
0.91120857 0.098168924 -0.6547367 -0.83605975 0.30819738 0.07958764 0.19049336 -1.092871
-0.18834686 0.7337356 0.4583273 -0.29843208 0.5715387 0.3966173 -0.5117403 -0.9097882
0.68830484 -0.34290516 0.42656082 0.43275824 1.3434045 -0.6940892 0.3999209 0.84061706
0.02171819 0.004106162 -0.54716104 -0.8137264 0.15673551 0.11737262 -0.585585 -0.9550752
0.13176697 -0.31852195 0.6134012 0.03941958 -0.03613466 -0.443411 -0.14058869 -1.011425
-0.31298396 0.9168427 -0.088213794 0.51633507 0.41405928 0.4836492 0.2522259 0.4781087
0.08442939 0.39589378 -0.83836436 0.48824286 -0.32363424 -0.6634418 0.5568283 -0.05756224
-0.2843043 0.4396983 0.20062535 0.8423411 0.025558356 0.22353578 0.696591 0.49219847
-0.8454679 0.53987545 -0.77385867 0.11070545 0.72635263 0.1878845 -0.9913804 0.04226698

l4.weight f4 [1, 256]
00000000: 87f2 e43e 7955 bf3e fc5a 15bf c498 4ebf
00000010: ea93 f1be aace b0bf e72a 043f 8600 c5bd
00000020: 9d50 433f 8fce abbe bdc8 f2be c599 bb3f
00000030: eb17 89bf 0742 6b3f 3690 05be 4b96 543f
00000040: 5b2a 94bf 8818 a73e 37b6 56bf 3423 913f
00000050: dca8 01bf 3518 c13e 17ff 8a3f 9fc5 f3be
00000060: 96bf f9bf ec90 74bf 6389 9dbf 6291 fe3e
00000070: f791 e0be 3faf 0abe 1fc6 233f 0a3a 473f
00000080: 5ec6 b73f cbd2 48bf 09ad 313f 3703 813f
00000090: 34fc b7be 02e4 53be 6db1 cfbf dcaa bc3e
000000a0: 5c90 c9be 4292 1abf 68e3 3dbf ecd9 6a3f
000000b0: ae03 f23f 79cf d2be 4805 033f a5ba ee3f
000000c0: 2225 c73f 7934 7d3f 2a15 1a3f 2e97 1ebf
000000d0: 28ea 64bf bcf9 72be 9907 ad3f 3437 f9be
000000e0: 13ea a13f 669f be3f c714 29bf 8a6e d8bf
000000f0: 7209 f93e f538 c83e 0e4a 1abf d829 d23f
00000100: 630e c1bf 636d 9abf 863c ce3f 4575 05bf
00000110: cf0a 65bf 0d56 453f 527c cabe d509 8abf
00000120: ffd5 1bbf 14b1 8cbd f20b 2c3f 203d a0bf
00000130: 8337 853f 1508 91bf 4932 8bbf 4b04 edbe
00000140: 0089 c1be 2b50 99be a30b 8e3e f5b2 a3bf
00000150: 508f 70bf 237a 523e 7e43 fd3f e547 04bf
00000160: 7ce2 cbbf 3606 89bf 075b 11bf 9f30 73bf
00000170: 4a04 1740 1f65 463f e245 98be 5f14 a6be
00000180: 35ee c3bf 853b 68bf 89e6 9abf cecb bb3f
00000190: 9f51 bd3e 9ae3 453f 5682 ae3f bfa9 bebe
000001a0: a19c f2be a0a1 45bf 901e 7fbe 5f2c 47bf
000001b0: 172b 1a3f e3d0 4b3f 6f1b 123f d942 99bf
000001c0: f266 f33e 6d7d 113f ce7d 8bbf d488 803f
000001d0: d098 1cbf 3ed8 63bf 3c23 96bf 66b0 0040
000001e0: 6cab db3e bdeb 023f a698 0abf 4395 bcbe
000001f0: 45c7 0e3f 65ac b3be 39ec 03bf c2a4 13bf
00000200: d586 833f 703a c9bf 9c6e dabe 2545 58bf
00000210: bcdf 8abf 09b2 8ebf ada3 a03f f4b4 7bbf
00000220: 29ea aa3e 1a21 583f 14d8 81bf 1023 f2be
00000230: b881 f73f e34b d9be aede 3dbf 61c2 e5be
00000240: 7335 c23f 0bea 4e3f 588c 3c3f f61e 973f
00000250: 2750 7fbf ff90 1740 388d 93be 9e31 debe
00000260: 8d88 53bf add3 563f 7eff 62bf aebc 403f
00000270: 6f3d c6be 525d 2b3f 947b 08bf b774 bb3f
00000280: 52a5 46be 24a0 44bf 1da1 a0bf bec8 17bf
00000290: daa2 93bf 8ffe dbbe 206d 02bf b18d 04bf
000002a0: b678 cdbf 1039 963e 20ad d1be 00c6 d6be
000002b0: db6c abbe b2d8 c4be d53b ac3f 913e 383f
000002c0: 9fd4 6bbf 495d 9c3e 454d 3abd a7bb 373f
000002d0: 11fd 70bf bacb 61bf 2b7f 19bf 59d7 943f
000002e0: 43c1 04bf 6bfa 0740 ce09 113f 6392 1a3f
000002f0: a875 e3be 9bc2 5e3f c006 bdbe 72c1 5a3f
00000300: d07f 263f c18a 5ebf 87ba 09bf 6e1a b13f
00000310: efa9 d63f 6fc2 a6bf 9290 513f 0f79 2a3f
00000320: ea28 29bf c98a 703f 2040 07bf 8f4d fdbe
00000330: c28e 203f b71c da3f 137d 43bf c2bc 26be
00000340: 8566 55bf e441 c43e 7c61 a3be 2955 71bf
00000350: c1a8 e73e 7d6f 98bf b660 7e3f fa00 953f
00000360: d38f 51bf 1d1a f83f 6ad1 a3be 3c53 8b3f
00000370: ee02 eabd 72f7 6c3f 5cf4 bf3c b09e 083f
00000380: da4d b23f d7ab 48bf a227 f93e 4673 13bf
00000390: 8698 193f 7f88 23bf cb81 50bf 7d1a b3be
000003a0: 5c36 93bf 2bc8 a0be 0697 293f df3b 40bf
000003b0: bea0 8d3f 564b b03f 4dca d8be a3e8 0140
000003c0: 49b3 87bf cbfc 53bf 82e6 d3be f4e3 b4bc
000003d0: 9758 3ebf 950c 22bf 9fc8 b8be 958f a8be
000003e0: cd90 253f bdb8 6fbf 28bf 3e3f c33c 16bf
000003f0: 0499 f5be 8fff 433f 44bb b93f c9a9 28bf
0.44716284 0.37369898 -0.58341956 -0.8070185 -0.47183162 -1.3813069 0.51627964 -0.096192405
0.7629488 -0.3355603 -0.47418776 1.4656302 -1.0710424 0.91897625 -0.13043293 0.8304183
-1.1575426 0.32635903 -0.8387179 1.1338868 -0.50648284 0.3771378 1.0859097 -0.4761171
-1.9511592 -0.95533633 -1.2307552 0.49720293 -0.43861362 -0.13543414 0.63974184 0.77822936
1.4357412 -0.78446645 0.69404656 1.0079106 -0.35934603 -0.20692447 -1.6226021 0.36849105
-0.3936795 -0.6037942 -0.7417512 0.9173877 1.8907373 -0.41173914 0.51179934 1.8650709
1.5558207 0.9890819 0.60188544 -0.6194943 -0.89419794 -0.23728079 1.3517944 -0.4867493
1.2649559 1.4892395 -0.6604733 -1.6908734 0.4864002 0.39105955 -0.6026925 1.641902
-1.5082515 -1.2064632 1.611222 -0.52132064 -0.8946962 0.7708443 -0.39547974 -1.078425
-0.6087341 -0.068697125 0.6720573 -1.2518654 1.0407566 -1.1330591 -1.0874721 -0.46292338
-0.37799835 -0.29943976 0.27743253 -1.2788988 -0.9396868 0.20554404 1.9786222 -0.516722
-1.5928493 -1.070502 -0.5677952 -0.94996065 2.3596368 0.7749805 -0.29740816 -0.32437417
-1.530707 -0.9071582 -1.2101604 1.4671571 0.36976334 0.7730042 1.3633525 -0.3723888
-0.47385123 -0.77199745 -0.24914002 -0.7780208 0.60222 0.7961561 0.5707311 -1.1973525
0.4753948 0.5683201 -1.0897768 1.0041757 -0.61170673 -0.89001834 -1.1729503 2.0107665
0.42904222 0.5114096 -0.54139173 -0.36832628 0.5577281 -0.35092464 -0.5153232 -0.57673275
1.0275522 -1.5720959 -0.42662513 -0.84480506 -1.0849528 -1.1148082 1.254995 -0.9832299
0.33381775 0.8442551 -1.0144067 -0.47292376 1.9336462 -0.4244071 -0.7416791 -0.44874862
1.5172561 0.8082587 0.7365165 1.1806324 -0.9973168 2.3682249 -0.2881868 -0.4339723
-0.82630235 0.8391674 -0.886711 0.752879 -0.38718745 0.6693927 -0.53313565 1.4644994
-0.19399002 -0.76806855 -1.2549168 -0.59290683 -1.1534073 -0.4296765 -0.5094776 -0.51778704
-1.6052463 0.2934041 -0.40952396 -0.41947937 -0.33481488 -0.38446575 1.3455759 0.7197047
-0.9212131 0.3053992 -0.045483846 0.7177071 -0.9413615 -0.8820149 -0.5995967 1.1628219
-0.51857394 2.1246593 0.56655586 0.6037962 -0.44425702 0.87015694 -0.36919212 0.85451424
0.65038776 -0.8693047 -0.53800243 1.3836191 1.677061 -1.3028086 0.8186122 0.6659097
-0.66078055 0.9396177 -0.5283222 -0.49473235 0.6271783 1.7040013 -0.76362723 -0.16282943
-0.8335956 0.3833152 -0.31910312 -0.9427057 0.45245937 -1.1909024 0.9936632 1.1640923
-0.81860083 1.9382969 -0.31995708 1.0884776 -0.1142634 0.9256507 0.02343195 0.5336714
1.3930008 -0.78387207 0.4866305 -0.5759777 0.5999836 -0.6388015 -0.8144805 -0.34981146
-1.1500964 -0.31402716 0.6624607 -0.75091356 1.106468 1.3772991 -0.42341843 2.029824
-1.0601588 -0.82807606 -0.413868 -0.022081353 -0.7435393 -0.6330045 -0.36090562 -0.32922044
0.64674073 -0.93641263 0.7451043 -0.58686465 -0.47968304 0.76561826 1.4510274 -0.6588407
