preTrained/TD3_BipedalWalkerHardcore-v3_0_actor.pth (torch_old, 527104 bytes, 6 tensors)

l1.weight f4 [400, 24]
00000000: 5600 cabe 8ae4 943e ae58 af3e 4e28 35bf
00000010: 1e30 7dbf c9cd f63d 3c54 383f 6c1f 063f
00000020: 880b ee3d dd95 233f 0774 e33e c327 65bd
00000030: f421 e73d a054 b6be 21f8 d33c 913e 7b3e
00000040: 324f 673c b6af d5be cb24 febe 4ec0 48bf
00000050: 65fa e0be 9f3f 26be fa7f 2a3e 06f0 6f3e
00000060: 9dba 0c3f af91 a6bf 5626 173e 90c9 99bf
00000070: c8e1 173e bd38 adbc a0a7 ee3c 1736 53bd
00000080: 2607 e93d 7e16 e53e 92cc fabc e103 743d
00000090: f865 e43c 3d4f af3e 756f 813c 44ea 2ebf
000000a0: 8d24 01bf f9d3 f8be 6940 02bf d98b fa3d
000000b0: 3a9d cfbe 86c5 0bbd 4288 ef3e 5ae8 9a3e
000000c0: f580 513e a293 aabe 1318 8e3f 28a7 87bf
000000d0: 6fc9 683e b6f1 1bbd 560a da3d a590 04bb
000000e0: cfd4 00be dbc7 09be 18d6 ac3c c702 3fbf
000000f0: 55e3 9b3d bf20 c3bb 7a64 6ebf 3495 7cbf
00000100: f525 b3be db07 12bf 7399 43bd 2623 ad3e
00000110: abf2 e83e 0a6c 9a3e 024d ca3e 089d 22be
00000120: 7b8a 133e 6d5f 733f 38df acbf ddb0 09bc
00000130: 83f8 22bf 2296 8cbc e7c3 5e3e ea40 acbe
00000140: 4bcf 2bbf d768 57be a15f 9f3d c69f 8f3e
00000150: ea16 6abd 810e a1bf e794 9abe afd2 eebe
00000160: 1514 95bd 863d 06be 3e91 11bf 5e24 07bf
00000170: 75d7 33be 3bbb a9be d6e1 b0be 4316 843e
00000180: d694 11be 89c1 b23f 01b9 47bf b79f d43f
00000190: 0efc 77be 1dfa 353d e85d 08bf a213 5b3d
000001a0: 8633 a43c c4ef 623e 2536 1cbe d634 acbc
000001b0: 2cd0 d7bd 50b6 babd d549 903f ea08 983e
000001c0: 6e30 94bd 2ca4 2fbe 3a2a 1d3e e00f 583e
000001d0: a512 f53e aaeb 9ebc c316 b2be 4c22 9fbe
000001e0: 3c19 f03e 5081 db3e 86c4 59bf b665 c63e
000001f0: 2cb9 213e 686b a4bb 7b26 5cbf e281 8e3d
00000200: 5ad9 463e 35c9 3dbf f5d2 2fbd 79d3 0fbd
00000210: dee9 b8bc 11a1 163d 8f64 f93e fd61 6e3e
00000220: d398 923e a8b2 cb3e 1547 0b3f 85ba 4a3e
00000230: 4899 d1be 612f 0fbf cbb7 02bf 6d5f cebe
00000240: 053d 973f 601e 0740 18b0 9fbf 9210 8ebe
00000250: f818 5a3e 3391 ad3d 9588 f0bd ddb9 923a
00000260: b6e6 31be 0156 873f 5236 083e a4de 61be
00000270: 11db 5e3d 58cb a23d eb55 de3e 45e5 6d3e
00000280: 6261 29be 9bde 08bf 68cf 4ebf 59a0 49bf
00000290: 2d3e 31bf d352 03bf 1780 17be 2eb9 8abe
000002a0: baa9 0bc0 a529 8cc0 30b4 df3f 3cad 9e3f
000002b0: bf1b 3fbf f162 53be d1ca 35bf 1972 0ebe
000002c0: dca7 58bc 086c 8b3e d147 e9bd fbe0 82be
000002d0: 90bb 0fbd 46bd 373d f26e 25be 4bee 383d
000002e0: 5b6a 53be 72d4 92be 4649 72be 0354 943e
000002f0: 386e 7d3e 6b00 f83d 1a0f e73d 415c 26bd
00000300: 1f04 3a3f 81d9 7b3f 9ad2 48bf 10c7 91bf
00000310: 9409 92bc 0f5d 723d 3e2f 2c3f cc14 bdbe
00000320: aee7 d83d dcf5 13bf 8547 733d 8893 5b3f
00000330: 5ae7 05be 4bc0 c3bd 0353 00bf e730 f3bd
00000340: febe fcbe a5d5 1fbf 1fd1 31bf 2aec 64bf
00000350: 08b8 27bf ec50 35be aed6 00bf 04e1 943c
00000360: 06fa 80bf ab14 1ec0 6338 703f e996 a93d
00000370: ea85 96bd a76a 553d 71e4 b5bd d8c7 7dbd
00000380: 49f6 80be c094 97be 5dd6 7abe f66d 0cbe
00000390: d6fb 6abd 7648 17be 9d59 0dbf 1d22 d7be
000003a0: 4664 24bf 9afa 22be 56cc de3b f3bb 113f
000003b0: 35ca b33e b566 003f df0b 8d3e 72fb 163e
000003c0: 3f9f 84be ae34 403e 5672 ffbe 58f9 923f
000003d0: b881 44be 052a 063e 45b3 86bc 445e 633d
000003e0: 5a1f 92be 8d13 b0be 1c02 a5bc 688c 863d
000003f0: 10d1 a2be f557 2c3e 933b a3be 5265 61be
-0.3945338 0.2908061 0.34247345 -0.70764625 -0.98901546 0.12050969 0.7200353 0.52391696
0.11623293 0.6390055 0.4442446 -0.055946123 0.11285773 -0.3561144 0.025875153 0.24535586
0.014118003 -0.4173562 -0.49637446 -0.78418434 -0.43941036 -0.16235207 0.16650382 0.23431405
0.5497225 -1.3013209 0.14760718 -1.2014637 0.14832222 -0.021145219 0.029132664 -0.051565256
0.113783166 0.44743723 -0.030615125 0.05957401 0.027880654 0.34240142 0.015800217 -0.6832621
-0.504464 -0.48599222 -0.5087953 0.12233705 -0.40549642 -0.03412392 0.46783644 0.30255395
0.2045935 -0.3331576 1.1101097 -1.0597887 0.22733091 -0.03807231 0.10646503 -0.0020227816
-0.1258118 -0.13455145 0.021098182 -0.7461361 0.076117195 -0.0059548314 -0.93122065 -0.98665166
-0.34989896 -0.57043236 -0.047753762 0.3381588 0.4549764 0.30160552 0.39511877 -0.15880215
0.14408295 0.95067483 -1.3505621 -0.008403984 -0.6366045 -0.017161433 0.21754418 -0.33643275
-0.6711318 -0.21036087 0.07781912 0.28051585 -0.05715076 -1.2582551 -0.30191728 -0.46645114
-0.07279221 -0.13109407 -0.56862247 -0.52789867 -0.17562659 -0.33150658 -0.345473 0.25798234
-0.14216933 1.3965312 -0.7801667 1.6611241 -0.24217245 0.04442798 -0.5326829 0.05348552
0.0200441 0.22161776 -0.1525503 -0.021021288 -0.105377525 -0.091168046 1.1272532 0.296943
-0.072358 -0.1715247 0.1534814 0.21099806 0.47865787 -0.019399483 -0.3478299 -0.31080854
0.46894252 0.42872095 -0.85065496 0.38749474 0.15793294 -0.0050176866 -0.85996217 0.06958367
0.1941885 -0.7413514 -0.042925794 -0.035113785 -0.022572454 0.0367747 0.48709533 0.23279567
0.2863222 0.3978474 0.5440534 0.19797714 -0.40937257 -0.5593167 -0.51061696 -0.4030718
1.1815497 2.111229 -1.2475615 -0.27747017 0.21298587 0.0847496 -0.11744801 0.0011194308
-0.17373165 1.0573121 0.13301972 -0.22057587 0.054408137 0.07948941 0.43424925 0.2323199
-0.16541055 -0.5346467 -0.80785227 -0.78760296 -0.692355 -0.51298255 -0.14794956 -0.27094406
-2.1822343 -4.3800836 1.7476864 1.2396617 -0.7465171 -0.20643212 -0.710126 -0.13910712
-0.013223615 0.2723086 -0.11390651 -0.2556227 -0.035090983 0.04485824 -0.16155604 0.04514913
-0.2064604 -0.28677708 -0.23660764 0.28970346 0.24749076 0.12109455 0.11282177 -0.040615324
0.7266254 0.9837876 -0.7844635 -1.1388874 -0.017826833 0.05917078 0.67259586 -0.3692993
0.105910644 -0.57797027 0.05939438 0.8577199 -0.13076535 -0.09558161 -0.50126666 -0.11874562
-0.49364465 -0.6243537 -0.6945972 -0.8942286 -0.65515184 -0.1770665 -0.50327575 0.018173702
-1.0076301 -2.4700115 0.9383604 0.08280737 -0.07349761 0.052103665 -0.08881462 -0.061958164
-0.251879 -0.29605675 -0.24495836 -0.13713822 -0.057369076 -0.14773735 -0.55214864 -0.42018214
-0.64215505 -0.1591591 0.006799261 0.5692741 0.3511521 0.5015672 0.2754812 0.14744356
-0.25902745 0.18770096 -0.4989192 1.1482344 -0.19190109 0.13101967 -0.016442904 0.05550982
-0.28539544 -0.34389916 -0.020142607 0.06569749 -0.31800127 0.16830428 -0.3188139 -0.22011307

l1.bias f4 [400]
00000000: 5086 88be 2a24 613e aabd eabe 4525 3bbe
00000010: 33f8 6a3e f859 d43e 3d33 193e fcd4 533e
00000020: 416f 3b3e 2c09 a1be 1dcc 93be def6 d1bd
00000030: b30c 303e f26c 69bf 7a24 f5be dc2a 09be
00000040: 149a 1d3e 6d4f 863e 55a5 28be e5d8 71bf
00000050: 0d48 85bd ea4c f2be 8926 f03d 20de ab3b
00000060: 19a9 0cbf 1f96 533d b2e6 4cbe 2c8c 1cbd
00000070: b3b9 603d ad0d d7be 7a4a 59bf d18e 673d
00000080: 91ed cb3e aa5c aabe b743 e1be fcc2 7f3d
00000090: 1492 113d 5238 153d 773d 1cbf 0949 bebe
000000a0: 13c2 2dbe 662f 0c3e f5bd f03e 03d2 023f
000000b0: 6ccb b8bd f927 05bd 2f42 953d 85ec 54bd
000000c0: 8cf7 fabd 9f02 5ebe c8dd 82bd 37dc 5a3e
000000d0: 1128 37bd 6b70 d2be 0786 11be e0ff 63be
000000e0: be4e c7bc 54bb 72be c69d 1bbf 66ba 903e
000000f0: e15a 74be 123e 853e 9c72 15bd 4e44 4dbe
00000100: bc49 a9be 7f09 21bf af0d f6be d402 9cbe
00000110: 9180 19bf cb56 cabd c762 c8be 7d2b 223d
00000120: 5c62 a83b 9082 b23d f600 55be 39f7 f6be
00000130: 6e4a 183e 7953 a5be 642f 7dbe 69a1 52bd
00000140: 5020 d43e 251b cbbe 9781 79be 09e9 acbd
00000150: a49e 8b3e 850e 0c3f 6cd7 45bd a311 14bf
00000160: a9b0 04bf 7820 2c3e dc3c 123e 2013 71be
00000170: 38c1 973e e92f cbbe 11b8 883c 7b71 d6be
00000180: 1b21 13be 77c6 753d 9fc9 3fbf d2e6 883e
00000190: 83ec 6abe 99b1 e33e cdbe 903e b1a8 babd
000001a0: e734 1d3e f62e 943d fe63 f0bc 01c3 03bf
000001b0: 709f d4be 75eb 85be 51c0 3cbe 2aa6 3cbe
000001c0: 9704 e5bd 2e54 85be 02b7 3e3e 476e 79bd
000001d0: 3cd6 41be fd75 1ebe 69d5 7cbe 6531 aa3d
000001e0: e7f8 b33e 78ac 2e3f 19eb f93d 5113 11be
000001f0: 5422 2f3f a5e1 25bf 13c5 c03d cf96 1fbe
00000200: 25b9 96bd 11ea c83d 05cb 153f 11ca 3d3e
00000210: 1d7b 063d 5120 1ebe 560b bdbd 06ea cebd
00000220: 02e2 dc3d 43a5 873e d19c 5a3e 8e13 42be
00000230: 7521 54bf cd04 423e c95e 5fbe 1ceb c8be
00000240: 9aa2 4bbd 5b20 80bd aff3 ff3e 037f 353d
00000250: a0f3 cd3e 7d06 c63e dae9 9dbe 7608 d73d
00000260: 268b c2bd 84ea 63be f0be d63d c5ae b83e
00000270: 0d71 893d cde7 313e 87e4 c93e 369e d3be
00000280: f256 2b3f ea57 233e 68ea 74be 06ee 99bf
00000290: a6fe a9be 7da2 ea3d 8393 e2be d0c9 aebe
000002a0: 466e 9b3d de36 b23e fbca 6b3e f7bc 973e
000002b0: c4c2 6ebe 4f59 2abe 9097 5a3e ab27 19bf
000002c0: 6255 d6bd 26bb 69bf 8b56 74bf d15d bf3d
000002d0: 0373 f2be 0855 03bf 88e0 c43e 7070 5b3f
000002e0: c0e9 70bd 1398 013e ff9a ffbe 0635 ed3e
000002f0: b28f aabe 4402 afbd fd5d 94bd e43b 813e
00000300: c454 3a3f c1b3 b2be d83b 963e d040 3dbd
00000310: 2138 a13d 40bb a8be f3fe a5be c597 e33d
00000320: eb17 873e b354 2dbf 700f 62bd d72f c8be
00000330: 53ed f1be 9fdd b13e 3025 62bc 2cee 033f
00000340: 3a08 aa3e f1da a4be 63c4 83be f400 6ebf
00000350: a475 d4be b775 c83e 9338 80be 8dff 8dbc
00000360: d2e6 363e f440 323e 219e fcbe 7c9c 15be
00000370: 27ed 1bbc 08ff 043e 333e 54be 4df8 c03d
00000380: cb34 b9be 91a7 7b3e 94ad 69be fb4c 2d3e
00000390: 51dc 27bc 66b8 ef3d 261c bbbe 0187 2c3e
000003a0: 5ee2 37be 26c3 c0bd 9127 703d 4cc9 c8bd
000003b0: dd7c 143f 15db 893e 08c1 58be 948c d7be
000003c0: eea6 d03d 869e 2d3f 9aa2 663e 92ef acbe
000003d0: 5dac f2be 2cca f53e c09f af3e b454 35be
000003e0: 500d 4e3e 30ea e63e 1f69 983e 8d81 00bd
000003f0: 9ee2 203e 95d0 763c 68f3 83be dd85 8f3d
-0.26664972 0.21986452 -0.45847827 -0.18275936 0.22946243 0.4147489 0.14960952 0.20686716
0.18304159 -0.3145231 -0.28866664 -0.10252164 0.17192344 -0.9118186 -0.47879392 -0.13395256
0.15390807 0.26232472 -0.16469319 -0.9447158 -0.06507883 -0.47324306 0.117261 0.005244985
-0.5494552 0.05165684 -0.20009878 -0.038219616 0.054864597 -0.4200262 -0.8487927 0.056532685
0.39829686 -0.33273822 -0.43996975 0.06244181 0.0355397 0.036430664 -0.6103129 -0.37165096
-0.16968565 0.13689956 0.47019926 0.511017 -0.09023175 -0.032508824 0.07288014 -0.051983375
-0.12254247 -0.21680687 -0.06389958 0.21373068 -0.044715945 -0.41101393 -0.14211284 -0.22265577
-0.02432954 -0.23704273 -0.6078762 0.2826721 -0.23862793 0.26023918 -0.036486253 -0.20045587
-0.33064067 -0.62905115 -0.48057315 -0.30470908 -0.599618 -0.09879836 -0.3913786 0.039592255
0.0051386785 0.08716309 -0.20801148 -0.4823549 0.14872143 -0.32290247 -0.2472511 -0.051423464
0.41430902 -0.39669147 -0.24365841 -0.084428854 0.2726947 0.54709655 -0.048301145 -0.5783941
-0.5183206 0.16809261 0.14281029 -0.23542452 0.29639602 -0.3968499 0.016689332 -0.41883454
-0.14368097 0.060003724 -0.74917024 0.26738602 -0.22941785 0.44471434 0.2827057 -0.091142066
0.15352212 0.072355196 -0.029344555 -0.5146943 -0.4152789 -0.26156202 -0.18432738 -0.18422762
-0.11182516 -0.26040787 0.186245 -0.060896184 -0.1892938 -0.15474696 -0.24690785 0.083102025
0.35150835 0.68231916 0.122030444 -0.14167525 0.68411756 -0.6479743 0.09412589 -0.15584873
-0.07359532 0.098102696 0.5851291 0.18534113 0.032832254 -0.15442015 -0.09230678 -0.1010323
0.10785295 0.26493272 0.21348883 -0.18952772 -0.8286355 0.18947144 -0.21813501 -0.39241874
-0.049715616 -0.06256171 0.49990603 0.04431058 0.40224934 0.38676825 -0.30842477 0.10499661
-0.09499197 -0.2225743 0.10485637 0.3607084 0.06711016 0.17373581 0.39432165 -0.41331643
0.66929543 0.15951505 -0.23917544 -1.2025764 -0.33202094 0.114567734 -0.44253168 -0.34138346
0.07589392 0.34807485 0.2302665 0.29636356 -0.23316485 -0.16635631 0.21346879 -0.59826154
-0.10465504 -0.9130119 -0.95444554 0.09344066 -0.47353372 -0.5130162 0.38452554 0.8571844
-0.05881667 0.12655668 -0.4992294 0.46329516 -0.33312756 -0.08545354 -0.07244489 0.25241005
0.7278559 -0.34902766 0.29342532 -0.04620439 0.07872034 -0.3295536 -0.32421073 0.11112932
0.26385435 -0.67707366 -0.055190504 -0.39099 -0.47251377 0.34739396 -0.0138028115 0.51535296
0.332094 -0.3219829 -0.2573577 -0.92970204 -0.41496003 0.3915231 -0.25043163 -0.01733377
0.17861488 0.1740759 -0.49339393 -0.14610475 -0.009516991 0.12987912 -0.20726852 0.094223596
-0.3617309 0.2457564 -0.22820121 0.16923897 -0.010245399 0.11705093 -0.36544913 0.16848375
-0.17957446 -0.094122216 0.058631483 -0.09804019 0.58003026 0.2692496 -0.21167386 -0.4209944
0.10188089 0.6782001 0.22522965 -0.33776528 -0.47397128 0.48005807 0.34301567 -0.17708093
0.20122266 0.45100546 0.297677 -0.03137355 0.15711448 0.015064378 -0.25771642 0.07007954

l2.weight f4 [300, 400]
00000000: 79e7 d13b cc9e d73d 98e0 03bd 4eaa 10bd
00000010: 6c0a 993c a821 09be ac07 16be 30af 82be
00000020: 305a e83d a544 00bf d980 bcbd a1c7 4bbe
00000030: 40c6 09bf fcc8 01be 60f5 a6bd d7cb 73be
00000040: f7e7 f1bd aaf1 a1bd a3c6 6cbb e082 75be
00000050: 4785 153e 4387 85bd ed02 29be 6eb5 9fbd
00000060: 52da d9bd 9994 403e 22ba fdbd 740a bdbd
00000070: 1c20 21be b60d 9f3d cd66 9d3e a423 69be
00000080: 89a5 e8be 3b4d c8be efda 56be b790 0ebf
00000090: 8d7d f43c 4e0f 88be 2f79 3b3e f48c 673e
000000a0: e79f 2bbd 7a14 693d ec25 a3bc 7511 aa3d
000000b0: b3a2 343d 4b71 a13c f54e 28be 4dfe 3a3d
000000c0: 5c8f 2c3c 1e02 8cbe 5104 5ebe e883 aa3e
000000d0: a56c 49be 30ea 223c 05ee e53e f11b f33c
000000e0: 279a 3ebf e950 6bbc 0af9 99be 67e9 833c
000000f0: b25d b03d f37e b83d b6ba 953d 3436 a13e
00000100: 4092 13bc 48c2 e3bc 78f5 a7bb 0bd6 b03e
00000110: 90c3 98bd 7516 93be 6791 d9bd f83c a6bc
00000120: 7019 253e a4fd 373e 6762 71be a8b2 b1bd
00000130: cdc2 15bf a7bc f43c 19ca 0f3e f9ce 8c3e
00000140: 10e2 bbbd 2fa2 9cbd 9996 afbd bd0d 89bd
00000150: e758 713e 494e 563d 1915 99bd 590f 04bd
00000160: 7bfd 533e 4cd3 433e db86 363e 816d 46be
00000170: 6650 26be 77e3 c2be 1073 1d3e d382 02bf
00000180: 7f1c 9f3c 4f6a a73c b214 44be 87ca 72bc
00000190: 89f1 e6bd 5c34 903d b08c 853e 58d7 a1be
000001a0: 03dd d8bd 64be 023e 1cbd 8d3e 16d7 6abe
000001b0: baa6 4dbc 9c3c 243d 27de 253e 5718 413e
000001c0: 80e0 5c3d f542 42be c273 333e f089 61bd
000001d0: bf00 37be 0aaf a23d 3822 603e 60bd a4be
000001e0: 7c78 b5be b1d1 883d d9bf a5bb 16cd 053c
000001f0: 58b9 eebc 32ff bcbd ce6f 77bd bd19 a1be
00000200: 81fb d3be 696e 12be ce8a 50be 53d8 21bd
00000210: 8550 ddbc f228 f43d 9867 fabd bcb4 c53d
00000220: b7f7 183e 6ac6 ac3d dd8b fbbd f0d3 973d
00000230: 4949 57bd 9e52 adbe 846d 32be 7d7b 263e
00000240: 0262 6b3d cd8e 1c3e f437 aa3c 9fb9 da3e
00000250: 21f3 a9bd 27d0 b7bc 42fb 29bd 47a4 0dbe
00000260: ef40 1a3e e047 fbbd 5550 773d 21f8 bdbc
00000270: fb00 f6bd 8ce9 f8bc b8fd 7e3d efe1 c6bd
00000280: a237 45bd 2c24 f6be 2f76 8dbd d726 5a3e
00000290: 5b64 403e d21a 96be 6bff 513e fadf 8c3e
000002a0: 2371 9cbe 7632 18be 5ee6 0fbd 6d77 7fbe
000002b0: 9714 f6be c55f 91bd 3565 e33d 7a11 c4bc
000002c0: 1224 fdbc b3d8 6abd a321 b3be 5ed2 08be
000002d0: 41ef e6bd 7a9b 17be c588 853d 664a 11be
000002e0: 13b3 63be 11e1 79be 913a 29bf 0a74 efbe
000002f0: fa75 e43d eb0d d03d 98fa 3dba 5855 8ebe
00000300: 89ef 09bf 9907 c8be c5f5 69be bdd6 cf3d
00000310: bb12 163e 2e1f 45bd 3999 d9bd e087 353e
00000320: 9270 3e3e 1e18 0db9 336f 2ebe 2ef5 32be
00000330: 2a83 0a3d 083f 973d f2d7 03be da40 51be
00000340: efa4 dcbe 82bd adbe 7847 b9be 5347 17be
00000350: 421f 51be 3285 243e 742b 63be cf54 c8bd
00000360: 9012 83be 4a23 bebe 7aa3 013d 4e14 83be
00000370: f576 b0be d3a1 153c 7880 20bc 911f 49be
00000380: 6615 bd3d ea30 5c3d 0058 3f3e 9339 61bc
00000390: c260 1fbd 14c5 9bbe 47ec 8cbd 6f00 40be
000003a0: 4f11 203d d96b c7bd 9914 a93e 912b 64bd
000003b0: 63a9 fcbe d038 d33d 4f8d 50bb 472b 713e
000003c0: 3f53 503e f0ce 2bbe a860 42bd a9ac 5abe
000003d0: a5eb dcbd 67e1 c13d 5287 e33b 2f71 0fbd
000003e0: da89 12be 6532 37be b8ac 503d 6efc 89bd
000003f0: 37fa 60bd 6c5e aabe 84fd 153e 8f34 43bf
0.0064057675 0.10528335 -0.03219661 -0.035318665 0.018681727 -0.13391745 -0.14651364 -0.25524282
0.11345327 -0.50104743 -0.09204263 -0.19900371 -0.5381813 -0.12674326 -0.0815227 -0.23808227
-0.11811822 -0.07907422 -0.003612914 -0.23975706 0.14601623 -0.0651994 -0.16505022 -0.07798277
-0.106373444 0.18806686 -0.12389018 -0.092305094 -0.15734905 0.07766287 0.30742493 -0.22767502
-0.45438793 -0.39121422 -0.20981954 -0.5568957 0.029845024 -0.26574177 0.18307947 0.22612363
-0.04190054 0.056904294 -0.019915543 0.08304111 0.044100475 0.019707343 -0.1643637 0.045652676
0.010532226 -0.27345365 -0.21681334 0.3330376 -0.19670351 0.00994353 0.44908157 0.02967641
-0.7445397 -0.014362552 -0.30072814 0.016102506 0.08611621 0.09008589 0.07311003 0.31486666
-0.009007037 -0.027802601 -0.0051256977 0.34538302 -0.074591756 -0.2872807 -0.106234364 -0.020292744
0.16122985 0.1796785 -0.23572694 -0.08676654 -0.5850037 0.029875113 0.14041938 0.27501658
-0.091739774 -0.076481216 -0.08573646 -0.066920735 0.2356907 0.052320752 -0.07474727 -0.0322412
0.20702164 0.19123572 0.17824881 -0.1937771 -0.16241607 -0.38064167 0.15375924 -0.5098087
0.019422768 0.020436434 -0.1914852 -0.014818794 -0.11276538 0.07041237 0.260839 -0.31609607
-0.1058903 0.12767941 0.27683342 -0.22933611 -0.012551958 0.040096864 0.16198026 0.18856941
0.053925037 -0.18970855 0.17524627 -0.055063188 -0.17871378 0.07943542 0.21888053 -0.32175732
-0.35443485 0.066806205 -0.0050582704 0.008166572 -0.029141113 -0.09228362 -0.06040936 -0.3146495
-0.4140282 -0.1429993 -0.2036545 -0.039512943 -0.027015934 0.11921872 -0.1222679 0.09653613
0.14938246 0.08436282 -0.12282536 0.07413471 -0.052560125 -0.33852094 -0.1742459 0.16258045
0.057466514 0.15288849 0.020778634 0.42719743 -0.08298326 -0.022438122 -0.041499384 -0.13832198
0.15063833 -0.122695684 0.060379345 -0.023189606 -0.12011906 -0.030384801 0.062253684 -0.09711062
-0.04814876 -0.48074472 -0.06907307 0.21303879 0.18788283 -0.29317337 0.2050759 0.2751463
-0.30555066 -0.14863 -0.035131805 -0.24947901 -0.48062584 -0.07098345 0.11103288 -0.023934115
-0.030900989 -0.057335567 -0.349866 -0.13361499 -0.11276103 -0.14805403 0.06520227 -0.14188537
-0.2223628 -0.24402262 -0.6610499 -0.46768218 0.11155315 0.10158905 -0.0007247119 -0.27799487
-0.53881127 -0.39068297 -0.2284766 0.1014838 0.14655583 -0.04812544 -0.10624928 0.17727613
0.1859763 -0.00013455792 -0.17034607 -0.17476341 0.033816494 0.07385069 -0.12875345 -0.20434895
-0.43094584 -0.33933645 -0.3618734 -0.14773302 -0.2042208 0.16066435 -0.22184545 -0.09781801
-0.256001 -0.37136298 0.031650044 -0.2560143 -0.34465757 0.00913282 -0.009796254 -0.19640948
0.09232597 0.053757586 0.18685913 -0.013746637 -0.038910635 -0.30423796 -0.06881004 -0.18750165
0.039079007 -0.09737367 0.33023527 -0.05570561 -0.49347982 0.103135705 -0.0031822508 0.23551665
0.20344256 -0.16778159 -0.04745546 -0.21354927 -0.10787133 0.0946682 0.0069436217 -0.03502005
-0.14310399 -0.17890318 0.050945967 -0.067376 -0.054926123 -0.33275163 0.1464749 -0.76252073

l2.bias f4 [300]
00000000: 6de9 073d 265d f03c 039c 1d3e 97f7 94be
00000010: c2d2 2bbe a737 afbe fa2c 1abe 032f a23e
00000020: 228c 7bbe 0ece 353e 3634 c5be 84a3 a7bd
00000030: c88c 1d3f 3911 35be 1666 02be 3175 c33d
00000040: ab97 e33e 7c6c c4bd d917 ec39 21cb d9bd
00000050: 4285 bebd 7a1b 8a3b 5204 c3bd 8feb 49be
00000060: 1353 3cbe bd0a b5be 7122 a0be fe90 cfbc
00000070: aff1 97be 2548 163d be67 9dbe 494c 843c
00000080: a3d0 69bd 6cfd 96be 2e91 7bbc 4ed8 e7be
00000090: 9148 2a3d 1698 f63d eaa9 44bc 5a0d 1ebd
000000a0: 671e 01bc 1611 0cbe ab47 e1bd 82f5 08bd
000000b0: 206b 513f 9663 bd3c 1513 783e 020c 02be
000000c0: 9188 6b3d cc44 463b ea93 a8bd b956 42bd
000000d0: c1fe 7bbe 67e3 b3bd 55ef fdbc 8749 8e3e
000000e0: d41f a3be 196c eb3d 3a2a c63e 83f5 c23c
000000f0: c069 583d 7313 5dbe 0112 4d3e 3f50 bbbc
00000100: 2771 873e 3b96 0bbe 5d61 b93e e6fe 87bd
00000110: 7965 81be 2975 ebbe 3096 c6bd 780f 9abd
00000120: 9211 ddbd 9c06 ff3d 57c2 35be 8f28 b2be
00000130: e94f f93e 38aa 6dbd ed5d 18bf 1f9c 91bd
00000140: 4fa2 ccbd 28e8 083e 5e0d ad3e 15cd 2bbf
00000150: 6515 d6bd 3050 96be e28a acbd fdb1 22be
00000160: fefa 36be 94b4 0fbd 260c e2bd d5e6 c9bc
00000170: fe89 23be baa6 56bd 9342 023d ed92 9f3d
00000180: 14f6 6cbd 9629 47be b01f 1f3f 6b91 75bd
00000190: 9a5b 4f3e 9550 99bd 3e43 7abd 481a 1a3d
000001a0: 7e25 6b3b 1da5 7dbd 84ea 7abe c3db 08bd
000001b0: 3a6a 483d 6579 efbd ce52 aebe 5d43 fabc
000001c0: 596b 04be 017b 763e 4f28 eabd fa63 ae3d
000001d0: 1c72 79be cee3 98be 60e3 0c3d 78b7 ccbb
000001e0: 342b 833f 0794 f2bd 441c 143e 637e 9dbe
000001f0: 274c 823d 0155 43be 283b 54be 8d5f 8dbe
00000200: f700 0dbe bc81 2bbc 648b a2be d105 82bd
00000210: 84fb 2abc b555 27be 8d14 f0bb 32b5 dabd
00000220: 866d d23b e83a 49bd 998b 23be f561 8cbe
00000230: 3c7c bebe 9767 80be e5c4 6bbe 5ed9 ccbd
00000240: 3ed4 2abd bd55 17be af88 c8bc 1d74 c33d
00000250: 8ade d1bd 0836 233e 4913 f2bc 42e6 27be
00000260: 6fd8 64bc 8250 0ebe 84ef d4bd 32a6 18bc
00000270: acbc 70be 3646 f9be ea9f 8ebe f6ce a5be
00000280: 4042 98be 4258 183e c8ee e5ba 70a5 0fbf
00000290: 09b7 223f 9c85 febd 7b68 123e 7d3f b93e
000002a0: c3f6 3ebe 7da0 ae3e 0b78 e3bd 8d3e fabd
000002b0: 243b a8bd 1618 cebd 8727 e7bd be34 cdbd
000002c0: 463b 2dbe 6142 f73e d433 80bd 8a42 87be
000002d0: e6a1 7d3e 2d32 df3e 66e7 31be 7654 b03e
000002e0: be44 efbc c5e2 a9be 1a9a a0bd 23ba d9bc
000002f0: 0e88 fcbc 2d8c 9bbe 5f28 bcbe ffb7 653b
00000300: d5c0 043e e88e 8fbb c264 b6be 1d9e fbbd
00000310: 9ea4 fe3d 5197 d73e b5f8 4cbe 79d1 ff3b
00000320: 64a9 afbc 46a2 433e ef3d ee3c d0b0 34be
00000330: 63b8 94be 553d 83be 69e7 0fbd 1ed5 a2bd
00000340: 8146 dabd c77a f53c 984c b3bd a287 a6be
00000350: a5f1 40bc f749 fbbe 8e77 063f 16fc 3d3e
00000360: c316 5c3e 2769 99be c42f 81be e5cf 9abe
00000370: 27c9 7a3d b345 0f3f 8903 01be ca93 11bf
00000380: 8abc b2bd 91cd 383c 5db9 2a3f e6b8 583d
00000390: ec3c 59be b267 a2bc 8ab4 12bf c567 043e
000003a0: 00a9 bdbd a7da eb3d 478c 4dbe f22f f1bc
000003b0: 87c9 0dbe b025 a73c 7f3b 1cbd 2053 64bd
000003c0: 7776 4bbe 02a3 49be 34f8 8dbc c608 e53e
000003d0: 6f18 b9be 030a ab3d 224c a2bd f79f ee3d
000003e0: 11dd 4cbe ab5a bfbd d6f1 e7bd 9b61 0ebe
000003f0: 8dbd 1abd 48ed 8ebd e15a 8d3e 4f0c 843d
0.033181597 0.029341292 0.15391545 -0.29095146 -0.16779616 -0.34222147 -0.1505622 0.31676492
-0.24565175 0.17754385 -0.38516396 -0.08185485 0.6154294 -0.17682351 -0.12734255 0.09543837
0.4445165 -0.09591004 0.00045031196 -0.10634447 -0.09302761 0.0042147012 -0.095223084 -0.19718765
-0.18391065 -0.35359755 -0.31276277 -0.025337692 -0.29676577 0.036689896 -0.30743212 0.016149657
-0.057083737 -0.2949022 -0.015354438 -0.45282215 0.04157311 0.12040727 -0.012003401 -0.03858695
-0.007880784 -0.13678393 -0.10999998 -0.03343726 0.81804085 0.023118775 0.24226029 -0.12699893
0.057503287 0.0030253408 -0.08231337 -0.047445986 -0.246089 -0.08783608 -0.030997911 0.27790472
-0.3186022 0.11495227 0.3870409 0.02379871 0.052835226 -0.2158945 0.20026399 -0.022865413
0.26453516 -0.13631527 0.36207095 -0.06640415 -0.2527273 -0.45987824 -0.09696615 -0.07522482
-0.10794367 0.124524325 -0.17749916 -0.3479657 0.4869378 -0.05802366 -0.5951832 -0.07109856
-0.099918954 0.1336981 0.3379926 -0.67109805 -0.104532994 -0.29358053 -0.08424927 -0.1588821
-0.17869183 -0.035084322 -0.110374734 -0.024646202 -0.15970609 -0.052405097 0.03180177 0.07791696
-0.057851866 -0.19449458 0.62157726 -0.059953135 0.20249787 -0.07486073 -0.061099283 0.03762272
0.0035880501 -0.061925042 -0.24503523 -0.033412706 0.04892943 -0.11693076 -0.3404755 -0.0305497
-0.12931575 0.2407036 -0.114334695 0.08515163 -0.24359936 -0.298613 0.03439653 -0.006247457
1.024756 -0.1184464 0.14463907 -0.30760488 0.06362181 -0.19075395 -0.20725691 -0.27611962
-0.137699 -0.010467943 -0.31746972 -0.06348766 -0.010435943 -0.16341288 -0.0073266686 -0.106790915
0.0064217476 -0.049128443 -0.15971221 -0.27418485 -0.37204158 -0.25079033 -0.23024328 -0.10002397
-0.041706316 -0.147788 -0.024479238 0.09543631 -0.10247524 0.1593858 -0.029550212 -0.1639643
-0.013967617 -0.13897899 -0.103972465 -0.009316968 -0.23509473 -0.4868638 -0.2785638 -0.3238446
-0.29738045 0.14877418 -0.0017542476 -0.5611181 0.6356054 -0.12427828 0.14297669 0.3618125
-0.1864882 0.34106818 -0.11106881 -0.12218962 -0.08214405 -0.10063188 -0.11286836 -0.100198254
-0.16917142 0.4829283 -0.062598854 -0.26417953 0.2476879 0.4359297 -0.17373428 0.3443944
-0.029207584 -0.33180824 -0.078418925 -0.026578015 -0.030826595 -0.30380383 -0.3674955 0.0035052297
0.12964185 -0.0043810494 -0.35623747 -0.12286017 0.12433742 0.42107633 -0.20016749 0.0078069535
-0.021443076 0.19104871 0.029082267 -0.17645574 -0.29046926 -0.2563273 -0.0351328 -0.07950805
-0.10657979 0.029965771 -0.087548435 -0.32525355 -0.011776363 -0.49079868 0.52526176 0.18553194
0.21493058 -0.29963037 -0.25231755 -0.30236736 0.06122699 0.5596573 -0.12599005 -0.56866133
-0.08727367 0.01127948 0.6668909 0.052910708 -0.21214646 -0.019824836 -0.5730673 0.1293021
-0.0926075 0.11516314 -0.20073043 -0.029441807 -0.13846408 0.020403713 -0.038142677 -0.055743337
-0.1986941 -0.19691089 -0.017330267 0.44733256 -0.36151454 0.08351519 -0.079246774 0.116516046
-0.20006205 -0.093434654 -0.113254234 -0.13904421 -0.037778426 -0.069788516 0.27608398 0.0644766

l3.weight f4 [4, 300]
00000000: a00a e43e 1fcc fdbe 948d 0bc0 809d 5b3f
00000010: 0c14 953f 7330 b1bf abe5 1bbf 4897 d03f
00000020: 1a41 a7be 7cc0 853d 8c54 b63f b1cb db3d
00000030: 3c16 4fbf 1caa 483f 403e a43d 67aa 46bf
00000040: 4566 f8be df94 9f3d 6f0b 213e 17ae 2e3f
00000050: 104b bfbd f374 0b3c 2b1b 99be 2959 023f
00000060: c280 053e a1e3 0ec0 eaad 593f 4058 b7be
00000070: f3cd 373c 98e1 0b3f 5aae d0be 8fa4 44bc
00000080: 367c 7abf 7e2a 94bc 9c47 3ebf 04db f53e
00000090: 3cc7 8e3f a20d b03d a585 87bd 172f f1bd
000000a0: e5aa 2abe 9574 5e3d 84f0 3fbe b6b3 3bbf
000000b0: 08e6 bdbf a013 e23e e527 dd3f d889 86be
000000c0: a3c4 1ec0 0b3d 1f3f 2607 1ebc e2ce b4bd
000000d0: a9d3 fe3e 632e fe3d 8806 6cbe 9140 eb3e
000000e0: 1a98 333f b09a 37bd fb78 5dbf 782e 22bc
000000f0: 5f0e 723f f581 8abe d3fe a63e 1510 49be
00000100: fc47 69be 2b4d 1ebf 0d5b 353f 7bc2 ddbe
00000110: 007c ddbc 01c7 553f 2bc0 34bf 8e83 cabd
00000120: 3143 11bf bf8a 76bf ff33 293f 3008 013f
00000130: b861 14be 11c7 a9bd 3098 ff3c a4e5 b43e
00000140: 1b08 42be 4c24 45bf 551b b93d 1131 0bbe
00000150: 1f5d 8e3f aca4 7d3f 0a2d e1be 9e63 6e3f
00000160: 1896 d7bf 58fc 01bc 60c2 0dbe 63cb f0be
00000170: eba2 d73e 7f1d d9bf 95a7 873e feb9 923e
00000180: 2ec7 993b 2bec a63f d267 e53f 1b9c da3c
00000190: ca5e a7bf e0ca c23e fcd1 f73e 7f44 b73c
000001a0: fae8 273e cbbd c33e df56 4cbf ff25 50bd
000001b0: 3f9d db3e 5a41 f83e 4a00 2fbe 4cab f7bd
000001c0: 3054 86bf c56e 853e a75c c6bf 9776 adbe
000001d0: f576 a93e 1901 b9be b6e0 3dbf cf6d 0fbd
000001e0: 3b3f 0ec0 c367 51bf ce48 00bf 5f19 35bf
000001f0: 190e 0f3e 94ed 683f e6f7 c1bf 0453 de3e
00000200: b49d 7d3f ae41 0d3f 1e56 293f 5b3c 8a3f
00000210: b151 8abf be87 e0bd 0803 fe3f c8a3 843e
00000220: c18c 1ebe 9992 1d3e 633a f1be 561a 3fbf
00000230: bf46 ab3f f9af a03d ab91 8fbf 26d4 19bd
00000240: fd7d dcbd 63fc 78bf ca05 abbc 6ebf a4bf
00000250: 87fd e73d c258 acbc 9d5d d4bd b293 98bd
00000260: 4526 d73f 3524 50bf ac04 36bd db9a 62bf
00000270: 26fe 263f 6b9f 79bd e8ae 99be 391d 52bf
00000280: ff7b c1be 5d69 043f 5793 9d3e 4c50 38be
00000290: 617f c2bf bdc7 f33f c810 26bf b198 bebd
000002a0: a7b7 6dbe dae6 743f 96df 3a3d 8555 553f
000002b0: 8864 3b3f eb21 463f 217a 10c0 697d 20bf
000002c0: 819b 0a3f deac 09bf 1d7a 9f3e 7e9a cebe
000002d0: d4d8 643c 8c9f 723e 06e4 7bbe 1a83 1cbd
000002e0: 7edc c3bd 1105 363f 4a17 97bd b4b3 f03e
000002f0: 2587 183f a9ae 1d3f 95b2 02bf b508 47bf
00000300: db02 8bbe 90d2 093f 13e0 85bf 9630 3cbe
00000310: 0b16 e6bf 9ba5 a63e 6e53 363d 6a96 84be
00000320: bc52 fcbd ea90 993f 50ea ea3e ed8e 4b3f
00000330: 1af1 2abf 429a 35be a1bb 45bf f180 a7bf
00000340: 74f8 793e b49f 60bb 2139 d8bf 6505 4bbf
00000350: 5be7 27bd 9d8e fbbd 8e3b 053e c810 1d3f
00000360: e813 923e fcc7 433e 8775 f13e 37c2 3dbe
00000370: bc2e 50bf e2de 90bf bb93 1bbe 76db 61bf
00000380: f798 80bd e82a 98bc 8afb a3bf e711 1cbe
00000390: 5f73 6dbf 7a4a 913e dd8a 053f 2eaf 1140
000003a0: 3362 b23d 6a06 a03e 8d79 d8bd 9c1c 4fbf
000003b0: 9d9d 8cbd e186 20be d643 c03e be5c 1fbd
000003c0: 568e bdbf c3ed 1ebf dc03 d3bd c602 543c
000003d0: 4c19 303e 5086 0cbe dc1d a8be 1e81 c93e
000003e0: bf44 b43f 777c c7bf 7936 643e 9844 683e
000003f0: 5159 54bb 21da 753e cde1 3b3f 86d1 59bf
0.44539356 -0.49569795 -2.1805162 0.857872 1.1646743 -1.384291 -0.6089732 1.6296167
-0.32666856 0.06530854 1.4244552 0.107322104 -0.808933 0.78384566 0.08019686 -0.77603763
-0.48515525 0.07792067 0.15727018 0.6823439 -0.09340489 0.00851177 -0.2990354 0.509173
0.13037398 -2.2326434 0.85030997 -0.35809517 0.011218536 0.54641104 -0.4075802 -0.012002124
-0.9784578 -0.018086668 -0.7432802 0.48018658 1.1154552 0.0859635 -0.066172875 -0.1177656
-0.16666754 0.0543104 -0.18744093 -0.7332109 -1.4835825 0.44155598 1.72778 -0.2627704
-2.4807518 0.6220252 -0.009645259 -0.08828522 0.4977086 0.12411191 -0.23049366 0.45947698
0.70153964 -0.044825256 -0.86512727 -0.009898774 0.9455318 -0.27052274 0.3261629 -0.19635041
-0.22781366 -0.618365 0.7084206 -0.4331244 -0.027036667 0.8350678 -0.70605725 -0.09888373
-0.5674315 -0.9630546 0.66094965 0.5040312 -0.14490402 -0.08289922 0.031200498 0.35331452
-0.18948404 -0.7700851 0.09038416 -0.13592936 1.1122168 0.99079394 -0.43979675 0.93120754
-1.684268 -0.007933699 -0.1384368 -0.47030172 0.42116484 -1.6962126 0.26495042 0.28657526
0.0046929335 1.3040823 1.7922308 0.026685765 -1.3075802 0.38045406 0.48402393 0.022371529
0.16397467 0.38230738 -0.79820055 -0.050817486 0.42893407 0.4848736 -0.17089954 -0.12093219
-1.0494442 0.26061073 -1.5497025 -0.3387954 0.3309857 -0.3613365 -0.74171007 -0.03501683
-2.2226093 -0.8179895 -0.5011109 -0.7074184 0.13970222 0.90987515 -1.5153778 0.4342271
0.9906876 0.55178344 0.6614703 1.0799669 -1.080618 -0.10963391 1.9844675 0.25906205
-0.15483381 0.15387954 -0.47114858 -0.7464956 1.3380965 0.07846064 -1.1216329 -0.037555836
-0.10766218 -0.9726011 -0.020876784 -1.287092 0.113276534 -0.021038417 -0.10369418 -0.07450046
1.6808554 -0.8130525 -0.04443805 -0.8851754 0.6523155 -0.06094305 -0.30016255 -0.8207584
-0.37789914 0.5172327 0.30776474 -0.17999381 -1.5195123 1.904533 -0.64869356 -0.09306467
-0.23214589 0.9566475 0.045623384 0.8333362 0.73200274 0.77395505 -2.2574542 -0.6269136
0.5414353 -0.537794 0.31147853 -0.40352243 0.0139677115 0.23693675 -0.24598703 -0.038210966
-0.0956354 0.7110148 -0.07377489 0.47012103 0.59581214 0.61594635 -0.51053745 -0.7774766
-0.27150616 0.5383692 -1.0459007 -0.18377909 -1.7975477 0.32548222 0.04451316 -0.25896007
-0.12320468 1.1997349 0.4588189 0.7951496 -0.6677414 -0.17734626 -0.77239424 -1.3086225
0.24411184 -0.0034274878 -1.6892434 -0.79305106 -0.040992122 -0.12283061 0.13011 0.6135373
0.28530812 0.19119257 0.4715998 -0.18531118 -0.8132131 -1.1318018 -0.15193073 -0.88225496
-0.06279176 -0.018575147 -1.2811139 -0.15241204 -0.9275417 0.28377134 0.52165014 2.2763171
0.08710136 0.31254894 -0.10570059 -0.8090303 -0.06866 -0.15676452 0.37551755 -0.038906805
-1.4809062 -0.62081546 -0.103034705 0.012940114 0.1719715 -0.13723111 -0.3283528 0.3935632
1.408348 -1.5584859 0.22286405 0.22682416 -0.003240187 0.24008991 0.7339142 -0.8508533

l3.bias f4 [4]
00000000: 413f 2cbd 1f0f 593d 98ee c3be 255f 953e
-0.04205251 0.052992936 -0.3826797 0.29174152
