preTrained/TD3_BipedalWalkerHardcore-v3_0_crtic_2.pth (torch_old, 529892 bytes, 5 tensors)

l1.weight f4 [400, 28]
0	0xbf101ae3	-0.56291026
1	0xbf21028b	-0.62894505
2	0xbd933dd9	-0.07189531
3	0xbfa4c948	-1.2873926
4	0x3ee39854	0.44452155
5	0xbd5064a6	-0.050877236
6	0xbdfa6bed	-0.122276165
7	0xbd9dc5d7	-0.077037506
8	0x3e33fb5a	0.17576352
9	0xbed7286d	-0.4202303
10	0xbebe5e72	-0.3718143
11	0xbed09327	-0.40737268
12	0xbdec6e55	-0.11544482
13	0xbda7b13d	-0.081881024
14	0xbf0360d7	-0.5131964
15	0xbf3989e4	-0.7247603
16	0xbf0637a1	-0.5242863
17	0x3d6961d4	0.05697806
18	0x3ed4f129	0.4159024
19	0xba58d22e	-0.00082710653
20	0xbee137a1	-0.43987754
21	0xbe1f3409	-0.15547194
22	0x3e1ec609	0.15505232
23	0xbde5d9d3	-0.11223187
24	0xbe060419	-0.130875
25	0xbd451775	-0.048118073
26	0xbe83c4d3	-0.25736102
27	0xbe258348	-0.16163361
28	0x3f0254e3	0.50910777
29	0x3e557ee8	0.20849192
30	0x3d099c86	0.033596538
31	0x3e0d07a7	0.1377245
32	0x3e405795	0.1878341
33	0xbe9e0a0a	-0.30867034
34	0xbe18aeb1	-0.1491039
35	0xbd98f9f9	-0.074695535
36	0xbcb714e2	-0.022348825
37	0xbbb200e9	-0.0054322374
38	0x3ed6a80e	0.4192509
39	0xbd7be5b7	-0.06149837
40	0x3b9131be	0.0044309786
41	0xbeb15da3	-0.34641752
42	0xbf8209d1	-1.0159246
43	0xbf3e228d	-0.7427147
44	0xbebcfe05	-0.36912552
45	0xbdd538c5	-0.104112186
46	0xbd2a040e	-0.041507773
47	0xbe684e2a	-0.22686067
48	0xbe04dab1	-0.12974049
49	0xbe860780	-0.26177597
50	0xbe53d262	-0.20685723
51	0xbd0fd266	-0.03511276
52	0x3da8bb29	0.08238823
53	0xbed869a1	-0.42268088
54	0x3df002a9	0.117192574
55	0x3e98f622	0.29875284
56	0x3f86b965	1.0525328
57	0x3f3ae630	0.7300749
58	0xbeae2776	-0.3401448
59	0xbfa82fbf	-1.3139571
60	0xbd6cd4f3	-0.05782027
61	0x3d808a2a	0.06276353
62	0xbd857ebc	-0.06518313
63	0x3c1f8600	0.009736538
64	0x3d1d0306	0.03833296
65	0x3f89db66	1.077008
66	0x3d7ed281	0.06221247
67	0x3f3326f9	0.6998134
68	0x3ca73c0b	0.020414373
69	0x3afa8b99	0.001911509
70	0xbd24ce24	-0.040235654
71	0x3f5653e2	0.83721745
72	0x3ee867ba	0.45391637
73	0x3e7e3877	0.24826227
74	0xbd20cda5	-0.039258618
75	0xbe44cd50	-0.19218946
76	0xbc9ec131	-0.01937923
77	0x3e1702ea	0.14747205
78	0x3e0bcbb7	0.1365193
79	0xbedc78c8	-0.430609
80	0xbc831585	-0.016001472
81	0x3bd27652	0.0064227963
82	0x3cdbff15	0.026855031
83	0xbcb6a362	-0.022294704
84	0x3ecdc29d	0.4018754
85	0x40470e8a	3.1102624
86	0x3f286ea3	0.6579382
87	0xbdb018ae	-0.08598457
88	0x3e46de7f	0.19420813
89	0x3e7aac31	0.24479748
90	0xbb2a59e5	-0.0025993523
91	0x3d4719b8	0.04860851
92	0xbdcc3ac9	-0.0997215
93	0xbd609634	-0.054830745
94	0x3d3da324	0.04629816
95	0xbb5b36bb	-0.003344937
96	0x3c73598e	0.0148528945
97	0xbdad5c5a	-0.0846488
98	0x3eb51add	0.35372058
99	0x3f42798e	0.7596673
100	0x3e428b4a	0.18998447
101	0xbe696b14	-0.22794753
102	0xbd7eeaa1	-0.06223548
103	0x3ea9e0d0	0.3317933
104	0x3f027808	0.50964403
105	0x3d92d637	0.071697645
106	0xbe617db5	-0.2202061
107	0xbf01c26c	-0.5068729
108	0x3dacc595	0.08436123
109	0x3cefea4f	0.029286532
110	0xbd1ccee6	-0.03828325
111	0xbd866c2f	-0.06563603
112	0x3f278a36	0.6544527
113	0x3f89c80a	1.0764172
114	0xbf64d5fd	-0.8938902
115	0xbf4458ad	-0.7669781
116	0x3eb4b0ee	0.35291237
117	0x3cea555c	0.028605156
118	0x3e3578c8	0.17721856
119	0xbc2269fa	-0.009912962
120	0xbdd7150e	-0.10502063
121	0x3eb4b36e	0.35293144
122	0x3db5c5ef	0.088756435
123	0x3e9d7cb6	0.3075921
124	0x3f0f2192	0.559106
125	0x3f064102	0.52442944
126	0x3e001170	0.12506652
127	0xbe361cd0	-0.17784429
128	0xbef865be	-0.48515123
129	0xbe531b4a	-0.20615879
130	0x3d9f08b6	0.07765333
131	0x3e6752e0	0.22590208
132	0x3debf792	0.1152183
133	0x3d1e48b6	0.03864356
134	0xbd753b48	-0.059870988
135	0xbe979828	-0.29608274
136	0xbd712cca	-0.058880605
137	0xbd7482b4	-0.05969496
138	0xbdd8b77b	-0.10581871
139	0x3dde6887	0.10859781
140	0xbf5c9aaa	-0.861735
141	0xc0350d28	-2.828928
142	0xbd538235	-0.051637847
143	0xbf440860	-0.7657528
144	0xbf0ba878	-0.5455394
145	0xbcd7785c	-0.026302509
146	0xbe09f5ef	-0.13472722
147	0xbdac76bf	-0.084210865
148	0xbd7cc8a1	-0.061714772
149	0xbf2486af	-0.6426801
150	0xbe9dffc8	-0.30859208
151	0xbe77cf72	-0.24200228
152	0x3e0afd17	0.13573109
153	0x3d9843bc	0.07434794
154	0xbc89c4e3	-0.016817516
155	0x3f2fa517	0.6861128
156	0x3f857d2f	1.0428828
157	0x3f853746	1.0407493
158	0x3dfddbb9	0.123954244
159	0xbed41e0e	-0.4142918
160	0xbf48253c	-0.78181815
161	0xbee4c806	-0.44683856
162	0xbf057d45	-0.5214427
163	0xbf0a52e9	-0.5403276
164	0xbdc74e90	-0.097317815
165	0x3ae1066b	0.001716805
166	0xbe0680ed	-0.13135119
167	0x3ccb7561	0.024836244
168	0xbf389909	-0.72108513
169	0xc017198b	-2.360934
170	0x3fa1f3d9	1.2652541
171	0xbeb32692	-0.34990364
172	0xbe4faa03	-0.20279698
173	0xbcefe923	-0.029285973
174	0x3df6e171	0.12054718
175	0xbcc5789d	-0.024105364
176	0xbde9417d	-0.11389444
177	0x3e9f1c93	0.31076488
178	0x3c04d5ac	0.008107584
179	0x3e48a74b	0.19595067
180	0xbc756a67	-0.014978982
181	0x3d93f36b	0.07224163
182	0x3e9da283	0.3078805
183	0x3e3c2c7c	0.18376344
184	0x3f124074	0.571296
185	0x3e55124c	0.20807761
186	0xbf252e0d	-0.6452339
187	0xbf26b95f	-0.65126604
188	0xbe9d15ca	-0.30680686
189	0xbda41b3b	-0.08013006
190	0x3dc3f873	0.09568872
191	0xbe62bde2	-0.22142747
192	0xbcd40f9f	-0.025886355
193	0xbc86e60d	-0.016467119
194	0x3dc42f32	0.09579314
195	0x3d5061df	0.050874587
196	0xbde081b9	-0.10962243
197	0xbe112d34	-0.141774
198	0xbef80973	-0.4844471
199	0x3ed12d69	0.40854958
200	0xbcabe523	-0.020983284
201	0x3e2a0884	0.16604811
202	0xbefff79d	-0.499936
203	0x3e809c6c	0.2511934
204	0xbd5a56eb	-0.053305548
205	0xbe801bb8	-0.25021148
206	0xbf06405e	-0.52441967
207	0x3f00ec2f	0.5036039
208	0x3df17bf8	0.11791223
209	0x3e39c184	0.18140227
210	0xbec98770	-0.39361143
211	0xbec90c89	-0.39267376
212	0x3e1c3906	0.15256128
213	0xbe344e37	-0.17607962
214	0xbe8b3b39	-0.2719362
215	0x3d466030	0.048431575
216	0x3cb87f86	0.022521745
217	0x3d1f9574	0.03896089
218	0x3cd1bd4f	0.025602965
219	0x3b4f3cfc	0.0031622043
220	0x3e3c506f	0.18390058
221	0x3e089a5b	0.13340132
222	0xbe5b3814	-0.21408111
223	0x3e987b20	0.29781437
224	0x3f14ad42	0.5807687
225	0x4023aa48	2.5572681
226	0xc009e6e6	-2.154718
227	0xbf3ae62f	-0.7300748
228	0x3e192c58	0.14958322
229	0xbd5ace3a	-0.05341933
230	0x3e8dcd91	0.27695897
231	0x3d27cd41	0.04096723
232	0x3d93aa35	0.07210199
233	0x3ef541ad	0.4790167
234	0x3dd68faa	0.104766205
235	0x3e05f740	0.130826
236	0x3d33638b	0.043796103
237	0xbdf04cd4	-0.11733404
238	0x3f0c6156	0.5483602
239	0x3ef2f073	0.47449073
240	0x3aece408	0.001807333
241	0xbe310075	-0.1728533
242	0xbea4a11d	-0.3215417
243	0xbe8b6207	-0.27223226
244	0xbe5191cd	-0.20465775
245	0x3e943cc4	0.2895261
246	0x3dc33953	0.09532418
247	0x3ce48415	0.027895013
248	0xbe1a52f9	-0.15070714
249	0x3b756da0	0.0037449375
250	0xbd00d080	-0.03144884
251	0xbc1935f2	-0.0093512405
252	0xbdc9eaad	-0.09859214
253	0x3e85624d	0.2605156
254	0x3eea9f15	0.45824495
255	0xbf885f61	-1.0654107

l1.bias f4 [400]
0	0x3e9663c7	0.29373
1	0x3e7922b6	0.24329647
2	0xbef978c4	-0.4872495
3	0xbf45382a	-0.77038825
4	0xbef926c2	-0.48662382
5	0x3d82f143	0.06393673
6	0x3e6ac4a7	0.2292658
7	0xbec12377	-0.3772237
8	0xbf0a7f6a	-0.5410067
9	0x3e429807	0.19003306
10	0xbe0b4798	-0.1360153
11	0x3e1d9186	0.15387544
12	0x3e4ba2cf	0.19886325
13	0xbe147bbd	-0.14500327
14	0xbf01aec9	-0.50657326
15	0xbe309605	-0.17244728
16	0x3e9f707e	0.31140512
17	0xbe05b08e	-0.13055632
18	0xbd8df87f	-0.069321625
19	0xbea9439b	-0.3305939
20	0xbdd2fc3f	-0.103020184
21	0xbe94691c	-0.28986442
22	0x3e300434	0.17189103
23	0xbdbac740	-0.09120035
24	0x3f5133de	0.8171977
25	0x3f4d2385	0.80132324
26	0xbf1dfcdd	-0.61713964
27	0xbea2ba20	-0.31782627
28	0xbef7bff7	-0.48388645
29	0xbe92d23d	-0.28676024
30	0xbded4446	-0.11585288
31	0x3f182981	0.5943833
32	0xbee98ace	-0.45613712
33	0xbf2b3f68	-0.66893625
34	0xbed6d9f6	-0.41963166
35	0xbf144fb4	-0.5793412
36	0xbf449a8e	-0.7679833
37	0x3e74b1bd	0.23895927
38	0xbe01427d	-0.1262302
39	0x3f0330fc	0.5124662
40	0xbe98e22f	-0.29860064
41	0xbf195a3f	-0.5990333
42	0xbe63b78d	-0.22237988
43	0xbf27f3e1	-0.65606505
44	0xbd4a1710	-0.0493384
45	0xbe921d92	-0.28538185
46	0xbe83f614	-0.2577368
47	0x3f1c3ff8	0.6103511
48	0xbd50a214	-0.05093582
49	0xbf396653	-0.7242176
50	0xbebc773d	-0.36809722
51	0x3d9489f7	0.07252877
52	0x3ecea532	0.4036041
53	0xbedbd16e	-0.4293322
54	0xbf0adb85	-0.5424121
55	0xbf0b4b6a	-0.5441195
56	0x3ed6e0bd	0.41968337
57	0xbdf846fd	-0.12122915
58	0xbe21a33d	-0.15784927
59	0x3ec477ea	0.38372737
60	0xbdb26b82	-0.08711912
61	0xbda4bffc	-0.080444306
62	0xbea36f33	-0.31920776
63	0xbdc6c702	-0.097059265
64	0xbe8c6f40	-0.27428627
65	0xbec82184	-0.3908807
66	0xbf11fec7	-0.57029384
67	0xbe5d2185	-0.21594818
68	0xbf34f312	-0.70683396
69	0xbe865e0f	-0.26243636
70	0xbeb699e2	-0.35664278
71	0xbe937dcb	-0.2880691
72	0x3dcb46d4	0.09925619
73	0x3d497d7f	0.049191948
74	0xbe8cccc9	-0.2749999
75	0xbeeef62f	-0.46672198
76	0xbed8d0c5	-0.4234678
77	0xbe9363e0	-0.28787136
78	0xbed4491b	-0.41462025
79	0xbdd08a1a	-0.10182591
80	0x3e259e87	0.16173755
81	0x3e79bef0	0.24389243
82	0xbecd6253	-0.40114078
83	0xbf2b771f	-0.6697864
84	0x3f4475e5	0.7674239
85	0x3eb2f2a5	0.34950748
86	0x3f1b0337	0.6055178
87	0xbeda5f6f	-0.42650935
88	0x3e71145d	0.23542924
89	0x3e7d26c3	0.24721818
90	0xbef892f4	-0.48549616
91	0x3e902548	0.28153443
92	0x3efb2bd0	0.49056864
93	0x3d1d0e2b	0.03834359
94	0xbf1a8a80	-0.60367584
95	0xbe43dd34	-0.19127351
96	0xbf6d9762	-0.92809117
97	0xbe4d1be8	-0.20030177
98	0x3c3db738	0.011579327
99	0xbe8beabc	-0.27327526
100	0x3d979a5b	0.07402488
101	0xbdf8c9f5	-0.12147895
102	0x3eccedc5	0.40025154
103	0xbeea4426	-0.45755118
104	0x3ea06d0c	0.31333196
105	0x3d66324c	0.05620031
106	0x3e10e4a4	0.1414972
107	0xbe41acb9	-0.18913545
108	0xbe51cce2	-0.20488313
109	0x3ea6f60c	0.32609594
110	0xbf288923	-0.65834254
111	0xbf187707	-0.5955662
112	0xbf73219a	-0.94973147
113	0x3ebd7a8a	0.37007552
114	0xbe3ee47e	-0.1864185
115	0xbedacb23	-0.42733106
116	0xbe8613e7	-0.2618706
117	0xbf2f1c2b	-0.68402356
118	0xbed134a2	-0.40860468
119	0xbdf60a8e	-0.12013732
120	0x3ceaad4a	0.028647084
121	0xbefcb719	-0.49358442
122	0xbea09b80	-0.31368637
123	0xbee138d3	-0.43988666
124	0x3ddaa44c	0.106758684
125	0x3ea3fbfd	0.3202819
126	0xbe0c3bdb	-0.13694708
127	0xbeaf3e42	-0.34227186
128	0xbf03bb1e	-0.51457393
129	0x3a41de5d	0.00073955004
130	0xbe9b0f3b	-0.30285057
131	0xbdd6c699	-0.10487098
132	0x3d4cb36b	0.049975794
133	0xbebb8cc2	-0.36630827
134	0xbf420f77	-0.7580485
135	0xbed872ef	-0.42275187
136	0xbee7417b	-0.45167145
137	0xbec7efc8	-0.39050126
138	0xbf19af20	-0.60032845
139	0xbf3bb308	-0.73320055
140	0xbd15fb28	-0.036616474
141	0x3bd6d6c8	0.0065563656
142	0xbe74c4d7	-0.23903213
143	0xbf202785	-0.625603
144	0x3e0b4e8d	0.13604183
145	0xbf089533	-0.5335266
146	0xbee068e6	-0.4383003
147	0x3ec70af0	0.38875532
148	0xbecc50ed	-0.3990549
149	0xbe3b350b	-0.18281953
150	0xbe6738f2	-0.22580317
151	0x3f32b3b2	0.69805443
152	0x3dcc87f5	0.09986869
153	0xbe7f3442	-0.24922279
154	0x3e00ab1a	0.1256527
155	0xbf4b23f6	-0.7935175
156	0xbda96069	-0.08270342
157	0x3d8bca3d	0.06825683
158	0xbe78dd4f	-0.24303173
159	0xbe9efa8f	-0.31050536
160	0xbe563d89	-0.20921911
161	0xbec73fce	-0.38915867
162	0xbe269219	-0.1626667
163	0x3e8d3cca	0.2758544
164	0xbf666110	-0.89991856
165	0xbe7d333d	-0.24726577
166	0xbd99a76b	-0.075026356
167	0xbe598460	-0.21241903
168	0xbeb2dd0e	-0.34934276
169	0xbeedc0ef	-0.4643626
170	0xbf00bcef	-0.5028829
171	0xbf2bc7ef	-0.6710195
172	0xbe24d994	-0.16098624
173	0x3e77a413	0.24183683
174	0xbeff4a31	-0.4986129
175	0x3d163148	0.036668092
176	0x3ca369fe	0.019948002
177	0x3dd06bd6	0.10176818
178	0xbea84e0f	-0.32872054
179	0xbeef13f6	-0.46694916
180	0xbcc3f79a	-0.023921777
181	0x3ec31cc4	0.38107884
182	0xbe9e1ed5	-0.30882898
183	0xbf57ab13	-0.84245414
184	0xbdcd8d13	-0.100366734
185	0xbe21d2fc	-0.1580314
186	0xbe363601	-0.17794038
187	0xbbf770b1	-0.0075512757
188	0xbe98178e	-0.2970547
189	0xbe66383a	-0.22482386
190	0x3e02c789	0.12771429
191	0x3ed93c10	0.42428637
192	0xbe4c1d53	-0.19933061
193	0xbe1275e4	-0.14302784
194	0xbe624f58	-0.2210058
195	0xbecc0108	-0.39844537
196	0xbda5d732	-0.08097686
197	0xbf03c6da	-0.514753
198	0x3e043464	0.1291061
199	0x3ea6a618	0.32548594
200	0xbef741c9	-0.48292378
201	0x3d56a246	0.05240085
202	0x3d977d5c	0.07396957
203	0xbe9dc6d3	-0.30815753
204	0xbdb2a292	-0.08722414
205	0xbdc0653c	-0.09394309
206	0x3d1fcab0	0.039011657
207	0x3ed8b194	0.4232298
208	0xbf012a73	-0.504554
209	0xbf5143e0	-0.81744194
210	0xbe5e5cd4	-0.21715099
211	0xbf062b15	-0.5240949
212	0xbe63650e	-0.22206518
213	0xbe7548d8	-0.23953569
214	0xbd2a8b78	-0.041636914
215	0xbef1b3a3	-0.47207364
216	0xbc39a0c6	-0.011329835
217	0xbd95fce4	-0.07323626
218	0xbea8270f	-0.328423
219	0xbdf99f3b	-0.12188574
220	0x3e93d920	0.2887659
221	0xbe56aa86	-0.20963487
222	0xbf168042	-0.58789456
223	0x3ed339aa	0.41254932
224	0x3f05fb4c	0.52336574
225	0xbdad5930	-0.08464277
226	0x3eb9f18f	0.36317107
227	0xbf0d4bde	-0.5519389
228	0xbe3ef847	-0.18649398
229	0xbf2a6f31	-0.66575915
230	0x3d7b2338	0.061312884
231	0x3e04fe79	0.12987699
232	0xbdc21ca0	-0.09478116
233	0xbea75271	-0.32680085
234	0xbe5fa58d	-0.21840496
235	0xbf3a9136	-0.72877824
236	0xbe2960d9	-0.1654085
237	0x3e84cc2d	0.25937024
238	0xbf3795cb	-0.7171294
239	0xbe0809ba	-0.1328496
240	0xbcb080d4	-0.021545805
241	0xbe6e7cfc	-0.23289865
242	0x3e836ba5	0.25668064
243	0xbf3967bd	-0.7242392
244	0xbf610bb6	-0.87908494
245	0x3f0c7dae	0.5487927
246	0x3da19029	0.078888245
247	0x3e26dde2	0.16295579
248	0xbd5f325d	-0.05449139
249	0xbe2e2045	-0.17004497
250	0x3e0367ac	0.12832516
251	0x3e4c30c6	0.1994048
252	0x3eb5ea9f	0.35530564
253	0x3d3e628c	0.0464807
254	0x3e8337eb	0.256286
255	0xbd80f64a	-0.06296976

l2.weight f4 [300, 400]
0	0x3e6f05a6	0.23341998
1	0xbdab0c61	-0.083519705
2	0xc00097bc	-2.0092611
3	0xc010e0ea	-2.2637277
4	0xbf22a1da	-0.63528216
5	0x3f880d1f	1.0629004
6	0x3de2ee3f	0.11080598
7	0x3e63cb78	0.22245586
8	0x3f5f7445	0.8728679
9	0xbe95fb0a	-0.2929309
10	0x3f0e5b4a	0.55608046
11	0xbf6783dc	-0.90435576
12	0x3f1eb746	0.61998403
13	0xbe905bd2	-0.28195053
14	0xbfd42c42	-1.6576006
15	0x3f244577	0.64168495
16	0xbdfc8fc8	-0.123321116
17	0xbf967b6d	-1.1756417
18	0xbe9efc9f	-0.3105211
19	0xbe637fdb	-0.22216742
20	0x3ce54245	0.027985701
21	0x3d6b3567	0.057423975
22	0xbe458dcd	-0.19292374
23	0xbe781bd4	-0.24229366
24	0x3ee17d5f	0.44040963
25	0x3ef19dd1	0.47190717
26	0xbfc7284c	-1.5559173
27	0xbfc68ef7	-1.551238
28	0xbfd58b77	-1.6683186
29	0x3dd5dabd	0.10442112
30	0xbe90f957	-0.2831523
31	0xbd979cc2	-0.07402946
32	0x3c22490b	0.00990511
33	0xbf1d64fd	-0.6148222
34	0xc003405e	-2.0508037
35	0xbe829fdd	-0.2551259
36	0xbda5293a	-0.08064504
37	0x3f99d695	1.201861
38	0xbe88fb36	-0.2675416
39	0x3ea17efa	0.31542188
40	0xbef2d277	-0.47426197
41	0xbf9fa5e7	-1.2472504
42	0xbe8bb2dc	-0.27284896
43	0xbefc8928	-0.49323392
44	0xbdd1d900	-0.102464676
45	0xbf36d303	-0.7141573
46	0xbdb5b4d6	-0.08872382
47	0x3e8cc7e6	0.2749626
48	0xbe789b4b	-0.2427799
49	0xbfa06d50	-1.253336
50	0x3f257472	0.64630806
51	0x3dd5f1f7	0.10446542
52	0x3f33c307	0.70219463
53	0x3ed62ea0	0.41832447
54	0xbf32fc1b	-0.6991593
55	0xbeb8ca15	-0.36091676
56	0x3ca0f45a	0.019647766
57	0xbe293111	-0.16522624
58	0xbf2efbe6	-0.68353117
59	0x3f20f73f	0.6287727
60	0xc05f8fa7	-3.4931428
61	0xbec434d2	-0.3832155
62	0xc013aac2	-2.3072972
63	0x3d9a0afa	0.07521625
64	0xbe1faa75	-0.15592368
65	0xbf3d8639	-0.7403293
66	0xbe6d3344	-0.23164088
67	0x3e92f6c3	0.2870389
68	0xbfb34968	-1.4006777
69	0xbfbbb409	-1.4664317
70	0xbf33b89e	-0.7020358
71	0xc0141a64	-2.3141108
72	0xbfcffa26	-1.6248214
73	0x3f088774	0.53331685
74	0xbf41058b	-0.7539908
75	0xbf42f932	-0.7616149
76	0x3d0eb3e2	0.03483952
77	0xbe9bffd9	-0.30468634
78	0xc0239651	-2.5560496
79	0xbef04399	-0.46926573
80	0xbe7777d3	-0.24166803
81	0xbe8497b4	-0.2589699
82	0xbf29bb1f	-0.6630115
83	0xbf90a4f0	-1.1300335
84	0x3eaa324e	0.33241504
85	0x3efb3b82	0.49068838
86	0x3f05dfbc	0.52294517
87	0xbf9ae1b1	-1.2100126
88	0x3cb5e07b	0.022201767
89	0xbf067f00	-0.52537537
90	0x3e419df0	0.18907905
91	0x3ec7814c	0.38965833
92	0x3f0d3bbe	0.55169284
93	0x3d346c0a	0.044048347
94	0xbfb35ab7	-1.4012059
95	0xbfd0f846	-1.6325767
96	0xbf7e6451	-0.9937182
97	0xbebbe2ce	-0.36696476
98	0x3eed7761	0.4638014
99	0x3f4e1641	0.80502707
100	0x3db03bb7	0.0860514
101	0xbef77df3	-0.4833828
102	0x3eecb720	0.46233463
103	0xbf841cea	-1.0321324
104	0x3ed1699e	0.40900892
105	0x3e3398d0	0.17538762
106	0xbead8c03	-0.33895883
107	0x3f21d0ee	0.63209426
108	0x3ec7438b	0.3891872
109	0x3f181151	0.5940142
110	0xbf5976b4	-0.8494675
111	0xbea10350	-0.3144784
112	0xbe0947d2	-0.13406304
113	0x3f079735	0.529651
114	0x3e2cea3e	0.16886231
115	0xbd2fdbc1	-0.042934183
116	0x3f1898ce	0.5960816
117	0x3f3cad5e	0.7370204
118	0x3ee0d4db	0.43912396
119	0x3e7768ee	0.24161121
120	0xbe8ca7bf	-0.2747173
121	0xbfbede03	-1.4911503
122	0x3f664353	0.8994648
123	0xbfed9455	-1.8560892
124	0x3f243b9d	0.6415346
125	0x3f0f05bd	0.5586813
126	0x3bbbcc4c	0.005731141
127	0xbeeb1620	-0.45915318
128	0xbf03b1b3	-0.5144302
129	0x3f01a968	0.5064912
130	0x3eb4bdc1	0.3530102
131	0xbf89fdbe	-1.0780561
132	0xbd9f355b	-0.077738486
133	0xbd61e941	-0.05515409
134	0x3e7c9e08	0.24669659
135	0xbf0369e0	-0.5133343
136	0xbfd969f5	-1.698546
137	0xbf9edbaa	-1.2410786
138	0xbf4143a8	-0.7549386
139	0x3e9c8e60	0.30577374
140	0x3e902ece	0.2816071
141	0xbf36d3e8	-0.71417093
142	0xbe9c9a10	-0.3058629
143	0xbf077454	-0.5291188
144	0x3ed9d4fe	0.42545313
145	0xbf7084a0	-0.9395237
146	0xb85b86ad	-5.2339095e-05
147	0xbf61d119	-0.8820968
148	0xbed7ab4a	-0.4212287
149	0xbf9225be	-1.1417768
150	0xbf1a1681	-0.6019059
151	0x3e4cd064	0.2000137
152	0xbe77e2d3	-0.2420762
153	0xbf3e51fc	-0.7434385
154	0xbf0e74cb	-0.5564696
155	0xbf831dad	-1.0243431
156	0x3e4ef8da	0.20212117
157	0x3defddec	0.1171225
158	0xbfb64cdc	-1.4242206
159	0xbf3e2753	-0.74278754
160	0x3ed93657	0.4242427
161	0xbd74e93f	-0.059792753
162	0x3c16df1e	0.009208469
163	0xbe781b31	-0.24229123
164	0xbe86d399	-0.2633331
165	0xbeda2f25	-0.42614093
166	0xbfb2f725	-1.3981673
167	0x3d172506	0.036900543
168	0x3ec03101	0.37537387
169	0xbea83e31	-0.32859948
170	0xbf3b3ba1	-0.7313786
171	0xbff6e59a	-1.9288819
172	0xbee53d56	-0.44773358
173	0x3e8b0466	0.27151793
174	0x3f07c88c	0.53040385
175	0xbdf444e9	-0.11927206
176	0xbf27aef4	-0.6550133
177	0x3e62b79f	0.22140358
178	0xbfed3838	-1.8532782
179	0xbe1c85ac	-0.15285367
180	0x3ee18472	0.4404636
181	0x3edef348	0.43544984
182	0xbf0e4c09	-0.5558477
183	0xbfb7e052	-1.4365332
184	0xbe8e340a	-0.27774078
185	0xbe15e088	-0.14636433
186	0xc02f8a1d	-2.7428048
187	0xbf973340	-1.1812515
188	0xbf48cd66	-0.78438413
189	0xbea661e8	-0.32496572
190	0x3ebe1d3e	0.37131685
191	0x3f2f6f5d	0.685293
192	0xbf874138	-1.0566778
193	0xbe2a2bd4	-0.16618282
194	0xbf04e50c	-0.51912
195	0xbf1fae39	-0.6237522
196	0xbf1427a3	-0.5787298
197	0xbe8497a7	-0.25896952
198	0x3ef344ba	0.47513372
199	0x3e00a608	0.12563336
200	0xbea958c3	-0.33075532
201	0x3d95f980	0.07322979
202	0x3e113f54	0.14184314
203	0x3e0a4cd4	0.1350587
204	0x3e959776	0.29217118
205	0xbe145ea5	-0.14489229
206	0xbee35dff	-0.4440765
207	0x3eab16a6	0.33415717
208	0xc010f8d2	-2.2651868
209	0xbf850498	-1.0392027
210	0xbf73a12e	-0.95167816
211	0x3f54eed8	0.83176947
212	0x3e2ad9b5	0.16684611
213	0xbf1c3b09	-0.6102758
214	0xbf77d5f9	-0.9681087
215	0xbfbbcc18	-1.467166
216	0x3e8d9e59	0.27659872
217	0x3f457836	0.7713655
218	0xbf16885c	-0.5880182
219	0xbf1084b8	-0.5645251
220	0xbe23aea1	-0.15984584
221	0xbe9a1f8c	-0.30102193
222	0xbdb7bbf3	-0.08971395
223	0xbe5828fd	-0.21109386
224	0x3f047556	0.5174154
225	0xbec0f1b0	-0.37684393
226	0x3f0ebc31	0.5575591
227	0xbfd0d288	-1.6314249
228	0x3e68d4d9	0.22737445
229	0xbee856bf	-0.45378682
230	0xbd5c5d59	-0.05379996
231	0x3ce64dc2	0.02811325
232	0x3eae35d2	0.34025437
233	0xbf9d9bc6	-1.2313163
234	0x3e0714a7	0.13191472
235	0xbfe9970a	-1.8249218
236	0xbeeb8e04	-0.46006787
237	0x3e5a0cfe	0.21294019
238	0xbe6eb8dd	-0.23312707
239	0xbf37d291	-0.71805674
240	0xbf7fedaa	-0.9997202
241	0xbf9e2db2	-1.2357695
242	0xbf475bad	-0.7787426
243	0xbf80b61e	-1.0055578
244	0xbf691795	-0.9105161
245	0x3dd5c5dc	0.10438129
246	0xbea6d120	-0.32581425
247	0x3ea9bc9e	0.33151716
248	0x3d8a376f	0.06748854
249	0x3e86d19e	0.263318
250	0xbf613991	-0.87978464
251	0x3f237d6d	0.6386326
252	0x3ec8b091	0.3919721
253	0x3ede23da	0.43386728
254	0xbe8a232f	-0.26979968
255	0x3ec7a4fb	0.38993058

l2.bias f4 [300]
0	0x3f47be19	0.7802444
1	0xbf1acfbc	-0.6047323
2	0xbe17da21	-0.14829303
3	0x3e81cd71	0.25352052
4	0x3e927412	0.2860418
5	0x3da9bff6	0.08288567
6	0x3e616014	0.22009307
7	0x3eb51752	0.35369354
8	0x3e811f34	0.2521912
9	0xbe1b5fc3	-0.15173249
10	0x3e884483	0.2661477
11	0x3e708582	0.23488429
12	0x3d9f1df1	0.07769383
13	0xbdf09140	-0.11746454
14	0x3e3c1cd6	0.18370375
15	0xbe94d9ba	-0.29072362
16	0x3de0d9a1	0.109790094
17	0xbed069d7	-0.4070575
18	0x3dbffb67	0.09374123
19	0x3c614189	0.013748535
20	0xbf13b672	-0.57700264
21	0x3e53d54f	0.2068684
22	0xbe9060a6	-0.28198737
23	0xbe706083	-0.23474316
24	0xbdfa03e0	-0.1220777
25	0xbea6c220	-0.3256998
26	0x3edb3c25	0.42819324
27	0xbea54748	-0.32280946
28	0x3e6c8d91	0.23100878
29	0x3f6d531e	0.9270495
30	0xbeafb220	-0.34315586
31	0x3d92dcb2	0.071710005
32	0xbee6bbe9	-0.4506524
33	0x3e36b430	0.17842174
34	0xbf1433fa	-0.5789181
35	0x3e7fbaad	0.24973555
36	0xbe2b12ee	-0.1670644
37	0x3e28d48d	0.16487332
38	0xbf09c500	-0.53816223
39	0xbf2f6c1f	-0.68524355
40	0x3e111792	0.14169148
41	0xbeb11b22	-0.34591013
42	0x3d5f3dfd	0.054502476
43	0xbd27a0ff	-0.040925022
44	0xbe8593a4	-0.26089203
45	0xbe4e4847	-0.20144759
46	0x3d9a8f07	0.075468116
47	0xbe0eeeec	-0.13958329
48	0x3e7b2d36	0.24528965
49	0x3eb06ab1	0.344564
50	0xbf147e82	-0.58005536
51	0x3e25d5fd	0.16194911
52	0xbe8d8ade	-0.2764501
53	0xbc2be802	-0.010492327
54	0xbf116922	-0.56801045
55	0xbe3927e5	-0.18081625
56	0xbccdef1e	-0.025138434
57	0xbd50b390	-0.050952494
58	0xbe8eed8d	-0.27915612
59	0xbe233cb3	-0.15941124
60	0x3e8366a5	0.2566425
61	0x3e1e6496	0.15468058
62	0xbd87cdc7	-0.06631046
63	0xbee98c51	-0.45614865
64	0x3e0b9260	0.13630056
65	0x3f05c3d9	0.52251965
66	0x3e177f17	0.14794575
67	0xbdbb108b	-0.09134015
68	0xbe2f9cd7	-0.17149673
69	0xbcd4cdc2	-0.02597702
70	0x3e9478e1	0.28998473
71	0xbdbb3b0f	-0.09142124
72	0xbec24d9f	-0.37949845
73	0xbf6dad21	-0.928423
74	0x3ef1616d	0.47144642
75	0xba81df68	-0.0009908499
76	0xbbece47d	-0.0072293864
77	0xbd994148	-0.074831545
78	0x3d92653d	0.07148216
79	0xbec5ee71	-0.3865848
80	0xbe20453d	-0.15651412
81	0x3edbb747	0.42913267
82	0xbea06747	-0.31328794
83	0xbe68f5f6	-0.22750077
84	0x3d857b9f	0.065177195
85	0x3e67f04e	0.22650263
86	0xbf4e53fb	-0.80596894
87	0xbefc03a6	-0.49221534
88	0xbf000aa2	-0.50016224
89	0x3d8e5aed	0.069509365
90	0x3dce6edb	0.10079738
91	0x3f10a264	0.5649779
92	0x3f305082	0.68872845
93	0x3d34a3b5	0.044101436
94	0xbcb7c212	-0.022431407
95	0x3ede1349	0.43374088
96	0xbda2ab0f	-0.07942783
97	0xbed82d8b	-0.42222247
98	0x3f13ea10	0.57779026
99	0xbf05bf56	-0.5224508
100	0xbed0792e	-0.40717453
101	0x3e2ec9de	0.17069194
102	0xbe97768d	-0.29582635
103	0x3e032c00	0.12809753
104	0xbe471746	-0.19442472
105	0x3f1db9f6	0.6161188
106	0xbde5ac6f	-0.1121453
107	0x3e14017f	0.14453696
108	0x3e9d9e12	0.3078466
109	0xbe0a7529	-0.13521256
110	0xbe4c1e10	-0.19933343
111	0x3ea272da	0.3172825
112	0xbeae0c3b	-0.33993706
113	0xbdf06816	-0.11738603
114	0x3e3c3fc7	0.18383704
115	0xbe32d093	-0.17462377
116	0x3e408f21	0.188046
117	0x3ed5999a	0.4171875
118	0x3e26d4e3	0.16292147
119	0x3e540a52	0.20707062
120	0xbed6fbf7	-0.4198911
121	0x3e22f52c	0.15913838
122	0x3ea6cec4	0.32579625
123	0x3e906c52	0.28207642
124	0xbeba5a03	-0.36396798
125	0xbe9d727d	-0.3075141
126	0xbec987e9	-0.39361504
127	0x3dafa0a0	0.08575559
128	0xbd8db748	-0.06919724
129	0xbd743447	-0.059620168
130	0x3e34e6d6	0.17666182
131	0x3e09fe67	0.13475953
132	0xbe6aa207	-0.22913371
133	0x3b6626c6	0.0035118326
134	0x3f31f8d4	0.69520307
135	0x3e6bac07	0.23014842
136	0xbef46a87	-0.47737524
137	0x3f7d245b	0.988836
138	0xbee6ee4a	-0.45103675
139	0x3ee9781e	0.45599455
140	0xbddaca67	-0.106831364
141	0xbe810c26	-0.2520458
142	0x3da1f438	0.07907909
143	0x3e39be05	0.18138893
144	0xbf03857d	-0.5137556
145	0x3f1732ff	0.5906219
146	0xbeec3036	-0.46130532
147	0x3f6a8028	0.916018
148	0xbc8dcd3b	-0.017309776
149	0xbea297e5	-0.3175651
150	0xbe97042d	-0.29495373
151	0x3e8f6ab0	0.28011084
152	0xbe988e09	-0.29795864
153	0xbe18432c	-0.14869374
154	0x3d8516ea	0.06498511
155	0x3ea39da1	0.319562
156	0x3dac969e	0.084271654
157	0xbd48e044	-0.049042
158	0xbd9db8b2	-0.077012435
159	0xbe3fa444	-0.18715006
160	0xbe905f87	-0.28197882
161	0xbebc7e4d	-0.3681511
162	0xbd081cf0	-0.033230722
163	0x3e7431b5	0.23847087
164	0x3f230a24	0.6368735
165	0x3cf00ec7	0.029303921
166	0xbe246955	-0.16055806
167	0xbd5c0ccf	-0.053723153
168	0x3f1b0f86	0.6057056
169	0x3d0789cf	0.03309041
170	0x3f13d6f9	0.577499
171	0xbe3d2308	-0.18470395
172	0xbe17392d	-0.14767905
173	0x3d2a0e8d	0.041517783
174	0xbf3f3f71	-0.7470618
175	0x3ef02aa0	0.4690752
176	0xbe8bbc46	-0.2729208
177	0xbdc8d3b9	-0.09806008
178	0xbd62edcd	-0.055402566
179	0x3e9cb0cc	0.30603635
180	0xbe0256c5	-0.12728412
181	0x3f443938	0.7664981
182	0x3ad236a8	0.0016038017
183	0x3d8b434c	0.06799945
184	0x3e85c8a2	0.26129633
185	0x3df63aca	0.12022932
186	0xbea71045	-0.326296
187	0xbe8a4c57	-0.27011368
188	0x3dc4f78f	0.096175306
189	0xbea03301	-0.31288913
190	0xbd7a56ac	-0.061117813
191	0xbda8d277	-0.08243268
192	0xbe899a06	-0.26875323
193	0x3d8d6d03	0.06905558
194	0x3e9c9b16	0.3058707
195	0xbf1f10a1	-0.6213475
196	0xbf5fd8dc	-0.87440276
197	0x3e90fa04	0.28315747
198	0xbd3ee12b	-0.046601456
199	0x3d906b23	0.07051685
200	0x3c505ddf	0.012717693
201	0xbf214030	-0.6298857
202	0x3ea5920d	0.3233799
203	0x3e562749	0.20913424
204	0xbcb15364	-0.021646209
205	0x3e58b178	0.21161449
206	0xbe2006f7	-0.15627657
207	0xbde21b23	-0.11040332
208	0x3e8585bb	0.2607859
209	0xbf0eb441	-0.55743796
210	0x3e9b26bf	0.30302998
211	0x3f3e5b5f	0.7435817
212	0xbce77b1e	-0.028256949
213	0x3e922e28	0.2855084
214	0x3d9950a5	0.07486085
215	0x3ecfec35	0.406099
216	0xbe89f348	-0.2694342
217	0xbc808217	-0.015687032
218	0xbda14d46	-0.07876067
219	0x3f330f04	0.6994479
220	0x3e804d8a	0.25059158
221	0x3f15304e	0.5827683
222	0xbd86f64e	-0.06589948
223	0x3dd6976a	0.10478099
224	0x3f0b28ab	0.5435893
225	0x3e8d2b2f	0.2757201
226	0x3d5b3379	0.053515885
227	0xbdda1d11	-0.10650075
228	0x3f2216ce	0.6331605
229	0xbe19597f	-0.14975546
230	0xbee4dc6d	-0.44699422
231	0xbd2d4265	-0.042299647
232	0xbedcfa63	-0.4315978
233	0x3dce5f80	0.10076809
234	0xbd92ffaa	-0.0717767
235	0x3e197566	0.1498619
236	0x3e09a03b	0.1344003
237	0xbea6b1b3	-0.3255745
238	0x3d1f4d7e	0.03889226
239	0x3d8e4e09	0.06948478
240	0xbd5884e8	-0.052861124
241	0xbec7d268	-0.39027715
242	0x3f180716	0.5938581
243	0x3e3a95ac	0.18221158
244	0x3e0cb5d8	0.13741243
245	0xbc0ccf40	-0.008594334
246	0x3d512124	0.051056996
247	0xbd537b86	-0.051631473
248	0x3e7c2216	0.24622378
249	0xbe925e6a	-0.28587657
250	0x3e59ebce	0.21281359
251	0xbe21d6d9	-0.15804614
252	0xbed0e36b	-0.40798506
253	0xbd13f869	-0.036125574
254	0xbdd12fc9	-0.102141924
255	0xbeaba4c8	-0.33524156

l3.weight f4 [1, 300]
0	0xbf6e95e0	-0.9319744
1	0x3f182ba2	0.5944158
2	0x3ebfb106	0.37439746
3	0xbf07be8c	-0.53025126
4	0xbf85e259	-1.0459701
5	0xbfa3a233	-1.2783874
6	0xbfb0c4e2	-1.3810084
7	0xbfafb89a	-1.3728211
8	0xbf452f95	-0.7702573
9	0xbeef374b	-0.46721873
10	0xbeeee7be	-0.4666118
11	0xbe49e0d4	-0.19714671
12	0xc01685f0	-2.351925
13	0x3e94698d	0.2898678
14	0xc03cf1a8	-2.9522495
15	0xc0417983	-3.0230415
16	0xbe4a84de	-0.19777247
17	0x3ec5891f	0.38581178
18	0xc05bddfb	-3.4354236
19	0x3ecb5f1a	0.39720994
20	0x3e1d6767	0.15371476
21	0xbeb4c5e5	-0.35307232
22	0x3ed1111b	0.40833363
23	0x3febf52b	1.8434194
24	0x3f357fdd	0.7089823
25	0x3f54567a	0.8294445
26	0xbeddfe7d	-0.43358222
27	0x3f87be32	1.0604918
28	0xbe64d7f5	-0.22348006
29	0xbf68f80d	-0.91003495
30	0x3f4d6295	0.8022855
31	0x3ed350dd	0.4127263
32	0x3e9dc58f	0.30814788
33	0x3f110252	0.56644166
34	0x3ea3983b	0.3195208
35	0xbfdd8d13	-1.7308677
36	0x3f1c6e6f	0.6110601
37	0xbe2e0c1a	-0.16996804
38	0x3ef2c36f	0.4741473
39	0x3f41ef9b	0.75756234
40	0x3e073807	0.13204966
41	0x3eec20da	0.46118814
42	0x3e6a04bd	0.2285337
43	0x3e82271a	0.25420457
44	0x3fd015e9	1.6256686
45	0x3e56dc8d	0.20982571
46	0xbf2d0886	-0.6759113
47	0x3e9def57	0.30846664
48	0x3f19f5ff	0.60140985
49	0xbf12d9e1	-0.57363707
50	0x3eed8d5b	0.46396908
51	0x3e3d5e1d	0.18492933
52	0x3f1a64da	0.6031014
53	0x3e831d66	0.25608367
54	0x3f2ff313	0.68730277
55	0x3f0cc68e	0.5499047
56	0xbd3df9c2	-0.046380766
57	0xbcd91d28	-0.02650316
58	0x3f5a083f	0.8516883
59	0x3f9b8703	1.2150577
60	0xbf4766bc	-0.77891135
61	0xbfac7f28	-1.3476305
62	0xbec4a41a	-0.3840645
63	0x3f26a67f	0.650978
64	0x3ef663f9	0.48123148
65	0xbf00bf15	-0.5029157
66	0xbe6e3585	-0.23262604
67	0x3f1e999b	0.61953133
68	0x3f8bd8a9	1.0925494
69	0x3cfc8c11	0.030828508
70	0xbf8fdfdb	-1.124019
71	0x3f79ba17	0.97549576
72	0x401a7d09	2.4138815
73	0x3fa493c3	1.2857593
74	0xbf27a597	-0.65487045
75	0xbf819450	-1.0123386
76	0x3a00f497	0.0004919259
77	0x3eb443db	0.3520802
78	0x3f1efc1b	0.6210343
79	0x3f0d2659	0.5513664
80	0xbfdf6376	-1.7452228
81	0xbef5c860	-0.48004436
82	0x3ebeb085	0.3724405
83	0x3ec61994	0.3869139
84	0xbf7f1d18	-0.9965377
85	0xbe6bb79b	-0.23019259
86	0x3eb0363b	0.34416375
87	0x3f1c381f	0.61023134
88	0x3e8410d1	0.2579408
89	0x3eb5a04b	0.35473856
90	0xbe6bd581	-0.23030664
91	0xbf163e16	-0.58688486
92	0xbe8ced4e	-0.275248
93	0xbf9f36b9	-1.2438575
94	0x3eeb9760	0.46013927
95	0xbed8fdfd	-0.42381278
96	0x3f06cefe	0.52659595
97	0x3f8dd744	1.1081319
98	0xc01725d8	-2.3616848
99	0x3ee07b46	0.4384405
100	0x3ebe5244	0.3717214
101	0xbf3f1e76	-0.74655855
102	0x3f3e89b5	0.74428874
103	0x3ef811ed	0.48451176
104	0x3fd7824b	1.6836637
105	0xbee1c2d5	-0.44093958
106	0x3e1c083a	0.15237513
107	0xbeaaa383	-0.33327875
108	0xbe81ceea	-0.25353175
109	0x3f54f2ab	0.8318278
110	0x3f23e824	0.64026093
111	0xbe159054	-0.14605838
112	0x3ee7070d	0.45122567
113	0x402eebe6	2.733148
114	0xbe09b5be	-0.13448235
115	0x3f770dcd	0.96505433
116	0xbf8352bd	-1.0259625
117	0xc0240231	-2.5626338
118	0xbe9490d7	-0.29016754
119	0xbf4c9378	-0.7991252
120	0x3f2c5e4f	0.67331403
121	0x3eac203d	0.33618346
122	0xbfbfe597	-1.499194
123	0xbf86a585	-1.0519263
124	0x3e7e56af	0.24837755
125	0x3ee9edcb	0.45689234
126	0x3f1674f0	0.5877218
127	0xbfeb6023	-1.8388714
128	0x3c688a1c	0.014193084
129	0xbb1b5eab	-0.002370755
130	0xbec6184b	-0.3869041
131	0x3e2c081e	0.16799971
132	0xbf23d223	-0.6399252
133	0x3f0fe441	0.5620766
134	0xc01b4207	-2.425905
135	0xbf5eb818	-0.86999655
136	0x4003009b	2.046912
137	0xbf15570a	-0.58335936
138	0x3f1ed15e	0.6203822
139	0xbefa82a4	-0.48927796
140	0x400e76bb	2.2259967
141	0x3ebe089a	0.37115937
142	0x3ec8a0c6	0.3918516
143	0xbf3a5572	-0.7278663
144	0x3f02fca4	0.5116675
145	0xbd69394d	-0.056939412
146	0x3effbaf5	0.49947324
147	0xbfd64572	-1.6739943
148	0xbef3034e	-0.4746346
149	0x3ef17300	0.4715805
150	0xbfd4fa8b	-1.663896
151	0xbf12749f	-0.572092
152	0x3f1322b2	0.57474816
153	0x3f059219	0.5217605
154	0xc001d28e	-2.0284762
155	0xc007c073	-2.1211212
156	0xbef4abba	-0.47787267
157	0xbcadf727	-0.021236015
158	0x3ef181aa	0.47169238
159	0x3f48572a	0.78258
160	0x3f4d54ed	0.8020771
161	0x3f8dcfbf	1.1079024
162	0x3f0ee106	0.5581211
163	0xbe93b63f	-0.2884998
164	0xbda33645	-0.079693355
165	0xbb389711	-0.0028166214
166	0x40195d5b	2.396323
167	0x3e80b716	0.25139683
168	0xbfedf9ec	-1.8591895
169	0xbf19bb0b	-0.6005103
170	0xbea83a44	-0.32856953
171	0x3fbae401	1.4600831
172	0x3f822bc5	1.0169607
173	0x3f6bc7e0	0.9210186
174	0x3f428dc1	0.7599755
175	0xbf1ebd91	-0.62008005
176	0x3f48ae54	0.78391004
177	0x3ea8624f	0.32887504
178	0x3e91f55d	0.2850751
179	0xbe9b1208	-0.30287194
180	0x3f418967	0.75600284
181	0xbf9b9789	-1.215562
182	0x3e893623	0.26799116
183	0xbf520144	-0.8203318
184	0xbf00b646	-0.5027813
185	0xc0571c1f	-3.3610914
186	0x3f260352	0.64848816
187	0x3f4ce1e7	0.800322
188	0xbef59e2a	-0.47972232
189	0x3eb73c2a	0.3578809
190	0xbd8a9f93	-0.067687176
191	0x3f03b168	0.51442575
192	0x3f02f1d9	0.5115028
193	0x3f17e4eb	0.59333676
194	0xbebe49c1	-0.37165645
195	0x3eca217d	0.39478675
196	0x3f70f134	0.94118047
197	0xbe13036f	-0.14356779
198	0x3f192b7a	0.59831965
199	0x3edc6eb8	0.43053222
200	0x3f02c84f	0.51086897
201	0x3f3d884d	0.74036103
202	0xbfbcf132	-1.4761107
203	0xbed5a76b	-0.41729292
204	0x3edbd05b	0.429324
205	0xbe7ed593	-0.2488616
206	0x3f987997	1.1912106
207	0xbf77f7e2	-0.96862614
208	0xbee079b3	-0.4384285
209	0x3f06ecf9	0.5270534
210	0xbee9280d	-0.4553837
211	0xbe659547	-0.22420226
212	0x3e9b1245	0.30287376
213	0xbea6f7e8	-0.32611012
214	0xbf02ba1f	-0.5106525
215	0xbf60564f	-0.87631696
216	0x3f4796df	0.77964586
217	0x3f893ecd	1.072229
218	0x3e834223	0.25636396
219	0xbe488a8a	-0.19584098
220	0xbebacd7d	-0.364849
221	0xbeffa51a	-0.4993065
222	0x3f7d741f	0.9900531
223	0xbded9eaa	-0.116025284
224	0xbf5e19aa	-0.8675791
225	0xbde22af1	-0.11043347
226	0xbf381a2b	-0.7191493
227	0x3f7456d1	0.9544497
228	0xbfd30f9a	-1.6489136
229	0x3e48e0de	0.1961703
230	0x3f619581	0.8811875
231	0x3f0e9222	0.5569173
232	0x3f5b3b35	0.8563722
233	0xbf0e351a	-0.55549777
234	0x3e7aec98	0.24504316
235	0xbf16ee0c	-0.5895698
236	0xbf29b90a	-0.6629797
237	0xbecf33b9	-0.4046915
238	0x3f140f8e	0.57836235
239	0xc03725d0	-2.861683
240	0xbf3f6cc2	-0.74775326
241	0x3ead43f1	0.33840898
242	0xbf87029b	-1.054767
243	0xbe7a2629	-0.2442862
244	0xbee3a44c	-0.44461286
245	0xbac30408	-0.0014878521
246	0xbfe2205d	-1.7666126
247	0xbaebfbd5	-0.0018004129
248	0xc037fc50	-2.874775
249	0x3f403376	0.75078523
250	0xbea602fa	-0.32424146
251	0x3e2119f4	0.15732557
252	0x3f80b3b2	1.0054839
253	0xbc81b6fc	-0.015834324
254	0xc0347b6e	-2.8200336
255	0x3fe79db0	1.8094997
