preTrained/TD3_BipedalWalkerHardcore-v3_0_critic_1_target.pth (torch_old, 529892 bytes, 5 tensors)

l1.weight f4 [400, 28]
0	0xbf065313	-0.5247051
1	0xbec16920	-0.37775517
2	0xc091011b	-4.531385
3	0x3faf415d	1.3691822
4	0xbe928c4b	-0.2862266
5	0xbe958fdc	-0.29211318
6	0xbee10517	-0.43949196
7	0xbe42c26b	-0.19019477
8	0x3e277f8c	0.16357249
9	0xbe20abeb	-0.15690582
10	0xbd452def	-0.04813951
11	0xbe8948d7	-0.26813385
12	0x3cc137ad	0.023586119
13	0xbd3ea279	-0.046541665
14	0xbdfdfd46	-0.12401824
15	0xbe5afc01	-0.21385194
16	0xbed04a57	-0.40681717
17	0xbe94e4a1	-0.2908068
18	0x3e71c118	0.23608816
19	0x3ec70177	0.38868305
20	0x3e3d0461	0.18458702
21	0xbdfff422	-0.124977365
22	0xbec89fae	-0.39184326
23	0xbf0bc0b9	-0.54590946
24	0xbeaa0b83	-0.33211908
25	0xbe43d861	-0.19125511
26	0x3ea8ae5c	0.32945526
27	0x3c889107	0.016670717
28	0xbfaf3bcf	-1.3690127
29	0xbfdd39ba	-1.7283242
30	0x3e1f2f59	0.15545405
31	0x3e28482c	0.16433781
32	0xbea1baef	-0.31587932
33	0xbc91d8fd	-0.017803663
34	0xbe99fbc3	-0.3007489
35	0xbd14a364	-0.036288634
36	0xbda64e90	-0.08120453
37	0xbf1a5f87	-0.60302013
38	0xbc1660f9	-0.0091783935
39	0x3d2fa929	0.042885933
40	0xba55b42e	-0.0008152154
41	0x3d91028e	0.070805654
42	0x3dc7daea	0.097585514
43	0xbcaa4566	-0.020785045
44	0x3e6b18d1	0.22958685
45	0x3f7738e6	0.96571195
46	0x3f50dfc4	0.8159144
47	0xbe2a3f9b	-0.16625826
48	0xbf604cc4	-0.87617135
49	0xbefea4f8	-0.49735236
50	0x3eb05c28	0.3444531
51	0x3e5126c8	0.2042495
52	0x3c99fef7	0.018798335
53	0xbd7751d9	-0.06038079
54	0x3c733619	0.014844441
55	0x3d53c61c	0.051702604
56	0xbf01d465	-0.50714713
57	0xbf3d043b	-0.7383458
58	0xc0470559	-3.1097014
59	0xbebc6506	-0.36795825
60	0x3e0e4fa7	0.13897572
61	0xbdcaa06f	-0.098938815
62	0xbecdf84e	-0.40228504
63	0x3d0266f6	0.031836472
64	0xbdfa212a	-0.12213357
65	0x3f094510	0.53621006
66	0x3e3155c9	0.1731788
67	0x3ea521a9	0.32252243
68	0x3d4b1e10	0.049589217
69	0xbd050f75	-0.032485444
70	0x3f4daeab	0.8034465
71	0x3f93b2c0	1.1538925
72	0x3f27d9c3	0.65566653
73	0xbd02471e	-0.031806104
74	0xbe393c89	-0.18089499
75	0xbd85e0ab	-0.06536993
76	0x3d7d6520	0.06186402
77	0xbe433d8a	-0.19066444
78	0xbeccfba1	-0.40035728
79	0xbf3ca059	-0.7368217
80	0x3c3a2089	0.011360296
81	0x3de0b561	0.10972095
82	0x3e0a111c	0.13483089
83	0x3d9b8311	0.07593358
84	0x3f67a2c6	0.9048275
85	0x3fb6c7e2	1.4279749
86	0xbf46d432	-0.77667534
87	0xbf83790c	-1.0271316
88	0xbc49d0a9	-0.012317815
89	0xbd10ce3e	-0.035352938
90	0xbe657dab	-0.2241122
91	0x3dfeb1a1	0.12436224
92	0xbd24d821	-0.04024518
93	0x3f72c9a4	0.9483893
94	0x3dcc57ba	0.0997767
95	0x3d8a8dec	0.06765351
96	0x3bbf39b3	0.0058357357
97	0xbd0e9d7b	-0.034818154
98	0x3de3d438	0.11124462
99	0x400f64b1	2.2405207
100	0x3fc11148	1.5083399
101	0xbf21cc0d	-0.6320198
102	0xbf795282	-0.9739152
103	0xbedf9be1	-0.43673614
104	0x3e905f55	0.28197733
105	0xbe648652	-0.22316864
106	0x3eaecab7	0.34139034
107	0xbe923276	-0.28554124
108	0xbd38047d	-0.044926155
109	0x3d02fa6e	0.03197711
110	0x3a7854ce	0.0009473086
111	0xbd957769	-0.07298166
112	0xbf6d7c5b	-0.92767876
113	0xc01994ab	-2.399699
114	0x3ee9113d	0.45520964
115	0xbf0a87e0	-0.5411358
116	0xbf24fbe5	-0.6444686
117	0xbcd5a71a	-0.026080657
118	0xbf3cca2e	-0.73746
119	0xbcf8a40a	-0.030351657
120	0xbe0aa8c5	-0.13540943
121	0x3d1b7086	0.037949108
122	0xbc48aee9	-0.012248733
123	0x3d3a87c7	0.045539644
124	0x3d685a08	0.056726485
125	0xbcf3c656	-0.02975766
126	0x3f0acd48	0.54219484
127	0xbeb4e7a2	-0.35332972
128	0xbfa5d913	-1.2956871
129	0xbfa0ab22	-1.2552226
130	0xbeaed959	-0.34150198
131	0xbe44422b	-0.19165866
132	0x3bafc59b	0.0053641326
133	0x3dd01d8f	0.10161888
134	0x3ea5c09f	0.3237352
135	0x3f49afbb	0.7878377
136	0x3cd42353	0.02589575
137	0xbe269299	-0.1626686
138	0x3d4a36e6	0.04936876
139	0x3d06707a	0.03282211
140	0x3e5cfb27	0.21580182
141	0x3fe3d131	1.7798215
142	0xbfbe9f56	-1.4892375
143	0xbf608b50	-0.87712574
144	0xbdf28894	-0.118424565
145	0xbd9e6d9b	-0.07735749
146	0xbc513aa6	-0.0127703305
147	0xbd276cb8	-0.040875167
148	0x3caafaef	0.020871608
149	0x3c04f497	0.008114955
150	0xbd105000	-0.035232544
151	0xbddc6f0f	-0.1076337
152	0x3a2a57c7	0.0006498065
153	0x3cd3d9e6	0.025860738
154	0x3dc2ff12	0.09521307
155	0x3f06f26a	0.52713645
156	0x3eb6957b	0.3566092
157	0xbe4bf63e	-0.19918153
158	0xbebaf224	-0.36512864
159	0xbe062fbb	-0.13104145
160	0xbdb1e39a	-0.0868599
161	0xbd7b21a4	-0.06131138
162	0xbdcc52f8	-0.099767625
163	0x3e9818f9	0.29706553
164	0xbd532ea0	-0.051558137
165	0xbc904ba0	-0.017614186
166	0xbd7d6231	-0.06186122
167	0x3c85adf4	0.016318299
168	0xbee15fb7	-0.44018337
169	0x3d735fb1	0.05941743
170	0xc00391e1	-2.0557787
171	0xc0042017	-2.0644586
172	0xbefd3166	-0.4945175
173	0xbc75c6a1	-0.01500097
174	0x3e90499f	0.28181168
175	0x3d514b20	0.051097035
176	0x3d84ec23	0.06490352
177	0x3e2643ec	0.16236848
178	0x3daabcda	0.08336802
179	0x3d9d5b1b	0.076833926
180	0x3d8f5a4a	0.06999643
181	0xbcff1af2	-0.031140778
182	0x3fc05648	1.5026331
183	0x3e147142	0.1449633
184	0xbf09d5a7	-0.5384163
185	0xbf391196	-0.7229246
186	0xbf00eda4	-0.5036261
187	0x3ddff541	0.1093545
188	0x3d01553d	0.03157543
189	0xbeb737b7	-0.35784695
190	0xbd891127	-0.06692725
191	0x3e0ff997	0.14060055
192	0xbca45bce	-0.020063307
193	0x3e0446b9	0.12917604
194	0x3c8099e4	0.01569838
195	0xbba0a4c3	-0.0049024536
196	0xbfce601c	-1.612308
197	0xbfe970b1	-1.8237516
198	0x3fc6a35f	1.5518607
199	0x3fb8c172	1.4434035
200	0xbf418497	-0.7559294
201	0x3ea2657d	0.31718054
202	0xbf258a2d	-0.64663965
203	0xbe1a9f9f	-0.15099953
204	0x3e5aa913	0.21353559
205	0x3e6f68ff	0.23379897
206	0x3e7bf41b	0.24604838
207	0x3e009d06	0.125599
208	0x3cff14b1	0.031137796
209	0xbd2084a4	-0.039188996
210	0xbe835657	-0.2565181
211	0xbd9a7e92	-0.075436726
212	0xbea65d85	-0.32493225
213	0xbf60d7e2	-0.8782941
214	0xbf3c5a0f	-0.7357492
215	0xbf053947	-0.52040523
216	0xbe394e37	-0.18096243
217	0xbe427166	-0.1898857
218	0xbdc9e2fc	-0.09857747
219	0xbea418b2	-0.3205009
220	0x3d060cc6	0.032727025
221	0x3d16b708	0.036795646
222	0x3ea9eecd	0.33190003
223	0x3d79c3d0	0.060977757
224	0x3d873138	0.066011846
225	0x3fd5db0b	1.6707472
226	0xbfa60838	-1.2971258
227	0xc035e6ac	-2.842204
228	0xbf79a55b	-0.9751794
229	0x3dc232f3	0.09482374
230	0x3db9afed	0.09066758
231	0x3ddb5631	0.10709799
232	0x3e9193dd	0.28433123
233	0xbf08432c	-0.53227496
234	0x3e8fc91e	0.28083128
235	0xbfb2d8c0	-1.3972397
236	0x3e7bb499	0.24580611
237	0x3efea28b	0.49733385
238	0xbf9dea64	-1.2337155
239	0xbe0aac96	-0.13542399
240	0xbca71840	-0.020397305
241	0xbeb22cdd	-0.34799853
242	0xbe2e83fc	-0.17042536
243	0x3f1bcac0	0.60856247
244	0x3f54f07e	0.8317946
245	0x3e2c5278	0.16828334
246	0xbe43c01a	-0.1911625
247	0xbe3ef78d	-0.1864912
248	0xbd80ebdb	-0.06294986
249	0x3da5bce4	0.08092669
250	0x3b80816c	0.0039216783
251	0x3c4fc6a4	0.012681637
252	0xbeabf4b8	-0.33585143
253	0xbfa11aaf	-1.2586268
254	0xbf2ee4a9	-0.6831766
255	0xbf1795f6	-0.592132

l1.bias f4 [400]
0	0xbf07c34c	-0.53032374
1	0x3e4ac884	0.19803053
2	0xbe2d4d72	-0.16924074
3	0xbf8ee6c4	-1.1164174
4	0x3f3a2bba	0.7272297
5	0x3e2d1ad3	0.16904764
6	0x3ed6cd63	0.41953573
7	0xbe9b0abe	-0.30281633
8	0xbeae24c8	-0.34012437
9	0xbef607b5	-0.48052755
10	0xbf2423b1	-0.6411696
11	0x3ec94f0e	0.39318126
12	0xbe5f1c2a	-0.21788087
13	0xbf0fd0f9	-0.5617824
14	0x3ef6e2ed	0.48220006
15	0xbe92de67	-0.28685305
16	0x3efdce2d	0.49571362
17	0xbf12cfef	-0.5734853
18	0xbf38d4bf	-0.72199625
19	0xbef8f15c	-0.48621643
20	0xbe4605fb	-0.19338219
21	0xbf067585	-0.5252307
22	0x3f8c26c9	1.0949336
23	0xbf94048f	-1.1563891
24	0xbe688e0b	-0.22710435
25	0xbf64a06b	-0.8930728
26	0x3d37b7c1	0.044852976
27	0xbfb9a36b	-1.4502996
28	0xbf0f2db9	-0.5592914
29	0xbf745389	-0.95439965
30	0xbfc05b69	-1.5027896
31	0xbf0db533	-0.55354613
32	0xbe8b8a92	-0.27254158
33	0x3e7f209e	0.24914786
34	0xbeaa4b05	-0.3326036
35	0xbe6a04f8	-0.22853458
36	0xbf327f44	-0.6972544
37	0xbec73d34	-0.38913882
38	0x3efadb55	0.48995462
39	0x3ce057cf	0.02738562
40	0x3ec87080	0.3914833
41	0x3f08e341	0.5347176
42	0xbfbe6c3e	-1.4876783
43	0x3e94fefc	0.29100788
44	0xbe05ee0d	-0.1307909
45	0xbf2da972	-0.6783668
46	0xbf39df9e	-0.7260684
47	0xbf8b6eee	-1.0893228
48	0x3faecca2	1.3656199
49	0x3e226861	0.1586013
50	0xbf149bc5	-0.58050185
51	0xbfa6afa8	-1.3022356
52	0xbf838a5c	-1.0276599
53	0x3d409097	0.04701289
54	0xbefee52b	-0.49784216
55	0xbedbe1d1	-0.42945722
56	0xbebec1cb	-0.37257227
57	0x3f840732	1.0314696
58	0x3eed3121	0.46326545
59	0xbe6b3d38	-0.22972572
60	0xbf06402d	-0.52441674
61	0xbfc3e7e0	-1.5305138
62	0x3f64f258	0.8943229
63	0x3b693be4	0.0035588676
64	0xbf5a0e11	-0.85177714
65	0xbe0d1145	-0.13776119
66	0xbe95a47e	-0.2922706
67	0x3e583b97	0.21116482
68	0xbef3a51c	-0.47586906
69	0x3eb6229a	0.35573274
70	0xbfd965dd	-1.6984211
71	0x3fa84301	1.3145448
72	0xbed4d195	-0.41566148
73	0x3f0fa232	0.56106865
74	0xbf9158f8	-1.1355276
75	0xbf6ecf22	-0.9328481
76	0xbecc09ca	-0.39851218
77	0x3ec37c6a	0.38180858
78	0xbf4d5fd4	-0.8022435
79	0xbf12a0ba	-0.572765
80	0xbf22d407	-0.6360478
81	0x3e1ac6ea	0.15114942
82	0xbea8310b	-0.32849917
83	0xbd14e559	-0.036351535
84	0x3eaffcf8	0.34372687
85	0x3f0913fb	0.5354611
86	0xbeb09f68	-0.34496617
87	0xbf07e35e	-0.5308131
88	0x3da1575c	0.078779906
89	0xbf144aee	-0.57926834
90	0xbe8c5909	-0.27411678
91	0xbf1dd44d	-0.6165207
92	0xbfdd9220	-1.7310219
93	0x3e6d6661	0.23183586
94	0xbe5a074a	-0.21291843
95	0xbe6cfe60	-0.23143911
96	0xbf13efea	-0.57787955
97	0xbeb2be44	-0.34910786
98	0xbd1f6ee9	-0.03892413
99	0xbf4cae94	-0.79953885
100	0xbf6258fb	-0.88417023
101	0xbe81817c	-0.252941
102	0xbf3f60a0	-0.74756813
103	0xbf16731e	-0.58769405
104	0xbeacfdba	-0.33787328
105	0xbed1f1fa	-0.41004926
106	0xbecee90d	-0.4041218
107	0xbf4af03f	-0.79272836
108	0xbf2a2950	-0.6646929
109	0xbe36648c	-0.17811793
110	0xbe8b6984	-0.2722894
111	0xbd06d74e	-0.032920174
112	0xbe2bc073	-0.16772632
113	0xbec40396	-0.38283986
114	0xbf337116	-0.7009443
115	0x3f191251	0.59793574
116	0xbf83acf0	-1.0287151
117	0xbe56e307	-0.20985042
118	0x3efa7a8b	0.48921618
119	0xbe671a75	-0.22568686
120	0x3ebc6f79	0.36803797
121	0x3da7f8c0	0.08201742
122	0x3f5c164a	0.8597151
123	0xbedfd152	-0.43714386
124	0x3d97f3eb	0.074195705
125	0xbf83e9f5	-1.0305773
126	0x3e6ff03a	0.23431483
127	0xbead6a66	-0.33870238
128	0xbf5de6b2	-0.8668014
129	0x3d584e20	0.05280888
130	0xbf5ce757	-0.86290497
131	0xbe4afb37	-0.19822393
132	0xbe85bd27	-0.26120874
133	0xbb963615	-0.004584084
134	0xbe93fa76	-0.28902024
135	0xbf6e7752	-0.9315082
136	0xbfb6e7a9	-1.4289447
137	0xbe148385	-0.14503296
138	0xbef3031a	-0.47463304
139	0x3f2258f7	0.63417
140	0xbf969116	-1.1763027
141	0xbe62a37d	-0.22132678
142	0xbe77cf8b	-0.24200265
143	0xbdb0711a	-0.086153224
144	0xbf571316	-0.840135
145	0xbf25b5c6	-0.6473049
146	0x3ec6433a	0.38723165
147	0x3e31c463	0.17360072
148	0xbed893a4	-0.4230014
149	0xbf732519	-0.9497848
150	0x3df0ff7a	0.11767478
151	0xbe140c6e	-0.14457867
152	0xbef66eec	-0.48131502
153	0xbe07d125	-0.13263376
154	0xbe4a506e	-0.19757244
155	0x3e31140d	0.17292805
156	0xbfc9aed9	-1.5756484
157	0xbf990f67	-1.1957825
158	0x3f1d7887	0.61512035
159	0xbe175862	-0.14779809
160	0x3efc29cd	0.4925064
161	0xbf0419c0	-0.5160179
162	0xbe2eb2e8	-0.17060435
163	0x3e2341fd	0.15943141
164	0xbf13b2d9	-0.57694775
165	0x3c44ad13	0.012004155
166	0x3f39d4e0	0.72590446
167	0xbf4a0db5	-0.78927165
168	0xbe2f48c1	-0.17117597
169	0xbe2f5222	-0.17121175
170	0xbdb0a8a5	-0.086259164
171	0x3f379ca8	0.71723413
172	0xbf6abd52	-0.9169513
173	0xbf1095d7	-0.5647864
174	0xbf4689b6	-0.7755388
175	0xbf3409ad	-0.70327264
176	0xbfa35d14	-1.276278
177	0xbec57e00	-0.38572693
178	0xbe475239	-0.19464959
179	0xbf843b35	-1.0330569
180	0xbf2f35c7	-0.6844143
181	0xbe4ebb58	-0.20188653
182	0xbf3fead7	-0.7496771
183	0xbf62b060	-0.88550377
184	0x3f42dc9d	0.7611788
185	0xbfa6a250	-1.3018284
186	0xbde9a997	-0.114093
187	0x3d2a3c0e	0.04156118
188	0x3cee5a29	0.029095726
189	0xbe056a60	-0.1302886
190	0xbed5309f	-0.41638657
191	0xbee668d3	-0.4500185
192	0x3e44e251	0.19226958
193	0xbf3880f3	-0.7207176
194	0xbfa5dee4	-1.2958646
195	0xbe6f09a3	-0.2334352
196	0xbed603f3	-0.41799888
197	0x3e5237e2	0.2052913
198	0x3f5699bb	0.83828324
199	0x3f1fe347	0.6245617
200	0xbf31d4d9	-0.69465405
201	0xbebf092e	-0.3731169
202	0x3d5ecbbd	0.05439352
203	0xbe1babd1	-0.15202262
204	0xbf242890	-0.64124393
205	0xbd91b0a2	-0.07113768
206	0x3e681b07	0.2266656
207	0x3e42d325	0.19025858
208	0x3ea4cd79	0.32188013
209	0xbdea5921	-0.11442781
210	0xbf375998	-0.71621084
211	0xbf9fd3b7	-1.2486485
212	0x3f2d4d50	0.67696095
213	0xbe31ada6	-0.17351398
214	0x3e177252	0.14789703
215	0x3f322950	0.6959429
216	0xbe9f0706	-0.31060046
217	0xbeffcb27	-0.4995968
218	0xbeab7c2b	-0.3349317
219	0xbefcbe34	-0.49363863
220	0xbf155aca	-0.5834166
221	0x3e11323f	0.14179324
222	0xbf2708af	-0.65247625
223	0xbf155456	-0.5833181
224	0xbeed6b5c	-0.4637097
225	0xbf15ad51	-0.58467585
226	0xbf8ddfa0	-1.108387
227	0x3e609058	0.21930063
228	0x3dcb048b	0.09912976
229	0xbf8e3b74	-1.1111894
230	0xbe35acdd	-0.17741723
231	0x3d660f49	0.05616692
232	0xbecac1c8	-0.39600968
233	0xbea4d54f	-0.32193992
234	0xbf50a637	-0.81503624
235	0xbed8f5da	-0.4237507
236	0xbe2db42d	-0.16963263
237	0xbd24240b	-0.040073436
238	0xbeae3624	-0.3402568
239	0xbef4f709	-0.47844723
240	0xbea01792	-0.31267983
241	0xbf9dc0ba	-1.232444
242	0x3e9e8414	0.30960143
243	0xbe50e556	-0.20399985
244	0xbed57160	-0.4168806
245	0xbe8d545e	-0.2760343
246	0x3e04a099	0.12951888
247	0x3f37b74f	0.7176408
248	0x3e17ac4c	0.1481182
249	0xbf1a6a46	-0.6031841
250	0xbeb09b86	-0.34493655
251	0x3ec35d09	0.38156918
252	0xbea380ae	-0.31934112
253	0xbeaf0667	-0.34184572
254	0xbe8d05fc	-0.27543628
255	0xbe159c40	-0.14610386

l2.weight f4 [300, 400]
0	0x3e84bba0	0.25924397
1	0x3d54236c	0.051791593
2	0x3eaed0f0	0.34143782
3	0x3ce68f32	0.028144453
4	0x3e2544b0	0.16139483
5	0xbdd0d18d	-0.10196219
6	0xbe744bc0	-0.23857021
7	0x3effb3d4	0.49941885
8	0xbf84dfa4	-1.038075
9	0x3edc67e0	0.43048
10	0xbdd049a4	-0.10170296
11	0x3df5b336	0.119970724
12	0xbe519d86	-0.20470247
13	0xbf87a6fc	-1.0597835
14	0x3ea2e017	0.31811592
15	0xbf15a22b	-0.58450574
16	0x3ee9f9fc	0.45698535
17	0xbecbf360	-0.39834118
18	0x3e74c14b	0.2390186
19	0x3e0941ed	0.13404055
20	0xbf4ccf70	-0.80004025
21	0xbd5c4a32	-0.053781696
22	0x3e57b455	0.21064885
23	0x3f181f91	0.59423167
24	0xbe816314	-0.25270903
25	0x3e67c732	0.2263458
26	0x3e266b6c	0.16251916
27	0x3e0e8fca	0.13922039
28	0xbe8dfa84	-0.2773019
29	0xbf239b87	-0.6390919
30	0xbf02353d	-0.50862485
31	0x3eb71c83	0.3576394
32	0x3e1fbc9e	0.15599295
33	0xbf5f9d08	-0.87348986
34	0xbf9b3ff6	-1.2128894
35	0x3dd8d0e5	0.105867185
36	0x3f263ed4	0.6493962
37	0xbe1fb19f	-0.15595101
38	0xc00626f7	-2.0961282
39	0x3f09dd11	0.53852946
40	0xbed0a155	-0.40748087
41	0xbd0cc554	-0.034367874
42	0x3f512070	0.8169012
43	0xbed4cb81	-0.4156151
44	0xbeaa32bf	-0.3324184
45	0x3e4dbeb3	0.20092277
46	0xbf0e6e9b	-0.5563752
47	0xbef35cb7	-0.47531673
48	0x3e6905e0	0.22756147
49	0xbf29f1d6	-0.6638464
50	0xc003bd6d	-2.0584366
51	0xbeae4d95	-0.34043565
52	0x3ecfe936	0.40607613
53	0xbe675cd1	-0.22594
54	0xbf14277b	-0.5787274
55	0xbea7261e	-0.3264627
56	0xbde47318	-0.11154765
57	0x3f14e266	0.58157957
58	0xbd29cffe	-0.041458122
59	0xbfb0a4d8	-1.3800306
60	0xbd51b4d2	-0.051197834
61	0x3f8aa7c0	1.0832443
62	0xbe240a47	-0.16019545
63	0x3eb8f22a	0.36122257
64	0xbf0e86a6	-0.5567421
65	0xbeb2fc2d	-0.3495802
66	0xbee73536	-0.45157784
67	0xbe740f01	-0.23833849
68	0x3d85760c	0.06516656
69	0xbeb4f3d1	-0.35342267
70	0xbe48b30e	-0.19599554
71	0xbdc8961a	-0.097942546
72	0x3e9db1f6	0.30799836
73	0xbecf47b7	-0.40484402
74	0x3d3f90e9	0.046769056
75	0x3d8d1b5c	0.06889984
76	0x3ed366ae	0.41289276
77	0x3ec23453	0.37930545
78	0x3ea75132	0.32679135
79	0xbffb850d	-1.9649979
80	0xbe15b636	-0.14620289
81	0xbef842cd	-0.48488465
82	0x3f4827ab	0.7818553
83	0xbe35965b	-0.17733137
84	0xbeff465e	-0.49858373
85	0xbe9672aa	-0.29384357
86	0x3f55610f	0.83351225
87	0x3e65e1c1	0.224494
88	0x3e5b0f89	0.21392645
89	0x3e8ca2c5	0.27467933
90	0x3e45bcea	0.19310346
91	0x3ecaae4d	0.39586106
92	0x3f17a1cd	0.59231263
93	0x3e47994e	0.19492075
94	0x3ef527d4	0.4788195
95	0x3eb8feec	0.3613199
96	0x3e98dd50	0.29856348
97	0x3e1f3b64	0.1555
98	0xbef7416f	-0.4829211
99	0xbecb5f5a	-0.39721185
100	0x3f18fd46	0.59761465
101	0x3e6b5e5b	0.22985213
102	0xbdfc241b	-0.12311574
103	0x3f10f11c	0.56617904
104	0x3d99cdf5	0.07509986
105	0x3e8a538a	0.2701686
106	0xbf8f1d24	-1.1180768
107	0xbe15a5ae	-0.14613983
108	0x3f19c2c0	0.6006279
109	0x3f1e52cf	0.61845106
110	0x3d537c7d	0.051632393
111	0xbf66320f	-0.89920133
112	0x3e80468b	0.2505382
113	0xbefe1c22	-0.4963084
114	0xbe950088	-0.29101968
115	0xbf02be5d	-0.5107172
116	0x3dede0c9	0.1161514
117	0xbf442810	-0.7662363
118	0x3de1c413	0.11023726
119	0xbfc28f95	-1.5200068
120	0xbfeefd1d	-1.8670994
121	0xbf01150c	-0.5042274
122	0x3cab8a98	0.02094011
123	0x3ee247cb	0.441954
124	0x3f5d54a7	0.86457294
125	0x3efd65fc	0.4949187
126	0x3e5ebd04	0.21751791
127	0xbf101284	-0.5627825
128	0xbee2cc9b	-0.44296727
129	0xbee860bb	-0.453863
130	0x3ef76b33	0.48323974
131	0xbf7b6fbe	-0.9821738
132	0xbffb03e2	-1.961056
133	0x3c41f89f	0.011839061
134	0xbde86312	-0.11347021
135	0xbe44c5e0	-0.19216108
136	0x3f37c54b	0.7178542
137	0xbf085072	-0.5324775
138	0xbfff2f74	-1.9936357
139	0xbf76cff1	-0.96411043
140	0xbf60609b	-0.8764741
141	0xbdd3e67b	-0.10346695
142	0xbf57627f	-0.8413467
143	0xbf591eb0	-0.8481245
144	0x3de200c6	0.11035304
145	0xbec332e2	-0.38124758
146	0xbfa0ee89	-1.2572795
147	0xbc906d26	-0.017630171
148	0xbecfd3f5	-0.40591398
149	0x3ed38d60	0.41318798
150	0x3e0c8388	0.1372205
151	0x3e0190fb	0.12652962
152	0x3e470e3a	0.19439021
153	0xbe577e87	-0.2104436
154	0x3f52769d	0.8221224
155	0xbef63cae	-0.4809317
156	0x3d260cf5	0.0405397
157	0x3ce70a0e	0.028203037
158	0xbea5f9c5	-0.32417122
159	0xbcad4165	-0.021149347
160	0xbd4c733a	-0.049914576
161	0x3f9be429	1.2179004
162	0xbfbb2026	-1.4619186
163	0xbd34eead	-0.04417293
164	0xbe35c9bb	-0.17752735
165	0xbfd35713	-1.6510948
166	0x3deaf5ed	0.11472688
167	0xbe8f59c2	-0.27998167
168	0xbea58067	-0.32324526
169	0x3e9e9121	0.309701
170	0x3e2c2852	0.16812256
171	0xc008785e	-2.1323466
172	0x3c4d14aa	0.012517134
173	0xbe9e8c44	-0.3096639
174	0xbe84aa40	-0.2591114
175	0xbf337571	-0.70101076
176	0xbee3af18	-0.44469523
177	0x3d12ee88	0.035872012
178	0xbe69e503	-0.22841267
179	0x3e1efadd	0.15525384
180	0x3dd9e48b	0.10639294
181	0x3ca282c9	0.019837754
182	0xbe536604	-0.20644385
183	0x3cc53ad3	0.024075901
184	0x3e9aef90	0.30260897
185	0xbed1c0f9	-0.4096754
186	0xbeb1ac4a	-0.3470176
187	0x3f40a59d	0.75252706
188	0x3f6eaccb	0.9323241
189	0xbe85a00a	-0.26098663
190	0x3d2df88e	0.04247337
191	0x3f01c714	0.50694394
192	0x3e9464f3	0.28983268
193	0x3f131a07	0.5746159
194	0x3e21f677	0.15816675
195	0x3f935b99	1.1512328
196	0x3d1922a2	0.037386544
197	0x3f83db70	1.0301342
198	0xbf49de0a	-0.7885443
199	0x3e6cf8c5	0.23141773
200	0xbf91f0b1	-1.1401578
201	0x3d9d4a03	0.07680132
202	0xbdb2c8b4	-0.08729687
203	0x3e5e7352	0.21723679
204	0xbe83fdd9	-0.25779608
205	0x3b3c00fc	0.002868711
206	0xbea9eaf9	-0.33187082
207	0xbe5999cc	-0.21250075
208	0xbd0e1623	-0.03468908
209	0xbefea814	-0.49737608
210	0xbf0e126f	-0.5549688
211	0xbdc67adc	-0.09691402
212	0xbfda9a6f	-1.7078379
213	0x3ec83672	0.39104038
214	0xbd9d74f6	-0.07688324
215	0x3f012f22	0.50462544
216	0x3f5391a3	0.826441
217	0xbdb424d7	-0.08796089
218	0x3ecd6cef	0.40122172
219	0xbe21814b	-0.15771978
220	0xbc6550de	-0.013996331
221	0xbe9d677f	-0.30743024
222	0xbee4a278	-0.44655204
223	0x3fbf37d9	1.4938918
224	0x3f1f283b	0.6217076
225	0xbe8661de	-0.26246542
226	0xbfba9781	-1.4577485
227	0xbee4de21	-0.4470072
228	0x3ecb7a98	0.3974197
229	0x3dcfcd65	0.10146598
230	0x3ea5a843	0.32354936
231	0x3ef8edb1	0.48618844
232	0x3e9adbd5	0.30245844
233	0xbe8b4976	-0.27204484
234	0x3e59fef1	0.21288659
235	0xbe137b1e	-0.14402434
236	0x3eefff99	0.46874693
237	0xbf7f1847	-0.9964642
238	0x3f0801cb	0.53127736
239	0x3f1b2a8d	0.606118
240	0xbfa6a2d0	-1.3018436
241	0x3d5e2ff1	0.05424494
242	0x3f0e0ff0	0.5549307
243	0x3f6d36cf	0.92661756
244	0xbe80a626	-0.2512676
245	0x3f76bf72	0.9638587
246	0xc003429f	-2.0509412
247	0x3e8ec1b0	0.27882147
248	0xbe63eaf4	-0.22257596
249	0x3e08089a	0.13284531
250	0xbe81ff54	-0.25390112
251	0x3e8e2e0a	0.277695
252	0xbde4eaca	-0.11177595
253	0xbf69fb26	-0.9139885
254	0xbe21deb7	-0.15807615
255	0xbeaa745e	-0.33291906

l2.bias f4 [300]
0	0x3d0daf93	0.03459127
1	0x3fac5563	1.3463558
2	0x3e51b72a	0.20480028
3	0x3f3c79fb	0.7362363
4	0xbf1216de	-0.5706614
5	0x3e4f4880	0.202425
6	0x3d2cdf30	0.042205036
7	0xbf74357b	-0.95394105
8	0x3e9cdf48	0.306391
9	0x3f601133	0.87526244
10	0xbeb21f59	-0.3478954
11	0xbf605da6	-0.87642896
12	0x3e3918cf	0.1807587
13	0x3fbaa12f	1.4580439
14	0x3cd85015	0.026405374
15	0x3e9a6c75	0.3016087
16	0x3f0fe8ff	0.562149
17	0x3fe563ae	1.7921045
18	0x3f0cc32d	0.54985315
19	0xbf971db6	-1.1805942
20	0x3f1c965e	0.6116694
21	0xbe8ce3ae	-0.27517456
22	0xbda18aaa	-0.07887776
23	0x3eaac02e	0.33349746
24	0x3b2b3e77	0.0026129761
25	0xbe9974c0	-0.29971886
26	0x3dd44da9	0.10366375
27	0xbcd3cd8a	-0.025854845
28	0xbe042235	-0.12903674
29	0xbe6569e1	-0.22403671
30	0xbe89d275	-0.26918378
31	0x3ddc61a1	0.10760809
32	0xbedd035a	-0.4316662
33	0xbf24bf2f	-0.64354223
34	0xbee28bc3	-0.44247255
35	0x3f8880a6	1.066426
36	0x3e9fbbd5	0.31197992
37	0x3e3bf3f8	0.18354785
38	0x3f204329	0.6260248
39	0x3f330300	0.6992645
40	0x3d86ec3c	0.06588027
41	0x3e9b066e	0.30278343
42	0x3b5d19e4	0.0033737356
43	0xbdf78164	-0.12085226
44	0x3de757f7	0.11296075
45	0x3e6a8682	0.22902873
46	0x3f41b8c5	0.7567256
47	0xbeea8e8b	-0.45811877
48	0x3f1444ad	0.5791729
49	0x3f14c8c6	0.58118856
50	0xbe85a295	-0.26100603
51	0x3d59c742	0.053168543
52	0xbc714d1c	-0.014727857
53	0x3b78fc1f	0.0037992073
54	0xbd8a986e	-0.06767355
55	0xbf207c06	-0.62689245
56	0x3deda39a	0.1160347
57	0xbd80dee9	-0.06292517
58	0xbf51060b	-0.81649846
59	0x3f3ab181	0.729271
60	0x3ec19708	0.3781054
61	0x3f4be859	0.7965141
62	0xbf006b9f	-0.50164217
63	0xbed8f340	-0.42373085
64	0xbeb7e742	-0.35918623
65	0x3e8c11c7	0.27357313
66	0xbc46dc1c	-0.012137439
67	0x3e30313a	0.17206278
68	0x3f8916c1	1.0710069
69	0x3f460f7b	0.7736737
70	0xbfd41f36	-1.6572025
71	0xbf8a307e	-1.0796049
72	0x3ea4d87f	0.32196423
73	0xbe268b45	-0.16264065
74	0xbdf085e4	-0.117442876
75	0xbf131016	-0.5744642
76	0xbf111ebe	-0.56687534
77	0xbeef6bdb	-0.46761975
78	0xbe8ba5a5	-0.27274814
79	0x3e4fee20	0.20305681
80	0x3ec2a6e8	0.38017964
81	0xbe14c726	-0.14529094
82	0x3ee56ac5	0.4480802
83	0xbe9f4e7e	-0.31114572
84	0x3f43b59b	0.7644898
85	0x3d43a729	0.04776684
86	0xbe8e42d5	-0.27785364
87	0x3dfb29ca	0.1226383
88	0xbe05314d	-0.13007088
89	0x3f22e6fb	0.636337
90	0x3f92fb85	1.1483008
91	0xbf0f724c	-0.5603378
92	0x3e261770	0.16219878
93	0xbfab89aa	-1.3401387
94	0xbec82e22	-0.39097697
95	0x3e1d51b6	0.15363201
96	0xbea40327	-0.32033655
97	0xbf1f3cdc	-0.6220224
98	0x3f00059a	0.5000855
99	0xbfa469ba	-1.2844765
100	0xbe9b2728	-0.3030331
101	0x3ec4fb5e	0.38473028
102	0x3df9bfcf	0.12194788
103	0x3f00a246	0.5024761
104	0x3e2b3dee	0.16722843
105	0x3e9f4dcc	0.31114042
106	0xbe78d023	-0.24298148
107	0x3f61eebb	0.882549
108	0x3f840de1	1.0316736
109	0xbe8c9827	-0.27459833
110	0x3f46f337	0.77714866
111	0x3f62c290	0.8857813
112	0xbc93a9fe	-0.018025395
113	0xbde47a4b	-0.11156138
114	0xbe806d2f	-0.250833
115	0x3e80b0f4	0.25135005
116	0x3cd56f81	0.026054146
117	0xbf22579f	-0.6341495
118	0xbed05cb6	-0.40695733
119	0xbea33357	-0.31875107
120	0xbf2dbb6f	-0.67864126
121	0xbf529bf7	-0.82269233
122	0xbeb8b340	-0.36074257
123	0xbf1736c4	-0.5906794
124	0xbc04a255	-0.008095344
125	0xbd0836bd	-0.033255327
126	0xbf0b3741	-0.54381186
127	0x3f852590	1.0402088
128	0xbeb205bf	-0.3477001
129	0xbe51389a	-0.20431748
130	0x3e3e02e5	0.18555792
131	0x3e577709	0.21041502
132	0xbf038915	-0.51381046
133	0x3fc096bb	1.5045999
134	0xbd773b77	-0.060359444
135	0xbe909873	-0.2824131
136	0x3ebd5dc7	0.3698561
137	0x3e0e6156	0.13904318
138	0xbf454b94	-0.7706845
139	0x3f5946d8	0.84873724
140	0xbe8b5c9f	-0.27219102
141	0xbe08e704	-0.13369375
142	0xbed09d22	-0.40744883
143	0xbec20734	-0.3789612
144	0xbdc60cdb	-0.09670421
145	0xbf82e82b	-1.0227102
146	0xbe890c05	-0.26766983
147	0x3f08beac	0.5341594
148	0x3ddc9161	0.10769916
149	0xbed69af3	-0.41915092
150	0xbe89f985	-0.2694818
151	0xbefbb129	-0.491586
152	0x3e224267	0.15845643
153	0x3f11536c	0.56767917
154	0xbe0780d0	-0.13232732
155	0xbceee70b	-0.029162904
156	0xbcca5b91	-0.024701865
157	0x3eaa6d56	0.33286542
158	0xbec084d1	-0.3760133
159	0xbf8c1ebd	-1.094688
160	0xbec6dd9d	-0.38840953
161	0xbec1ff26	-0.37889975
162	0xbe47c458	-0.19508493
163	0x3ea33cad	0.3188223
164	0xbeaa3daf	-0.33250186
165	0x3e82a7a8	0.25518537
166	0x3b8efe06	0.004363778
167	0xbd63b8e4	-0.055596247
168	0xbf02f199	-0.511499
169	0x3f6c2406	0.9224247
170	0xbe6b58e3	-0.22983126
171	0xbd7458cc	-0.059654996
172	0xbed07711	-0.4071584
173	0xbe82b0ac	-0.25525415
174	0xbe87909d	-0.2647752
175	0xbd6f4fbb	-0.058425646
176	0xbe9e25a7	-0.308881
177	0xbe50709d	-0.20355459
178	0xbe84d9df	-0.25947472
179	0xbe3daaea	-0.1852223
180	0xbd841a65	-0.06450347
181	0xbe85fbc2	-0.26168638
182	0xbef23f79	-0.4731405
183	0x3e953844	0.2914449
184	0x3e0fbedc	0.14037651
185	0xbca0eedf	-0.019645153
186	0xbc202b8f	-0.00977601
187	0x3dd46069	0.10369951
188	0xbf731c64	-0.94965196
189	0xbf6d3d36	-0.92671525
190	0xbf4cad33	-0.7995178
191	0x3dd493f9	0.10379786
192	0x3f894ae8	1.0725985
193	0xbf19bed0	-0.6005678
194	0x3e9cb7f5	0.30609098
195	0xbd52b9e5	-0.051446814
196	0x3f021e94	0.5082791
197	0xbfc61456	-1.5474956
198	0x3eab1754	0.33416235
199	0x3eb6441c	0.35598838
200	0x3e22e856	0.15908942
201	0xbd4b7341	-0.04967046
202	0xbe97c655	-0.29643503
203	0xbef24695	-0.47319475
204	0x3eea1796	0.4572112
205	0xbf4dea13	-0.80435294
206	0x3f5a28e1	0.85218626
207	0xbe87b092	-0.265019
208	0xbd0180c5	-0.031616945
209	0x3f01f77a	0.50768244
210	0xbf168926	-0.5880302
211	0x3f2f2f5a	0.6843163
212	0xbf2ca0f2	-0.67433083
213	0x3f44e78e	0.76915824
214	0x3eb219f9	0.3478544
215	0xbec11dbb	-0.37717995
216	0xbe2feeb7	-0.17180906
217	0xbd7716ea	-0.060324587
218	0x3e229e1e	0.1588063
219	0x3faa1bd2	1.328974
220	0xbe28f086	-0.16498002
221	0x3ea04c42	0.3130818
222	0x3eb6568f	0.35612914
223	0x3f54af78	0.83080244
224	0xbf6654e2	-0.8997327
225	0xbd1d6976	-0.038430654
226	0xbd7341e4	-0.05938901
227	0xbddfc72a	-0.109266594
228	0xbea3cc77	-0.31991932
229	0xbeeb7f2b	-0.4599546
230	0xbe8671a6	-0.26258582
231	0xbf3c5842	-0.7357217
232	0xbcd239a2	-0.025662247
233	0x3dc898a2	0.097947374
234	0x3e887d0c	0.26657903
235	0xbd3e0a70	-0.046396673
236	0xbe693f63	-0.22778086
237	0x3f8d8cab	1.1058553
238	0xbcfbdbe6	-0.030744504
239	0xbda7c9cd	-0.08192787
240	0xbf141355	-0.57842
241	0x3fa864c5	1.3155752
242	0xbf060505	-0.5235141
243	0x3ed5eece	0.41783756
244	0xbca9809f	-0.020691214
245	0xbf7c4d42	-0.98555386
246	0xbf9d6529	-1.2296497
247	0xbd5d56f2	-0.054037996
248	0xbf0d62e0	-0.55228996
249	0x3ec7d898	0.39032435
250	0xbe927314	-0.28603423
251	0x3e72442e	0.23658821
252	0xbe9176b6	-0.28410882
253	0xbd5d675a	-0.05405364
254	0xbf0d99a5	-0.5531257
255	0xbd5266f2	-0.051367708

l3.weight f4 [1, 300]
0	0x3ef420a9	0.47681168
1	0xbeca0742	-0.39458662
2	0xbfbd1390	-1.4771595
3	0xbfa1ba1d	-1.2634922
4	0xbf8b19cc	-1.0867248
5	0xbfcebbe0	-1.6151085
6	0x3e886ecf	0.2664704
7	0x3f566f09	0.83763176
8	0xbfb4b5e8	-1.4118013
9	0xbea2282c	-0.31671274
10	0x3e8427d6	0.25811642
11	0x3fb93f6a	1.4472477
12	0xbe6ad5a2	-0.22933057
13	0xbeb74f4e	-0.35802692
14	0x3e988671	0.2979007
15	0xc0386907	-2.8814104
16	0xbf5d1295	-0.8635648
17	0xbf5dde3c	-0.8666723
18	0xbf25d4f8	-0.6477809
19	0x3fdf7dec	1.7460303
20	0xbee4245b	-0.44558987
21	0x3f877d76	1.0585163
22	0x3f1da650	0.615819
23	0xbf28161a	-0.65658724
24	0x3ed90982	0.42390066
25	0x3e934ca9	0.28769425
26	0xbea44b06	-0.32088488
27	0xbb0f3305	-0.0021850478
28	0xbfca24e0	-1.5792503
29	0x3ee4390d	0.44574776
30	0x3e521e49	0.20519365
31	0xbe921c55	-0.2853724
32	0x3f5b5e41	0.85690695
33	0x3fd7bcc3	1.685448
34	0x3fdb1279	1.7115012
35	0xbe68e1b9	-0.22742356
36	0xbfe60a4a	-1.797189
37	0x3f061af0	0.52384853
38	0xbf970756	-1.1799114
39	0xc073bfac	-3.8085737
40	0x3ef7ce85	0.4839975
41	0x3f1f4db0	0.62227917
42	0x3e8d301a	0.2757576
43	0xbfa21246	-1.2661827
44	0xc064ce6d	-3.5750992
45	0xbfa6491a	-1.2991059
46	0xbf3b0bab	-0.7306468
47	0xc021dace	-2.5289798
48	0xc0086664	-2.1312494
49	0xbfd1af90	-1.6381702
50	0x3fb40a47	1.4065636
51	0x3f11607d	0.56787854
52	0x3d72e1cb	0.059297364
53	0x3e9c49af	0.30524966
54	0x3eb869c7	0.36018202
55	0x3f5d1dea	0.8637377
56	0xbe6ed44a	-0.2332317
57	0xbf4f87cd	-0.8106659
58	0x3f9777b0	1.1833401
59	0xbf603891	-0.87586313
60	0xbf8f7314	-1.1206994
61	0xc02f43e0	-2.7385178
62	0x3fe98102	1.8242495
63	0x3e790376	0.24317726
64	0x3ef944bd	0.48685256
65	0xbf80a42a	-1.0050099
66	0x3e427305	0.18989189
67	0xbf6819ce	-0.90664375
68	0xbf2ec2d2	-0.6826602
69	0xbe741791	-0.23837115
70	0x40180d6b	2.375819
71	0x3fb1c3ea	1.3887913
72	0xbf220a7a	-0.63297236
73	0xc0784ac6	-3.8795638
74	0xc0421340	-3.032425
75	0x3fbd4e27	1.4789475
76	0x3f3ca770	0.7369299
77	0x3fca7eb8	1.5819921
78	0x3ffd1e1b	1.9774812
79	0xbeb4c437	-0.3530595
80	0xbf6e6172	-0.9311744
81	0x400d09e4	2.2037287
82	0xc01d115d	-2.4541848
83	0x3f27775a	0.6541649
84	0xbf559395	-0.8342832
85	0xc0556942	-3.3345494
86	0x3f239346	0.63896596
87	0xbf964d29	-1.1742297
88	0xbfabe456	-1.3429058
89	0xbf84061c	-1.0314364
90	0xbf86b2be	-1.0523298
91	0x3fa54c0f	1.2913836
92	0xc00d8e70	-2.2118187
93	0x3ed02c3f	0.40658757
94	0x3f0c26b7	0.54746574
95	0xbf80c5d7	-1.0060376
96	0x3f842874	1.0324845
97	0x40085557	2.1302087
98	0xbf20c810	-0.6280527
99	0x3f0e7e67	0.55661625
100	0x3f85178f	1.0397815
101	0xbfd94e9f	-1.6977118
102	0x40059da9	2.0877478
103	0xbf2dfcd0	-0.67963886
104	0xbfcfc008	-1.6230478
105	0xbfe567f8	-1.7922354
106	0xbf93492d	-1.1506706
107	0xc089d33d	-4.307036
108	0xbf1dfc26	-0.61712873
109	0x3f83d1b1	1.0298368
110	0xbeaf49e6	-0.34236068
111	0xbf256171	-0.6460181
112	0x3b720af3	0.0036932796
113	0xbf57f341	-0.8435555
114	0xbfd7a071	-1.6845838
115	0xc0357657	-2.835348
116	0xbf98c8ed	-1.1936318
117	0x3eec552f	0.4615874
118	0x3fccaa7d	1.5989529
119	0xc0036204	-2.0528574
120	0x3f90b4f5	1.1305224
121	0x3fc254c4	1.5182118
122	0x3fff1c43	1.99305
123	0x3f7b8950	0.982564
124	0xbd9b641d	-0.075874545
125	0xbfd866e1	-1.6906396
126	0x3fc3474b	1.5256132
127	0xc00235fc	-2.034545
128	0x3e7cb834	0.24679643
129	0xc024afce	-2.5732303
130	0xbf9789b3	-1.1838897
131	0xbe88da04	-0.26728833
132	0x3f6c59ea	0.923247
133	0xbe834390	-0.25637484
134	0xbed362b1	-0.41286233
135	0x3ec91101	0.39270785
136	0xc01156ad	-2.2709153
137	0xbee23aac	-0.44185388
138	0x3f116ab9	0.5680347
139	0xbff5582a	-1.916753
140	0x3ef5a225	0.4797527
141	0x3f976581	1.1827852
142	0x3f8f161c	1.1178622
143	0x3ea8cfc9	0.32971027
144	0x3f2a2041	0.66455466
145	0x3ebbc728	0.36675382
146	0xbf34c757	-0.7061667
147	0xc00b9dd4	-2.181508
148	0x3e834370	0.25637388
149	0x3f182b19	0.5944076
150	0xbed3fc69	-0.4140351
151	0x3ee5adde	0.44859213
152	0x3f979c85	1.1844641
153	0xc028e9bb	-2.6392658
154	0x3fba02e7	1.4532136
155	0x3a7a0c2c	0.0009538557
156	0xc01a8575	-2.4143956
157	0xc00b601c	-2.177741
158	0x3fe0aa82	1.7552035
159	0x3f069014	0.52563596
160	0x3eb62e35	0.35582128
161	0x3f9525d4	1.1652169
162	0xc09ae346	-4.8402433
163	0xbf92d5e3	-1.1471523
164	0x4008640c	2.1311064
165	0xbf41c22b	-0.756869
166	0xbebce79e	-0.3689546
167	0xbfbc1e9e	-1.4696844
168	0x40057d0f	2.085758
169	0xbfe535b5	-1.7907015
170	0xbfb0424f	-1.3770236
171	0x3ab4c118	0.0013790457
172	0x3f9bc0c2	1.21682
173	0xbf7fccd4	-0.9992192
174	0x3ff0aeb6	1.8803318
175	0x3b31ab40	0.002711013
176	0xbf3e3b13	-0.7430889
177	0x3f8b7007	1.0893563
178	0x3f091efc	0.53562903
179	0x3f861379	1.0474693
180	0x3ab36188	0.0013685683
181	0x3f061625	0.5237754
182	0xbf471153	-0.7776081
183	0xc0040a09	-2.0631125
184	0xbff87073	-1.9409317
185	0xbb3e0368	-0.002899373
186	0xbf80b0f4	-1.0054002
187	0xbe818a24	-0.25300705
188	0x3f153de5	0.5829757
189	0x4007e208	2.1231709
190	0x3fbae3a5	1.4600722
191	0xbf73de23	-0.9526083
192	0xbf2636af	-0.6492719
193	0x3f721d0c	0.9457557
194	0xbfcc6c78	-1.5970602
195	0x3f81ad75	1.013106
196	0xc0595c31	-3.396252
197	0x3f2d23fc	0.6763303
198	0xbf2646f5	-0.6495202
199	0xbf38d8db	-0.72205895
200	0xbe8a1414	-0.26968443
201	0x3cddf269	0.02709313
202	0x3fcb7573	1.5895218
203	0x3f1826f4	0.5943444
204	0xbf01c3e7	-0.5068955
205	0x3f89e699	1.0773498
206	0xbfdf1059	-1.7426864
207	0x3fd85e4c	1.6903777
208	0xbfbf3a57	-1.4939679
209	0xbf5d384d	-0.86414033
210	0x3f6e6c62	0.9313413
211	0xbf3d9194	-0.7405026
212	0x3f0a1c24	0.5394919
213	0xbf091dc1	-0.53561026
214	0x3f95b03a	1.1694405
215	0x3fa15b97	1.2606076
216	0xbf7f8363	-0.99809855
217	0x3f17b0bc	0.5925405
218	0xbec324b0	-0.38113928
219	0xbe98521e	-0.2975015
220	0x3ea0a31b	0.3137444
221	0xc0285008	-2.6298847
222	0xbfd4c789	-1.6623393
223	0xbfa247fa	-1.2678216
224	0x3f60a5a2	0.87752736
225	0x3f272189	0.65285546
226	0x3ce4d102	0.027931694
227	0x3d074d25	0.033032555
228	0x3f81c4bc	1.0138164
229	0x3fd59c09	1.6688243
230	0x401cfcbd	2.452926
231	0x3f444768	0.7667146
232	0xbc6aa2da	-0.014321053
233	0xbfa64924	-1.2991071
234	0xbedfe4d9	-0.43729284
235	0x3c6458b2	0.013937162
236	0xbf52e329	-0.8237787
237	0xbe819f64	-0.25316918
238	0x3e8558ec	0.26044405
239	0x3f3880c6	0.7207149
240	0x3f7d73c4	0.9900477
241	0xbf4101bc	-0.7539327
242	0x3f72601b	0.94677895
243	0xc0144a25	-2.3170254
244	0x3ccc4d38	0.024939165
245	0x3ea0049d	0.3125352
246	0x3f760359	0.9609886
247	0x3a314357	0.00067620486
248	0x3eb2fd80	0.3495903
249	0xc01b097d	-2.422454
250	0x3f2e9df9	0.682098
251	0xc008b536	-2.1360602
252	0x3fd71241	1.6802446
253	0x3ecfbe78	0.40575004
254	0x3fdec171	1.7402784
255	0x3bb340b7	0.005470361
