preTrained/TD3_BipedalWalkerHardcore-v3_0_actor.pth (torch_old, 527104 bytes, 6 tensors)

l1.weight f4 [400, 24]
-0.2348179 0.42643434 0.3775982 -0.869415 -0.49924183 -0.012050764 0.6345557 0.115496874
-0.035606567 0.3528322 0.0034636222 0.4975801 0.105746984 -0.38162628 0.017243605 0.28205752
0.022899378 -0.3744974 -0.4777509 -0.74344903 -0.34068906 -0.020304672 0.30207548 0.35071293
-0.03883154 0.27244756 0.11910415 -1.4644353 0.41453224 -0.12620188 0.4216264 -0.06346688
0.14914665 0.17598465 0.053144418 0.50312686 -0.11503643 -0.23971584 0.02410395 -0.4512849
-0.45030123 -0.23644592 -0.49200457 -0.21545118 -0.32838783 -0.1673846 0.47549376 0.23305207
-0.2687496 -0.8340033 0.5734624 -0.57314104 0.46561784 -0.10298863 0.47789183 -0.23461302
0.09196963 -0.11939658 0.24834816 -0.44253063 -0.06298409 0.050594762 -0.51101714 -0.25042596
-0.51021385 -0.5691878 -0.05833793 -0.2143045 0.044802137 0.11935992 0.33697945 -0.07726987
0.0006626924 0.8703558 -1.3034239 0.26929834 -0.32496807 0.20892973 0.22416267 -0.68410087
-0.34302944 -0.27587897 0.001888166 0.16449769 0.34432086 -1.2070125 -0.22275116 -0.32831648
0.053142242 -0.009074299 -0.4521899 -0.41192108 -0.06086414 -0.25102112 -0.17011198 0.39607129
-0.09739171 -0.026612777 -0.29106 0.75778633 -0.75108266 -0.17305602 0.49082106 -0.2830047
-0.5544541 0.53069776 0.30847025 -0.35549805 0.052075975 0.1479198 0.47536653 0.067518495
-0.2343459 -0.06607404 0.080742165 -0.030968927 0.115933925 -0.11878547 -0.23248924 -0.40658334
-0.0079943305 0.7639373 -0.9188992 0.037411805 -0.22011028 -0.0032778517 -0.23766048 0.052169885
0.119657 -0.39509222 -0.007998835 0.023640092 0.05472983 0.15356496 0.26540956 0.0430631
0.060297415 0.28896555 0.24875964 -0.11006341 -0.39171097 -0.4357504 -0.67564154 -0.72991294
1.0516573 1.8599381 -1.0056212 0.25325522 0.34523612 0.0015196295 0.1029173 0.0013942019
-0.012681491 0.3771776 -0.007695033 0.18969013 -0.079797596 -0.14714162 0.65609616 0.58121413
0.19699575 -0.124379076 -0.54924065 -0.5473415 -0.21941756 -0.034125727 -0.11004591 -0.049559787
-1.3925769 -1.0604113 0.37951267 -0.19377592 -0.3563263 0.002921308 0.05079793 0.025423588
-0.12036041 -0.112283446 -0.1258873 0.20649962 -0.16341983 -0.49933752 -0.6189013 -0.29035544
-0.32018322 -0.21060053 0.050015986 0.5788189 0.33313602 0.2084254 0.11597307 -0.17697306
0.3576321 1.2638749 -0.939009 -0.7959893 0.045878757 -0.09853193 0.5053479 -0.019501988
0.32906255 -0.5882127 -0.06179885 0.66891474 -0.08951665 0.30455357 -0.6151004 -0.21419917
-0.3443725 -0.2164674 -0.35191232 -0.46736756 -0.46296543 -0.10811929 -0.2829795 0.04629076
-0.06301261 -2.2692657 0.6288089 -0.410686 0.038470626 -0.02962969 -0.14229652 -0.015651936
0.18899108 -0.7181752 -0.046318393 -0.2587503 -0.0384619 -0.9711028 -0.59939134 -0.42722216
-0.57464224 -0.39193597 -0.13900994 0.22837475 0.20509781 0.056571174 0.31934208 0.2018819
-0.25902745 0.18770096 -0.4989192 1.1482344 -0.19190109 0.13101967 -0.016442904 0.05550982
-0.28539544 -0.34389916 -0.020142607 0.06569749 -0.31800127 0.16830428 -0.3188139 -0.22011307
00000000: 1b74 70be 9a55 da3e 8d54 c13e fb91 5ebf
00000010: a09c ffbe 9170 45bc 3e72 223f a089 ec3d
00000020: 31d8 11bd 6ca6 b43e f0fd 623b d2c2 fe3e
00000030: e091 d83d 8564 c3be 7642 8d3c d869 903e
00000040: 7a97 bb3c 20be bfbe c49b f4be ad52 3ebf
00000050: cc6e aebe fc55 a6bc a3a9 9a3e a590 b33e
00000060: d20d 1fbd 3f7e 8b3e e0ec f33d 9e72 bbbf
00000070: 923d d43e 113b 01be 6adf d73e ecfa 81bd
00000080: e6b9 183e 5235 343e f6ad 593d eccc 003f
00000090: 3898 ebbd 1278 75be a675 c53c d00e e7be
000000a0: e28d e6be e11e 72be 06e8 fbbe 3c9f 5cbe
000000b0: 7322 a8be de66 2bbe eb73 f33e 34a5 6e3e
000000c0: 8c99 89be 3e81 55bf 6fce 123f 5fb9 12bf
000000d0: 7665 ee3e b4eb d2bd 3dae f43e 653e 70be
000000e0: 935a bc3d 3286 f4bd fb4e 7e3e 6093 e2be
000000f0: cdfd 80bd 743c 4f3d 05d2 02bf d537 80be
00000100: 609d 02bf 4bb6 11bf c1f3 6ebd a472 5bbe
00000110: 7282 373d f972 f43d 9288 ac3e aa3f 9ebd
00000120: 89b8 2d3a a3cf 5e3f 98d6 a6bf 79e1 893e
00000130: 3762 a6be adf1 553e e68a 653e 3c21 2fbf
00000140: 8ea1 afbe 0240 8dbe 567c f73a 1572 283e
00000150: d34a b03e 637f 9abf e118 64be 1919 a8be
00000160: aeab 593d 5eac 14bc 6f85 e7be 52e7 d2be
00000170: ad4c 79bd d785 80be d631 2ebe dbc9 ca3e
00000180: 4e75 c7bd 0a03 dabc d105 95be 49fe 413f
00000190: f446 40bf 9935 31be e64c fb3e fee5 90be
000001a0: b4f0 0dbf cfdb 073f d0ef 9d3e d703 b6be
000001b0: 9e4d 553d 4a78 173e 3e63 f33e 2347 8a3d
000001c0: 5ff8 6fbe d451 87bd 265c a53d 8cb2 fdbc
000001d0: c46e ed3d cc45 f3bd a911 6ebe b12b d0be
000001e0: a7fa 02bc 6591 433f fa3c 6bbf 1f3d 193d
000001f0: 9764 61be 3ad1 56bb 455d 73be 17b0 553d
00000200: bb0e f53d 8749 cabe 8c0d 03bc dea8 c13c
00000210: 632c 603d 2240 1d3e c3e3 873e ef62 303d
00000220: 6cfa 763d 4bf3 933e d9ba 7e3e ed68 e1bd
00000230: 578e c8be ad1a dfbe d8f6 2cbf 93db 3abf
00000240: b59c 863f 7412 ee3f 32b8 80bf abaa 813e
00000250: cac2 b03e 4e2e c73a 4ec6 d23d a7bd b63a
00000260: 07c6 4fbc 6c1d c13e 9e26 fcbb 213e 423e
00000270: ec6c a3bd 4bac 16be ebf5 273f 73ca 143f
00000280: 41b9 493e 75ba febd 099b 0cbf 931e 0cbf
00000290: ffae 60be 6bc7 0bbd c05f e1bd 34ff 4abd
000002a0: f63f b2bf 8fbb 87bf 7c4f c23e 326d 46be
000002b0: 6770 b6be 6a73 3f3b 7e11 503d 2145 d03c
000002c0: 857f f6bd ddf4 e5bd 9ae8 00be a374 533e
000002d0: 8757 27be 2ba9 ffbe 5170 1ebf 78a9 94be
000002e0: 0eef a3be aaa7 57be 90dd 4c3d 7a2d 143f
000002f0: ce90 aa3e 786d 553e 4a83 ed3d 6d38 35be
00000300: 8e1b b73e a7c6 a13f e562 70bf f4c5 4bbf
00000310: 5deb 3b3d 1ccb c9bd 7b5e 013f a2c2 9fbc
00000320: e37a a83e 1c95 16bf ca20 7dbd ff3d 2b3f
00000330: 8154 b7bd 72ee 9b3e 3877 1dbf 0757 5bbe
00000340: 9851 b0be a1a9 5dbe da2d b4be cd4a efbe
00000350: ce09 edbe a56d ddbd b0e2 90be 619b 3d3d
00000360: c10c 81bd a63b 11c0 9ff9 203f 6f45 d2be
00000370: 6093 1d3d f7b9 f2bc 2eb6 11be 7d38 80bc
00000380: e186 413e 54da 37bf 5bb8 3dbd eb7a 84be
00000390: 3a8a 1dbd 319a 78bf b671 19bf ddbc dabe
000003a0: c11b 13bf d5ab c8be 9f58 0ebe 12db 693e
000003b0: 2905 523e 2db7 673d ce80 a33e 21ba 4e3e
000003c0: 3f9f 84be ae34 403e 5672 ffbe 58f9 923f
000003d0: b881 44be 052a 063e 45b3 86bc 445e 633d
000003e0: 5a1f 92be 8d13 b0be 1c02 a5bc 688c 863d
000003f0: 10d1 a2be f557 2c3e 933b a3be 5265 61be

l1.bias f4 [400]
-0.27491185 0.0960956 -0.37391612 -0.031013343 0.17613581 -0.034254223 0.38739046 -0.07999308
0.08852332 -0.21661448 -0.28866664 0.103123486 -0.051343128 -0.36856347 -0.25490293 -0.09088243
0.1011535 0.046943966 -0.09471055 -0.4289452 0.17131458 -0.29320887 0.09607505 -0.19319685
-0.3619034 0.038464215 -0.45859057 -0.2673811 -0.051708885 -0.14349055 -0.35390994 -0.053072155
0.16423035 -0.45839226 -0.36233127 -0.2106516 0.00053904025 -0.07884447 -0.31388336 -0.35449564
-0.037657477 0.09136554 0.015352261 0.26259395 -0.51441336 0.22507438 0.36932862 -0.09779135
-0.03308786 -0.100745216 0.09091333 0.06861754 -0.16191559 -0.073195204 -0.3211231 -0.2054302
0.04483727 -0.121282555 -0.2880099 0.25843352 -0.082200855 0.25290826 -0.16754594 -0.37549356
-0.5079078 -0.2782677 -0.13173662 -0.16461043 -0.39898345 -0.08306724 0.25664696 0.059207946
0.030779054 0.030975934 0.03925818 -0.43468747 0.27732664 -0.3936846 -0.15507151 -0.18718137
0.1449571 -0.14478458 -0.22306074 -0.28605348 0.2844693 0.3043417 -0.078784004 -0.4697376
-0.3638177 0.11159457 -0.074944496 -0.28986737 -0.015686601 -0.29526868 -0.048401777 -0.25125864
-0.09101823 0.048673037 -0.42827457 -0.0023705093 -0.17489883 0.2723979 0.2534457 -0.0030580857
0.12211145 0.040604185 -0.29014194 -0.5024731 -0.23214793 -0.19880395 -0.03152074 -0.14499365
-0.17845511 -0.15861697 0.08523133 0.18218645 -0.21068722 -0.057963036 -0.0050732153 0.055389244
0.21039002 0.59630585 -0.20690036 -0.20856525 0.41049013 -0.14835066 -0.10798965 -0.29855788
-0.07562628 0.40040243 0.30911547 0.07703393 0.131754 -0.40964508 0.07974887 -0.11394498
0.06928068 0.21110867 0.15892625 -0.3362374 0.0058121583 0.098033816 -0.1796844 -0.0029414066
0.018034445 -0.060422357 0.099022016 0.001914189 0.036824707 0.28432792 -0.28510273 0.024336664
-0.16113356 -0.19288369 0.022414919 0.4012508 -0.15440139 0.1654776 0.3972533 -0.011538498
0.19152343 0.041941553 -0.26632044 -0.5416169 -0.17253548 0.030546052 -0.10839939 -0.17269865
-0.07376659 0.15144007 0.18461081 0.26402885 -0.29071876 -0.30860427 -0.1124419 -0.43274528
-0.24563926 -0.3820456 -0.30710843 -0.071578056 -0.26032183 -0.2441691 0.3229835 0.5315248
-0.20809881 0.29092172 -0.24892853 0.2818088 -0.34510717 -0.009437966 -0.16179842 -0.07998334
0.42513254 -0.28938565 0.19475259 -0.04665941 -0.08891258 -0.30411482 -0.19624156 -0.19536558
0.14155188 -0.49883658 -0.10252401 -0.41841087 -0.1099383 0.145625 0.17396514 0.2381622
0.38052493 -0.1763426 -0.17119801 -0.45330194 -0.25302827 0.24650778 -0.15273966 -0.17426176
-0.09107045 0.05526688 -0.22864857 0.02130285 -0.07382302 -0.13601944 -0.36463636 0.2721708
-0.15136372 0.06925108 -0.044779114 0.13845861 0.105048895 0.16822243 -0.32060948 0.06394076
-0.060736675 -0.13925442 0.24409555 -0.22166753 0.52868533 0.24279368 -0.04511387 -0.36794224
-0.17475045 0.6016579 -0.11473015 -0.2594715 -0.44376191 0.33691728 -0.027773283 -0.23682608
0.124089435 0.31849408 0.23636034 0.1156667 0.18104817 -0.06507337 -0.08874562 -0.082315154
00000000: 3fc1 8cbe c5cd c43d ef71 bfbe b20f febc
00000010: f25c 343e 284e 0cbd 0b58 c63e 69d3 a3bd
00000020: b74b b53d 30d0 5dbe 1dcc 93be 6832 d33d
00000030: 2c4d 52bd 5ab4 bcbe a382 82be 9120 babd
00000040: 9129 cf3d 5148 403d 9bf7 c1bd b59e dbbe
00000050: 176d 2f3e 791f 96be ffc2 c43d 65d5 45be
00000060: 674b b9be a78c 1d3d 62cc eabe 2de6 88be
00000070: b2cc 53bd 30ef 12be af33 b5be 3062 59bd
00000080: 002c 283e 64b2 eabe 7c83 b9be 0eb5 57be
00000090: 614e 0d3a 3679 a1bd 52b5 a0be 7480 b5be
000000a0: ba3e 1abd db1d bb3d 0d88 7b3c b772 863e
000000b0: 98b0 03bf e679 663e a418 bd3e d546 c8bd
000000c0: 2387 07bd 8253 cebd c530 ba3d 5a87 8c3d
000000d0: 33cd 25be 5ee7 95bd 3f6a a4be 4b5c 52be
000000e0: 49a7 373d fd62 f8bd 0976 93be 6651 843e
000000f0: ec58 a8bd 317d 813e 2a91 2bbe b140 c0be
00000100: 3f06 02bf 1b79 8ebe f7e5 06be a38f 28be
00000110: 8f47 ccbe 281f aabd 3b67 833e 0884 723d
00000120: 5b24 fc3c 3ec1 fd3c 2fcd 203d 5b8f debe
00000130: c2fd 8d3e 0791 c9be 11cb 1ebe 79ac 3fbe
00000140: a26f 143e 6942 14be 096a 64be 9a75 92be
00000150: f6a5 913e add2 9b3e 8259 a1bd 7281 f0be
00000160: 5046 babe b28b e43d 807c 99bd 7f69 94be
00000170: 3081 80bc 752d 97be f140 46bd f9a4 80be
00000180: c467 babd 615d 473d ce46 dbbe 8c5a 1bbb
00000190: ae18 33be bd77 8b3e a3c3 813e 2a6a 48bb
000001a0: 9115 fa3d 9350 263d 7c8d 94be 14a2 00bf
000001b0: 30b8 6dbe 4393 4bbe e41b 01bd 3779 14be
000001c0: f0bc 36be 7d6c 22be c38d ae3d 168f 3a3e
000001d0: 64be 57be a66a 6dbd 373d a6bb d5df 623d
000001e0: 7b70 573e 80a7 183f b0dd 53be 2192 55be
000001f0: c32b d23e 3ce9 17be ad29 ddbd 94dc 98be
00000200: f3e1 9abd 8c01 cd3e 6244 9e3e f7c3 9d3d
00000210: 85ea 063e 00bd d1be 6053 a33d fc5b e9bd
00000220: 07e3 8d3d df2c 583e 90bd 223e 4f27 acbe
00000230: eb73 be3b f4c5 c83d 30ff 37be 9dc4 40bb
00000240: f9bc 933c 6f7d 77bd 0ecc ca3d 86e5 fa3a
00000250: 81d5 163d 6e93 913e fcf8 91be af5d c73c
00000260: 3200 25be 4d83 45be 7e9f b73c bf70 cd3e
00000270: 661b 1ebe f672 293e c964 cb3e f80b 3dbc
00000280: b81e 443e e8ca 2b3d 275b 88be 68a7 0abf
00000290: 24ad 30be b73b fa3c 8000 debd ead7 30be
000002a0: f012 97bd 1b13 1b3e 9e0a 3d3e ca2e 873e
000002b0: 17d9 94be 6101 9ebe f047 e6bd ca90 ddbe
000002c0: dc88 7bbe 7b9b c3be 513d 9dbe 8497 92bd
000002d0: e748 85be 7707 7abe 185e a53e 0212 083f
000002e0: db17 55be b1f3 943e 1fe7 7ebe 3e49 903e
000002f0: e3b1 b0be b3a1 1abc 7cae 25be 4ece a3bd
00000300: f9aa d93e 5b2a 94be 396d 473e f01d 3fbd
00000310: cc17 b6bd f0b4 9bbe 8cf3 48be ea0d 48be
00000320: faf2 103e 8267 ffbe 1cf8 d1bd f339 d6be
00000330: 5527 e1bd b81e 153e eb23 323e cbe0 733e
00000340: 2ad4 c23e 2893 34be 884e 2fbe 3117 e8be
00000350: ec8c 81be 896c 7c3e c967 1cbe ad71 32be
00000360: 2583 babd 865f 623d da22 6abe 5183 ae3c
00000370: 8630 97bd ae48 0bbe 9eb1 babe f959 8b3e
00000380: 17ff 1abe 83d3 8d3d 4e6a 37bd 18c8 0d3e
00000390: e023 d73d 8042 2c3e ed26 a4be 60f3 823d
000003a0: 05c7 78bd b698 0ebe 2ff4 793e d0fc 62be
000003b0: ec57 073f e89e 783e 52c9 38bd ed62 bcbe
000003c0: c8f1 32be 4106 1a3f a4f7 eabd 73d9 84be
000003d0: c334 e3be 6c80 ac3e cc84 e3bc 8982 72be
000003e0: 9a22 fe3d a811 a33e 7208 723e aae2 ec3d
000003f0: b164 393e 3045 85bd 43c0 b5bd d994 a8bd

l2.weight f4 [300, 400]
0.0064057675 0.10528335 -0.038303815 -0.035318665 0.018681727 -0.13718578 -0.14651364 -0.25524282
0.11345327 -0.50104743 -0.09204263 -0.19900371 -0.5381813 -0.12674326 -0.0815227 -0.23808227
-0.11811822 -0.06669158 -0.003612914 -0.23975706 0.15054062 -0.053928256 -0.17404987 -0.07798277
-0.106373444 0.1817303 -0.12389018 -0.092305094 -0.15734905 0.07766287 0.30419815 -0.22767502
-0.4549161 -0.39121422 -0.20981954 -0.5568957 0.034022383 -0.26574177 0.18307947 0.22612363
-0.04190054 0.056904294 -0.010678817 0.09057821 0.044100475 0.020237694 -0.16640285 0.045652676
0.015331915 -0.27345365 -0.21246609 0.33927736 -0.19670351 0.00994353 0.44908157 0.02334947
-0.7445397 -0.014362552 -0.30072814 0.021304322 0.08199223 0.08692439 0.08042038 0.31442195
-0.009007037 -0.027802601 -0.0051256977 0.34538302 -0.074591756 -0.2872807 -0.10954887 -0.020292744
0.16187218 0.1796785 -0.23683976 -0.080697745 -0.5893367 0.024142083 0.14041938 0.27501658
-0.091739774 -0.07294245 -0.08599004 -0.066920735 0.23945886 0.046019245 -0.06861622 -0.029086538
0.20939928 0.19123572 0.17824881 -0.1937771 -0.16241607 -0.38064167 0.16643637 -0.51285875
0.01937311 0.023162398 -0.188521 -0.014818794 -0.11276538 0.08520184 0.27000424 -0.30051962
-0.10134717 0.12767941 0.27683342 -0.23476283 -0.012551958 0.04010523 0.16772485 0.19361754
0.057042267 -0.18970855 0.17524627 -0.055063188 -0.17871378 0.07943542 0.21888053 -0.32175732
-0.35443485 0.066806205 -0.0050582704 0.008166572 -0.029141113 -0.094180256 -0.06040936 -0.3146495
-0.4140282 -0.1396351 -0.20136085 -0.04590824 -0.027015934 0.11921872 -0.1222679 0.1072866
0.15173723 0.08436282 -0.117899835 0.07413471 -0.052560125 -0.33852094 -0.1742459 0.16627283
0.0622656 0.15942748 0.025163474 0.42444274 -0.075627916 -0.022438122 -0.041499384 -0.13881627
0.14513606 -0.122695684 0.060620673 -0.016694918 -0.12011906 -0.026197743 0.062253684 -0.09711062
-0.04814876 -0.4802553 -0.054961734 0.21394363 0.19012204 -0.29317337 0.20796065 0.28685036
-0.30555066 -0.14539088 -0.018555274 -0.2526336 -0.47040442 -0.07098345 0.11103288 -0.023934115
-0.030900989 -0.054453954 -0.36008403 -0.13361499 -0.11276103 -0.15391581 0.07770489 -0.14703615
-0.2223628 -0.24402262 -0.6672092 -0.45823887 0.11155315 0.10158905 0.0006605156 -0.27587742
-0.53881127 -0.3925119 -0.2284766 0.0951666 0.15546335 -0.04812544 -0.10624928 0.17727613
0.1859763 -0.00013455792 -0.17530663 -0.17476341 0.035635162 0.07385069 -0.12875345 -0.18865941
-0.43094584 -0.33933645 -0.3618734 -0.14672309 -0.19996558 0.16105136 -0.22184545 -0.09781801
-0.24866085 -0.37428623 0.031650044 -0.2560143 -0.34465757 0.015610242 -0.009796254 -0.20162094
0.107222766 0.06708441 0.19725037 -0.029191598 -0.038910635 -0.30423796 -0.06881004 -0.18750165
0.039079007 -0.09737367 0.33447725 -0.05570561 -0.49035376 0.103135705 -0.006154707 0.23802955
0.20344256 -0.14949474 -0.04745546 -0.21717246 -0.10787133 0.09058869 0.01015793 -0.03502005
-0.13420765 -0.17201003 0.050945967 -0.060328852 -0.054926123 -0.3197669 0.1464749 -0.7629183
00000000: 79e7 d13b cc9e d73d 76e4 1cbd 4eaa 10bd
00000010: 6c0a 993c 6e7a 0cbe ac07 16be 30af 82be
00000020: 305a e83d a544 00bf d980 bcbd a1c7 4bbe
00000030: 40c6 09bf fcc8 01be 60f5 a6bd d7cb 73be
00000040: f7e7 f1bd 9895 88bd a3c6 6cbb e082 75be
00000050: 5227 1a3e e0e3 5cbd 213a 32be 6eb5 9fbd
00000060: 52da d9bd 8217 3a3e 22ba fdbd 740a bdbd
00000070: 1c20 21be b60d 9f3d dcbf 9b3e a423 69be
00000080: c3ea e8be 3b4d c8be efda 56be b790 0ebf
00000090: 0e5b 0b3d 4e0f 88be 2f79 3b3e f48c 673e
000000a0: e79f 2bbd 7a14 693d 34f6 2ebc 1281 b93d
000000b0: b3a2 343d 85c9 a53c 8265 2abe 4dfe 3a3d
000000c0: b632 7b3c 1e02 8cbe b690 59be c3b5 ad3e
000000d0: a56c 49be 30ea 223c 05ee e53e 6347 bf3c
000000e0: 279a 3ebf e950 6bbc 0af9 99be 6786 ae3c
000000f0: 8beb a73d 6a05 b23d 71b3 a43d eafb a03e
00000100: 4092 13bc 48c2 e3bc 78f5 a7bb 0bd6 b03e
00000110: 90c3 98bd 7516 93be 285b e0bd f83c a6bc
00000120: d2c1 253e a4fd 373e 1f86 72be dc44 a5bd
00000130: c5de 16bf 9ec5 c53c 19ca 0f3e f9ce 8c3e
00000140: 10e2 bbbd da62 95bd 8c1b b0bd bd0d 89bd
00000150: b434 753e ad7e 3c3d a986 8cbd e446 eebc
00000160: c46c 563e 4cd3 433e db86 363e 816d 46be
00000170: 6650 26be 77e3 c2be 4c6e 2a3e b64a 03bf
00000180: 5bb4 9e3c 12bf bd3c a60b 41be 87ca 72bc
00000190: 89f1 e6bd 4d7e ae3d ff3d 8a3e b5dd 99be
000001a0: 1b8f cfbd 64be 023e 1cbd 8d3e ab65 70be
000001b0: baa6 4dbc 6245 243d 10c0 2b3e ad43 463e
000001c0: 27a5 693d f542 42be c273 333e f089 61bd
000001d0: bf00 37be 0aaf a23d 3822 603e 60bd a4be
000001e0: 7c78 b5be b1d1 883d d9bf a5bb 16cd 053c
000001f0: 58b9 eebc 94e1 c0bd ce6f 77bd bd19 a1be
00000200: 81fb d3be 81fc 0ebe 8a31 4ebe 470a 3cbd
00000210: 8550 ddbc f228 f43d 9867 fabd 14b9 db3d
00000220: 0161 1b3e 6ac6 ac3d 7875 f1bd f0d3 973d
00000230: 4949 57bd 9e52 adbe 846d 32be 6d43 2a3e
00000240: 370a 7f3d f540 233e a123 ce3c 8f50 d93e
00000250: cfe2 9abd 27d0 b7bc 42fb 29bd da25 0ebe
00000260: 8c9e 143e e047 fbbd 624d 783d c8c3 88bc
00000270: fb00 f6bd a69c d6bc b8fd 7e3d efe1 c6bd
00000280: a237 45bd 06e4 f5be 8e1f 61bd 0a14 5b3e
00000290: 5aaf 423e d21a 96be a3f3 543e 0dde 923e
000002a0: 2371 9cbe 59e1 14be 3b01 98bc 3159 81be
000002b0: d9d8 f0be c55f 91bd 3565 e33d 7a11 c4bc
000002c0: 1224 fdbc 1c0b 5fbd ef5c b8be 5ed2 08be
000002d0: 41ef e6bd 1b9c 1dbe be23 9f3d a590 16be
000002e0: 13b3 63be 11e1 79be 39ce 2abf 499e eabe
000002f0: fa75 e43d eb0d d03d 7426 2d3a ce3f 8dbe
00000300: 89ef 09bf 52f7 c8be c5f5 69be b5e6 c23d
00000310: c931 1f3e 2e1f 45bd 3999 d9bd e087 353e
00000320: 9270 3e3e 1e18 0db9 9583 33be 2ef5 32be
00000330: 2df6 113d 083f 973d f2d7 03be ef2f 41be
00000340: efa4 dcbe 82bd adbe 7847 b9be 943e 16be
00000350: c7c3 4cbe a6ea 243e 742b 63be cf54 c8bd
00000360: f3a0 7ebe 72a2 bfbe 7aa3 013d 4e14 83be
00000370: f576 b0be 1ac2 7f3c 7880 20bc b875 4ebe
00000380: 9c97 db3d 8d63 893d 00fc 493e 3823 efbc
00000390: c260 1fbd 14c5 9bbe 47ec 8cbd 6f00 40be
000003a0: 4f11 203d d96b c7bd 9a40 ab3e 912b 64bd
000003b0: a60f fbbe d038 d33d 6dad c9bb 05be 733e
000003c0: 3f53 503e 2615 19be a860 42bd 7562 5ebe
000003d0: a5eb dcbd 9086 b93d 726d 263c 2f71 0fbd
000003e0: bb6d 09be 6623 30be b8ac 503d 631b 77bd
000003f0: 37fa 60bd 7db8 a3be 84fd 153e 9d4e 43bf

l2.bias f4 [300]
0.037145343 0.029341292 0.057940707 -0.079397455 -0.15704857 -0.23100816 -0.15363456 0.111797035
-0.24565175 -0.08824432 -0.15793833 -0.001142666 0.28388846 -0.17994376 -0.12734255 -0.103709854
0.44247216 -0.09591004 0.0036257145 -0.095556766 -0.09302761 0.0042147012 -0.095223084 -0.23325904
-0.23280035 0.025074176 -0.12060052 -0.043866597 0.009162671 -0.07992518 -0.14707491 0.016149657
-0.057083737 -0.20949319 0.002010733 -0.26175848 -0.04616482 -0.08205934 -0.012003401 -0.13596344
-0.007880784 -0.13678393 -0.10999998 -0.024024796 0.084237784 0.010626084 0.09882197 -0.12125178
0.12036415 0.01095496 -0.07851397 -0.047445986 0.03606714 0.12159812 -0.01829354 0.119524576
-0.2010983 -0.030602127 -0.034243163 0.026974205 0.00832564 -0.09676336 0.16863073 -0.112730384
0.32847896 -0.13631527 -0.052734196 -0.06640415 -0.19793488 -0.2675692 0.17067297 -0.037746053
0.0077186883 0.3899668 -0.28063133 -0.3326437 0.011901929 -0.15439805 -0.10214328 -0.07109856
-0.09693044 0.023679787 0.016850317 -0.5056873 0.119378224 -0.14222085 0.010003282 -0.16604587
-0.15475777 -0.031216899 0.010054789 -0.0018180126 -0.041072022 0.097106636 0.032959282 0.24662876
-0.051519148 -0.22570075 0.10714789 -0.059953135 0.10802053 -0.07486073 -0.061099283 0.03762272
0.0035880501 -0.061925042 -0.25719777 -0.033412706 0.04892943 -0.09388936 -0.32154006 -0.0305497
0.014262607 -0.071132764 0.036090277 0.024362762 -0.0300706 -0.09155284 0.102879584 -0.006247457
0.10599839 -0.063419364 0.14464106 -0.28587738 0.06362181 0.019555015 -0.20725691 -0.26704985
0.014539665 -0.010467943 -0.1714277 0.28802413 -0.061290447 -0.16341288 -0.10535796 -0.106790915
0.012774718 -0.04630313 0.05861493 -0.27418485 0.049304467 -0.07876851 -0.23252025 -0.10002397
-0.02001663 -0.050451066 -0.021307355 0.100812934 -0.10247524 0.18849279 -0.029550212 -0.1639643
0.09880078 -0.13897899 -0.15976767 -0.013171754 0.045684636 -0.19493267 0.11840731 -0.32169864
-0.28867087 -0.19328149 -0.05840605 -0.11433477 0.41254747 -0.13733543 0.1608617 -0.008002623
-0.1864882 0.1363908 -0.11106881 -0.11662797 -0.087128386 -0.10063188 -0.097783744 -0.1646253
-0.17986737 0.051525306 -0.059422947 -0.06557299 0.30109698 0.16472466 -0.25346464 -0.012545379
-0.029207584 -0.04944171 -0.2901572 -0.2304913 -0.027650092 -0.37590748 -0.0833953 0.072446406
-0.051302973 0.015386705 -0.013129662 -0.075509965 -0.04351895 0.13071878 -0.20016749 0.015292871
-0.021443076 0.080071725 0.029082267 -0.081415005 -0.051248267 0.20086743 -0.009184098 -0.07950805
-0.10657979 0.029965771 -0.08062564 -0.056989733 -0.011776363 -0.16962935 0.15307234 -0.088826895
0.28007218 -0.25922653 0.017661285 -0.23151945 0.06122699 0.4635268 -0.12599005 -0.3628149
-0.08727367 0.014455463 -0.028864058 -0.12128648 -0.10901297 -0.013472344 -0.21813816 0.030078148
-0.0926075 0.1484295 -0.09700986 0.021123683 0.084466316 0.020403713 -0.038142677 -0.048666947
-0.11566661 -0.17547423 -0.017330267 0.21075876 -0.36151454 0.08351519 0.008659938 0.23336689
-0.20006205 -0.087081574 -0.014054372 -0.13587555 -0.08313324 -0.06762138 0.16007732 -0.06692166
00000000: b725 183d 265d f03c 3c53 6d3d 229b a2bd
00000010: 57d1 20be 678d 6cbe 6152 1dbe d8f5 e43d
00000020: 228c 7bbe 70b9 b4bd 96ba 21be 82c5 95ba
00000030: d459 913e 2d43 38be 1666 02be d565 d4bd
00000040: b68b e23e 7c6c c4bd 659d 6d3b 44b3 c3bd
00000050: 4285 bebd 7a1b 8a3b 5204 c3bd 75db 6ebe
00000060: 3763 6ebe 5c68 cd3c 68fd f6bd 76ad 33bd
00000070: 071f 163c d0af a3bd ce9a 16be 494c 843c
00000080: a3d0 69bd 6285 56be 80c6 033b 3505 86be
00000090: 5317 3dbd ba0e a8bd eaa9 44bc 003a 0bbe
000000a0: 671e 01bc 1611 0cbe ab47 e1bd a6cf c4bc
000000b0: dc84 ac3d 0719 2e3c 2c63 ca3d da52 f8bd
000000c0: 7b81 f63d 6f7c 333c efcb a0bd b956 42bd
000000d0: 23bb 133d 6f08 f93d 56dc 95bc 4dc9 f43d
000000e0: b6ec 4dbe 50b1 fabc 8f42 0cbd 02f9 dc3c
000000f0: 4468 083c de2b c6bd 89ad 2c3e 30df e6bd
00000100: 652e a83e 3b96 0bbe d0ff 57bd e6fe 87bd
00000110: 71af 4abe d5fe 88be e5c4 2e3e 9b9b 1abd
00000120: 0ded fc3b baa9 c73e e9ae 8fbe 4650 aabe
00000130: 4f00 433c 861a 1ebe 7f30 d1bd 1f9c 91bd
00000140: 7783 c6bd 1dfc c13c ad09 8a3c b974 01bf
00000150: 927c f43d 58a2 11be cee4 233c ee07 2abe
00000160: d278 1ebe 95ba ffbc d7bc 243c 614a eeba
00000170: 233b 28bd d8df c63d 5000 073d 408c 7c3e
00000180: be05 53bd 191e 67be 5a70 db3d 6b91 75bd
00000190: de39 dd3d 9550 99bd 3e43 7abd 481a 1a3d
000001a0: 7e25 6b3b 1da5 7dbd 6daf 83be c3db 08bd
000001b0: 3a6a 483d 1149 c0bd e6a0 a4be 5d43 fabc
000001c0: b6ad 693c 0eae 91bd 66d3 133d 6a94 c73c
000001d0: 9e56 f6bc 0e80 bbbd 88b2 d23d 78b7 ccbb
000001e0: af15 d93d 03e2 81bd c91c 143e 855e 92be
000001f0: 274c 823d d731 a03c 283b 54be c2ba 88be
00000200: c637 6e3c bc81 2bbc be8a 2fbe e677 933e
00000210: b10b 7bbd b555 27be eac5 d7bd 32b5 dabd
00000220: 0d4d 513c 5aa8 3dbd 3516 703d f561 8cbe
00000230: 7bf3 493d 6251 a1bd ca19 6ebe 5ed9 ccbd
00000240: eaf9 a3bc c7a5 4ebd c38c aebc 0377 ce3d
00000250: 8ade d1bd 4104 413e 4913 f2bc 42e6 27be
00000260: 1058 ca3d 8250 0ebe 239a 23be 57ce 57bc
00000270: d01f 3b3d 6e9c 47be 887f f23d afb5 a4be
00000280: abcc 93be 95eb 45be 2f3b 6fbd 5928 eabd
00000290: 6c39 d33e a9a1 0cbe eeb8 243e 6f1d 03bc
000002a0: c3f6 3ebe 08aa 0b3e 0b78 e3bd a5da eebd
000002b0: 5e70 b2bd 1618 cebd d842 c8bd 8993 28be
000002c0: 272f 38be 330c 533d 7a65 73bd 224b 86bd
000002d0: 6229 9a3e 95ad 283e 1ec6 81be 228b 4dbc
000002e0: be44 efbc 6483 4abd 7c8f 94be e905 6cbe
000002f0: 7282 e2bc f276 c0be 28cb aabd c85e 943d
00000300: 1123 52bd 8518 7c3c cb1d 57bc f8a4 9abd
00000310: ed40 32bd 25db 053e b5f8 4cbe f38e 7a3c
00000320: 64a9 afbc a5fc a33d ef3d ee3c e9bc a6bd
00000330: b4e9 51bd 31b0 4d3e e678 16bc 1ed5 a2bd
00000340: 8146 dabd c77a f53c 0e1f a5bd 116e 69bd
00000350: a5f1 40bc 51b3 2dbe ffbe 1c3e e0ea b5bd
00000360: 9f65 8f3e 57b9 84be 66ae 903c 6f13 6dbe
00000370: 27c9 7a3d 6253 ed3e 8903 01be e0c2 b9be
00000380: 8abc b2bd 9bd6 6c3c 5174 ecbc 0c65 f8bd
00000390: 3142 dfbd 1bbb 5cbc 9c5f 5fbe 7366 f63c
000003a0: 00a9 bdbd e7fd 173e 1bad c6bd 930b ad3c
000003b0: adfc ac3d b025 a73c 7f3b 1cbd fe56 47bd
000003c0: 9ee2 ecbd 84af 33be 34f8 8dbc 25d1 573e
000003d0: 6f18 b9be 030a ab3d 6ae2 0d3c bbf7 6e3e
000003e0: 11dd 4cbe d357 b2bd 4f44 66bc f622 0bbe
000003f0: c341 aabd 147d 8abd 4feb 233e 390e 89bd

l3.weight f4 [4, 300]
0.44698736 -0.49569795 -2.217738 0.0064835255 0.9972508 -0.90411866 -0.61344403 0.54601157
-0.32666856 -0.37100023 0.29829058 -0.17913173 -0.5092211 -0.8068875 0.08019686 0.024763886
-0.5348522 0.07792067 0.16021794 -0.96022326 -0.09340489 0.00851177 -0.2990354 0.11905096
0.8024872 -1.6380945 0.8620036 0.34620225 -0.52384955 0.05210572 -0.5104498 -0.012002124
-0.9784578 -0.04647985 -0.56111205 -0.40568122 -0.05079852 0.4616244 -0.066172875 -0.3569864
-0.16666754 0.0543104 -0.18744093 -0.7398965 -1.1045818 1.0281558 1.1200523 -0.14140564
-1.0126752 0.61824733 0.031620376 -0.08828522 0.08831546 -0.28082383 -0.23354298 0.16444878
0.4667494 0.18731913 0.07700806 -0.007799191 1.0048599 -0.3073924 0.043186296 0.2478747
-0.23891695 -0.618365 0.1716723 -0.4331244 0.1319398 0.27452266 -0.43837175 -0.12425286
-0.06273216 -0.88002205 0.2836022 0.4248344 0.34860992 -0.05288309 0.6011565 0.35331452
-0.1917878 -0.72682756 0.1191125 1.242657 0.10110193 0.7379702 -0.35847783 0.90882933
-1.6883769 -0.004957456 -0.09148023 -0.4519855 -0.028924182 -1.6721095 -0.79167885 -0.25400683
0.0033839173 0.07058904 2.3034117 0.026685765 -1.4273696 0.38045406 0.48402393 0.022371529
0.16397467 0.38230738 -0.78088945 -0.050817486 0.42893407 0.78163564 -0.16401322 -0.12093219
-0.57765096 1.0532919 -0.315767 0.046971492 0.3050121 -0.0856035 -0.5044981 -0.03501683
-0.8126014 -0.7103632 -0.49651793 -0.68485034 0.13970222 1.0437219 -1.5153778 0.4342271
-0.3380917 0.55178344 0.65348655 0.7246599 -0.15808892 -0.10963391 0.63655436 0.25906205
-0.14944172 0.15387954 0.62478554 -0.7464956 1.092776 -0.55004805 -1.1169785 -0.037555836
-0.10395663 -0.31806418 -0.020876793 -0.43834674 0.113276534 -1.3078816 -0.10369418 -0.07450046
1.242097 -0.8130525 -0.8801172 0.15635084 0.23622893 0.16418 -0.07446185 -0.8207584
-0.3764826 -0.003118862 -0.008767447 0.23899128 -1.2361645 1.2477103 -0.91779196 -0.13962282
-0.23214589 -0.89904314 0.045623384 0.018728323 0.31013656 0.77395505 -3.9026852 -0.70924914
0.569153 -0.5562169 0.31462303 -0.30257607 -0.81310475 0.7066419 0.37246874 0.07377714
-0.0956354 0.74040025 0.2053171 0.080869496 0.59581214 0.7339065 -0.8698881 -0.7856093
-0.4852035 1.4929382 -0.010124655 -0.19133617 -0.45160425 0.20401002 0.04451316 -0.12323297
-0.12320468 0.61694986 0.4588189 0.05657428 0.028771201 0.68469435 -0.7601473 -1.3086225
0.24411184 -0.0034274878 -1.9470577 -0.2402022 -0.040992122 0.80351216 -0.032640282 0.45191702
0.2650989 0.13998145 0.08441427 -0.042828787 -0.8132131 -0.45269185 -0.15193073 -0.12683159
-0.06279176 -0.021749413 -0.42728946 0.49518502 -0.79397964 0.28665584 -0.27209106 0.41064063
0.08710136 0.67694527 0.04017734 -0.83737135 -0.3914857 -0.15676452 0.37551755 -0.049897157
-1.3062959 -0.6414189 -0.103034705 0.13220856 0.1719715 -0.13723111 0.42804262 -0.4259088
1.408348 -1.5648311 0.24121404 0.22374363 -0.5648587 0.24073511 0.5063463 -0.2071296
00000000: 87db e43e 1fcc fdbe 6bef 0dc0 c173 d43b
00000010: d44b 7f3f 5274 67bf ab0a 1dbf 6ac7 0b3f
00000020: 1a41 a7be bef3 bdbe 8bb9 983e 4f6e 37be
00000030: 505c 02bf 2e90 4ebf 403e a43d a2dd ca3c
00000040: 13ec 08bf df94 9f3d 2c10 243e 31d1 75bf
00000050: 104b bfbd f374 0b3c 2b1b 99be fdd0 f33d
00000060: cd6f 4d3f 15ad d1bf 45ac 5c3f 6c41 b13e
00000070: 011b 06bf cf6c 553d d7ac 02bf 8fa4 44bc
00000080: 367c 7abf a861 3ebd 0aa5 0fbf 73b5 cfbe
00000090: 1c12 50bd 095a ec3e a585 87bd ecc6 b6be
000000a0: e5aa 2abe 9574 5e3d 84f0 3fbe db69 3dbf
000000b0: f062 8dbf 9c9a 833f e05d 8f3f a4cc 10be
000000c0: 579f 81bf 7545 1e3f 5e84 013d e2ce b4bd
000000d0: bcde b43d 24c8 8fbe e425 6fbe 4365 283e
000000e0: c7f9 ee3e 96d0 3f3e 67b6 9d3d 5b90 ffbb
000000f0: 409f 803f 8962 9dbe 1de4 303d ded2 7d3e
00000100: a5a6 74be 2b4d 1ebf ddca 2f3e 7bc2 ddbe
00000110: 3a1b 073e 3c8e 8c3e 4372 e0be 4978 febd
00000120: b879 80bd 2049 61bf 4f34 913e e583 d93e
00000130: 007d b23e f09b 58bd 64e5 193f a4e5 b43e
00000140: 0564 44be 5f11 3abf 41f1 f33d 620f 9f3f
00000150: 870e cf3d 9deb 3c3f 688a b7be 0aa9 683f
00000160: bc1c d8bf 2872 a2bb fd59 bbbd a56a e7be
00000170: 68f2 ecbc af07 d6bf 77ab 4abf 2f0d 82be
00000180: b6c4 5d3b fd90 903d 196b 1340 1b9c da3c
00000190: 0cb4 b6bf e0ca c23e fcd1 f73e 7f44 b73c
000001a0: fae8 273e cbbd c33e 5fe8 47bf ff25 50bd
000001b0: 3f9d db3e 4619 483f 15f3 27be 4cab f7bd
000001c0: efe0 13bf 45d2 863f 36ac a1be 2e65 403d
000001d0: 8c2a 9c3e e350 afbd ca26 01bf cf6d 0fbd
000001e0: a506 50bf 5dda 35bf 9937 febe 5a52 2fbf
000001f0: 190e 0f3e ae98 853f e6f7 c1bf 0453 de3e
00000200: 5b1a adbe ae41 0d3f e54a 273f 5083 393f
00000210: 10e2 21be be87 e0bd 3af5 223f c8a3 843e
00000220: 4007 19be 9992 1d3e f2f1 1f3f 561a 3fbf
00000230: 15e0 8b3f f3cf 0cbf 27f9 8ebf 26d4 19bd
00000240: 37e7 d4bd 4fd9 a2be cf05 abbc fc6e e0be
00000250: 87fd e73d aa68 a7bf 9d5d d4bd b293 98bd
00000260: 09fd 9e3f 3524 50bf 5c4f 61bf 6f1a 203e
00000270: ffe5 713e cd1e 283e 747f 98bd 391d 52bf
00000280: 54c2 c0be d265 4cbb 57a5 0fbc 21ba 743e
00000290: a33a 9ebf f9b4 9f3f 6af4 6abf 49f9 0ebe
000002a0: a7b7 6dbe b127 66bf 96df 3a3d 246c 993c
000002b0: 38ca 9e3e eb21 463f 98c5 79c0 5a91 35bf
000002c0: 03b4 113f 3b64 0ebf 4516 a13e 40eb 9abe
000002d0: a227 50bf 7ce6 343f 39b4 be3e 7818 973d
000002e0: 7edc c3bd df8a 3d3f a53e 523e e89e a53d
000002f0: 2587 183f 4ce1 3b3f fdb0 5ebf b11d 49bf
00000300: 986c f8be 9918 bf3f e2e1 25bc a1ed 43be
00000310: ac38 e7be 01e8 503e 6e53 363d 9161 fcbd
00000320: bc52 fcbd 6df0 1d3f 50ea ea3e 6fba 673d
00000330: 95b1 eb3c 2148 2f3f 0399 42bf f180 a7bf
00000340: 74f8 793e b49f 60bb 3039 f9bf 91f7 75be
00000350: 5be7 27bd f9b2 4d3f d1b1 05bd ab61 e73e
00000360: 0bbb 873e 4c57 0f3e 64e1 ac3d 3d6d 2fbd
00000370: bc2e 50bf 3ac7 e7be bb93 1bbe 24e0 01be
00000380: f798 80bd d32b b2bc afc5 dabe e488 fd3e
00000390: 4042 4bbf 8ec4 923e 854f 8bbe 7d3f d23e
000003a0: 3362 b23d 494c 2d3f ff90 243d f85d 56bf
000003b0: d070 c8be e186 20be d643 c03e f660 4cbd
000003c0: b434 a7bf 0734 24bf dc03 d3bd ae61 073e
000003d0: 4c19 303e 5086 0cbe 6728 db3e b810 dabe
000003e0: bf44 b43f 634c c8bf d000 773e 0d1d 653e
000003f0: 949a 10bf 4483 763e e99f 013f c819 54be

l3.bias f4 [4]
-0.0594137 -0.13490689 -0.092312925 0.23059073
00000000: c85b 73bd 0825 0abe 8f0e bdbd fa1f 6c3e
