preTrained/TD3_BipedalWalkerHardcore-v3_0_critic_2_target.pth (torch_old, 529892 bytes, 5 tensors)

l1.weight f4 [400, 28]
0	0xbf587825	-0.84558326
1	0xbeb9eb99	-0.3631256
2	0xbf476778	-0.77892256
3	0xc00e7ccd	-2.2263672
4	0x3d08a3a1	0.033359174
5	0x3ca33b6d	0.019925797
6	0xbdcfe038	-0.10150188
7	0x3c89f998	0.016842648
8	0x3d30843e	0.043094866
9	0xbd2551b8	-0.040361136
10	0xbd3a1f7e	-0.04544019
11	0xbf58ba6e	-0.8465947
12	0x3cd0f5c6	0.025507819
13	0x3d0a9cdd	0.033841003
14	0xbe0cee35	-0.13762744
15	0xbcb09292	-0.021554265
16	0xbdb1735a	-0.0866458
17	0x3ec006f3	0.37505302
18	0x3ea4eec2	0.32213408
19	0xbf072d4f	-0.5280351
20	0xbf98c71b	-1.1935762
21	0x3cc00f27	0.023444725
22	0x3f0a9f87	0.5414967
23	0xbe38202b	-0.17981021
24	0x3dfc06d6	0.12305991
25	0x3dca795c	0.09886429
26	0x3d63e850	0.055641472
27	0xbc63ec27	-0.013911284
28	0x3f391797	0.7230162
29	0x3fed6e1e	1.854923
30	0xbfd669f2	-1.6751082
31	0xbf9e768c	-1.2379928
32	0x3eb9b0b7	0.36267635
33	0x3de7ac34	0.11312142
34	0x3ee768f5	0.45197263
35	0x3e8e66d4	0.27812827
36	0x3e799302	0.24372485
37	0x3ee0c284	0.43898404
38	0xbdac5451	-0.084145196
39	0x3ea644d9	0.32474402
40	0xbd1a4338	-0.03766176
41	0xbe7bf4cf	-0.24605106
42	0xbf301fb8	-0.687984
43	0xbf7c8815	-0.98645145
44	0xbee30d06	-0.44345874
45	0xbe73d4fe	-0.23811719
46	0xbed29d4f	-0.41135642
47	0xbe33cea5	-0.17559297
48	0x3e930057	0.28711197
49	0x3e0b5bf3	0.13609295
50	0xbc66941f	-0.014073401
51	0xbe9e289f	-0.30890366
52	0x3dcdee4d	0.10055218
53	0x3e0fcbf7	0.1404265
54	0xbde3026a	-0.11084445
55	0xbc0e1d97	-0.008674047
56	0x3fd0b846	1.6306236
57	0x400ab6f1	2.1674159
58	0xbf17b922	-0.59266865
59	0xbfbde52f	-1.4835566
60	0x3cdf785f	0.027279077
61	0x3d31a6f6	0.043372117
62	0x3e2582da	0.16163197
63	0x3d3fadcd	0.04679661
64	0xbc2c336b	-0.010510306
65	0x3f9494e5	1.1607939
66	0x3e011aa4	0.12607819
67	0x3f00d1a4	0.50319886
68	0x3d4c7f43	0.049926054
69	0xbe4489b8	-0.1919316
70	0xbf36d073	-0.7141182
71	0x3f7f86f1	0.9981528
72	0x3f94ee21	1.1635171
73	0x3e2e041c	0.16993755
74	0x3e2094f3	0.1568182
75	0x3ed6f807	0.41986105
76	0xbde69db9	-0.11260552
77	0x3e674d2c	0.22588032
78	0xbe05c4bc	-0.1306333
79	0xbf27f815	-0.6561292
80	0x3c1d8936	0.009615233
81	0x3d39118a	0.045182742
82	0x3cff9b9d	0.031202132
83	0xbdb34760	-0.08753848
84	0x3f948273	1.160231
85	0x408644cf	4.1958995
86	0xbc57ab3b	-0.013163383
87	0x3f6c78a4	0.92371583
88	0x3ea39171	0.319469
89	0x3e63c1c6	0.22241887
90	0x3e14d8f5	0.14535888
91	0x3d90a06d	0.07061849
92	0xbd204284	-0.039125934
93	0x3f505abb	0.81388444
94	0x3defe348	0.11713272
95	0x3e42fe49	0.19042315
96	0x3cfea164	0.031082816
97	0xbcc51e84	-0.024062403
98	0xbeb14cee	-0.34629005
99	0x3f41a4fb	0.75642365
100	0x3ee2bea4	0.44286072
101	0x3efd6824	0.49493515
102	0x3e39a43c	0.18129057
103	0x3f00a8af	0.5025739
104	0x3f9410a3	1.1567577
105	0x3ecdc653	0.40190372
106	0xbf46cd3c	-0.7765691
107	0xbf57218c	-0.84035563
108	0x3d2dbfa5	0.042419095
109	0x3c1d5087	0.009601719
110	0x3b8d8d5b	0.0043198294
111	0x3c93a901	0.018024923
112	0x3f6b3da3	0.91890925
113	0xbfeb965c	-1.8405261
114	0xbf6a0289	-0.9141012
115	0xbf7b6226	-0.9819664
116	0xbdc88837	-0.09791606
117	0x3da615c5	0.08109621
118	0xbe92905d	-0.28625765
119	0xbc724d3f	-0.014788925
120	0xbc5bde18	-0.0134196505
121	0x3f420cf3	0.7580101
122	0xbd9011ab	-0.0703462
123	0x3ea1c97e	0.3159904
124	0x3edf69f2	0.43635517
125	0x3fb157eb	1.3854955
126	0x3e15a05a	0.1461195
127	0xbf9ba65e	-1.2160146
128	0xbe90efab	-0.28307852
129	0xbe933191	-0.28748754
130	0xbeac38e5	-0.33637157
131	0xbe163eda	-0.14672413
132	0x3cde7f82	0.02716041
133	0x3e2de16f	0.16980527
134	0x3e465e23	0.19371848
135	0xbe80df79	-0.25170496
136	0x3ccbf45a	0.02489679
137	0x3d2cc43e	0.04217934
138	0xbce0d53a	-0.027445424
139	0x3dee4cbf	0.11635732
140	0xbf098a0c	-0.5372627
141	0xc043464f	-3.0511663
142	0xbecc4e44	-0.39903462
143	0xbfbbf1da	-1.4683182
144	0xbf481f00	-0.781723
145	0xbd349a74	-0.04409261
146	0x3e2800c0	0.16406536
147	0xbdd601b5	-0.10449544
148	0xbea966e8	-0.33086324
149	0xbf6d4100	-0.9267731
150	0xbe6a6041	-0.2288828
151	0x3d972859	0.073807426
152	0xbe3a3383	-0.18183713
153	0xbea3e095	-0.3200728
154	0x3ecec796	0.40386647
155	0x3f86f235	1.0542666
156	0x3fc444ec	1.5333533
157	0x3fb3d7f9	1.4050285
158	0x3df00e43	0.1172147
159	0xbf1f22f9	-0.6216274
160	0xbf5988aa	-0.8497416
161	0xbeabcc26	-0.3355419
162	0xbf4595cc	-0.77181697
163	0xbf487c35	-0.78314525
164	0xbd55411a	-0.05206404
165	0xbd6dec8d	-0.05808692
166	0xbd89af96	-0.067229435
167	0xbdb238f7	-0.087022714
168	0xbf3b46ca	-0.7315489
169	0xc0a8200f	-5.2539134
170	0x3f4c52b4	0.79813695
171	0x3f6ead7e	0.9323348
172	0xbe0f3316	-0.13984331
173	0xbe13a2da	-0.14417592
174	0xbd773348	-0.06035164
175	0xbd1e62dd	-0.038668502
176	0x3cdfabe6	0.027303647
177	0xbd1685d9	-0.03674874
178	0xbdcbfac9	-0.09959943
179	0x3e5cb695	0.21554025
180	0xbd766888	-0.060158283
181	0x3d334aee	0.04377263
182	0x3dbad1e2	0.09122063
183	0x3f6a5221	0.9153157
184	0x3f81e4e3	1.0147976
185	0x3f3001e3	0.6875288
186	0xbe93aaee	-0.28841347
187	0xbf080b6a	-0.53142416
188	0xbd3841d3	-0.04498465
189	0xbdc04a07	-0.093891196
190	0xbc780209	-0.015137204
191	0xbecfc91f	-0.4058313
192	0x3cc2aace	0.023763087
193	0xbb9e9e62	-0.004840658
194	0x3d26f7dd	0.040763725
195	0x3d412207	0.04715159
196	0x3f785d9e	0.9701785
197	0xbf707f51	-0.9394427
198	0xbf85c9aa	-1.0452168
199	0xbf9030a1	-1.126484
200	0xbe31d790	-0.17367387
201	0xbd5ccc5f	-0.05390584
202	0xbd7dc2d9	-0.0619534
203	0xbc88da47	-0.016705645
204	0x3d325a38	0.04354307
205	0x3f8c4856	1.0959575
206	0x3ce32eb8	0.027732238
207	0x3f2ff4b7	0.6873278
208	0x3cb56037	0.022140605
209	0x3c7dfb35	0.015501787
210	0xbf822b79	-1.0169517
211	0xbe3c16ed	-0.1836812
212	0x3ed3eeb9	0.41393068
213	0xbd15fc38	-0.036617488
214	0xbe16f063	-0.14740138
215	0x3e6cd17c	0.23126787
216	0xbdd0d673	-0.10197153
217	0x3de22d6d	0.110438205
218	0x3e5111c3	0.20416932
219	0x3e5c8f22	0.21538976
220	0x3d22b678	0.039724797
221	0xbc25cb99	-0.010119342
222	0xbcbc8f81	-0.023017647
223	0x3db72d94	0.0894424
224	0x3f9c5ee0	1.2216454
225	0x40807c8e	4.0152044
226	0xc056a7d5	-3.3539937
227	0xbf2d4fed	-0.6770008
228	0x3e81a091	0.25317815
229	0xbd162c58	-0.036663383
230	0xbe5d9178	-0.21637523
231	0x3d774565	0.060368914
232	0xbd514238	-0.05108854
233	0x3f2bd246	0.67117727
234	0x3c77cbd7	0.015124283
235	0x3e4def7a	0.20110884
236	0x3c18874b	0.0093096
237	0xbe17c4b4	-0.1482113
238	0x3fb9c48e	1.4513109
239	0xbcda4678	-0.02664493
240	0xbf36607b	-0.7124097
241	0xbf1793a3	-0.5920965
242	0xbf25e1d2	-0.647977
243	0xbe871ec1	-0.2639065
244	0x3e9eb328	0.3099606
245	0x3f277a4f	0.65421003
246	0x3d37cc0e	0.044872336
247	0x3eabaca7	0.3353016
248	0xbd86f176	-0.06589024
249	0xbd568934	-0.05237694
250	0x3bcc3a5c	0.006232543
251	0xbd8dd406	-0.06925206
252	0x3e8e0fd6	0.27746457
253	0x3fd20a25	1.6409346
254	0xbefbbb83	-0.49166498
255	0xc034590e	-2.8179355

l1.bias f4 [400]
0	0x3e68bf89	0.22729315
1	0x3dd79dcb	0.105281435
2	0xbf80864b	-1.0040983
3	0xbf9aa803	-1.2082523
4	0xbf31e6ee	-0.69492996
5	0x3cd91de2	0.026503507
6	0x3e5a9f6a	0.21349874
7	0x3da89b49	0.08232743
8	0xbf775d22	-0.96626484
9	0x3f5ac2ba	0.8545338
10	0xbd4eac32	-0.050457187
11	0xbcb26f55	-0.021781603
12	0x3f01a5a7	0.5064339
13	0xbdc61190	-0.096713185
14	0xbf772d6e	-0.96553695
15	0xbefde442	-0.4958821
16	0x3e9250bf	0.2857723
17	0xbe4a3696	-0.19747385
18	0xbec51f6d	-0.38500538
19	0xbd9086f1	-0.07056988
20	0x3e47d69a	0.19515458
21	0xbed5414f	-0.4165139
22	0x3e7c69f5	0.24649794
23	0xbe1cb82b	-0.1530463
24	0x3f711bdb	0.9418313
25	0x3f7696b9	0.96323735
26	0xbf69a01b	-0.91259927
27	0xbecb74a4	-0.39737427
28	0xbf07bd7f	-0.53023523
29	0xbe8f2cad	-0.27963772
30	0x3d4ad629	0.049520645
31	0x3f0aaba0	0.5416813
32	0xbf906b5a	-1.1282761
33	0xbf4bbafb	-0.79582185
34	0xbf8d043c	-1.1016917
35	0xbf9176b5	-1.1364352
36	0xbfda7861	-1.7067987
37	0x3f035d33	0.51314086
38	0x3d078cfe	0.033093445
39	0x3f1d4a9a	0.6144196
40	0xbf0325ba	-0.5122944
41	0xbf968282	-1.1758578
42	0xbf51326b	-0.81717557
43	0xbf728bdc	-0.9474466
44	0x3e54169b	0.20711748
45	0xbf4fb399	-0.8113342
46	0xbc1d4774	-0.009599555
47	0x3f667dc5	0.9003566
48	0xbe33dec7	-0.17565452
49	0xbfb06a69	-1.3782474
50	0xbe8fa3c5	-0.28054634
51	0xbf037d5d	-0.51363164
52	0x3e8f30f0	0.27967024
53	0xbea791a8	-0.32728314
54	0xbf394d8d	-0.7238396
55	0xbf7681e7	-0.96291965
56	0xbb9cf3bd	-0.004789798
57	0xbdee1d24	-0.11626652
58	0xbeda0f14	-0.4258963
59	0x3e8dff77	0.27733967
60	0xbe550dcc	-0.20806044
61	0x3df6cf4a	0.12051256
62	0xbf115906	-0.56776464
63	0xbe2ecf42	-0.1707125
64	0xbec024de	-0.37528127
65	0xbea67587	-0.3251154
66	0xbf20e492	-0.6284877
67	0xbf341e2c	-0.7035854
68	0xbf103217	-0.5632643
69	0xbe116822	-0.1419988
70	0xbfa43d8b	-1.2831281
71	0xbea610ef	-0.32434794
72	0xbcccef30	-0.025016397
73	0x3e2bf697	0.16793285
74	0xbea536f7	-0.32268497
75	0xbefaeb6b	-0.49007735
76	0xbf5f08c3	-0.87122744
77	0xbf6b95d3	-0.9202549
78	0xbe3c6741	-0.18398763
79	0x3c9b1e18	0.018935248
80	0x3ef53ec1	0.4789944
81	0x3f07012d	0.5273617
82	0xbe502c81	-0.20329477
83	0xbf529f32	-0.8227416
84	0x3f88184c	1.0632415
85	0x3e9c1bf8	0.30490088
86	0x3f2b14e5	0.6682876
87	0xbf039d65	-0.5141204
88	0x3f04ffaa	0.5195261
89	0xbeaf9736	-0.34295052
90	0xbf455795	-0.77086765
91	0xbe295c7e	-0.16539189
92	0x3f8d83fb	1.1055902
93	0xbf234546	-0.6377758
94	0xbf8642e0	-1.0489159
95	0xbe621352	-0.22077683
96	0xbfd42e14	-1.6576562
97	0xbf17b3e1	-0.5925885
98	0x3d998e0e	0.07497798
99	0xbf08c531	-0.5342589
100	0xbe59952d	-0.21248312
101	0xbf13cd26	-0.57734907
102	0x3c8ad6cd	0.016948128
103	0xbf07d1fe	-0.530548
104	0x3f1e6363	0.618704
105	0x3bfb7672	0.007674032
106	0x3e38a48f	0.18031524
107	0xbef1ee5e	-0.47252172
108	0xbe5057b8	-0.20345962
109	0x3eb48b56	0.35262555
110	0xbf90dcce	-1.1317384
111	0xbf84d333	-1.0376953
112	0xbfafeee6	-1.3744781
113	0x3f2ed45d	0.6829279
114	0x3e7edebf	0.24889658
115	0xbf09209c	-0.5356538
116	0xbf26de9e	-0.65183437
117	0xbfa02f6a	-1.251447
118	0xbf111ea1	-0.5668736
119	0xbe0d3fcd	-0.1379387
120	0xbe858a5d	-0.26082125
121	0xbf830793	-1.0236686
122	0xbf02d148	-0.5110059
123	0xbee20ace	-0.44148868
124	0x3d0de37e	0.03464078
125	0x3f63127f	0.887001
126	0xbe80a216	-0.25123662
127	0xbe80840b	-0.2510074
128	0xbf161c8e	-0.5863732
129	0x3e773b03	0.24143605
130	0xbe37db4a	-0.17954746
131	0x39c2c802	0.0003715158
132	0x3d5e13f7	0.05421826
133	0xbe925dde	-0.2858724
134	0xbfc86721	-1.5656472
135	0xbecb36d7	-0.39690277
136	0xbf406f66	-0.7516998
137	0xbf39a5f4	-0.7251885
138	0xbf34b9e6	-0.7059616
139	0xbf56beaa	-0.8388468
140	0xbe202937	-0.15640722
141	0x3d39acd4	0.045330837
142	0xbee082f3	-0.43849906
143	0xbf230ad9	-0.6368843
144	0xbec9869d	-0.39360514
145	0xbf1ce485	-0.61286193
146	0xbf66ed01	-0.9020539
147	0x3e10f38f	0.1415541
148	0xbf0835ad	-0.532069
149	0x3dce7fdc	0.10082981
150	0xbe4f9439	-0.20271386
151	0x3f6f89dc	0.9356973
152	0x3e85f495	0.26163164
153	0xbf1c5bc0	-0.610775
154	0x3d76b2ff	0.060229298
155	0xbfb12813	-1.3840355
156	0xbe8f21d4	-0.27955496
157	0xbe45b963	-0.19309
158	0xbe935e22	-0.28782755
159	0xbeb48747	-0.35259458
160	0xbee6fa8c	-0.45113027
161	0xbf49c721	-0.7881947
162	0xbe8d4ec6	-0.27599162
163	0x3e531c82	0.20616344
164	0xbfacc22c	-1.3496757
165	0xbf1fd2c6	-0.6243099
166	0xbed09316	-0.40737218
167	0xbe676b6b	-0.2259957
168	0xbe88b324	-0.26699173
169	0xbf476819	-0.77893215
170	0xbf68853f	-0.9082832
171	0xbf8af1cf	-1.0855044
172	0xbdafd70b	-0.08585938
173	0x3e257c29	0.16160645
174	0xbe464a25	-0.19364221
175	0x3e116835	0.14199908
176	0xbd479e00	-0.048734665
177	0x3d482497	0.04886302
178	0xbe944c8f	-0.2896466
179	0xbf166979	-0.5875469
180	0xbea2fa3d	-0.31831542
181	0x3e6e868f	0.23293518
182	0xbf971436	-1.1803043
183	0xbfebf2bc	-1.8433452
184	0xbcf982eb	-0.030457934
185	0xbe926836	-0.28595132
186	0xbf5da60d	-0.865815
187	0xbe793870	-0.24337935
188	0xbea1919c	-0.31556404
189	0xbef32b30	-0.47493887
190	0xbf644ec7	-0.89182705
191	0xbe6e51b4	-0.23273355
192	0xbe9ce67d	-0.306446
193	0xbebcaa4e	-0.36848682
194	0xbd2da1f7	-0.04239079
195	0xbf201c77	-0.62543434
196	0x3e1ed19e	0.1550965
197	0xbf885bc9	-1.0653011
198	0xbebb8664	-0.3662597
199	0x3f037955	0.51357013
200	0xbf04b9c5	-0.5184596
201	0xbe161082	-0.14654735
202	0x3d72661f	0.05917942
203	0xbf30accc	-0.6901367
204	0xbe79a3c8	-0.24378884
205	0xbea0116c	-0.31263292
206	0x3e36822c	0.17823094
207	0x3f2c2c81	0.6725541
208	0xbebddd5b	-0.37082943
209	0xbf8199e6	-1.0125091
210	0xbf0125ba	-0.5044819
211	0xbf7e92c8	-0.9944272
212	0xbf2e1bc0	-0.68011093
213	0xbe2c7093	-0.16839819
214	0x3e80b40c	0.25137365
215	0xbead0d53	-0.33799228
216	0xbed7725d	-0.4207944
217	0xbf034038	-0.51269865
218	0xbf5dc8ce	-0.8663453
219	0xbe5cab12	-0.21549633
220	0x3f20b4b0	0.6277571
221	0xbcb5b75f	-0.022182165
222	0xbf52f07d	-0.82398206
223	0x3f2a0607	0.66415447
224	0x3f60b099	0.87769467
225	0xbdb66ad4	-0.089070946
226	0x3e4a3e0b	0.1975023
227	0xbfbbffe8	-1.4687471
228	0xbe2539ee	-0.1613538
229	0xbfaaca5c	-1.3343005
230	0xbc0019d9	-0.007818663
231	0x3d6ecfb2	0.058303542
232	0x3cdeea72	0.027211402
233	0xbf553a5e	-0.83292186
234	0xbeb1533b	-0.34633812
235	0xbf8adbc4	-1.0848317
236	0xbf206bf3	-0.6266472
237	0x3e8cd6e8	0.2750771
238	0xbf42bb29	-0.76066834
239	0xbf1c4529	-0.6104303
240	0xbe970c0a	-0.29501373
241	0x3e8a56c0	0.2701931
242	0x3ea33da3	0.31882963
243	0xbf3aaf28	-0.7292352
244	0xbf51b058	-0.81909704
245	0x3f8d09ab	1.1018575
246	0xbf1ea6ee	-0.61973464
247	0xbe5dd7da	-0.21664372
248	0x3e88a68e	0.2668957
249	0xbe597131	-0.21234585
250	0xbccde122	-0.025131766
251	0xbd9217e9	-0.07133467
252	0xbe3988e0	-0.1811862
253	0xbe8f1432	-0.27945095
254	0x3e180912	0.1484721
255	0xbdeebe6b	-0.11657413

l2.weight f4 [300, 400]
0	0x3edd494a	0.43219978
1	0xbfe9fe96	-1.8280818
2	0xc04cc0c0	-3.1992645
3	0xc05889ff	-3.3834226
4	0xbecf52d5	-0.40492883
5	0x3f6ed70c	0.93296885
6	0x3e82b7bf	0.25530812
7	0xbef3a983	-0.47590265
8	0xbd565abc	-0.052332625
9	0xbe33d210	-0.17560601
10	0x3f1165bc	0.5679586
11	0xbf731f95	-0.94970065
12	0x3f78f3ef	0.97247213
13	0xbe3bcf73	-0.18340854
14	0xbfc6529b	-1.5493959
15	0x3faec85f	1.3654898
16	0xbeda6d3d	-0.42661467
17	0xbec80190	-0.39063692
18	0xbd441f26	-0.047881268
19	0xbe5a3240	-0.21308231
20	0x3e8e395e	0.27778143
21	0xbe68e920	-0.2274518
22	0xbeb4dacd	-0.35323182
23	0xbefa8cfb	-0.48935685
24	0x3ec99791	0.39373448
25	0x3f7f0eac	0.9963176
26	0xbfbd0476	-1.4766986
27	0xc01133ff	-2.2687986
28	0xbf1c828d	-0.61136705
29	0xbe0870f7	-0.13324343
30	0xbf238a56	-0.6388296
31	0xbf614e18	-0.88009787
32	0x3f939d91	1.153246
33	0x3e4c761f	0.19966935
34	0xbfe1cc07	-1.7640389
35	0xbf74d694	-0.9563992
36	0x3e83760a	0.25675994
37	0x3f33ea92	0.702798
38	0xbe6dd44a	-0.23225513
39	0x3ebf9353	0.37417087
40	0x3cef9f80	0.02925086
41	0xbfa355a0	-1.2760506
42	0x3e08bffd	0.13354488
43	0xbed673aa	-0.4188512
44	0x3d5e8d2f	0.054333862
45	0xbf2780c2	-0.65430844
46	0x3d9457d7	0.072433166
47	0x3da625bd	0.08112667
48	0xbbb66d95	-0.0055672624
49	0x3f94bb0d	1.1619583
50	0x3ee7f042	0.4530049
51	0x3e9219fd	0.28535452
52	0x3d8b2695	0.06794468
53	0x3fc46ac0	1.5345078
54	0xbf921357	-1.1412152
55	0x3dbee0e6	0.0932024
56	0xbe383811	-0.17990138
57	0x3f486d2d	0.7829159
58	0xbf4aeb3b	-0.79265183
59	0x3fa9d2ed	1.3267494
60	0xc045bf31	-3.0897944
61	0xbf8b14ce	-1.0865724
62	0xbfd2bc63	-1.6463741
63	0xbf558a4b	-0.83414143
64	0x3e254488	0.16139424
65	0xbe9b3162	-0.30311114
66	0xbbeaf42b	-0.0071702204
67	0x3f0c8717	0.5489363
68	0xbfa669a0	-1.3000984
69	0xbf4d5320	-0.80204964
70	0xbf02cfc4	-0.51098275
71	0xc0148d55	-2.3211262
72	0xbf8d0dcc	-1.1019835
73	0x3f823f17	1.0175503
74	0xbf2ecc16	-0.6828016
75	0xbf7231ed	-0.9460743
76	0xbe77a0a4	-0.24182373
77	0xbe00e86d	-0.12588663
78	0xc01848e0	-2.379448
79	0xbc9b1972	-0.018933032
80	0x3c6f861f	0.014619379
81	0x3efab070	0.48962736
82	0x3e8e1655	0.27751413
83	0xbf71e31b	-0.9448716
84	0x3f0e2b15	0.5553449
85	0x3f163067	0.58667606
86	0x3f1988e9	0.59974533
87	0xbf97aafd	-1.1849056
88	0x3d1dc9fc	0.038522705
89	0xbf17ddc6	-0.59322774
90	0xbf1afe3d	-0.60544187
91	0x3f29c73b	0.66319627
92	0x3f1b4ce6	0.6066421
93	0xbbc46c41	-0.00599435
94	0xc01de1cf	-2.4669073
95	0xbfc69466	-1.5514038
96	0xbf364251	-0.7119494
97	0xbfcd9d83	-1.6063694
98	0x3f035da7	0.5131478
99	0xbd87cad4	-0.06630483
100	0x3f4f8ae9	0.81071335
101	0x3ed1c601	0.40971377
102	0x3f16c731	0.5889769
103	0xbf94d535	-1.1627566
104	0x3f3397c2	0.7015344
105	0x3f675fe7	0.9038071
106	0x3de31e9f	0.11089825
107	0x3f96e0cd	1.1787354
108	0x3f14db48	0.58147097
109	0x3f249feb	0.64306515
110	0xbf597788	-0.84948015
111	0x3ef63523	0.48087415
112	0xbf582854	-0.84436536
113	0x3fc5ce2a	1.5453541
114	0x3ebaf319	0.36513594
115	0xbc968f4a	-0.018378872
116	0x3f4b3acd	0.793866
117	0x3f9e40f0	1.2363567
118	0x3f025415	0.5090955
119	0x3e7b24a4	0.24525696
120	0x3b25ecff	0.0025318263
121	0xbfcf7c5e	-1.6209829
122	0x3ccb97f9	0.02485274
123	0xc01ed382	-2.4816594
124	0x3f60a907	0.87757915
125	0x3f4d55a8	0.80208826
126	0x3ddf6762	0.109083906
127	0xbe6db007	-0.2321168
128	0xbefab35b	-0.48964962
129	0x3f38b451	0.7215014
130	0x3f6921ca	0.91067183
131	0xbf0ecd86	-0.55782354
132	0x3f2a6029	0.6655298
133	0x3e522508	0.20521939
134	0x3f08e26c	0.5347049
135	0xbf88c8d8	-1.0686293
136	0xc0341273	-2.813626
137	0xbfcca711	-1.5988485
138	0xbfb78afc	-1.433929
139	0x3e9c8dc6	0.30576915
140	0xbf103ca6	-0.5634254
141	0xbf91c174	-1.1387162
142	0x3f073726	0.52818525
143	0xbf0d411e	-0.55177486
144	0x3f33471b	0.70030373
145	0xbec4927e	-0.38393015
146	0x3eb01fbd	0.34399214
147	0xbf8598a2	-1.0437205
148	0x3eec83a2	0.46194178
149	0xbfa7c4f9	-1.3106986
150	0x3e0f8620	0.14016008
151	0x3f349363	0.70537394
152	0x3e8485ca	0.25883323
153	0xbfa447d3	-1.2834419
154	0xbef9f01e	-0.48816007
155	0xbfbd1281	-1.4771272
156	0x3f83f805	1.0310065
157	0x3eb7cdf9	0.35899332
158	0xbeeec01e	-0.4663095
159	0xbf8786f5	-1.0588061
160	0x3e9275dc	0.28605545
161	0x3c9ebacd	0.019376183
162	0xbed3b2f9	-0.41347483
163	0xbf1ea14f	-0.6196489
164	0x3e03f8a4	0.12887818
165	0xbf1be82b	-0.60901135
166	0xc03bac05	-2.9323742
167	0x3d5b127a	0.053484417
168	0x3f3764f7	0.71638435
169	0xbe92c1f5	-0.28663602
170	0xbfb8ff8f	-1.445299
171	0xbff31e8d	-1.8993698
172	0xbfaab837	-1.3337468
173	0x3ef1d615	0.47233644
174	0x3f6223c7	0.8833584
175	0xbf09d8a1	-0.53846174
176	0xbf23f2bf	-0.64042276
177	0x3f19e34a	0.6011244
178	0xbfa30bd6	-1.2737987
179	0xbffeb7a1	-1.9899789
180	0x3f5aefe2	0.8552228
181	0x3e859d72	0.26096684
182	0x3cef59e3	0.029217666
183	0xc023b5c8	-2.55797
184	0xbed4ea71	-0.41585115
185	0xbf72dcac	-0.9486797
186	0xc0896c1c	-4.294447
187	0xbfa44077	-1.2832173
188	0xbf92cce5	-1.1468779
189	0xbec4acba	-0.3841303
190	0x3f165c36	0.5873445
191	0x3f3c3e8c	0.7353294
192	0xbf00b291	-0.5027247
193	0xbfa6c637	-1.302924
194	0x3e9d4cd3	0.30722675
195	0xbf2d1a97	-0.676187
196	0xbf694039	-0.9111362
197	0x3f2fb221	0.6863118
198	0x3d94c060	0.07263255
199	0xbd9d9390	-0.07694161
200	0xbee2783b	-0.44232354
201	0x3ee3bbb5	0.44479147
202	0x3de63407	0.11240392
203	0x3e20d897	0.15707622
204	0x3f02b7a9	0.51061493
205	0xbf21c357	-0.6318869
206	0x3ed14edb	0.40880474
207	0x3f08f45a	0.5349785
208	0xbf958769	-1.1681949
209	0xc004bc86	-2.0740066
210	0xbf500b32	-0.8126708
211	0x3fc04c02	1.5023196
212	0x3f69e15f	0.91359514
213	0xbecbfc6c	-0.3984102
214	0xbf019ad0	-0.5062685
215	0xbfa21ffc	-1.2666011
216	0x3e2ce49e	0.16884086
217	0xbdab53ce	-0.08365594
218	0x3f5011ad	0.8127697
219	0xbf108486	-0.56452215
220	0xbd3b0cc1	-0.04566646
221	0xbd6c43fd	-0.057682026
222	0x3f54be1e	0.83102596
223	0x3e34133c	0.17585462
224	0x3f638fa9	0.88891083
225	0x3f363078	0.7116771
226	0x3f2a81e1	0.6660443
227	0xbfeae6ab	-1.8351644
228	0x3e819eef	0.2531657
229	0xbb647cab	-0.0034864347
230	0x3e203aae	0.15647385
231	0x3eea01ad	0.45704404
232	0x3d049675	0.03237005
233	0xbfd1b101	-1.6382142
234	0x3fa0847e	1.2540433
235	0xbfb9a6f1	-1.4504071
236	0xc00a9153	-2.16512
237	0x3ec21aee	0.3791117
238	0xbfdbd694	-1.7174859
239	0xbe7e5638	-0.24837577
240	0xbfa8c2ee	-1.3184488
241	0xc04e61ef	-3.2247274
242	0xbef6686d	-0.48126546
243	0xbfd4c7c8	-1.6623468
244	0xbfe810ed	-1.8130165
245	0x3d867828	0.06565887
246	0x3ed29418	0.41128612
247	0x3dd0c819	0.101944156
248	0x3ef97707	0.48723623
249	0x3ec0031f	0.3750238
250	0xbe8ca090	-0.2746625
251	0x3f84b683	1.0368198
252	0x3ec52f2e	0.38512558
253	0x3f257075	0.6462472
254	0x3ed5a60e	0.41728252
255	0x3ecbef78	0.39831138

l2.bias f4 [300]
0	0x3fc0c32a	1.5059559
1	0xbf316e43	-0.6930887
2	0xbeb058f8	-0.34442878
3	0x3ee4a2b9	0.44655398
4	0x3e5899a9	0.21152367
5	0xbecde379	-0.4021261
6	0x3f089ff3	0.53369063
7	0x3e9b6995	0.3035399
8	0x3f450ed1	0.76975733
9	0x3e3e3d6b	0.18578117
10	0x3f0ceb19	0.5504623
11	0x3e6d4832	0.23172072
12	0x3ec5a488	0.3860209
13	0xbe688e0e	-0.2271044
14	0x3d6648ca	0.05622176
15	0xbf230797	-0.63683456
16	0x3edd59f2	0.43232685
17	0xbf46316a	-0.7741915
18	0x3e686bc2	0.22697356
19	0x3cf85d49	0.03031792
20	0xbf4fb682	-0.8113786
21	0x3d701f8b	0.05862383
22	0xbea75cf9	-0.3268812
23	0xbeaedfc8	-0.34155107
24	0xbe924014	-0.28564513
25	0xbece684a	-0.4031394
26	0x3f047543	0.5174143
27	0xbe5a31c3	-0.21308045
28	0x3e921897	0.28534386
29	0x3f985756	1.1901653
30	0xbf0a555d	-0.54036504
31	0x3eabd4f3	0.33560905
32	0xbf3811a3	-0.7190191
33	0xbd89dd58	-0.06731671
34	0xbefb962f	-0.49138018
35	0x3e1a5375	0.15070899
36	0xbf2a3b53	-0.6649677
37	0x3dee623a	0.11639829
38	0xbf5e8757	-0.8692526
39	0xbf4d7ef6	-0.8027185
40	0xbf8a7685	-1.0817419
41	0xbf1c944f	-0.611638
42	0xbf3d9319	-0.7405258
43	0xbe93871a	-0.28814012
44	0xbf037335	-0.51347667
45	0xbe5927da	-0.21206608
46	0xbd969edc	-0.07354519
47	0xbed44aac	-0.4146322
48	0x3e9e0a3e	0.3086719
49	0x3e896d39	0.26841143
50	0xbf46e8c1	-0.77698904
51	0x3eb146a1	0.34624198
52	0xbec7e1ed	-0.39039555
53	0xbf58052b	-0.84382886
54	0xbf47ce71	-0.7804938
55	0xbf2d306f	-0.6765203
56	0x3eb56490	0.35428286
57	0xbd6f6023	-0.058441292
58	0xbef151f2	-0.47132832
59	0xbebcea88	-0.36897683
60	0xbe0a8f85	-0.13531311
61	0x3cb60937	0.02222119
62	0xbe7484f8	-0.23878849
63	0xbf489d39	-0.783649
64	0xbe27c8a2	-0.16385129
65	0x3ed7e824	0.42169297
66	0x3e3da905	0.18521507
67	0xbdf51312	-0.11966528
68	0xbea8a957	-0.32941696
69	0xbcd4cdca	-0.025977034
70	0x3f148166	0.58009946
71	0x3e1b70ed	0.15179797
72	0xbf78596d	-0.9701145
73	0xbfa4b648	-1.2868128
74	0x3f8f13ab	1.1177877
75	0x3e923e92	0.28563362
76	0xbc2a632f	-0.010399624
77	0xbebe5873	-0.37176856
78	0x3ec57693	0.38567027
79	0xbed679ea	-0.41889888
80	0xbdcd1e9a	-0.100156024
81	0x3f30306c	0.68823886
82	0xbee843d3	-0.45364246
83	0xbf5d2c3f	-0.8639564
84	0x3f19e641	0.60116965
85	0x3e67f102	0.22650531
86	0xbfe5f518	-1.7965422
87	0xbf5df452	-0.8670093
88	0xbf3f0afb	-0.7462613
89	0xbe7532c0	-0.23945141
90	0x3dc631f1	0.09677494
91	0x3f8fb606	1.1227424
92	0x3f444f96	0.7668394
93	0x3d451e28	0.048124462
94	0xbe150996	-0.14554438
95	0x3f9d6a2b	1.2298025
96	0xbe64564f	-0.22298549
97	0xbfb83496	-1.4391048
98	0x3ec5cb98	0.38631892
99	0xbf63238d	-0.8872612
100	0xbf4a69a1	-0.79067427
101	0x3e6f1f9e	0.23351905
102	0xbec4debf	-0.38451192
103	0xbcafe4f3	-0.021471476
104	0xbf0539dd	-0.5204142
105	0x3f8d1ca0	1.1024361
106	0xbf6954a6	-0.9114479
107	0x3e89c2d4	0.26906455
108	0x3e88ef1c	0.26744926
109	0xbdc50a00	-0.09621048
110	0xbe9eaaf3	-0.309898
111	0x3eefc1c6	0.46827525
112	0xbf2468dc	-0.642225
113	0xbdf6e90c	-0.12056169
114	0x3ee37712	0.4442678
115	0xbe687a75	-0.22702964
116	0xbd427679	-0.047476266
117	0x3e886984	0.26643002
118	0x3e14cef5	0.14532073
119	0x3ee491fc	0.44642627
120	0xbfd0501f	-1.6274451
121	0x3dba1896	0.09086721
122	0x3ebfff38	0.37499404
123	0x3f331317	0.69951004
124	0xbf36423f	-0.71194834
125	0xbebd5aea	-0.36983424
126	0xbefd0454	-0.49417365
127	0xbee58e13	-0.44834957
128	0xbcf174aa	-0.029474575
129	0x3d18e20f	0.03732496
130	0x3e155875	0.14584525
131	0xbe0772df	-0.13227414
132	0x3e7c3c0f	0.24632286
133	0xbe875b81	-0.26437
134	0x3f4918e8	0.7855363
135	0x3f4969e0	0.7867718
136	0xbf1310de	-0.5744761
137	0x3f4ed738	0.8079715
138	0xbf060d17	-0.52363724
139	0x3f2872cc	0.65800166
140	0xbe932b6e	-0.28744072
141	0xbf86b9ef	-1.0525492
142	0xbe501325	-0.20319803
143	0x3f1da2cc	0.61576533
144	0xbf23a0b7	-0.63917106
145	0xbeeac68a	-0.45854598
146	0xbf699f73	-0.91258925
147	0x3f4bc160	0.7959194
148	0xbd1f5f01	-0.038908962
149	0xbe54b3c7	-0.20771705
150	0xbeb47938	-0.35248733
151	0x3e841725	0.25798908
152	0xbf0f0eab	-0.55881757
153	0xbea7a553	-0.3274332
154	0x3efcb3b1	0.49355844
155	0x3ef3b39a	0.47597963
156	0x3ebddce9	0.37082604
157	0xbd62d5fb	-0.05537985
158	0xbf01a005	-0.50634795
159	0xbeaecb4a	-0.34139472
160	0xbb1b4f2f	-0.002369832
161	0xbf65973a	-0.8968388
162	0xbe8183af	-0.2529578
163	0x3f059e77	0.52194923
164	0x3ea562f8	0.3230207
165	0x3cd61779	0.02613424
166	0xbed2135a	-0.4103039
167	0xbeaca06b	-0.3371614
168	0x3efb2953	0.49054965
169	0x3e1c79c2	0.15280822
170	0x3fb5584c	1.4167571
171	0xbea1339f	-0.31484696
172	0xbecce292	-0.4001661
173	0xbe42270e	-0.1896021
174	0xbf14ad91	-0.5807734
175	0x3f36a578	0.71346235
176	0xbe2f513e	-0.17120835
177	0xbee141ad	-0.4399542
178	0xbf0ee1f8	-0.5581355
179	0x3f04f13e	0.51930606
180	0xbe9a33ea	-0.30117732
181	0x3fadff10	1.3593464
182	0xbe7db03b	-0.24774258
183	0x3e6737a6	0.22579822
184	0x3e47f8a0	0.19528437
185	0x3d9908fd	0.074724175
186	0xbf5a1b5f	-0.85198015
187	0xbf088ee7	-0.5334305
188	0x3db084b7	0.08619063
189	0xbf1c4f46	-0.6105846
190	0xbd7a5664	-0.061117545
191	0xbec83d63	-0.39109334
192	0xbf15dc37	-0.58539146
193	0xbdcbc911	-0.0995046
194	0x3e9c9bd5	0.3058764
195	0xbf822a91	-1.016924
196	0xbfc555b3	-1.5416778
197	0x3f9bc8af	1.2170619
198	0xbf0a8cdc	-0.54121184
199	0xbe7ed4a6	-0.24885806
200	0xbe3d4ed4	-0.18487102
201	0xbfa85539	-1.3151008
202	0x3ea8c2c6	0.329611
203	0x3f0fcdc1	0.5617333
204	0xbe9b9b97	-0.30392143
205	0x3e8bb60c	0.27287328
206	0x3c97a350	0.01851049
207	0x3e53a656	0.20668921
208	0xbd364d30	-0.044507205
209	0xbf85cf52	-1.0453894
210	0x3ce5304f	0.027977137
211	0x3f5bcedc	0.8586252
212	0xbe53b367	-0.20673905
213	0x3f03c2e4	0.51469254
214	0x3e81b70b	0.25334963
215	0x3eb5c860	0.35504436
216	0xbefee525	-0.49784198
217	0x3d0ab1c0	0.03386092
218	0xbe366854	-0.17813236
219	0x3edd2379	0.43191126
220	0x3e5b3fc9	0.21411051
221	0x3fbe5497	1.4869565
222	0xbe2c775a	-0.16842404
223	0x3dd69799	0.10478134
224	0x3fa71bfa	1.3055413
225	0x3edffc48	0.43747163
226	0x3d853cbf	0.06505727
227	0xbef5fc54	-0.48044074
228	0x3f3865e7	0.7203049
229	0xbef7d81a	-0.4840706
230	0xbf0bb160	-0.5456753
231	0xbe85a600	-0.2610321
232	0xbea33a45	-0.31880394
233	0x3ee57bc6	0.44820994
234	0xbf777a31	-0.96670824
235	0x3f2d8961	0.6778775
236	0x3f7b72b3	0.9822189
237	0xbf03c71e	-0.51475704
238	0xbe865538	-0.26236892
239	0x3e972fa7	0.29528543
240	0x3e864643	0.2622548
241	0xbf6d2aa7	-0.9264321
242	0x3fcc5a90	1.5965137
243	0x3e1b3b7d	0.15159412
244	0xbe479ec9	-0.19494165
245	0xbcc31eae	-0.02381834
246	0xbe84c1d0	-0.25929117
247	0xbd5fefca	-0.05467204
248	0xbcf599e4	-0.029980607
249	0xbf00f4ec	-0.5037372
250	0x3e4bdcb8	0.19908416
251	0xbf54e5e1	-0.8316327
252	0xbf0ec079	-0.5576244
253	0xbd13f81e	-0.036125295
254	0xbe32f67f	-0.17476843
255	0xbf1d2977	-0.61391395

l3.weight f4 [1, 300]
0	0xbece381f	-0.40277192
1	0x3f0b1903	0.5433504
2	0x3f924e55	1.1430155
3	0xbf544d3b	-0.82930344
4	0xbfbb2d9f	-1.4623297
5	0xc0228f46	-2.5399947
6	0xbfbca2b6	-1.4737155
7	0xbfd11e09	-1.6337291
8	0xbf659acb	-0.8968932
9	0xbf6c00cd	-0.9218872
10	0xbf8ebbab	-1.1151022
11	0xbe46aef0	-0.19402671
12	0xc039975f	-2.899864
13	0x3e80ba09	0.25141934
14	0xc076cceb	-3.8562572
15	0xc04be7a8	-3.1860142
16	0xbfbafda3	-1.4608654
17	0x3f6f5ffa	0.93505824
18	0xc06bca8e	-3.684238
19	0x3f42abda	0.76043475
20	0x3e64c5f9	0.22341146
21	0xbfaa3386	-1.3296974
22	0x3e8da053	0.2766138
23	0x401a5c28	2.4118748
24	0x3ecc7cfe	0.3993911
25	0x3f81ec84	1.0150304
26	0xbfb3a1de	-1.4033773
27	0x3fe98bec	1.8245826
28	0xc00814e2	-2.1262746
29	0xbf788621	-0.97079664
30	0x3fe78f14	1.8090539
31	0x3fed19e7	1.852353
32	0x3eb0773c	0.3446597
33	0x3e403437	0.18769918
34	0x3f11874f	0.5684709
35	0xbfd75571	-1.682295
36	0x3f91e0f3	1.1396774
37	0xbe8fb3ec	-0.28066957
38	0x3f2ea0ae	0.6821393
39	0x3e81ba0e	0.2533726
40	0x40107fd5	2.2578022
41	0x3f212b98	0.62957144
42	0x3f484886	0.7823566
43	0x3f176a45	0.5914653
44	0x401fd985	2.4976513
45	0x3eba4bd7	0.36385986
46	0xbf337540	-0.70100784
47	0x3f38da1c	0.7220781
48	0x3f247e29	0.64255005
49	0xbed8b102	-0.42322546
50	0x3f3bdd67	0.7338471
51	0xbf1672a6	-0.5876869
52	0x3f79d050	0.97583485
53	0x3f7001aa	0.9375254
54	0x3f70f663	0.94125956
55	0x3fd165af	1.6359156
56	0xbf60b60a	-0.8777777
57	0xbc7e7833	-0.015531587
58	0x3ed84239	0.42238024
59	0x3f65761d	0.8963335
60	0xbf56d231	-0.83914477
61	0xbfca2800	-1.5793457
62	0xbfae0a17	-1.3596829
63	0x3f791d1d	0.9731005
64	0x3e358b6a	0.17728963
65	0xbfb059f8	-1.3777456
66	0xbfa21b58	-1.2664595
67	0x3eedc0f6	0.4643628
68	0x3f7bf970	0.98427486
69	0x3cfc8ccb	0.030828854
70	0xbfe7ff2b	-1.8124746
71	0x3f043ddd	0.51656896
72	0x3fba5c27	1.4559373
73	0x3f7db24a	0.9910017
74	0xbe8e79bf	-0.2782726
75	0xc029a963	-2.6509635
76	0xbb2feeb7	-0.0026845166
77	0x3f060965	0.52358085
78	0x3f0f250d	0.5591591
79	0x3f2181be	0.63088596
80	0xbf78f6f8	-0.97251844
81	0xbf26597a	-0.6498028
82	0x3f188815	0.59582645
83	0x3f79eb0a	0.97624266
84	0xc0570ca9	-3.3601477
85	0xbe6bb832	-0.23019484
86	0x3ea99816	0.33123845
87	0x3eca2561	0.39481643
88	0x3e48b68a	0.19600883
89	0x3ebfd778	0.37469077
90	0xbe67b1bb	-0.22626393
91	0xbf06dd66	-0.5268158
92	0xbe81c592	-0.25346047
93	0xbfcbb030	-1.5913143
94	0x3f228814	0.6348889
95	0xbedd6762	-0.43242937
96	0x3f10f59a	0.5662476
97	0x3f965303	1.1744083
98	0xc06061da	-3.5059724
99	0x3f3b9601	0.7327576
100	0x3f91bc3d	1.1385571
101	0xbf72d1a4	-0.94851136
102	0x3fa9ba54	1.3259988
103	0x3e82b39d	0.2552766
104	0x3fd74dd7	1.682063
105	0xbeb712c0	-0.35756493
106	0x3f5e4c1c	0.86834884
107	0xbff19a73	-1.8875259
108	0xbe5fa019	-0.21838416
109	0x3f074fd9	0.5285621
110	0x3fa42cae	1.2826135
111	0xbf8bce49	-1.0922328
112	0x3fe46f76	1.7846515
113	0x402eb88e	2.7300143
114	0xbf28163e	-0.6565894
115	0x3f98303e	1.1889722
116	0xbfd29c11	-1.6453878
117	0xc0260856	-2.5942588
118	0xbe8f28dc	-0.2796086
119	0xc0234d09	-2.5515769
120	0x3fdfde74	1.7489762
121	0x3f46704d	0.7751511
122	0xbfb00d21	-1.3754007
123	0xbec11a1d	-0.37715235
124	0x3fca5939	1.5808479
125	0x3e4f4901	0.20242693
126	0x3f6382a2	0.88871205
127	0xc061d4f2	-3.5286222
128	0x3f1e5464	0.6184752
129	0xbf2b18cf	-0.6683473
130	0xbeb7602f	-0.3581557
131	0x3ecf7274	0.40517008
132	0xbeedbd95	-0.46433702
133	0x3e99220a	0.29908782
134	0xc0809826	-4.018573
135	0xbee50433	-0.44729766
136	0x40571949	3.3609183
137	0xbf69702c	-0.91186786
138	0x3ee0425a	0.43800622
139	0xbf427dba	-0.75973094
140	0x400ffeec	2.2499342
141	0x3f4da373	0.8032753
142	0x3e59232c	0.21204823
143	0xbf99d87b	-1.201919
144	0x3effb0b3	0.49939498
145	0x3de025e8	0.1094473
146	0x3f4d7c8f	0.80268186
147	0xc0455b18	-3.083685
148	0xbf0e10c4	-0.5549433
149	0x3f7145ff	0.9424743
150	0xc0002a62	-2.0025868
151	0xc009c39d	-2.1525643
152	0x3f3b259b	0.73104256
153	0x3e817e4a	0.25291663
154	0xc009646c	-2.1467543
155	0xbf432d55	-0.76241046
156	0xbf81c9cd	-1.013971
157	0xbc685c0a	-0.0141821
158	0x3f97fb75	1.1873614
159	0x3fa5778a	1.2927105
160	0x3f8545a6	1.041188
161	0x3fd1fbb4	1.6404939
162	0x3ec00d1c	0.37510002
163	0xbfc2e68c	-1.5226607
164	0xc01a08a3	-2.4067771
165	0x394da819	0.00019612945
166	0x4040d160	3.0127792
167	0x3ec97574	0.39347422
168	0xc053b2f9	-3.3077986
169	0xc00b4ac5	-2.1764386
170	0xbeeea828	-0.46612668
171	0x4032bfcf	2.792957
172	0x3fdc6a55	1.721995
173	0x3feba844	1.8410726
174	0x3e99f020	0.30066013
175	0xc00a3e45	-2.1600506
176	0x3fa8b408	1.3179941
177	0x3f34b30c	0.70585704
178	0x3ece3a9a	0.40279084
179	0xbf39c27e	-0.72562397
180	0x3eaa86bb	0.33305916
181	0xbeb577fb	-0.354431
182	0x3e8396c4	0.25700963
183	0xbfba2d39	-1.4545051
184	0xbee33eaa	-0.44383746
185	0xc0758b0b	-3.8366115
186	0x3fc48651	1.535349
187	0x3f9b51b0	1.2134304
188	0xbef08773	-0.4697834
189	0x3f9ba8dd	1.2160908
190	0xbd8a9fec	-0.06768784
191	0x3ee977b1	0.4559913
192	0x3f474dec	0.77853274
193	0x3e616c74	0.22014028
194	0xbebe4a7f	-0.3716621
195	0x3f11410e	0.5673989
196	0x3f0b5b7c	0.5443647
197	0xbf5c4bf5	-0.860534
198	0x3f0a099a	0.539209
199	0x3f8ebc26	1.1151168
200	0x3e604459	0.21901073
201	0x3f95acfc	1.1693416
202	0xbfbd41a7	-1.478566
203	0xbf079977	-0.52968544
204	0x3e16059f	0.14650582
205	0xbfcea920	-1.6145363
206	0x401eacfc	2.4793081
207	0xbf76b883	-0.9637529
208	0xbf898e7c	-1.0746608
209	0x3f6cc510	0.92488194
210	0xbf470c56	-0.777532
211	0xbec71c28	-0.3888867
212	0x3f226359	0.6343284
213	0xc00677dc	-2.1010656
214	0xbfa3da58	-1.2801008
215	0xbf530972	-0.8243629
216	0x3f290a57	0.660314
217	0x3f0afa58	0.54288244
218	0x3f54019a	0.82814944
219	0x3eeb2fa0	0.45934772
220	0xbeaa6d56	-0.33286542
221	0xbf378ac5	-0.7169612
222	0x3f2fb330	0.68632793
223	0xbded9eea	-0.11602576
224	0xc0503b7d	-3.2536309
225	0xbf53b125	-0.82692176
226	0xc0983049	-4.755894
227	0x3fe3fd4a	1.7811673
228	0xc000b0f4	-2.0108004
229	0x3f680f65	0.9064849
230	0x3fcdbbd8	1.607295
231	0x3eaaa31d	0.3332757
232	0x3fedfd42	1.8592913
233	0xbef09596	-0.46989125
234	0x3f5e5037	0.8684115
235	0xbe8b97de	-0.27264303
236	0xbf6a95b3	-0.9163467
237	0xc01f663e	-2.4906154
238	0x3e86aa96	0.26302022
239	0xc0417e6a	-3.0233407
240	0xbf7772e7	-0.966597
241	0x3f2099f6	0.62734926
242	0xc05ea54d	-3.4788392
243	0xbe5b8ac9	-0.21439661
244	0xbf949525	-1.1608015
245	0xbfc935c4	-1.5719533
246	0xc0670e26	-3.6102386
247	0x3b306190	0.002691362
248	0xc04a7a08	-3.1636982
249	0x403623c8	2.845934
250	0xbeb225e7	-0.34794542
251	0x3f71eb6d	0.94499856
252	0x3e8c7c3a	0.27438527
253	0xbc81b774	-0.015834548
254	0xc01f22b6	-2.4864936
255	0x400e9937	2.2281015
