preTrained/TD3_BipedalWalkerHardcore-v3_0_crtic_1.pth (torch_old, 529892 bytes, 5 tensors)

l1.weight f4 [400, 28]
-0.29051435 0.4016151 -3.175214 0.64886504 0.13407642 -0.02130673 -0.3068257 0.00620291
0.0172228 -0.061660603 -0.084858514 0.28514627 -0.039905522 -0.14988726 0.027640726 0.015547866
-0.33811095 -0.08644338 0.44699976 0.56604564 0.24050793 0.10349799 -0.34385937 -0.58743155
0.028728992 0.050463308 0.076257944 0.015795061 -0.6287258 -1.5312748 1.2970743 0.85339516
-0.22155872 0.004265207 -0.7774334 0.23294711 -0.012412666 -0.48707917 0.025003854 0.28321353
-0.065052204 0.050469756 -0.042926915 -0.11494389 0.2717713 0.6845291 0.07619876 -0.43119374
-0.65578556 -0.3870369 0.14896177 -0.12508796 -0.093892865 0.11705936 0.09790492 -0.043274317
-0.4861828 0.26649332 -1.0325651 0.082781956 0.24975197 0.20902444 0.28392804 0.09107549
-0.44011799 0.45011654 0.06412983 0.27176192 0.13180715 -0.12946305 0.29162225 0.63720495
0.45934948 0.08807121 -0.16187899 -0.37005505 -0.195157 -0.23858906 -0.24803361 -0.19475228
0.020353701 -0.013983521 0.068666264 0.12876217 0.75837934 1.2060809 0.60341305 0.28945044
0.30619237 0.003766771 -0.232693 -0.026853446 0.103713885 -0.07575737 0.06645634 -0.24336135
-0.009226757 0.02203209 1.0319967 1.3682908 0.33611298 -0.64188194 -0.27310726 -0.3507932
0.025546001 -0.15274459 -0.055283997 -0.21446635 0.006410485 -0.0038769143 0.003189337 -0.07670466
-0.4478933 -3.3164616 0.24982809 -0.5121318 -0.31359014 -0.05619737 0.13407846 0.05449632
-0.013826292 0.39743808 -0.20840175 -0.06835201 -0.16018122 -0.2150652 0.47947848 -0.59059715
-0.9436355 -0.8941247 -0.3166009 0.02452242 0.27473074 0.4060218 0.048980784 0.3434475
0.10320476 0.16906361 -0.07963805 -0.0636177 0.07339484 0.3581846 -0.37319762 -0.60142446
-0.24151391 0.115185484 0.112271436 0.09510361 -0.2301941 0.16211937 0.0037685714 -0.3416504
0.078861564 -0.08872577 -0.23303497 -0.3062934 -0.42542487 -0.51322937 -0.5869578 -0.48591536
-0.48018456 -0.53442436 -0.4172073 -0.07097291 0.013257323 0.09979297 0.17510246 -0.017410407
-0.65598893 -0.14702629 -0.084001 -0.70924157 0.32952026 0.05051426 0.3669078 -0.088153176
-0.031490628 -0.06692435 -0.12207782 -0.7533692 -0.03467524 0.07116295 0.49383894 -0.010098391
-0.2788793 -0.5633466 -0.66177565 -0.31929076 -0.21454976 -0.5114343 -0.17291696 0.046855796
0.1603937 0.032789137 0.048405174 -0.07425918 -0.59499764 -2.061878 0.75401 0.14603218
-1.3780662 0.019184541 -0.06927413 -0.008485837 0.3729166 0.497791 0.0053107175 -0.6303879
0.1105715 -0.4422057 0.01902192 0.11244358 0.068436556 -0.20338216 -0.12550037 -0.068159156
0.08026284 -0.20838231 0.07797242 -0.08932321 0.030970406 0.19502315 0.009871692 0.04910466
-0.5319529 0.87024474 -0.4025613 -1.9325088 0.10286632 -0.006684766 -0.148151 -0.016301969
0.07834656 -0.37921622 -0.10338517 -0.56245255 -0.119445056 0.43728316 -0.8344258 -0.10476074
-0.030452052 -0.4063767 -0.5054552 0.39808002 0.3537608 0.32350174 -0.02936647 -0.02277476
-0.023493327 -0.069365755 -0.20069748 -0.11214763 -0.37579063 -0.49896216 -0.48157758 -0.45177594
00000000: 4cbe 94be 7fa0 cd3e b536 4bc0 051c 263f
00000010: 544b 093e 748b aebc 4218 9dbe c841 cb3b
00000020: d416 8d3c d48f 7cbd 4dca adbd b1fe 913e
00000030: f973 23bd 0c7c 19be ce6e e23c 7abc 7e3c
00000040: e11c adbe 3a09 b1bd 27dd e43e 5ee8 103f
00000050: b647 763e c1f6 d33d 560e b0be ea61 16bf
00000060: 1059 eb3c 9db2 4e3d 202d 9c3d a564 813c
00000070: 2df4 20bf d000 c4bf 8806 a63f 1b78 5a3f
00000080: 4ae0 62be 26c3 8b3b e005 47bf b089 6e3e
00000090: 7f5e 4bbc 7162 f9be e2d4 cc3c 5d01 913e
000000a0: 173a 85bd 60b9 4e3d 22d4 2fbd b467 ebbd
000000b0: 9c25 8b3e 4d3d 2f3f 180e 9c3d 6dc5 dcbe
000000c0: 90e1 27bf b329 c6be 6f89 183e 0f17 00be
000000d0: e74a c0bd d1bc ef3d 6082 c83d 6940 31bd
000000e0: f4ec f8be d071 883e 182b 84bf 9689 a93d
000000f0: fbbe 7f3e 810a 563e 045f 913e c985 ba3d
00000100: 2557 e1be ad75 e63e 8056 833d 6124 8b3e
00000110: 74f8 063e f691 04be 834f 953e dd1f 233f
00000120: db2f eb3e ae5e b43d 9bc3 25be db77 bdbe
00000130: 3dd7 47be b150 74be 86fc 7dbe 246d 47be
00000140: cebc a63c 231b 65bc e6a0 8c3d 3bda 033e
00000150: 2625 423f dc60 9a3f 4779 1a3f d932 943e
00000160: 3fc5 9c3e eedb 763b 1347 6ebe c2fb dbbc
00000170: f267 d43d ae26 9bbd 431a 883d b833 79be
00000180: d32b 17bc a47c b43c 7818 843f 2724 af3f
00000190: 0017 ac3e 6052 24bf b7d4 8bbe 2b9b b3be
000001a0: d945 d13c 1469 1cbe 7971 62bd 119d 5bbe
000001b0: 0c0f d23b d413 7ebb 3204 513b 5517 9dbd
000001c0: 4552 e5be e840 54c0 efd2 7f3e 121b 03bf
000001d0: e38e a0be 372f 66bd dd4b 093e 8937 5f3d
000001e0: ac87 62bc 017d cb3e 4567 55be 23fc 8bbd
000001f0: 8c06 24be 0d3a 5cbe 347e f53e 6031 17bf
00000200: 1992 71bf 5be5 64bf 8319 a2be 3ee3 c83c
00000210: 82a9 8c3e 17e2 cf3e 13a0 483d 5ad8 af3e
00000220: 045d d33d 031f 2d3e 4619 a3bd ff49 82bd
00000230: 0950 963d f963 b73e c213 bfbe f4f6 19bf
00000240: 6c4f 77be 5ee6 eb3d 91ee e53d aec5 c23d
00000250: 01b8 6bbe 9f02 263e 23fa 763b cdec aebe
00000260: 2c82 a13d dbb5 b5bd b8a0 6ebe 7dd2 9cbe
00000270: 4ad1 d9be 0063 03bf de42 16bf e6c9 f8be
00000280: c0da f5be 09d0 08bf 329c d5be 3f5a 91bd
00000290: 3e35 593c 4260 cc3d 0f4e 333e 45a0 8ebc
000002a0: e4ee 27bf 0f8e 16be b708 acbd db90 35bf
000002b0: e1b6 a83e 0ae8 4e3d 57db bb3e a789 b4bd
000002c0: 51fc 00bd a20f 89bd f003 fabd cedc 40bf
000002d0: a007 0ebd e1bd 913d 75d8 fc3e b973 25bc
000002e0: 45c9 8ebe 7c37 10bf 216a 29bf 147a a3be
000002f0: efb2 5bbe 5ced 02bf 2511 31be ddeb 3f3d
00000300: 3f3e 243e e74d 063d 8144 463d 3215 98bd
00000310: c451 18bf cff5 03c0 cd06 413f 7689 153e
00000320: 7964 b0bf e628 9d3c 98df 8dbd 2e08 0bbc
00000330: edee be3e 76de fe3e 8705 ae3b 1a61 21bf
00000340: 5073 e23d c968 e2be dcd3 9b3c d248 e63d
00000350: 7728 8c3d 6a43 50be 2b83 00be 0797 8bbd
00000360: d860 a43d 2c62 55be 01b0 9f3d 16ef b6bd
00000370: a6b5 fd3c 26b4 473e e1bc 213c f821 493d
00000380: 112e 08bf 5cc8 5e3f 841c cebe 735c f7bf
00000390: 94ab d23d e20b dbbb e5b4 17be b58b 85bc
000003a0: 2974 a03d a128 c2be 9bbb d3bd e4fc 0fbf
000003b0: 9c9f f4bd 94e3 df3e ee9c 55bf cd8c d6bd
000003c0: 9576 f9bc 9b10 d0be 8365 01bf 25d1 cb3e
000003d0: 2320 b53e 05a2 a53e f491 f0bc 2292 babc
000003e0: 1475 c0bc a20f 8ebd a483 4dbe a8ad e5bd
000003f0: a167 c0be f877 ffbe 5691 f6be 2d4f e7be

l1.bias f4 [400]
-0.084868506 0.12255027 -0.013272308 -0.5809749 0.24635762 0.13378522 0.36664867 -0.07682022
-0.26561853 -0.08808901 -0.2844185 0.42910144 -0.14324768 -0.21572272 0.23934704 -0.06472905
0.51476395 -0.45774868 -0.3885637 -0.2943896 0.10914242 -0.07372773 0.75880814 -0.87833256
-0.22710437 -0.20401488 -0.090245456 -0.6425477 -0.32816315 -0.5297253 -0.6712289 -0.5522609
-0.12177568 0.2613018 -0.2373237 -0.13434076 -0.43751153 -0.10891861 0.5532816 -0.083103724
0.33792058 0.30161828 -0.5449274 0.26644942 0.15929733 -0.40611205 -0.34364662 -0.6972036
0.6392287 -0.21419154 -0.29222357 -0.5590115 -0.8625149 -0.070910834 -0.49826515 -0.3605968
-0.10120643 0.94249207 0.35959074 -0.16742693 -0.0130606415 -0.8225851 0.5735319 -0.4077319
-0.61307985 -0.021089029 -0.21616559 0.14031667 -0.2057046 0.13447239 -0.8995132 0.5077534
-0.45294356 0.16689925 -0.7674768 -0.602146 -0.21771029 0.04300374 -0.39889103 -0.37390915
-0.4424509 0.6092832 -0.1891022 -0.037324045 0.3859675 0.27000058 -0.32136956 -0.42485192
0.38631377 -0.32634485 -0.39398873 -0.3401359 -0.941508 0.13749602 -0.089690045 -0.25364986
-0.060188483 0.07551728 -0.1558883 -0.5410295 -0.20854083 -0.06032957 -0.5448711 -0.51976305
-0.07577683 -0.35307536 0.19267182 -0.36221072 -0.47489992 -0.13472134 -0.36398607 -0.1291691
0.23500013 -0.04815533 -0.24967447 0.59318143 -0.25017163 0.011249481 0.5522258 -0.32051188
0.19702642 0.0172316 0.25486067 -0.4004273 -0.14691542 -0.6053674 0.2873278 -0.058553677
-0.75264335 0.04714878 -0.39068046 0.08734678 -0.15644975 -0.3584164 -0.18022826 -0.5828975
-0.9415805 -0.3101614 -0.20226075 0.46113878 -0.6247081 -0.0072425073 -0.34852576 -0.43368673
-0.35244042 -0.51023227 0.56704813 0.3871691 -0.36244157 -0.5398851 0.065468006 -0.10395315
-0.37950534 0.07787676 -0.056872614 -0.08532328 -0.691947 -0.7090507 0.44224665 0.087033615
0.48916355 -0.6160139 -0.28631374 0.1857969 0.33375195 -0.18216637 0.46484566 -0.4951016
0.045919828 0.32201222 0.2270609 0.23022622 -0.44438288 -0.16273144 -0.42463097 -0.35502404
-0.5805264 -0.28967166 -0.1837403 -0.49296623 -0.14194435 0.020960297 -0.22621581 -0.51685584
0.48982558 -0.97325224 0.16205494 0.19002208 0.04868149 -0.3004905 -0.80546474 0.016389776
-0.0011547166 -0.3731712 -0.79143566 -0.13402681 0.21736701 0.021487309 0.6395998 0.30174273
-0.299733 -0.32624534 0.08679586 -0.16282092 -0.3730316 -0.00090609613 0.048070416 0.22455928
0.13983934 -0.18725038 -0.1550153 -0.68551135 0.10219035 -0.21797915 0.10880492 0.63101476
-0.1352723 -0.06473006 -0.3687331 -0.2407784 -0.41186365 0.009373781 -0.2497917 -0.34558985
-0.090298496 -0.52332646 -0.6515223 0.3003851 0.03726967 -0.60230315 -0.35174745 -0.04919689
-0.4634749 -0.16561897 -0.6938803 -0.21645905 -0.26623702 0.08293687 -0.2040348 0.03291318
-0.166943 -0.6651603 0.37411678 -0.22770129 -0.37988567 -0.016793666 -0.06634192 0.48421165
-0.037926506 -0.14728218 -0.513965 0.39211592 -0.1880321 -0.29819423 -0.11666339 0.22545195
00000000: 8acf adbd a3fb fa3d 1874 59bc c5ba 14bf
00000010: 2c45 7c3e fefe 083e 60b9 bb3e eb53 9dbd
00000020: 27ff 87be 0368 b4bd 4d9f 91be 2fb3 db3e
00000030: 85af 12be 6be6 5cbe 6417 753e aa90 84bd
00000040: 92c7 033f 095e eabe d2f1 c6be 3cba 96be
00000050: 1086 df3d 90fe 96bd 4041 423f 67da 60bf
00000060: 0c8e 68be 47e9 50be 9cd2 b8bd 027e 24bf
00000070: 0005 a8be 149c 07bf a8d5 2bbf f860 0dbf
00000080: 8765 f9bd 59c9 853e fc04 73be a090 09be
00000090: 8301 e0be b810 dfbd dda3 0d3f 4932 aabd
000000a0: ed03 ad3e b66d 9a3e 5d80 0bbf 0f6c 883e
000000b0: d71e 233e ebed cfbe 73f2 afbe ef7b 32bf
000000c0: 7ea4 233f 0755 5bbe 549e 95be 611b 0fbf
000000d0: c7cd 5cbf b339 91bd 9c1c ffbe 25a0 b8be
000000e0: 5145 cfbd 2947 713f 471c b83e f771 2bbe
000000f0: 4dfc 55bc f094 52bf fdd2 123f 3cc2 d0be
00000100: cdf2 1cbf e6c2 acbc 835a 5dbe 2caf 0f3e
00000110: 3aa4 52be 21b3 093e 7f46 66bf 20fc 013f
00000120: 38e8 e7be a3e7 2a3e 5c79 44bf 3e26 1abf
00000130: 72ef 5ebe b124 303d 723b ccbe 0571 bfbe
00000140: ed88 e2be fcf9 1b3f 02a4 41be 19e1 18bd
00000150: 889d c53e 843d 8a3e 8d8a a4be 3186 d9be
00000160: ebca c53e ac16 a7be e4b8 c9be 4b26 aebe
00000170: ab06 71bf c2cb 0c3e 6aaf b7bd 65de 81be
00000180: 3388 76bd cea8 9a3d 2fa1 1fbe e980 0abf
00000190: ba8b 55be 241c 77bd ac7c 0bbf 310f 05bf
000001a0: e230 9bbd 4bc6 b4be c34b 453e af73 b9be
000001b0: 1526 f3be 64f4 09be 625c babe e844 04be
000001c0: e0a3 703e 863e 45bd aaaa 7fbe bdda 173f
000001d0: 7f16 80be be4f 383c ac5e 0d3f 221a a4be
000001e0: 4bc1 493e 4929 8d3c 197d 823e cf04 cdbe
000001f0: ff70 16be 5cf9 1abf a11c 933e fbd5 6fbd
00000200: 3cad 40bf 141f 413d 4507 c8be dee2 b23d
00000210: 5d34 20be 5b82 b7be c28d 38be c538 15bf
00000220: 6b0b 71bf 7acd 9ebe 711d 4fbe 621a ec3e
00000230: dfec 1fbf 8e52 edbb f871 b2be 300c debe
00000240: 1273 b4be 959e 02bf 112a 113f 073b c63e
00000250: f191 b9be e935 0abf 1714 863d 64e5 d4bd
00000260: 864e c2be da7d 9f3d 42f3 68bd f9bd aebd
00000270: 7023 31bf 5984 35bf 276e e23e ae3e b23d
00000280: a573 fa3e 16b3 1dbf b797 92be 8b41 3e3e
00000290: 89e1 aa3e d289 3abe 4000 ee3e f57d fdbe
000002a0: 6e16 3c3d c9de a43e a782 683e 6cc0 6b3e
000002b0: 2786 e3be 12a3 26be 3b69 d9be b6c5 b5be
000002c0: 619d 14bf d84f 94be 6b26 3cbe 1266 fcbe
000002d0: dc59 11be eeb4 ab3c 1ea5 67be aa50 04bf
000002e0: 6bca fa3e 0f27 79bf bbf1 253e 2695 423e
000002f0: 3e66 473d e4d9 99be f032 4ebf da43 863c
00000300: dc59 97ba 4c10 bfbe 879b 4abf 533e 09be
00000310: 7595 5e3e 2706 b03c d0bc 233f 067e 9a3e
00000320: 9b76 99be a109 a7be 07c2 b13d 87ba 26be
00000330: fffd bebe 1587 6dba 7ce5 443d def2 653e
00000340: 0b32 0f3e 90be 3fbe 55bc 1ebe ac7d 2fbf
00000350: 2d49 d13d ed35 5fbe 1dd5 de3d 2f8a 213f
00000360: d284 0abe 3291 84bd 96ca bcbe 9d8e 76be
00000370: cbdf d2be 7d94 193c 65c9 7fbe 27f1 b0be
00000380: 6bee b8bd b9f8 05bf 2aca 26bf 13cc 993e
00000390: 15a8 183d 8a30 1abf 3e18 b4be ae82 49bd
000003a0: 954c edbe 0598 29be 24a2 31bf 71a7 5dbe
000003b0: 3850 88be ceda a93d 80ee 50be f8cf 063d
000003c0: 1bf3 2abe f247 2abf 3c8c bf3e 872a 69be
000003d0: 6080 c2be df92 89bc 46de 87bd 97ea f73e
000003e0: d358 1bbd 24d1 16be 3693 03bf 6bc3 c83e
000003f0: 7d8b 40be eaac 98be 37ed eebd e0dc 663e

l2.weight f4 [300, 400]
-0.4812509 0.05380014 0.15910904 0.15755701 0.4048428 -0.11028869 -0.17591666 0.26765734
-0.69853216 0.15440813 -0.030137777 0.13283928 -0.3343937 -0.8404369 0.50109273 -0.31692675
0.2277981 -0.101114444 -0.055234633 0.1340423 -1.1680788 0.46042448 0.09236384 0.29765838
-0.2527072 0.22924188 0.085784376 0.3515491 -0.34849587 -0.27669153 -0.03820899 -0.0017931794
0.1917353 -0.35669687 -0.10637506 0.057866774 0.4362118 -0.19459881 -0.98063034 0.41590554
0.24319246 0.05053079 0.58647937 -0.058076665 -0.67081815 -0.6066139 0.13551414 -0.13283451
0.23675753 -0.65109336 -1.9595085 -0.26157278 0.4083146 0.34118313 0.066293694 -0.16955413
0.41081628 0.2020691 -0.13104907 -0.36977035 0.28670803 0.9265798 0.14017782 0.37675142
0.18589067 0.12916267 -0.2689543 0.3109206 0.31707782 -0.5425691 -0.14478691 0.013059653
0.70835274 -0.36669835 0.14394602 -0.31533417 0.2636583 0.5152606 -0.44995514 -0.19932939
-0.14620371 -0.18133162 0.07718532 0.3208948 -1.4461734 0.071323596 0.49173278 0.34285802
0.18342578 0.37936726 0.10108475 0.270657 0.24829163 0.38000777 0.26925838 0.6585451
0.34790942 -0.4823747 -0.22587186 0.09040227 0.40075007 0.15269302 -0.08695646 0.49568716
-0.3193639 0.18293242 -0.6659844 -0.07800793 0.14506368 -0.17885783 0.5369851 0.05247699
0.11746764 -0.70071507 0.46793592 0.13954064 -0.14686117 -0.38546157 0.22684842 -0.19740838
-0.37741113 -0.56287175 -0.0728279 0.43556672 -0.1406294 -0.3387434 0.41380626 -0.02715522
-0.36667016 -0.24528724 -0.53264666 -0.15045567 -0.6675139 -0.30970624 -0.15319745 -0.27622172
0.34706697 -0.2624078 -0.3039357 0.017105171 -0.19955137 -0.30743423 -0.13603425 0.37418163
0.19083971 -0.287825 -0.23367386 0.0043944716 -0.42416286 0.3095179 -0.1930999 0.16918026
0.077601396 -0.39012465 -0.31945914 0.22675568 0.069758825 0.3529069 -0.4450231 -0.06879768
0.14740224 0.30300874 -1.5529424 -0.2437385 0.20614192 -1.1494602 0.09373876 -0.07601918
-0.354835 0.047866307 -0.18866357 -0.7723243 0.06469098 0.6056784 0.15898407 -0.59479386
0.1681797 -0.21064666 -0.22841269 0.105163686 -0.40105578 0.31824884 -0.08725443 -0.35907155
0.0022419188 0.20371868 -0.18827625 0.21461175 0.31758264 -0.2355389 -0.08002879 0.08434447
-0.17304581 0.0042355545 0.2949174 0.63279635 0.17867072 0.6155073 -0.6446832 0.30497283
-0.19387348 -0.073858 0.2835163 -0.36271593 0.39578 -0.014607765 -0.014194534 -0.06418588
-0.2023803 -0.18814076 0.072585344 0.284398 -0.7437951 0.32588995 0.22272381 0.04416423
0.4791457 -0.114405245 0.08553051 -0.16368347 -0.24487758 -0.037910376 -0.24920622 0.5466497
0.5088111 -0.32780066 -1.0935513 0.028140072 0.096932866 -0.3858949 0.28600278 -0.1712378
-0.14201258 -0.20390439 -0.17265756 -0.5398197 -0.22936298 -0.173075 -0.28488556 0.45916557
-0.38412163 0.16852862 0.3725419 -0.014998469 0.28254047 0.40408617 -1.812968 -0.15268983
-0.21920905 -0.45614162 -0.2599615 0.2892025 -0.4452186 0.18110867 -0.14544265 0.19363567
00000000: 8566 f6be 895d 5c3d 7bed 223e a056 213e
00000010: 8e47 cf3e 09df e1bd 7f23 34be 620a 893e
00000020: 01d3 32bf 2a1d 1e3e 80e3 f6bc 0507 083e
00000030: a735 abbe df26 57bf 9d47 003f 3944 a2be
00000040: e843 693e 1715 cfbd b63d 62bd 6242 093e
00000050: 9b83 95bf c2bc eb3e 4129 bd3d ae66 983e
00000060: d762 81be 62be 6a3e b8af af3d 3efe b33e
00000070: 0d6e b2be 83aa 8dbe 0881 1cbd 1e09 ebba
00000080: 4256 443e f9a0 b6be 2bdb d9bd b605 6d3d
00000090: 2757 df3e e944 47be 970a 7bbf 92f1 d43e
000000a0: 7207 793e 60f9 4e3d 8323 163f cce1 6dbd
000000b0: bdba 2bbf 0c4b 1bbf 38c4 0a3e c505 08be
000000c0: 9170 723e 0eae 26bf 2dd1 fabf deec 85be
000000d0: 9c0e d13e 8eaf ae3e fdc4 873d 999f 2dbe
000000e0: 8356 d23e 34eb 4e3e ba31 06be 8a52 bdbe
000000f0: 65cb 923e 5534 6d3f c68a 0f3e 90e5 c03e
00000100: 205a 3e3e 3843 043e 61b4 89be fc30 9f3e
00000110: 0658 a23e cfe5 0abf 0543 14be 28f8 553c
00000120: 9b56 353f e3bf bbbe 9666 133e 7b73 a1be
00000130: 38fe 863e 1ee8 033f 8560 e6be 011d 4cbe
00000140: 6db6 15be ffae 39be 5613 9e3d 534c a43e
00000150: 361c b9bf 1b12 923d 66c4 fb3e 168b af3e
00000160: f8d3 3b3e 6d3c c23e 8505 cf3d 8e93 8a3e
00000170: 2940 7e3e 6190 c23e 3cdc 893e 6996 283f
00000180: 2f21 b23e d1f9 f6be f44a 67be d324 b93d
00000190: 1d2f cd3e 8f5b 1c3e 3a16 b2bd b5ca fd3e
000001a0: aa83 a3be a352 3b3e f47d 2abf 9fc2 9fbd
000001b0: 938b 143e 8226 37be db77 093f 1df2 563d
000001c0: e092 f03d 1062 33bf 4c95 ef3e bee3 0e3e
000001d0: c662 16be 385b c5be f44a 683e 6c25 4abe
000001e0: 083c c1be 5d18 10bf cb26 95bd 9a02 df3e
000001f0: 2701 10be c66f adbe 6ade d33e a074 debc
00000200: 31bc bbbe 942c 7bbe 885b 08bf 0d11 1abe
00000210: 31e2 2abf d191 9ebe cbdf 1cbe ef6c 8dbe
00000220: c3b2 b13e 515a 86be 769d 9bbe 2520 8c3c
00000230: 3257 4cbe 0568 9dbe 904c 0bbe bc94 bf3e
00000240: 7c6b 433e cc5d 93be 3348 6fbe 80ff 8f3b
00000250: e02b d9be 2179 9e3e fbbb 45be 973d 2d3e
00000260: 7bed 9e3d 6bbe c7be 2690 a3be a432 683e
00000270: b7dd 8e3d 37b0 b43e 11da e3be cce5 8cbd
00000280: 9df0 163e f623 9b3e d1c6 c6bf 9696 79be
00000290: de16 533e 8321 93bf 1bfa bf3d f2af 9bbd
000002a0: efac b5be 760f 443d 0631 41be 0cb7 45bf
000002b0: b47c 843d bd0d 1b3f b8cc 223e 6944 18bf
000002c0: 4d37 2c3e c2b3 57be 04e5 69be 0f60 d73d
000002d0: 2f57 cdbe 83f1 a23e 73b2 b2bd 3ad8 b7be
000002e0: 28ed 123b a19b 503e 7dcb 40be 2fc3 5b3e
000002f0: 319a a23e 1c31 71be 22e6 a3bd cbbc ac3d
00000300: ec32 31be 68ca 8a3b 6aff 963e f1fe 213f
00000310: 75f5 363e e391 1d3f f509 25bf 6625 9c3e
00000320: c586 46be dd42 97bd 0c29 913e e7b5 b9be
00000330: ada3 ca3e 6855 6fbc 3190 68bc e373 83bd
00000340: c83c 4fbe f9a7 40be a0a7 943d 9d9c 913e
00000350: 5b69 3ebf 0cdb a63e b611 643e 8de5 343d
00000360: 9652 f53e 4c4d eabd 9f2a af3d a49c 27be
00000370: 30c1 7abe e947 1bbd ea2f 7fbe 3cf1 0b3f
00000380: 7241 023f 7dd5 a7be 7df9 8bbf 0286 e63c
00000390: bd84 c63d 0494 c5be f56e 923e f658 2fbe
000003a0: bf6b 11be 50cc 50be 25cd 30be a031 0abf
000003b0: 21de 6abe 933a 31be 85dc 91be c017 eb3e
000003c0: 97ab c4be c492 2c3e d0bd be3e 23bc 75bc
000003d0: 25a9 903e 62e4 ce3e 560f e8bf b95a 1cbe
000003e0: 5678 60be 658b e9be ac19 85be 5a12 943e
000003f0: b1f3 e3be 8d74 393e ebee 14be 6e48 463e

l2.bias f4 [300]
-0.13155529 0.91360193 0.19713262 0.36546296 -0.10442761 0.38111085 0.12588221 -0.2806454
0.26533163 0.82431406 0.009632994 -0.35201067 0.23080625 0.969895 0.18329282 0.5499585
0.22101274 0.9655039 0.05849442 -0.4544995 0.73015344 -0.24874952 0.12487533 0.32009965
-0.1098993 -0.26478451 0.11130029 -0.022702841 -0.06595307 0.042820368 -0.25330377 0.10760759
-0.20975275 -0.22565977 -0.11446862 0.87776154 0.32004526 -0.004513259 0.1920164 0.610258
-0.13809507 0.19037713 -0.01845552 -0.050642155 0.34289792 0.26661637 0.29241046 -0.33085725
0.21511549 0.28037947 -0.11941368 0.16390948 -0.014727981 0.021186404 -0.002849448 -0.3073189
0.13190524 -0.03907508 -0.34417105 0.72995937 0.3788043 0.21961072 -0.3225534 -0.4724493
-0.08742008 0.04986611 -0.003245063 0.03338229 0.727217 0.7377119 -0.40686324 -0.4754127
-0.0027030169 -0.033220254 0.013188684 -0.33580756 -0.19719544 -0.18906249 -0.28412446 0.2769001
0.4311344 -0.17178406 0.22230138 -0.15787268 0.25997677 -0.1972263 -0.5605364 0.14950792
-0.13659406 -0.0046899193 0.5095851 -0.33122084 0.38676876 -0.52205116 0.051505264 0.18847768
-0.28387636 -0.34810612 0.23463435 -0.46342874 -0.044472188 -0.05290508 0.021733541 0.06457935
0.22409374 0.098414905 0.038635902 0.77203596 0.64709884 -0.42622855 0.5324533 0.43468422
-0.0056971735 -0.10414661 -0.038480837 0.28379282 -0.09824117 -0.5377556 -0.393984 -0.08629061
-0.39087734 -0.03513556 -0.32730538 -0.39492077 4.0851287e-06 0.15570644 -0.23496875 0.30570316
-0.13025174 -0.048352692 0.10276607 0.28271964 -0.13766631 0.98704237 0.17219035 -0.05524637
0.5567364 -0.0044450993 -0.5163079 0.41561761 -0.20365465 -0.05657486 -0.23342073 -0.580218
0.13625881 -0.9613448 -0.20890163 0.6011289 0.13159178 -0.4182892 -0.2631333 -0.10253081
0.05060335 0.6624307 0.11518857 -0.02203199 0.10311691 0.34787044 -0.061696064 -0.36655566
-0.11711554 -0.13120419 -0.02367614 0.19860645 -0.06694282 0.073439576 -0.04383211 -0.2796859
-0.24755579 0.37679672 -0.112173684 -0.05014327 -0.06927271 -0.26890266 -0.08268638 -0.04667901
0.08507676 -0.28617397 -0.0038072946 -0.16826028 -0.058162134 -0.1465959 0.0009466151 0.47443095
0.24689595 -0.014914223 0.054057565 0.11004866 -0.09854484 -0.3775925 -0.19305488 0.156869
0.5262727 -0.13713893 0.31494355 0.055044472 0.57264525 -0.7545686 0.03157794 0.1569822
0.22886223 -0.043317813 -0.021792833 -0.1429877 -0.073241964 -0.3689494 1.0184566 -0.16076736
0.16401772 0.11916665 -0.37443337 0.26769516 -0.44993645 0.28421533 0.0825912 -0.08512683
0.16787577 0.0057813604 0.17785123 0.8316241 -0.17072713 0.06999105 0.43787926 0.30394027
-0.14562684 0.1500463 -0.053036228 -0.096310064 -0.23074907 -0.2315829 -0.13799916 -0.43326673
-0.025662314 -0.052497894 0.30252212 -0.046397224 -0.060310647 0.662288 -0.14041635 -0.17907555
-0.29083994 0.72083396 -0.21522987 0.27986977 -0.020691438 -0.8931599 -0.5121704 -0.05403841
-0.5331254 0.80233324 -0.04464383 0.061442584 0.008904753 -0.054053996 -0.2745716 -0.045125414
00000000: 6eb6 06be d1e1 693f 22dd 493e f61d bb3e
00000010: 25de d5bd f620 c33e 44e7 003e c1b0 8fbe
00000020: 8cd9 873e 3f06 533f b5d3 1d3c be3a b4be
00000030: 7958 6c3e 0a4b 783f 1db1 3b3e 15ca 0c3f
00000040: 2a51 623e 432b 773f d897 6f3d 29b4 e8be
00000050: 56eb 3a3f 32b8 7ebe a3be ff3d 1ae4 a33e
00000060: e212 e1bd d691 87be 68f1 e33d 4ffb b9bc
00000070: 6712 87bd 6964 2f3d 08b1 81be 5e61 dc3d
00000080: 6dc9 56be 5b13 67be 866e eabd fbb4 603f
00000090: f9dc a33e f6e3 93bb f29f 443e de39 1c3f
000000a0: cb68 0dbe 39f2 423e 0830 97bc 266e 4fbd
000000b0: 5190 af3e f181 883e d3b6 953e 1f66 a9be
000000c0: 3c47 5c3e e68d 8f3e 298f f4bd e3d7 273e
000000d0: a14d 71bc 1c8f ad3c cebd 3abb e758 9dbe
000000e0: 2b12 073e 310d 20bd 3037 b0be 9ede 3a3f
000000f0: a3f2 c13e a2e1 603e b825 a5be e0e4 f1be
00000100: 4d09 b3bd 6840 4c3d 1fab 54bb debb 083d
00000110: e52a 3a3f b0da 3c3f 6150 d0be 4b69 f3be
00000120: 1925 31bb f611 08bd 5a15 583c f8ee abbe
00000130: 9aed 49be 9999 41be c378 91be dac5 8d3e
00000140: a6bd dc3e 29e8 2fbe f9a2 633e 60a9 21be
00000150: ad1b 853e b1f5 49be 507f 0fbf 9b18 193e
00000160: 50df 0bbe e5ad 99bb 2b74 023f c795 a9be
00000170: 8e06 c63e 25a5 05bf 2ff7 523d 4b00 413e
00000180: 3e58 91be f73a b2be fd43 703e 8846 edbe
00000190: 7828 36bd ffb2 58bd 8a0a b23c 2e42 843d
000001a0: d478 653e c18d c93d ae40 1e3d 26a4 453f
000001b0: 45a8 253f a13a dabe dc4e 083f ee8e de3e
000001c0: 5baf babb d14a d5bd 159e 1dbd 4b4d 913e
000001d0: ab32 c9bd 5aaa 09bf 45b8 c9be 22b9 b0bd
000001e0: 1321 c8be 4eea 0fbd 9294 a7be 0e33 cabe
000001f0: fd12 8936 8271 1f3e a69b 70be 2085 9c3e
00000200: b660 05be 790d 46bd 0477 d23d a1c0 903e
00000210: 66f8 0cbe cfae 7c3f ab52 303e 054a 62bd
00000220: 4786 0e3f 32a8 91bb c12c 04bf d5cb d43e
00000230: d88a 50be 0abb 67bd d805 6fbe 2b89 14bf
00000240: 6e87 0b3e b11a 76bf 4fea 55be 95e3 193f
00000250: ffbf 063e 012a d6be 68b9 86be acfb d1bd
00000260: 7545 4f3d 0f95 293f fce7 eb3d 6f7c b4bc
00000270: f52e d33d 131c b23e 03b5 7cbd 2fad bbbe
00000280: 46da efbd 645a 06be 77f4 c1bc 7d5f 4b3e
00000290: 5119 89bd 7d67 963d 4c89 33bd fe32 8fbe
000002a0: 447f 7dbe 80eb c03e 51bb e5bd 0863 4dbd
000002b0: dade 8dbd 9cad 89be 7a57 a9bd 7d32 3fbd
000002c0: b93c ae3d 6585 92be ce83 79bb 6c4c 2cbe
000002d0: 6b3b 6ebd 3c1d 16be 4426 783a 9de8 f23e
000002e0: 4bd2 7c3e c95a 74bc 776b 5d3d 3161 e13d
000002f0: e1d1 c9bd ce53 c1be 2eb0 45be 44a2 203e
00000300: cfb9 063f 266e 0cbe 4840 a13e 5076 613d
00000310: e198 123f 682b 41bf df57 013d f1bf 203e
00000320: dc5a 6a3e 056e 31bd e286 b2bc 5e6b 12be
00000330: e2ff 95bd f0e6 bcbe c95c 823f 33a0 24be
00000340: 43f4 273e a50d f43d bbb5 bfbe 570f 893e
00000350: 125e e6be ac84 913e 9325 a93d fa56 aebd
00000360: a0e7 2b3e 9171 bd3b a21e 363e 51e5 543f
00000370: 18d3 2ebe 7857 8f3d b631 e03e 0f9e 9b3e
00000380: 341f 15be bda5 193e 843c 59bd 363e c5bd
00000390: 7c49 6cbe 1124 6dbe a74f 0dbe 23d5 ddbe
000003a0: c639 d2bc 0808 57bd 2ee4 9a3e 040b 3ebd
000003b0: 4c08 77bd b58b 293f 4ec9 0fbe 955f 37be
000003c0: f9e8 94be 9388 383f 3865 5cbe 174b 8f3e
000003d0: 1781 a9bc 21a6 64bf 991d 03bf 6157 5dbd
000003e0: e87a 08bf b665 4d3f 73dc 36bd 38ab 7b3d
000003f0: 3ee5 113c b967 5dbd a694 8cbe 6dd5 38bd

l3.weight f4 [1, 300]
0.25320786 -0.3351733 -1.1527731 -1.5507493 -0.7401495 -1.5145282 0.3912821 0.46364915
-0.5200661 -0.39243641 0.62576514 1.2746165 -0.19166008 -0.40393096 0.70882195 -1.6724547
-0.7608999 -0.5510947 -1.3648837 0.7831075 -0.5439667 0.26038578 0.87858856 -0.2703968
0.43964034 0.29483256 -0.331616 0.0009760337 -1.9252046 0.33584544 0.22107159 -0.28536832
0.4016472 0.64221346 1.0541075 -0.54332656 -0.30445272 0.29148597 -1.0363374 -2.7637327
0.73342335 0.57725906 0.48261374 -0.12152727 -2.5981486 -0.46548787 -0.34260666 -2.6125538
-1.3898797 -1.374387 1.3921614 0.6871665 0.059297066 0.25952688 0.4038831 0.49031472
-0.24909733 -0.02765046 0.49332845 -0.45955795 -1.1743913 -1.0913392 0.34816903 0.94875014
0.43096402 -0.7466084 0.30397007 -0.91768426 -0.49131015 -0.38103244 0.70428795 1.9691569
-0.3195534 -2.1718404 -2.606022 0.79230976 0.4952821 0.93208086 0.6661477 -0.40389675
-1.0531054 0.9386035 -0.2601747 0.59221554 -0.856634 -1.5132799 0.36382204 -1.4542943
-1.3461468 -0.41897932 -0.86471516 0.43744016 -1.1998773 0.33609957 0.48853567 -0.85101265
1.0726497 1.5931047 -0.64786816 0.2538431 1.3346975 -0.0024409064 1.3477817 -0.6108124
-0.26147035 -0.71445036 -0.906466 -3.2296455 -0.395449 1.2089256 -0.21444115 -0.7182697
0.012646089 -0.8355217 -0.45385095 -2.3906698 -0.6441872 0.4155376 0.6871126 -2.3793516
0.9603566 0.39571607 0.5037966 0.6560632 -0.070248716 -1.4313463 0.636669 -0.23726422
0.4316424 -1.68984 -0.23535368 -0.23685996 0.43976855 -0.9712695 -0.41138038 0.45365915
-2.4071674 0.00080506946 1.1486865 -0.5685253 0.2865884 0.56988287 0.5338162 0.3531537
0.31032604 0.53155667 -0.74699146 -1.2424043 0.20284177 1.0949471 -0.42035106 0.47616535
1.0074265 -1.2258862 0.4562067 0.00015191193 -1.9726932 -0.20717993 0.43818185 0.69919455
0.14884524 0.51564455 -2.4035382 -0.17958485 0.78633577 -0.7673844 -0.0003755535 -0.5467362
0.89359784 -1.5795277 -1.1705875 -0.0018218461 0.54682815 -0.71688914 -0.0028625282 0.00092143915
-0.7221241 0.8643179 0.42581627 0.734602 0.0013571692 0.6150441 -0.9600213 -1.1080095
-1.0355159 0.002839717 -0.6300166 -0.25934637 0.19666709 1.6701896 0.6456991 -1.0098644
-0.74430484 0.4019443 -0.29399598 1.6920604 -2.8752303 0.46199727 -0.68167305 -0.18697876
-0.33348963 0.03344254 0.03405565 0.22375576 -0.44444877 0.63274044 -1.3153635 1.7020922
-0.54691344 -0.70394444 0.44908467 -1.0987612 0.5990751 -0.89246583 0.7071484 1.0256065
-0.96271783 0.75366896 -0.40017918 -0.2687314 0.9177097 -1.1455787 -1.702112 -1.1912847
0.7244703 1.0781728 0.034284126 0.042713556 0.49522135 0.41810215 1.1270604 0.64400786
-0.014320986 -0.959205 -0.4299212 0.013936995 -0.022543803 -1.0343188 0.32256097 0.16134526
0.59190005 -0.6549976 0.80810183 -0.3080003 0.02493897 0.39718473 1.0839128 0.0006761981
0.7245399 -2.232002 0.75134635 -0.8549965 0.023155514 0.4057439 1.9380815 0.0040012277
00000000: 76a4 813e d69b abbe 128e 93bf f47e c6bf
00000010: 707a 3dbf 0fdc c1bf 2156 c83e 6c63 ed3e
00000020: 0d23 05bf 6ded c8be 2532 203f a226 a33f
00000030: 8a42 44be 0ad0 cebe 5b75 353f ff12 d6bf
00000040: 56ca 42bf 8b14 0dbf 82b4 aebf bc79 483f
00000050: 6741 0bbf 4951 853e 2eeb 603f 7371 8abe
00000060: 8a18 e13e 4bf4 963e 93c9 a9be 83dc 7f3a
00000070: 1b6d f6bf eff3 ab3e 9760 623e cc1b 92be
00000080: b4a4 cd3e 1a68 243f ffec 863f 7317 0bbf
00000090: 3ae1 9bbe a63d 953e b4a6 84bf ffe0 30c0
000000a0: a2c1 3b3f 40c7 133f 2619 f73e 4ae3 f8bd
000000b0: 1148 26c0 6d54 eebe 246a afbe 1534 27c0
000000c0: 94e7 b1bf eaeb afbf 5832 b23f 25ea 2f3f
000000d0: 7be1 723d b5e0 843e c4c9 ce3e 880a fb3e
000000e0: 5f13 7fbe 3883 e2bc 8c95 fc3e 2e4b ebbe
000000f0: 7452 96bf 01b1 8bbf 3643 b23e 4ae1 723f
00000100: 51a7 dc3e ba21 3fbf f7a1 9b3e 5bed 6abf
00000110: 018d fbbe af16 c3be 374c 343f 550d fc3f
00000120: 819c a3be 6fff 0ac0 10c9 26c0 d0d4 4a3f
00000130: 9e95 fd3e da9c 6e3f a888 2a3f 8ecb cebe
00000140: 28cc 86bf 5248 703f 9e35 85be 709b 173f
00000150: 5e4c 5bbf 28b3 c1bf e246 ba3e 5126 babf
00000160: 8a4e acbf 7584 d6be f95d 5dbf 28f8 df3e
00000170: 9495 99bf 3e15 ac3e 5921 fa3e f7db 59bf
00000180: 964c 893f dbea cb3f b0da 25bf b9f7 813e
00000190: 5ed7 aa3f 9df7 1fbb 1c84 ac3f 345e 1cbf
000001a0: 71df 85be 38e6 36bf 280e 68bf 83b2 4ec0
000001b0: 4b78 cabe 13be 9a3f 7696 5bbe 86e0 37bf
000001c0: 8b31 4f3c c0e4 55bf 275f e8be bc00 19c0
000001d0: 74e9 24bf 58c1 d43e 9de6 2f3f 4c47 18c0
000001e0: eed9 753f 4c9b ca3e d0f8 003f c2f3 273f
000001f0: 8fde 8fbd 5b36 b7bf bdfc 223f 64f5 72be
00000200: 3c00 dd3e ad4c d8bf 8e00 71be 6b8b 72be
00000210: 5829 e13e 1ea5 78bf 73a0 d2be 0346 e83e
00000220: 080f 1ac0 4c0b 533a 2908 933f e08a 11bf
00000230: b7bb 923e d8e3 113f 2ea8 083f 90d0 b43e
00000240: 0ee3 9e3e 1914 083f d53a 3fbf 1b07 9fbf
00000250: c1b5 4f3e 3a27 8c3f 4138 d7be f2cb f33e
00000260: 5af3 803f d7e9 9cbf ed93 e93e 8c4a 1f39
00000270: 3681 fcbf fa26 54be 5f59 e03e 6afe 323f
00000280: e36a 183e 4801 043f 92d3 19c0 17e5 37be
00000290: 4d4d 493f 4e73 44bf f0e5 c4b9 e7f6 0bbf
000002a0: d4c2 643f f72d cabf d0d5 95bf 03cb eeba
000002b0: eefc 0b3f 0c86 37bf 4199 3bbb bc8c 713a
000002c0: 20dd 38bf f043 5d3f 9704 da3e e00e 3c3f
000002d0: 0be3 b13a 8873 1d3f f5c3 75bf 41d3 8dbf
000002e0: c98b 84bf 8c1a 3a3b c548 21bf 0cc9 84be
000002f0: 1963 493e c6c8 d53f 894c 253f 3d43 81bf
00000300: c38a 3ebf a5cb cd3e a486 96be 6f95 d83f
00000310: c603 38c0 e88a ec3e 2082 2ebf 5c77 3fbe
00000320: 27bf aabe 0bfb 083d f07d 0b3d 3b20 653e
00000330: ca8e e3be 47fb 213f d55d a8bf 28de d93f
00000340: 8502 0cbf b435 34bf 6dee e53e 35a4 8cbf
00000350: fc5c 193f a478 64bf ad07 353f 1347 833f
00000360: ad74 76bf 73f0 403f 49e4 ccbe 2997 89be
00000370: 06ef 6a3f 53a2 92bf cede d9bf 047c 98bf
00000380: e376 393f 9101 8a3f 836d 0c3d 69f4 2e3d
00000390: a78d fd3e 7c11 d63e 8443 903f b3dd 243f
000003a0: 92a2 6abc 758e 75bf a21e dcbe fe57 643c
000003b0: c8ad b8bc 8f64 84bf b626 a53e b137 253e
000003c0: c386 173f ecad 27bf c3df 4e3f 37b2 9dbe
000003d0: d04c cc3c cc5b cb3e a8bd 8a3f e342 313a
000003e0: 727b 393f 1fd9 0ec0 3c58 403f 0de1 5abf
000003f0: a2b0 bd3c aabd cf3e 0e13 f83f bb1c 833b
