preTrained/v1TD3_BipedalWalkerHardcore-v3_0_critic_1_target.pth (torch_old, 175167 bytes, 7 tensors)

l1.weight f4 [64, 28]
00000000: 1b92 2a3f 3829 9d40 9608 843e d039 733f
00000010: 0c44 0d3f 236f 5b3e da70 d73d a79e 8c3d
00000020: 4dc8 d13c 28ac b03d 0037 263e 19fa 9c3e
00000030: 1668 8a3d 2ef6 89bc 4b2c 213f 660d 243f
00000040: 157f b63f b7c2 7d3f c91d 0d3f 4f7f c8be
00000050: c4ba ddbe 1c44 ccbd 1b92 63be 15aa a2be
00000060: 1d9a 1e3d 761f 863c ed02 7fbd 1349 1e3d
00000070: d5a1 d53e aa9f 413f 76f8 c03c e73b bd3f
00000080: c2e2 173d 3c44 c8be 9fa4 a0bd a34b 583e
00000090: 6ad4 da3e 4093 f73d 3241 063e 66cf 1f3e
000000a0: 652a 933d b89f 843d 7bc6 f8be da70 573c
000000b0: 864b dbbd 59e0 08be 3a8b 36bd 45e7 233e
000000c0: bcf5 b13d 0e4f 563d 07cc 5abc 399d 45be
000000d0: c605 16bf aedb e93e f864 acbd 2235 493d
000000e0: d55a 393f daa8 5140 0516 03c0 8d07 e33f
000000f0: 1f9a 8a3d 2819 35be 41b5 983e fd79 293e
00000100: f9aa 163d a8fa a23e 466d af3e 1916 5c3e
00000110: 4985 903e ae2e 93bd 3666 853e 07e1 893e
00000120: 490f 1a3e 41a0 873e d612 8e3c 7df2 1bbe
00000130: e9ea d23d 75cf 5b3e 828d 1f3e 9a10 f5be
00000140: 7baf 59be 2ad5 d3bc 32f8 333e c63e 7c3d
00000150: d9ef 92be 1fa0 29c0 04f9 373f 62ad c33f
00000160: 626c 8d3c efcf 23bd 6764 48be 1319 abbd
00000170: 66d2 9bbc 3235 41bc 4c3f 15be 1636 95be
00000180: 4e14 bcbd 92f5 5dbd ae9f be3f fc02 c13f
00000190: c986 b73f 0a35 443f de7a a33e 9696 79be
000001a0: 8081 97bf edb9 c4be 57fa d3be ea7b 4dbd
000001b0: 37ab 32bd 0aa0 3a3c 8e22 cebb 7e71 7e3c
000001c0: cea8 9f3f ff86 863e 5a6b c43e 9a3d 96bf
000001d0: 4b29 a13f 11e7 aabd 85ce 023f 28e4 46bd
000001e0: 945b 843d b616 34be 4fa7 e23d c6cb f73c
000001f0: 2e1e dc3c 7517 433d 8fc9 223e d410 b03e
00000200: f983 01bf 74c8 85bf ca11 47bf e925 38bf
00000210: 5dbe 873e 6791 d33e b8a3 c53d b0c8 b63d
00000220: fd1d 08bd 5875 e53c 2d12 fcbc 48cd 86bc
00000230: 0cec 7e3f 2b2c b740 e938 89bf ab73 f33f
00000240: f487 263c 2885 8c3e d024 1f3e 967f 223e
00000250: 4252 f5bc 8776 0f3f fc7f 0a3d b96b 86bd
00000260: e8b3 1dbe 5628 b63c 4d3d b13e 081e 923e
00000270: 58a7 623e 5f53 cd3e 229a b53e eb21 31bd
00000280: c7e9 853e 2c47 843b 30bf d53d 4731 2d3d
00000290: 50b4 3cbd 9040 513e 39fa 1d3d 0936 6bbd
000002a0: 9b5e a73f 97ad 99be d339 04c0 60fd 8f3f
000002b0: 8018 b43c 528d 59bd e4b7 23be d170 cc3a
000002c0: dd42 74bd 5b13 863f 67f1 12be ba90 e83e
000002d0: 8a46 59bd 460e 543e b7b7 b4be 13a4 dcbe
000002e0: 9889 5bbf 93c0 6abd ec05 bd3e 3512 3bbd
000002f0: 9e59 43bf 4814 843e b81a 023f 1723 a73e
00000300: 30c2 6dbd 0aa5 2a3d fb2e 843d c768 953c
00000310: e4d3 e9bf 949f 05c0 8c8e 1240 ea55 7cbf
00000320: 13f7 93bf d3af a2bd 40f3 95be 0d10 82bc
00000330: 72fc b4bc 576c 9bbe 3e4e 3dbd 8e21 a1bd
00000340: 2cd8 48bc 584a a1bd b2bb 9f3e 86f0 033f
00000350: fa67 173f 95ed 8d3e b817 a0be aa4e 8bbe
00000360: 266d d0be afee c2be 4e6c 00be fc5e db3d
00000370: d7fd acbc c567 d0bc 6a78 563c f948 4e3c
00000380: bea5 06bd b06b a3bd 16cf 6c3e dd15 c13f
00000390: 8a54 8ebe 8835 8d3b 24db 6a3d 4bbb 393c
000003a0: 94d4 1a3e 7d33 293f d34d a3ba da81 b53e
000003b0: 15fc 14bd 2d8d 333b bf66 bd3d e268 2c3e
000003c0: 3fa2 853f cd1c 383f 044a df3d 026d 8abd
000003d0: e43f 083f 31ef 133f 2da7 2c3d c223 ecbe
000003e0: 88fc 1f3a 54d9 903b acd5 6c3c 68f9 e7bb
000003f0: bc99 bfbf fe8a a0c0 57a3 823f 9417 f43f
0.6662919 4.9112816 0.257878 0.9501009 0.55181956 0.21429114 0.105195716 0.06866198
0.025608206 0.08626586 0.16231918 0.3065956 0.06758134 -0.01684102 0.6295821 0.64082944
1.4257532 0.99125236 0.55123574 -0.3915963 -0.43306553 -0.09973928 -0.22223704 -0.31770387
0.038721193 0.016372424 -0.06225865 0.038643908 0.4172503 0.75634253 0.023555975 1.4783906
0.037081487 -0.3911456 -0.07843899 0.21122603 0.42740184 0.120886326 0.13110808 0.1560646
0.071858205 0.064757764 -0.4858893 0.0131494645 -0.10707764 -0.13366832 -0.04456637 0.16006191
0.08689448 0.052321486 -0.013354308 -0.19298257 -0.5860256 0.45675415 -0.08417696 0.049122937
0.72404224 3.275931 -2.048219 1.7736679 0.067676775 -0.17685378 0.29825786 0.16550441
0.036784146 0.3183186 0.34263057 0.21492805 0.28226689 -0.07186638 0.26054543 0.26929495
0.15044893 0.26489452 0.017342966 -0.1522922 0.10298712 0.21465857 0.15581325 -0.47864228
-0.21258347 -0.02585848 0.17575148 0.061583303 -0.28698614 -2.650398 0.7186434 1.5287287
0.017263595 -0.039993223 -0.1956955 -0.08354392 -0.019021224 -0.011792468 -0.14574927 -0.29142827
-0.0918356 -0.054189272 1.489248 1.5079036 1.4338008 0.7664343 0.31929678 -0.2437385
-1.1836395 -0.384231 -0.41401932 -0.050167 -0.043620314 0.011390695 -0.0062907403 0.015529988
1.247339 0.2627487 0.38363153 -1.1737549 1.2590727 -0.08344854 0.51096374 -0.04855743
0.0646278 -0.17586789 0.11067068 0.030248534 0.02686986 0.047629792 0.15897201 0.3438784
-0.50592 -1.0451798 -0.7776152 -0.71932846 0.26512423 0.4132187 0.096503675 0.08924997
-0.033231724 0.028010055 -0.030770386 -0.016455308 0.9957893 5.7241416 -1.0720493 1.9019674
0.01016425 0.2744534 0.15541387 0.15868983 -0.02994645 0.56040233 0.03381346 -0.06563515
-0.1540066 0.02223603 0.3461708 0.28538537 0.22134149 0.4010267 0.35469157 -0.043245237
0.2615492 0.0040368047 0.10436857 0.042283323 -0.046070397 0.20434785 0.03856871 -0.05742458
1.3075746 -0.3001525 -2.0660293 1.1249199 0.021984339 -0.05311329 -0.15988117 0.0015597587
-0.05963408 1.0474657 -0.143499 0.45422918 -0.053045787 0.2070857 -0.35296413 -0.4309393
-0.85756826 -0.05731256 0.3691858 -0.04567166 -0.7630862 0.25796723 0.5082202 0.3264396
-0.05804652 0.0416613 0.06454273 0.018238438 -1.8267789 -2.0878649 2.2899504 -0.98568594
-1.1559776 -0.07943692 -0.29287148 -0.015876794 -0.022093032 -0.30356094 -0.046217196 -0.07867728
-0.012258571 -0.07875508 0.31197888 0.51538885 0.5914303 0.27720323 -0.31268096 -0.27208453
-0.40708274 -0.38072726 -0.12541315 0.10711476 -0.021117134 -0.025440106 0.013090232 0.01259064
-0.032872908 -0.07979524 0.23125872 1.5084797 -0.27798873 0.00430936 0.057337895 0.011336158
0.15120155 0.6609419 -0.0012459107 0.3545063 -0.036373217 0.002739738 0.09248113 0.16836885
1.0440139 0.71918947 0.10902789 -0.06759073 0.5322249 0.5778685 0.04215162 -0.4612103
0.0006102999 0.004420439 0.01445524 -0.007079292 -1.4968791 -5.016967 1.0206097 1.9069695

l1.bias f4 [64]
00000000: b23e 59bf df0e 2abf e472 a1bf 33e6 c93c
00000010: 5d1c 53be ad32 51bf 7dca 453d 8d3f 233f
00000020: da87 18bf e214 8d3e 8ade 4e3e 1831 cd3e
00000030: 206f 473e 710e 1bbf f598 0b3f 1c33 063e
00000040: 2ddd 05bf 99dc d1be 46a2 a33e 749e 493d
00000050: a811 ee3e 491f d4be 66bc 393f d359 ebbd
00000060: 3c13 943f 8196 f4bd 7462 353e 02ed 9fbe
00000070: fe46 d13e d1b0 42bf e196 d2be 3b86 503f
00000080: a427 8a3e aa71 af3d f665 373e a8c0 d4be
00000090: 28fb 363f d186 96bd 095b 5cbc ac28 a5be
000000a0: 8fd0 0d3f 4105 ffbc 66ba 6abe 4d79 d9be
000000b0: d966 703c a484 483f b33e 72bf dadb 5abf
000000c0: a09d 45bf 0201 c2be d043 963d e63a 04bf
000000d0: 6220 0dbf 79e6 70be b5a2 92bf 6787 dbbe
000000e0: fd0a d0be 9a59 95be 833d 1cbe 28aa 9ebc
000000f0: ef04 93be 795e 4cbf 58d3 c03c e148 8fbe
-0.8486129 -0.6642894 -1.2613187 0.0246459 -0.20616288 -0.8171795 0.04828881 0.63768846
-0.59582293 0.27554995 0.2020208 0.40076518 0.19475985 -0.6056891 0.5453027 0.13105434
-0.5229061 -0.40988615 0.31959742 0.04922338 0.46497846 -0.4143012 0.725531 -0.11491742
1.156837 -0.11942769 0.17713338 -0.3123551 0.40874475 -0.7605105 -0.41130736 0.8145482
0.26983368 0.085666016 0.17909989 -0.41553235 0.71476984 -0.07349933 -0.013449439 -0.32257593
0.5539636 -0.031130435 -0.22922668 -0.42475358 0.014672958 0.78327394 -0.9462692 -0.85491717
-0.7719364 -0.37891394 0.07337153 -0.5165237 -0.5512754 -0.23525418 -1.1455904 -0.4287674
-0.40633383 -0.29169923 -0.1525784 -0.019368246 -0.28714702 -0.79831654 0.023538277 -0.2798529

l2.weight f4 [128, 64]
00000000: 6b77 65bf 4e68 99bd a0a1 b0be 25f9 94bd
00000010: 78e9 b3bf 6b18 e0be eccf 823c 1468 fc3e
00000020: 912c d6be 25a3 9abe 28fc b9be 459a 1cbe
00000030: 79de d2bd d5d5 0a3f c1e1 dcbd 1f02 a3bd
00000040: 45a1 86be 4e3a 90bd 30e2 32be 1495 01bf
00000050: 6d54 083e b307 febe dd61 12bf f2a7 dcbe
00000060: d512 1e3d 2c43 8e3e 9784 3cbf 9fa1 303f
00000070: 9d58 1fbf d789 b8bd bc2e 01be 580c cfbe
00000080: 9847 42bf 4a25 55be 7563 8f3e 06ed 22be
00000090: 59fd 5dbe 1f91 39bf 9ee9 24bf 5a61 debe
000000a0: f0f9 463d b4cd 0fbf 96cd 9b3d da18 68bf
000000b0: dae9 5abc 4239 5d3d 1907 53bf 3084 b13e
000000c0: 2fa2 2cbf a600 1abf 50ab 44be c36d 67bf
000000d0: 12a8 50be 8fb7 aa3e b4eb 8a3e a682 953e
000000e0: e304 e03e 2cf7 09be bf68 3abf 6a76 61bd
000000f0: ba1e 5a3f b3fc eabe 5daf 1cbf dc67 78bc
00000100: da82 263f a872 e03e e1e9 2f3e 31f7 9bbe
00000110: beae e23d a840 293f 0b2a e4bd 9554 09bf
00000120: 9fb9 203e f567 89be 5f5f 84be 3a8f d1be
00000130: 017b 51be a1f3 af3e 32e3 7a3e 0d62 99be
00000140: 7575 8cbe 536d d53e 8aa0 67bf 3008 9cbc
00000150: ac5d b73d 6ab4 9c3e 9596 4bbf 0e1c 213e
00000160: 6239 92be 5659 f6be 19e8 e13d 9ba8 b13d
00000170: d7f3 6e3a 4b54 e4be 9e68 87bd e9c3 c13d
00000180: f4ca ad3d 64ff 7f3f d9b2 063e 1e68 dc3e
00000190: 6c13 1cbe 4c38 2cbd 4fc2 32bc ccab 0f3e
000001a0: 198b ae3d ab7b b2bd 57e3 6b3e a987 933e
000001b0: 3d69 bfbe 7816 9fbe 8a4c b93e 32e6 e73d
000001c0: 6c50 e23e 46be 0b3e 930f 2abe 7e0f 6f3f
000001d0: 6fe6 31bd 21ec 5abf 3b99 dfbe b69e 9abd
000001e0: 2acb ccbd feb9 31be e225 80be 37ef 663e
000001f0: 6aef 10bf d72a c8bd 8f7f 43bc ab7b d23d
00000200: 7d5c cabf a333 903e ca5d f7be 4f27 0f3f
00000210: 01ca 26bf ab57 c2bf 2f40 e6be f7e4 943f
00000220: b230 b33e 7772 393e 6ffe 83be 784c 953e
00000230: 1d8e 14bd bc2c f8be 5b1d 213f 86b4 a1be
00000240: ee52 9b3e 7e15 2fbf 09ad ce3e 8629 c73d
00000250: 23fa 7f3d a263 08bf 5e00 6e3e 8c6e e93d
00000260: 89ef 2abf 91c9 d93e a2a7 16bf 4c62 81bf
00000270: 8545 ccbe 419a 063f 7db6 99bf ec68 25be
00000280: 9df7 0ebe 97f4 f5bd 262d 8a3e f564 e8bd
00000290: dc8d 9b3d a332 68bf d850 09bc 1e0a 1bbe
000002a0: a266 e33e ed8f 3fbe c726 9cbe f051 6c3d
000002b0: f860 6c3e cc49 283e f861 1ebf 93b8 58bf
000002c0: 563d 6dbf ce94 413f fb66 1d3d aa18 80bf
000002d0: 0d17 31bf 21df dc3e ab05 4b3f dd99 e73e
000002e0: b00b 02be cffb c73e 5658 ce3e 0c5f 1c3f
000002f0: f7d7 883e ae98 0a3f 9dfe 213f abd2 54bf
00000300: b664 ad3e f194 c2be 7e0c a7bd b0f1 bebd
00000310: bb08 7fbf 26e7 17bf 4dfc 113e be46 963d
00000320: 4660 2e3e d426 0abf b73c 3c3e cec7 a0be
00000330: 07fa 24bf b440 813d 3218 dcbe d2ba d0be
00000340: 62b9 ddbe 4c40 76be bb9a efbd e6fd 273f
00000350: 3c01 7abe 4ca8 06bf 8c96 8a3c 5839 bbbe
00000360: d711 33bf 5741 29be f5ef 82bf 3efa 28bf
00000370: 20bb b2be 09bb 543f 6595 95bd 8670 a43e
00000380: c291 613e 085a c7be 68d7 bcbd e7ec aebe
00000390: bc1f 77bd 31c3 4cbf 8a27 debf b767 20bf
000003a0: 543f 083d 6513 1a3e 4870 3cbe dff6 27be
000003b0: 1b55 78bf aa44 62bf 3d3c 05bf a3aa 6dbe
000003c0: c0f9 bfbe 5d8a 05be 1b25 e7bb 3ba0 ecbc
000003d0: cf38 3cbe e1ac c4bf cca3 0d3e 935c e7be
000003e0: 4c27 0f3e 2eef 9bbe b210 57bf 4a6b dabf
000003f0: 44b6 8fbe 1fe5 2bbe b4be 85bf 7739 afbd
-0.8963534 -0.07490598 -0.3449831 -0.07274083 -1.4055624 -0.4376863 0.015968286 0.49298155
-0.41830876 -0.30202594 -0.36325192 -0.15293224 -0.102963395 0.5423253 -0.10785247 -0.07959389
-0.26294914 -0.07042371 -0.17469096 -0.506181 0.13313456 -0.4961525 -0.5718058 -0.43096882
0.03859218 0.27785623 -0.73639816 0.68996614 -0.6224459 -0.09010666 -0.12615484 -0.40439105
-0.75890493 -0.20815006 0.28005567 -0.1591073 -0.21678676 -0.7248706 -0.6441897 -0.43433648
0.048578203 -0.56173253 0.07607572 -0.9066292 -0.013361419 0.054009683 -0.82432705 0.34671164
-0.6743497 -0.6015724 -0.19205976 -0.9040186 -0.20376614 0.3334317 0.27132952 0.2920124
0.43753728 -0.13473195 -0.7281608 -0.05504457 0.85203135 -0.4589592 -0.61205083 -0.015161481
0.65043414 0.43837476 0.17179061 -0.3046203 0.11068486 0.6611428 -0.111408316 -0.53644687
0.15695809 -0.26837125 -0.25854012 -0.40929586 -0.20457079 0.34365562 0.2450073 -0.2995762
-0.27433363 0.4168497 -0.9047934 -0.019046873 0.08953413 0.30606395 -0.79526645 0.15733358
-0.28559405 -0.48115033 0.11030597 0.08674737 0.00091153145 -0.4459556 -0.06611751 0.09461195
0.08485976 0.9999907 0.13154162 0.43048185 -0.15241784 -0.042045876 -0.010910585 0.14030379
0.085226245 -0.08714994 0.23035942 0.28814438 -0.37384978 -0.3107183 0.36191207 0.11323203
0.44201982 0.13646802 -0.16607504 0.93383014 -0.04343265 -0.85516554 -0.43671593 -0.07549803
-0.09999688 -0.17356107 -0.25028902 0.2255219 -0.56615317 -0.09773796 -0.011932268 0.10277494
-1.5809475 0.28164396 -0.48313743 0.55919355 -0.65151983 -1.5183004 -0.44970843 1.1632375
0.3499809 0.18110071 -0.25780055 0.29159904 -0.036268342 -0.4847163 0.6293542 -0.3158304
0.30336708 -0.6839217 0.4036639 0.09724717 0.06249441 -0.5327703 0.23242328 0.11398038
-0.6677175 0.42536595 -0.5884954 -1.0108123 -0.3989679 0.5257912 -1.2008816 -0.16153306
-0.13961644 -0.120095424 0.2698757 -0.11347381 0.07595417 -0.90702266 -0.008381091 -0.15140578
0.4441424 -0.18707247 -0.30498335 0.05769533 0.23083866 0.16434401 -0.6186824 -0.8465664
-0.92671716 0.7561768 0.038428288 -1.0007527 -0.691758 0.43138984 0.79305524 0.45234576
-0.12699771 0.39059302 0.4030177 0.6108253 0.26727268 0.5413922 0.63279134 -0.83133954
0.338659 -0.38004258 -0.081566796 -0.09323442 -0.99622697 -0.5933708 0.14256401 0.07337712
0.17028913 -0.53965497 0.18382536 -0.3140244 -0.6444401 0.06311169 -0.4298721 -0.40767533
-0.43305498 -0.24047965 -0.11699434 0.65621793 -0.24414533 -0.5260055 0.01691749 -0.36567187
-0.69949096 -0.16528831 -1.0229479 -0.6600684 -0.3490839 0.83097893 -0.07303885 0.321171
0.22028258 -0.38935876 -0.09220773 -0.34165117 -0.060333 -0.7998534 -1.7355816 -0.62658256
0.03326352 0.15046461 -0.18402207 -0.16402768 -0.9700486 -0.88386023 -0.5204504 -0.23209624
-0.37495232 -0.13041063 -0.007053984 -0.028884998 -0.18381046 -1.5365258 0.13832015 -0.45187816
0.13979834 -0.30455917 -0.8400985 -1.7063992 -0.28068745 -0.16786622 -1.0448823 -0.085558824

l2.bias f4 [128]
00000000: eea8 aebc b94f 9c3e 8cb6 0a3e bd4f 88bd
00000010: ceb1 13be 27bd 9abe 8305 403f 47db a6bd
00000020: 6423 643f 87fe a2be f5e0 1fbf 75ab 9c3d
00000030: f34b 033f d726 53be b621 2c3e a6d5 0cbe
00000040: f921 4ebe 8f00 a3be abd6 6bbd c234 e43e
00000050: d14c ae3d 2806 30be 66e8 b8be d7ea 2cbc
00000060: de69 99bd a5dc 86be 2ecb 213f 524c 8cbd
00000070: e1b2 3fbf f448 093f 2170 f2be 75f3 903e
00000080: 2a36 dabd 249e 863d 06e5 2d3f d346 743e
00000090: 7722 94be 6c2c c33e 66cf 9cbe dfa3 b93c
000000a0: 7e49 a13e 84a0 76be 005f c5be 5f73 3f3f
000000b0: 56ec 19bc e77a 28be 3d06 8ebc 966e af3e
000000c0: 2775 6c3f be8d 83bd 7a1e ad3e 5676 98bf
000000d0: 6bcf 67bc e9bb 4bbe 749b 75bd fd88 0cbe
000000e0: 9f00 5f3f 97c6 cfbd 99f9 f33e f1cd 45bd
000000f0: e39f 9c3e d7bf 633f 8aa0 1d3f f3b2 8b3d
00000100: 79b8 d03d ca5d b53d bb05 3e3f 28e8 b4be
00000110: 6188 043f 11ca 613e 16d3 33be b55a 05be
00000120: 2033 b8bd b5e9 02be cac5 663e f218 203f
00000130: e718 493e 01a2 573e 0c1c 293e 7d03 1c3f
00000140: 8f4f 333e 7449 5f3f 058b 85bd ea98 d53e
00000150: ba24 0bbf d12a 133d b203 55be 25a6 613e
00000160: fdbe 9c3d b8e0 4abd 3b69 f3bd c57a 82bf
00000170: bc7d 78bd 3486 26be 33ee 62be 406a 403e
00000180: b858 3a3e 6408 73be a909 d73e d050 f9bd
00000190: bc5a 023d f026 7abf 4dae 9e3d ccb2 ec3e
000001a0: 886d 4abd 992d 573e c683 973e 11ff 4ebe
000001b0: f1eb a93e 652f 8dbd e0ce ab3e c6c0 5c3c
000001c0: d513 073d a43c 77be 6e9e 9dbd 6a47 463f
000001d0: 6e61 23bc 036d 8ebd 8dad 18be c946 283f
000001e0: 396e 973f 7648 203e 752b 863f c37b 6dbe
000001f0: 9155 dcbb 5794 8e3e 9629 95bc be1e a53d
-0.021320786 0.30529574 0.13546199 -0.06655834 -0.14423296 -0.30222437 0.7500841 -0.081472926
0.891165 -0.31834814 -0.6245263 0.0764989 0.51287764 -0.20620285 0.16809735 -0.13753375
-0.20130147 -0.31836364 -0.05757777 0.445715 0.08510745 -0.17189848 -0.36114806 -0.010554037
-0.07490896 -0.26340213 0.6320065 -0.068504944 -0.7488232 0.5362694 -0.47351173 0.28310743
-0.10654862 0.06573132 0.6792759 0.23855142 -0.28932545 0.3811983 -0.30626982 0.022661148
0.31501383 -0.2408467 -0.38549042 0.7478542 -0.009394726 -0.16453134 -0.017336959 0.34264058
0.9236626 -0.064235196 0.33812314 -1.1911113 -0.014148573 -0.19895901 -0.059962705 -0.13724132
0.8711032 -0.101453 0.47651365 -0.048292104 0.30590734 0.889646 0.6157309 0.06821241
0.10191435 0.088557795 0.74227494 -0.3533337 0.517706 0.22049738 -0.17560992 -0.13022883
-0.08994126 -0.12784465 0.22536388 0.62538064 0.19638406 0.21057893 0.16514605 0.6094282
0.17510818 0.87221456 -0.065206565 0.41718227 -0.54352915 0.035929505 -0.20802191 0.22036035
0.076536156 -0.049530715 -0.118853055 -1.0193716 -0.060666785 -0.16262132 -0.22161178 0.18790531
0.18197906 -0.2373367 0.41999558 -0.12173617 0.031824812 -0.97715664 0.07748089 0.4623016
-0.049420863 0.21013488 0.29592723 -0.20214488 0.33187822 -0.068938054 0.3355627 0.013473695
0.032977898 -0.24144226 -0.07696234 0.7745272 -0.0099719595 -0.06954386 -0.14909954 0.6573301
1.1830512 0.15652642 1.0482012 -0.23191743 -0.0067240675 0.2784755 -0.018208306 0.08062504

l3.weight f4 [256, 128]
00000000: beb6 2d3e 9050 37be a911 45bf 3237 42bf
00000010: 6a83 e33d f9d9 d93c 31a0 56be fc9a 70bd
00000020: f573 1f3e 948a 89bf 4d73 93bf ad73 88bd
00000030: 5422 f8be 2ab8 d5be a5f7 8ebe c641 98bf
00000040: 48d3 38bf 726e 57bf a7ca 22be e4d4 003e
00000050: 9dd5 9f3e 366d 1dbf e199 dc3d f136 413f
00000060: cf29 323e e644 983e 7c44 8d3d 5d90 9d3a
00000070: 1e55 91be 04bf 00bc 9cdc 70bd 14e7 843e
00000080: 8764 26be 549c 05bd 363e 29be 4646 aa3d
00000090: 75ce 92bd 2ef1 233e 3828 4ebf 0262 6a3e
000000a0: a735 26be 6f5a b9b9 c095 bfbf 2367 f23d
000000b0: 24a5 093d 5d89 01bf fb87 efbc db39 6fbe
000000c0: a45d febe 6aef d1be 9f1a a1bf 4783 a4be
000000d0: 4bb2 e33e 12fa d3be 3f51 273b 6fe4 a2be
000000e0: 9820 bcbe cd8e 1dbd de03 11be 7ceb 063e
000000f0: 99a4 58bf 0b9a ffbd 8493 013e ef35 24bf
00000100: 0e0e a73c fa1c 53bf 31c1 44bd a717 abbd
00000110: f6e1 95bd 2779 3a3e 8e92 93bf 0fc3 a6be
00000120: 0f52 bdbd bbcf 62bf 94c9 0b3e 7002 b7bd
00000130: ba5a d0be 0c41 79bd 18ae 4c3e e8ac c13e
00000140: d3c9 f33c 3175 d93d 0da6 96bf 7436 71be
00000150: 6154 c0bd 2607 1b3e 2a8b 693d 20a4 3abe
00000160: ff1b b33e 50cd b6be afda adbd bfdc afbd
00000170: f299 6fbf 5b5e 6bbf f64e a13e 95b4 9b3e
00000180: 2c14 013d 3824 3ebe 9560 903e 3e90 a93e
00000190: 94f5 8c3c b72c aebe 3c23 053e 5b1e 65be
000001a0: f18e c3bd 7918 41bf 2b44 80be 2439 82be
000001b0: c182 d73e 7f76 bf3e 1557 03bf c159 c9bf
000001c0: f7b1 b63d da13 6dbf be64 91bf f62e 9e3b
000001d0: e683 9abe 7fff 3dbf 2c9a 8c3d beb8 1c3d
000001e0: 266f 12be 18b4 32be 9244 52bd 1c17 fabe
000001f0: 674f 29c0 4ad4 d5bf d8c7 363d f87f cf3d
00000200: 6002 3dbe c63a 15bf fdcd 0dbf 6a21 d2be
00000210: 4ff5 a7bd e3ec e3be 7443 0c3e 6d2e 86be
00000220: 6615 223d 64c8 00bf 4639 28bf 58cf bbbc
00000230: c6dc 2c3d c195 58bf eee4 8bbd 8529 82bf
00000240: 7707 2fbf 9539 0abf 10c1 b7be 21cd 483e
00000250: 72be 6bbe f68c 1fbf ac51 fdbe cbf5 773f
00000260: d4d6 f5bd 44a9 f4be 2c5b 0abe e944 4abd
00000270: a181 5fbf 9895 4ebc 6a40 d1be 37eb 21be
00000280: 1c03 f5be 1936 c73d e472 88be d778 26bd
00000290: 58a3 3abe c201 e03d 3a69 d8be 905b ca3e
000002a0: c602 96be d794 b2bc add7 88bf 0efd 14be
000002b0: 717b 40bd 4982 d2be 158b 0bbd 8d70 88bd
000002c0: 3178 4cbf 11ac c7be def9 1abf 3f77 a9bf
000002d0: 9a81 623f ef47 21be c1e6 57bd eb76 63be
000002e0: b0a5 3abd 5289 ebbb 59eb c7bd 276d 3c3e
000002f0: bdae 0dbf 2c40 02be 36a6 203e 4f4b a2be
00000300: 6955 da3c 9a7d 52bf 5b2e 733d ae01 9bbe
00000310: d8b1 c2bd e0a2 35bd 2fed acbf 2839 b4be
00000320: 4557 8a3d 4810 33bf f1ff de3e 67a8 2fbe
00000330: b959 4cbf 36a9 93be d20b e93e 3e78 ad3e
00000340: 46f1 1abe bf7c bf3e 4700 25bf 59c0 cabe
00000350: 72e3 50be c64a a33e efdb 323e 0804 b4bd
00000360: 5471 883e 2f88 a8be 17f2 303e 240b f9be
00000370: 7241 6bbf ece2 83bf a959 d23e d01d 34bc
00000380: a4ea 8c3d 3488 8cbe 75ab 83bd 3f17 393e
00000390: 65c9 9d3c af24 aabf b27d e23d 81ea cdbd
000003a0: cf22 afbe f93a cebe 5058 3dbd ac55 0dbe
000003b0: 5b68 7a3e 5df5 08bd 9541 11bf a649 2bbf
000003c0: 2305 e1bd c48e 87bf 3e26 91bf 3a18 59be
000003d0: 71d7 523d c75f acbf 29a4 503d f618 aabc
000003e0: 0b35 fbbd ce61 98be 0e7a 15be 2da1 0fbf
000003f0: df82 b2bf 9c42 79bf c776 a43d d6d7 92bc
0.16964242 -0.17901826 -0.7698007 -0.7586547 0.111090496 0.026593195 -0.20959546 -0.058741555
0.15571578 -1.0745416 -1.1519562 -0.066626884 -0.4846369 -0.4174207 -0.27923313 -1.1895072
-0.7219739 -0.841529 -0.15897618 0.12581211 0.31217661 -0.6149477 0.107715376 0.7547446
0.17398761 0.29740065 0.06897828 0.0012021173 -0.28385252 -0.007858042 -0.05880414 0.2595755
-0.16249286 -0.03261979 -0.16527638 0.08314185 -0.07168285 0.16009971 -0.8053012 0.2288895
-0.16231404 -0.00035353328 -1.4967575 0.11836078 0.033604756 -0.50600225 -0.029239645 -0.23361914
-0.49680817 -0.4100297 -1.2586249 -0.32131407 0.44471964 -0.41401726 0.0025530604 -0.31814906
-0.36743617 -0.038466264 -0.14161631 0.13175768 -0.84626156 -0.12480553 0.12653929 -0.64144796
0.020392444 -0.8246609 -0.048035804 -0.08354121 -0.07318489 0.18210278 -1.15291 -0.32570693
-0.09244167 -0.8859822 0.13651115 -0.08936012 -0.4069422 -0.06085305 0.19988286 0.3782723
0.029759323 0.106180556 -1.1769425 -0.23555928 -0.09391094 0.15139446 0.057017483 -0.18226671
0.34982297 -0.35703516 -0.08488976 -0.08587026 -0.93594277 -0.9194085 0.31505555 0.3041121
0.031513378 -0.18568504 0.28198686 0.3311786 0.017206945 -0.3401849 0.13001722 -0.22374861
-0.09548748 -0.7542797 -0.25052008 -0.2543422 0.42091945 0.37395093 -0.5130475 -1.5730516
0.08920663 -0.92608416 -1.1358869 0.0048273755 -0.30178756 -0.7421798 0.068653435 0.03826212
-0.14300212 -0.17451513 -0.051334925 -0.48845756 -2.6454713 -1.670541 0.04462418 0.1013183
-0.18457937 -0.58292806 -0.5539244 -0.41041118 -0.08201086 -0.44516668 0.13697606 -0.26207295
0.03957119 -0.5030577 -0.6571239 -0.022926018 0.042202733 -0.84603506 -0.06830774 -1.0168921
-0.68370765 -0.53994113 -0.35889482 0.196095 -0.23021868 -0.62324464 -0.49476373 0.96859425
-0.12003866 -0.4778539 -0.13511342 -0.049382124 -0.87307173 -0.012608908 -0.40869457 -0.15812384
-0.47853935 0.09727115 -0.26650155 -0.040642586 -0.18226373 0.10937835 -0.42267781 0.39522982
-0.2929899 -0.021799488 -1.0690819 -0.14549658 -0.046992723 -0.41115025 -0.034068186 -0.06662092
-0.798709 -0.38998464 -0.6053752 -1.3239516 0.88479006 -0.15750097 -0.0527103 -0.22213332
-0.04556817 -0.0071880007 -0.09761686 0.18401013 -0.55344754 -0.12719792 0.15688404 -0.3169808
0.026652055 -0.822229 0.05937038 -0.3027472 -0.09506577 -0.044344783 -1.3509883 -0.35199857
0.067549266 -0.6994672 0.43554643 -0.17154084 -0.79824406 -0.28840035 0.4551683 0.338808
-0.15131101 0.3739986 -0.6445355 -0.39599875 -0.20399264 0.31892985 0.1746671 -0.087898314
0.26648962 -0.329164 0.1727985 -0.48641312 -0.91896737 -1.0303626 0.4108403 -0.010993436
0.06880692 -0.27447665 -0.06429187 0.18075274 0.019261071 -1.3292445 0.11059131 -0.10054494
-0.34206244 -0.40279368 -0.0462268 -0.13802212 0.24453871 -0.03343712 -0.56740695 -0.66909254
-0.10987308 -1.0590444 -1.1339796 -0.21200648 0.051474992 -1.3466729 0.050937805 -0.020763855
-0.122659765 -0.2976212 -0.14597341 -0.5610531 -1.3946189 -0.9736726 0.080304675 -0.017925184

l3.bias f4 [256]
00000000: a269 e33d 3b45 f73c 6827 9b3f c35d 7e3e
00000010: eae4 b43f 63c9 9fbc 4158 dc3d 9e29 3d3e
00000020: 06e6 5a3f c556 963e addc 9c3e d7e7 883f
00000030: 4efb 1ac0 530e 15be 2cef 553f bf9b be3d
00000040: ac35 71be c5de 1b3e b358 e4bd e9c6 babd
00000050: 7bfa 903f 2704 5ebc 5a89 683e 9bca 773f
00000060: 1a58 6b3e a9f9 4e3e 16e8 c43f c5eb a43e
00000070: e2a4 56bd fd40 e23b e7b8 ea3e 8503 993e
00000080: 2195 f43d 6921 19c0 b2ee d93e dec9 6e3f
00000090: 998f cfbe 2087 43be d152 33be bb11 cdbd
000000a0: 5cfc d23f 2b3f 7e3e 5ba4 703e 523d e73e
000000b0: 6f60 6a3e 2541 b23e 562c 203e 69ac 3cbe
000000c0: da5a 8a3d 78be 4f3e 6bdf 0c40 d248 633e
000000d0: 462f 1b3f c930 cabe 7ab0 e23d b535 603f
000000e0: dee1 c93f a809 3ebe 4ccb 7cbe e08e c93e
000000f0: 139b c5be 1456 7fbd 3256 6cbf 892d 5d3e
00000100: 6de7 cc3f f9b3 573e 3540 183e 5fcc f9bd
00000110: d88c d03f 2ed6 6dbe 72e4 54be f52b 923e
00000120: 77ac 0c3e cb4b a73f be2d 96be 6e94 57bf
00000130: 17c3 3c3f 30dc de3f c671 903d 7481 623e
00000140: 7447 a73f 7bc8 773e 7b11 703e d187 4cbf
00000150: 284c 4e3e 437f e2bd 1835 5e3e 146e 50be
00000160: e091 99be df35 2abf 3102 4fbe 30b6 31be
00000170: 5cdb 043e 0e62 263f 9a62 76bf f7f2 27bd
00000180: 9081 cc3d 566a 9ebf 04dd c63f b40b 4a3f
00000190: 89e0 2b3e 0d6d 933e 5ba3 f53d 40ab 49be
000001a0: d8d7 2bbf c2ce 5bbe 3310 663f 7f0d 2bbf
000001b0: f64a 4b3f c044 403e f37b 383f 8bd8 e6be
000001c0: ed26 f93e e100 173e b8c6 9c3d 142d 0a3f
000001d0: e4a9 833d fb1d 283f 3819 843f 3a14 bb3f
000001e0: a986 873e 3346 fe3d 189f 953f 8e8d a0bf
000001f0: 99d0 cfbf eee3 0d3f fd87 3e3f f9d9 453f
00000200: 7f7a 363e eb6d d73e 1779 573e 8c6f 843c
00000210: 1fda b13e 24bd e2bf 4d1f 88bf 8e64 a33d
00000220: 5971 533e 50e1 bbbe 2c2d e0be 26af 853f
00000230: ec82 173f 4bdc 983f f520 60be 1d47 f4be
00000240: fb2c ca3f 7d5e ccbc d1db d7bd 279f 23bf
00000250: 0ed8 af3e 15ae 1a3f a4cf fa3f 7e96 07c0
00000260: 31af 47be d19b f5bf 092e 5f3f 89ee 033e
00000270: cd27 b63e bc1b 29bf 78f6 67bf e1f9 d3bd
00000280: 8bd0 d73f b641 8f3f f1e5 b33d 7c24 b83e
00000290: 353a 3a3e 8984 1a3e 51c2 03c0 df17 b73e
000002a0: 0fa8 b33e 49dd fb3d 056e ae3d 2b44 b83f
000002b0: f0e2 4e3d ff66 b33e 61a9 ed3f fe6e 973f
000002c0: 07cc a93f aa21 ec3d fda4 183c 9ad4 cd3f
000002d0: 43a3 973f 17ef 2ebd 71c2 49be 4ee0 1ec0
000002e0: 6be7 ecbd 150d 773e 3125 c5be b9b1 c43f
000002f0: c0a5 d0bf c648 1bbe 9a69 97bf 4870 503f
00000300: 79c4 623f 5855 7d3f 2a97 673e 582f 393e
00000310: 14d3 3c3f 9861 26c0 3190 9a3e 5a0d ec3d
00000320: a509 013f f1bb e13c 5c1e 63be 557b e1be
00000330: ffea 363e 82f2 d4bd 4b30 e8be 10fe b23c
00000340: 899f e43f 8838 66bd c49a 853e 8548 a43e
00000350: 70b9 913f f9b9 b3be 6d42 7f3f 88f1 4d3f
00000360: a798 22bf eefb 1cbe e34e 3ebf 9a30 e3be
00000370: 83e6 223f ced1 96be 879a b63d 8b82 773f
00000380: 290e b73e 8eec 1dbe a486 c33f 14ba 4f3f
00000390: 0b62 e7be 568b 333f 0cee 71bf 77d8 3a3e
000003a0: c852 433e 6734 3a3e 31fd 4f3e d85c 9bbf
000003b0: d715 2abd ef10 3fbf 623d 0e3e f52d 013c
000003c0: 3686 1dbf 57fb a3be 7849 3ebe 3750 0d3f
000003d0: d1f5 db3b 8646 92bc 9fb5 853f f2a4 8bbf
000003e0: 2639 1bbf d6a8 9e3d 7f03 6ebf a1f7 5cbe
000003f0: 8535 65be 8ce3 703f 1d46 343f ffca 333d
0.11104132 0.030184379 1.2121401 0.24840455 1.4132359 -0.019505208 0.107590206 0.18472907
0.8550724 0.29363075 0.30637112 1.0695752 -2.4215884 -0.14556246 0.8356807 0.0930705
-0.2355563 0.15221699 -0.111497305 -0.0911997 1.132644 -0.013550795 0.22708645 0.96793526
0.22982827 0.20212425 1.5383327 0.32211128 -0.05240334 0.00690472 0.45844194 0.29885498
0.119425066 -2.3926642 0.42564923 0.93276775 -0.40539244 -0.19094515 -0.1751206 -0.100131474
1.6483264 0.24828784 0.23500197 0.4516397 0.22888349 0.34815326 0.15641913 -0.18425144
0.0675561 0.20287502 2.2011364 0.22195747 0.6061901 -0.39490345 0.110688165 0.8758195
1.5772054 -0.18558371 -0.24686927 0.39366817 -0.38594875 -0.06233795 -0.92319024 0.21599402
1.6008126 0.21064748 0.14868243 -0.12197184 1.6292982 -0.23226234 -0.2079027 0.28549162
0.13737665 1.3070005 -0.29331774 -0.8421086 0.73735183 1.7410946 0.070529506 0.22119695
1.3068681 0.24197571 0.23444168 -0.7989474 0.20146239 -0.110594295 0.21699941 -0.20354491
-0.29994106 -0.6648845 -0.2021568 -0.17354655 0.12974304 0.6499337 -0.96244204 -0.041003194
0.099856496 -1.2376201 1.5536199 0.7892411 0.16784872 0.28794137 0.11994048 -0.19694233
-0.67126226 -0.2146559 0.8986847 -0.6681747 0.79411256 0.18776226 0.7206413 -0.45087084
0.4866251 0.14746429 0.0765509 0.53975034 0.064288884 0.65670747 1.0320196 1.4615548
0.26469925 0.12415733 1.1689177 -1.2543199 -1.6235534 0.5542592 0.7442625 0.77285725
0.17820166 0.42076048 0.21042286 0.016166471 0.34736726 -1.7713971 -1.0634552 0.07978164
0.20648707 -0.36695337 -0.43784463 1.0444076 0.59184146 1.1942228 -0.21887572 -0.47710505
1.5794977 -0.0249474 -0.105399735 -0.6391472 0.34344524 0.6042188 1.9594617 -2.1185603
-0.19500424 -1.9188176 0.8717962 0.12883963 0.3557724 -0.66057944 -0.90610456 -0.10350395
1.6860517 1.1191928 0.08784092 0.35965335 0.18186267 0.1508962 -2.0587351 0.357604
0.35089156 0.12298066 0.08517078 1.4395803 0.050509393 0.35039517 1.8567315 1.1830747
1.3265389 0.115298584 0.00931668 1.6080506 1.1846699 -0.042708483 -0.1970308 -2.4824405
-0.11567577 0.24126084 -0.38504937 1.5366737 -1.6300583 -0.1516448 -1.1829102 0.8142133
0.88581043 0.9895835 0.22616258 0.18084466 0.7375958 -2.5997066 0.30188134 0.11525984
0.5040534 0.027555438 -0.2217955 -0.44039407 0.17863081 -0.10397817 -0.45349345 0.021849662
1.7861186 -0.056206256 0.2609464 0.32086578 1.1384716 -0.35102823 0.9971073 0.8044667
-0.6351418 -0.15330479 -0.7433912 -0.44373018 0.6363298 -0.29456943 0.089161925 0.9668357
0.3575299 -0.1542227 1.5275464 0.8114331 -0.45191988 0.70134485 -0.94503856 0.18246637
0.19074547 0.18184052 0.20311429 -1.2137709 -0.041524734 -0.74635214 0.13890603 0.007884492
-0.61532915 -0.32027695 -0.18582714 0.55200523 0.006712653 -0.017855894 1.0446051 -1.0909712
-0.60634077 0.07747047 -0.92974085 -0.21578838 -0.22383697 0.9409721 0.70419484 0.043894764

l4.weight f4 [1, 256]
00000000: b82e 4fbe 719f 53bf 199d f8be ad32 fd3e
00000010: ea2a 90bf 32d9 843e 10c4 43bf 52f9 a1bf
00000020: d0df 59bf 13a3 213f 048a 8dbf d26c f8be
00000030: 91e8 9e3f 9147 aabf d544 0dbf 10a4 c0bf
00000040: b715 363f 34b1 81bf 7aac 6b3e ac93 9dbf
00000050: 90ef 42bf ddff 623f 4c6b 0cbf 7137 16bf
00000060: d4e1 08bf 3ab3 a2bf d29c bdbe 7e2b e6be
00000070: 249d 02c0 c629 a23f 9e75 08bf c600 a7bf
00000080: c112 cbbf cb36 8f3f 4d75 02bf b183 b3be
00000090: 16a3 0040 27d8 a6bf 2762 dd3f fd17 f63f
000000a0: ce6e 8ebf 0f3d b4bf c21b 64bf fa48 edbf
000000b0: b4a2 e03e 9e08 e63e eaa1 0040 1892 1040
000000c0: 529e a7be 80ed c0be 8261 2fbf c7cd 3bbf
000000d0: a73a 6ebf 7582 933f a40d 83bf 0d27 78bf
000000e0: a92c 4abf 5b09 753e 4704 b53f ec7f 87bf
000000f0: fbda b33f bf7d aaba 93c6 0340 a050 cabe
00000100: 1b47 9bbe dda7 97bf b7b6 30bf 8f32 9c3f
00000110: b14d f3be 90c5 8b3f 9988 4cbb f043 c3bf
00000120: f716 7d3f c1ab c7bf c601 ab3f f7d6 e43f
00000130: 161b a6bf cec5 d4bf c380 68bf d65b cbbf
00000140: 5682 dabe 4613 a6bf b291 67bf 0360 fb3f
00000150: e98b 53bf f5ef 9bbf 8b92 0c3f ae8b b73e
00000160: da16 793f 5464 0640 9783 383f dd8d 93bf
00000170: be24 a4bf a348 d6be b383 8d3f 8247 643f
00000180: c01a 47bf ec91 0440 cbcf e4be 290e 84be
00000190: 445a cd3e d313 f0be cac7 8f3f 6e8c 8fbf
000001a0: f11b 9b3f cad2 e83f a44e 90bf 08d9 cf3f
000001b0: fab6 cabe a1b8 dabf 9e07 cbbf 6d37 913f
000001c0: 781b a7be b6eb 6a3f 49ad aebe 60e5 c5bf
000001d0: b082 c4bf d5f8 10bf 019e 5cbf 7479 32bf
000001e0: cf79 d43e 6dff 91be 3726 08bf 2cca 1840
000001f0: 5a59 b93f c105 d1be 9b58 d1bf 91ae 39be
00000200: 72d5 e3bf e99b d7bf 55f7 203f eae8 69bf
00000210: 92fe 65be 39eb c03f 1563 9a3f 1bf3 ffbe
00000220: 07a8 3abf c4f7 0240 fd48 c23f 9c27 73bf
00000230: 56d8 6dbe 8472 1ebf 3f65 0d3f 1fd6 2c40
00000240: a39d c6bf 2588 0440 19d4 cebf 09fa d63f
00000250: f5db 96bd 68d9 c4bf 3dfa 48bf ce22 6a3f
00000260: b296 623f ef3a a33f 49bd 5dbf 7e9e 3fbf
00000270: 96ee 1dbf 9f42 0240 7415 5e3f ccff 8a3f
00000280: 146f 27bf fd79 43bf 492b b33f f4d7 493f
00000290: fad7 103f b882 a03e 79c9 a13f 3c93 4fbf
000002a0: c453 c1be 7925 f03f 00f4 f23e 90bc 47bf
000002b0: fc5d 0fbf 112e dcbe b2f2 26bf 80cf 68bf
000002c0: b5df 21be 00c8 c0be 5cab 8cbe 0393 3dbe
000002d0: ac13 7bbf e05d 81bf c49b 89bf 7402 823f
000002e0: 92a5 a0bf d0c0 1a3f 46f5 aa3f 8c35 d8bf
000002f0: 9c96 a73f 63f1 f53d d37f b93f fc02 ffbe
00000300: 8a6c 0bbf c05f 07c0 8731 3bbf c829 5dbf
00000310: 814c a8bf d0dd 0140 843b 903f 78e8 c8bf
00000320: f167 64bf 8447 c73e 1f2d 603f f780 1540
00000330: 885b 4dbf 431c 7f3f b24c e63f 50cb 273f
00000340: 20cb 95bf b440 dabf 8dec 1dbf 46f2 983f
00000350: 5416 c7be 7e53 f93f b56b 94be 029a e9bd
00000360: d566 103f b34f f2bf 1587 623f 1c53 f03f
00000370: 008c 0fbf b573 9e3f 6a14 e9bf e596 8abf
00000380: d10c 193f 5139 d7bf a78f 7bbf 58e5 5cbe
00000390: 269f a33f 51ad 65bf cbe7 f13f 8614 abbf
000003a0: dffa 37bf 513f d6bf a0a8 ccbf 31ef 8a3f
000003b0: 4af7 643f 4557 0a40 0107 32bf e0c8 b7bf
000003c0: defb 223f bae4 eb3f 668f b03f 5365 38bf
000003d0: fd1f 91bf 0b66 77bf ec96 e7be e69f 0f40
000003e0: b9fe d63f 1356 66bf dada a03f fdca 1abf
000003f0: 86f2 d23e 3ef8 87be 24de 90bf 6f23 3e3f
-0.20232666 -0.82665163 -0.48557356 0.49452725 -1.1263096 0.25946957 -0.7647104 -1.2654212
-0.85107136 0.63139457 -1.1057744 -0.48520523 1.2414724 -1.330309 -0.55183154 -1.5050068
0.71126884 -1.0132203 0.23015013 -1.2310691 -0.76146793 0.88671666 -0.5485122 -0.58678347
-0.53469586 -1.2710946 -0.37033707 -0.44955057 -2.040841 1.2668998 -0.5330447 -1.3047111
-1.5865098 1.1188596 -0.50960237 -0.3506141 2.009954 -1.3034714 1.7295579 1.9226071
-1.1127565 -1.4081134 -0.89104855 -1.8537896 0.43874133 0.4492845 2.0098825 2.2589169
-0.32737976 -0.37681198 -0.6850816 -0.73360866 -0.93058246 1.1524187 -1.0238538 -0.96934587
-0.78974396 0.2392935 1.414193 -1.0585914 1.4051203 -0.0013007446 2.058995 -0.39514637
-0.30327687 -1.1848103 -0.690288 1.2202929 -0.4752021 1.0919666 -0.0031209348 -1.5255108
0.98863167 -1.559929 1.3359916 1.7878102 -1.2977016 -1.6622865 -0.90821475 -1.5887401
-0.42677563 -1.2974632 -0.9045669 1.9638675 -0.8263536 -1.2182604 0.54911107 0.35848755
0.97300494 2.0998735 0.7207579 -1.1527668 -1.2823713 -0.41852292 1.1055816 0.8917161
-0.7777519 2.0714064 -0.44689783 -0.25792053 0.4010793 -0.46890125 1.1232846 -1.1214731
1.2117902 1.8189328 -1.1273999 1.6238108 -0.39592725 -1.7087594 -1.58617 1.134504
-0.32638144 0.91765916 -0.3411658 -1.5460625 -1.5352383 -0.5662969 -0.86178595 -0.6971657
0.41499183 -0.28515187 -0.5318331 2.3873396 1.4480393 -0.40824702 -1.6355165 -0.18132998
-1.7799513 -1.6844455 0.628774 -0.91371024 -0.22460392 1.5071784 1.2061487 -0.49990162
-0.7291264 2.0463724 1.5178524 -0.94982314 -0.23227057 -0.61893487 0.55232614 2.700569
-1.5516857 2.0708096 -1.6158477 1.6795055 -0.07366172 -1.5378847 -0.78506833 0.9145936
0.8851119 1.275236 -0.8661695 -0.74851215 -0.6169218 2.0353162 0.86751485 1.0859313
-0.65403867 -0.76358014 1.3997585 0.78845143 0.56579554 0.3134973 1.263961 -0.81084037
-0.3775922 1.8761436 0.47451782 -0.780221 -0.56002784 -0.43003896 -0.65214074 -0.9094162
-0.15807994 -0.37652588 -0.27474487 -0.18513112 -0.9807689 -1.0106773 -1.0750661 1.0156999
-1.2550528 0.6045046 1.3356102 -1.6891341 1.3092837 0.120089315 1.4492134 -0.49806964
-0.5446249 -2.115219 -0.7312245 -0.8639188 -1.3148347 2.0291634 1.1268163 -1.5695944
-0.892211 0.3892175 0.8756885 2.3359964 -0.8021779 0.996525 1.7992156 0.65544605
-1.1702614 -1.7050996 -0.6168907 1.1948936 -0.38884223 1.9478605 -0.28988424 -0.11406328
0.5640691 -1.8930572 0.8848737 1.8775363 -0.56073 1.2379061 -1.8209355 -1.0827299
0.5978518 -1.6814367 -0.9826607 -0.21571863 1.2782943 -0.89717585 1.8898863 -1.3365638
-0.71867174 -1.6738073 -1.598896 1.0854245 0.89439833 2.1615765 -0.6954194 -1.4358177
0.6366557 1.8429177 1.3793762 -0.7202961 -1.1337887 -0.9664008 -0.45232332 2.2441344
1.6796485 -0.8997509 1.2566788 -0.60465986 0.41200656 -0.2655658 -1.1317792 0.7427282
