preTrained/v1TD3_BipedalWalkerHardcore-v3_0_actor.pth (torch_old, 177227 bytes, 8 tensors)

l1.weight f4 [64, 24]
-1.0229863 -1.3449204 0.059061952 -0.6114259 -0.62038034 -0.0692829 -0.638435 0.09428246
0.066577315 -0.12539054 -0.0020650972 0.20858732 -0.016645348 0.044670086 0.3489105 0.38669464
0.11833752 -0.27293146 -0.096150704 -0.040111456 0.032161664 0.094563395 0.18743747 0.24405667
-0.29672822 0.6266322 0.5978216 -2.6777442 -0.5679524 0.04320348 -0.6196807 0.08725394
-0.009147333 0.34979096 0.06653994 0.10003687 0.008008016 -0.071240366 0.20403087 0.360772
-0.14871866 -0.3015343 0.21458615 -0.16478266 0.18283165 0.08677062 -0.06317202 0.24261515
0.2224179 2.265979 -0.18151599 -0.38494903 -0.050362855 0.1006171 0.27346337 -0.08931855
-0.09021636 0.06446487 -0.004740707 0.09605211 -0.014303801 0.035025604 0.18348181 -0.15629049
-0.37252483 0.009465724 0.05159628 0.38398463 0.5332426 0.47339967 -0.03436125 -0.12559201
-0.17333181 2.073889 -0.28757337 0.033779487 -0.07504011 0.2445213 0.78592443 0.09589552
0.048137467 0.48070544 0.07116494 0.4292221 0.12729666 0.06494185 -0.066150084 -0.24579896
-0.71975714 -0.38693509 -0.29898083 -0.011499835 0.4487396 0.23279017 0.31799942 0.09644675
0.9153989 0.9671754 -1.265411 -0.26258308 -0.1494419 -0.023759386 0.0772448 -0.012668775
0.10999196 -0.051656626 0.033147443 -0.5118203 0.036440507 0.034475878 -0.107820846 -0.27996844
-0.13555053 -0.026284674 -0.0066877655 -0.36340934 -0.1760816 -0.18941829 -0.042709276 0.10224726
0.910025 1.6102872 -0.4536555 0.5547587 -0.4007101 0.0063117472 0.065182455 0.05286093
-0.12710139 1.4018494 0.053160187 0.35228348 0.06874305 -0.11195637 -0.033092145 0.09703147
0.2332157 0.29736137 0.23894148 0.13253953 -0.05006545 0.24366085 -0.0050900946 -0.14094065
0.4473104 0.3294959 -1.7547177 -0.6662786 0.3873784 0.06846876 -0.11013852 0.09262439
0.07086586 0.32353604 -0.011355467 0.25583345 -0.023189481 -0.022745201 -0.7062984 -0.48947045
0.1670696 0.7426828 0.9038757 0.8801678 -0.5473627 -0.017821165 -0.030285742 0.07685418
0.39697063 3.410621 1.1185143 2.8243704 -0.060903046 0.15905662 -0.28635284 -0.05269573
-0.088597536 0.25764015 0.11246949 0.014161348 0.031926095 -0.03940572 0.10992314 0.2144824
0.2120058 0.10961793 0.06741759 0.18829867 0.08499765 0.3123288 -0.05755879 -0.23356238
-0.5671843 -1.0398128 -0.10554547 0.28600097 -0.5196331 -0.23546115 -0.29418665 0.046703186
-0.1837562 -0.04543652 0.024460863 -0.38864663 -0.0715038 -0.035541136 -0.47984645 -0.38125777
-0.10333819 -0.50284857 -0.53630555 -0.24886072 -0.27450278 -0.2858643 -0.23824723 -0.014721928
-0.05501928 -3.318602 0.57754874 0.81813633 0.36889207 -0.19348444 -0.1059298 -0.02597229
0.096080765 -0.077369004 0.071380936 -0.16898043 0.037144568 0.07637035 0.2558886 -0.01181907
-0.3377789 -0.80811334 -0.4200652 0.05602296 0.8654172 -0.14377145 -0.012965138 0.11449922
-0.11923842 1.633039 -1.3961682 2.3141394 -0.025097234 0.096677706 0.10349796 -0.08490018
-0.079163626 -0.13337418 -0.006979558 0.035834648 -0.0066012545 -0.020242857 0.43219912 0.20601568
00000000: 37f1 82bf 5a26 acbf f2ea 713d 6886 1cbf
00000010: 3fd1 1ebf 31e4 8dbd 7a70 23bf 2a17 c13d
00000020: b059 883d 6166 00be 9556 07bb ea97 553e
00000030: d35b 88bc fbf7 363d 66a4 b23e d7fc c53e
00000040: f15a f23d acbd 8bbe a9ea c4bd e94b 24bd
00000050: f3bb 033d 74aa c13d 9cef 3f3e fee9 793e
00000060: c3ec 97be f86a 203f d60a 193f 2960 2bc0
00000070: 5465 11bf 22f6 303d 65a3 1ebf 32b2 b23d
00000080: b2de 15bc cd17 b33e 1846 883d 21e0 cc3d
00000090: 0e34 033c 78e6 91bd 78ed 503e 1cb7 b83e
000000a0: b449 18be b462 9abe 79bc 5b3e c9bc 28be
000000b0: 3838 3b3e cbb4 b13d 5560 81bd 1b70 783e
000000c0: 85c1 633e cd05 1140 54df 39be 0a18 c5be
000000d0: 4849 4ebd 5710 ce3d 6403 8c3e a5ec b6bd
000000e0: 5bc3 b8bd 2806 843d ef57 9bbb f8b6 c43d
000000f0: 7d5a 6abc 0277 0f3d a8e2 3b3e 9d0a 20be
00000100: 93bb bebe 2016 1b3c 9f56 533d a299 c43e
00000110: 9682 083f 7161 f23e 62be 0cbd 319b 00be
00000120: e57d 31be 99ba 0440 d13c 93be 5c5c 0a3d
00000130: a1ae 99bd cb63 7a3e 5832 493f df64 c43d
00000140: cb2b 453d 061f f63e edbe 913d 00c3 db3e
00000150: 0e5a 023e 3c00 853d b279 87bd b9b2 7bbe
00000160: 0142 38bf 5b1c c6be 0414 99be ce69 3cbc
00000170: 32c1 e53e 8c60 6e3e d2d0 a23e e085 c53d
00000180: 9557 6a3f cf98 773f fdf8 a1bf 4a71 86be
00000190: 4c07 19be 0ba3 c2bc 8632 9e3d b290 4fbc
000001a0: 7743 e13d e695 53bd 9dc5 073d a806 03bf
000001b0: a442 153d 9436 0d3d 2dd1 dcbd 0658 8fbe
000001c0: c2cd 0abe f552 d7bc 0b25 dbbb ca10 babe
000001d0: bc4e 34be def6 41be ecef 2ebd 0367 d13d
000001e0: 66f7 683f e41d ce3f 8945 e8be ab04 0e3f
000001f0: e029 cdbe c6d2 ce3b 617e 853d b484 583d
00000200: de26 02be cd6f b33f 7fbe 593d 805e b43e
00000210: 28c9 8c3d 6249 e5bd a18b 07bd 6fb8 c63d
00000220: 19d0 6e3e c03f 983e 13ad 743e 71b8 073e
00000230: 6e11 4dbd 3b82 793e cfca a6bb bf52 10be
00000240: de05 e53e b0b3 a83e 979a e0bf 3c91 2abf
00000250: 7656 c63e 5939 8c3d 4e90 e1bd dbb1 bd3d
00000260: 1f22 913d 84a6 a53e 480c 3abc 9afc 823e
00000270: def7 bdbc 2554 babc f9cf 34bf df9b fabe
00000280: 4b14 2b3e 7620 3e3f 6664 673f ad52 613f
00000290: f61f 0cbf b1fd 91bc ce19 f8bc b965 9d3d
000002a0: bc3f cb3e 9d47 5a40 7a2b 8f3f 7cc2 3440
000002b0: 7975 79bd bddf 223e d79c 92be 7ad7 57bd
000002c0: a072 b5bd 69e9 833e 6756 e63d 0005 683c
000002d0: f0c4 023d e467 21bd 621f e13d 46a1 5b3e
000002e0: 0c18 593e 5e7f e03d 3c12 8a3d 5ed1 403e
000002f0: 3f13 ae3d 8fe9 9f3e c4c2 6bbd fa2a 6fbe
00000300: fe32 11bf 9618 85bf 3928 d8bd b86e 923e
00000310: ad06 05bf ba1c 71be a29f 96be d74b 3f3d
00000320: 962a 3cbe a51b 3abd 2662 c83c b1fc c6be
00000330: 9670 92bd 9593 11bd 6fae f5be 3834 c3be
00000340: f9a2 d3bd afba 00bf 524b 09bf 58d5 7ebe
00000350: a18b 8cbe ce5c 92be 15f7 73be 3e34 71bc
00000360: e65b 61bd fa63 54c0 3cda 133f 6271 513f
00000370: 6cdf bc3e c920 46be b9f1 d8bd d7c3 d4bc
00000380: fec5 c43d a473 9ebd 2b30 923d 3509 2dbe
00000390: e724 183d 0f68 9c3d d503 833e c6a4 41bc
000003a0: 5bf1 acbe 84e0 4ebf c912 d7be 5578 653d
000003b0: fb8b 5d3f d338 13be bb6b 54bc 917e ea3d
000003c0: 4633 f4bd 6c07 d13f a4b5 b2bf dc1a 1440
000003d0: b798 cdbc f6fe c53d bdf6 d33d 25e0 adbd
000003e0: 8a20 a2bd 3e93 08be c7b4 e4bb 5ac7 123d
000003f0: 564f d8bb 59d4 a5bc 3449 dd3e c6f5 523e

l1.bias f4 [64]
0.6849736 0.18811117 -0.0036783076 -0.48858646 0.22942913 -0.087525986 -0.45435798 -0.34704953
-0.017933495 0.20009078 -0.17840683 0.07831686 -0.0068553993 -0.24931504 -0.58087116 -0.12758653
0.109240256 0.15854709 0.117122516 -0.029496068 -0.02440438 0.056149445 -0.17202368 -0.14380485
0.1667076 -0.20577313 0.5769586 0.2150362 -0.010327781 0.030570308 -0.23258343 -0.103163525
-0.30479684 -0.57612807 0.118181124 -0.011836353 -0.30826342 0.42275625 -0.3353117 0.5195672
-0.12099354 0.029609095 0.083364196 0.22786227 0.34916633 -0.043561388 0.123753116 0.41253403
-0.25197816 -0.2650123 0.1159327 0.46955407 -0.08055726 -0.15218061 -0.18109474 -0.23256512
-0.335106 0.016830042 -0.28562555 -0.38651785 0.010946215 -0.10917877 -0.0015269668 0.27613375
00000000: 6e5a 2f3f 37a0 403e c30f 71bb 0128 fabe
00000010: 78ef 6a3e d340 b3bd 9ca1 e8be 7ab0 b1be
00000020: 44e9 92bc 99e4 4c3e 48b0 36be 9764 a03d
00000030: 42a3 e0bb 714c 7fbe f9b3 14bf 0ba6 02be
00000040: 5bb9 df3d 2b5a 223e eedd ef3d bda1 f1bc
00000050: b2eb c7bc f6fc 653d fa26 30be 9441 13be
00000060: 66b5 2a3e 31b6 52be 8fb3 133f 7332 5c3e
00000070: da35 29bc 956e fa3c 5a2a 6ebe 6647 d3bd
00000080: 550e 9cbe 217d 13bf f208 f23d 43ed 41bc
00000090: b4d4 9dbe 8273 d83e faad abbe 5b02 053f
000000a0: 76cb f7bd c68e f23c d9ba aa3d ba54 693e
000000b0: eec5 b23e 6d6d 32bd 4672 fd3d a937 d33e
000000c0: 4803 81be b1af 87be 206e ed3d 6469 f03e
000000d0: 34fb a4bd 3cd5 1bbe e670 39be 8d25 6ebe
000000e0: 0393 abbe 28df 893c 833d 92be abe5 c5be
000000f0: c157 333c 1e99 dfbd 8124 c8ba 6761 8d3e

l2.weight f4 [128, 64]
-0.7235372 -0.13187319 -0.37634864 0.32440102 0.21477677 -0.27194732 -0.38363004 -0.015486641
-0.5124336 -0.44456258 -0.18660371 0.07836587 -0.27136853 -0.5909596 -0.38480452 -0.103642866
-0.4203375 0.2495813 0.2671142 0.37804353 -0.13614774 0.5759137 -0.3347781 0.017957807
-0.7853798 -0.09395331 0.033471372 0.27680793 -0.14160012 -0.40835655 -0.34489205 -0.15270191
-0.85437024 -0.46649036 -0.022129346 -0.40724006 -0.18385616 -0.7149232 0.13793656 -0.14533897
0.020261757 0.21768808 0.6544834 -0.20173734 -0.118477166 -0.44319165 0.1705672 0.1246687
0.13228902 -0.24742565 0.29365522 -0.08331426 -0.12756865 0.1543286 0.6328888 -0.036128912
-0.11762688 -0.25777334 0.61661434 -0.69533205 0.103808515 0.47921333 -0.20850493 -0.23052649
-0.37741524 -0.12166932 -0.26028588 -0.060528543 -0.43304265 -0.42816615 0.64744467 -0.3324498
-0.29523003 -0.23845294 -0.49349827 -0.20339511 0.1558268 0.4158103 -0.3523311 0.28952694
0.83307207 0.7976458 0.00033590052 0.082045205 -0.48821884 -0.07479289 0.35192683 -0.0062000863
0.3291975 0.6934615 -0.54003674 0.21569075 0.26556438 -0.025903752 0.20855275 -0.16179495
-0.15709104 0.31798774 0.5310094 -0.24682465 -0.11370351 0.15707403 -0.2663925 0.1655583
-0.20860869 -0.0038025763 -0.29612875 0.033672035 -0.12796345 0.46566635 0.063248135 -0.41286275
0.32843757 0.24675997 -0.58868825 0.05035287 0.39764175 -0.19160159 -0.092879966 0.05919354
-0.55609524 0.017533544 -0.03574529 0.11903071 -0.24295042 -0.29305425 0.17830871 -0.3026335
-0.12155069 0.22095278 -0.13605283 0.40796685 0.42735168 0.18015379 -1.1573671 -0.28267488
-0.17365386 -0.19202374 0.019500902 0.29618028 -0.1939494 -0.6183829 -0.058138374 -0.044736482
-0.7076111 -0.4211371 -0.40203926 -0.24396867 -0.20753182 -0.3748577 -0.32611826 -0.31520736
-0.6139558 -0.20800936 -0.091981925 -0.23058665 -0.17942144 0.118657626 0.047736403 -0.47643766
-0.30816838 -0.46125114 -0.27201653 -0.20058651 0.33377442 0.17366034 0.35228974 -0.08011989
0.1310416 0.11682399 -0.49196494 -0.43802607 -0.19076279 -0.09925593 0.17960301 -0.24091558
0.077699214 -0.18773536 0.59618187 0.18491372 0.29786932 0.002737936 0.29160288 0.056201257
-0.1371795 -0.45765597 0.21282364 -0.16470706 -0.7266828 0.04460859 -0.45360154 0.07411191
-0.26275095 0.04356431 -0.89306116 -0.15951349 -0.22024378 -0.25297284 0.13015215 -0.17551285
-0.8025866 -0.27277625 -0.86892307 -0.43994638 -0.29239178 0.23505308 -0.27330202 -0.7025146
-0.17461224 -0.52933675 -0.06499923 -0.20708042 -0.12564515 -0.5637251 -0.29894596 -0.017489186
-0.2829127 -0.25771508 -0.28260103 0.28622007 -0.19916973 -0.29793262 -0.13789575 -0.26781836
-0.26078647 -0.24000254 -0.30599502 -0.29768646 -0.26961994 1.5104376 -0.7262912 -0.43378288
-0.040656973 -0.24145204 0.091939256 -0.50793743 0.14526305 -0.23391134 0.29836577 0.26135746
-0.42837203 -1.6443653 -0.27633542 -0.5570058 -0.09067457 -0.52419883 -0.29396048 -0.051928457
-0.21739425 -0.29021427 -0.166788 0.56453377 -0.39580894 0.08319628 -0.7908134 -0.55137956
00000000: bc39 39bf c409 07be c5b0 c0be e417 a63e
00000010: 71ee 5b3e ae3c 8bbe 286b c4be aebb 7dbc
00000020: d92e 03bf b59d e3be 0b15 3fbe 497e a03d
00000030: d1f0 8abe 2149 17bf 1905 c5be b642 d4bd
00000040: 7a36 d7be 3e92 7f3e 31c3 883e ec8e c13e
00000050: 506a 0bbe 156f 133f 0968 abbe 401c 933c
00000060: a70e 49bf 986a c0bd 4719 093d c5b9 8d3e
00000070: 9fff 10be 1c14 d1be b195 b0be e45d 1cbe
00000080: 02b8 5abf d3d7 eebe 9a48 b5bc c581 d0be
00000090: ca44 3cbe 3505 37bf 3e3f 0d3e bdd3 14be
000000a0: fcfb a53c a0e9 5e3e 398c 273f 3c94 4ebe
000000b0: 28a4 f2bd 04ea e2be 2ba9 2e3e 4e52 ff3d
000000c0: c676 073e 265d 7dbe fa59 963e aba0 aabd
000000d0: 5ba1 02be 5108 1e3e 0005 223f e9fb 13bd
000000e0: 5de6 f0bd defa 83be 70da 1d3f 4801 32bf
000000f0: 8f99 d43d 735b f53e 5182 55be 230f 6cbe
00000100: 923c c1be c42d f9bd 3144 85be c7ec 77bd
00000110: c4b7 ddbe 9838 dbbe efbe 253f dc36 aabe
00000120: 6428 97be 022d 74be ceab fcbe cf46 50be
00000130: 1091 1f3e 16e5 d43e be64 b4be e03c 943e
00000140: 3644 553f 8432 4c3f ce1b b039 5107 a83d
00000150: d2f7 f9be 042d 99bd c12f b43e 182a cbbb
00000160: 938c a83e b186 313f d93f 0abf 09de 5c3e
00000170: 0ef8 873e 1b34 d4bc da8e 553e 93ad 25be
00000180: 79dc 20be 4acf a23e 3bf0 073f 9abf 7cbe
00000190: 63dd e8bd 04d8 203e 9964 88be 1d88 293e
000001a0: 849d 55be a534 79bb 309e 97be b0eb 093d
000001b0: da08 03be d26b ee3e 3d88 813d bf62 d3be
000001c0: f828 a83e a5ae 7c3e 46b4 16bf d03e 4e3d
000001d0: b397 cb3e 3533 44be da37 bebd ed74 723d
000001e0: 425c 0ebf 82a2 8f3c a769 12bd 5fc6 f33d
000001f0: ffc7 78be 350b 96be 8f96 363e c7f2 9abe
00000200: 91ef f8bd 7241 623e 6f51 0bbe 08e1 d03e
00000210: d7cd da3e 3c7a 383e 9b24 94bf c3ba 90be
00000220: 51d2 31be dfa1 44be 5bc0 9f3c f1a4 973e
00000230: ac9a 46be 574e 1ebf 8122 6ebd 9a3d 37bd
00000240: 0026 35bf 489f d7be 17d8 cdbe ecd2 79be
00000250: 3983 54be 59ed bfbe f9f8 a6be dc62 a1be
00000260: 352c 1dbf 6800 55be 0561 bcbd e81e 6cbe
00000270: 41ba 37be c502 f33d 3f87 433d a3ef f3be
00000280: 3fc8 9dbe 1c29 ecbe c045 8bbe 8d66 4dbe
00000290: 7be4 aa3e 04d4 313e 525f b43e e615 a4bd
000002a0: c52f 063e 6b41 ef3d d4e2 fbbe f444 e0be
000002b0: 5257 43be b146 cbbd dae9 373e 93b2 76be
000002c0: c420 9f3d b33d 40be 609f 183f 065a 3d3e
000002d0: 5482 983e f26e 333b f94c 953e 4a33 663d
000002e0: c878 0cbe e251 eabe 71ee 593e f8a8 28be
000002f0: e207 3abf 7fb7 363d 763e e8be fcc7 973d
00000300: 4b87 86be 7d70 323d a89f 64bf 8157 23be
00000310: 9687 61be a885 81be 9b46 053e a4b9 33be
00000320: 5176 4dbf 54a9 8bbe be71 5ebf a740 e1be
00000330: 60b4 95be c1b1 703e 3eee 8bbe ffd7 33bf
00000340: 8dcd 32be 9d82 07bf 511e 85bd e40c 54be
00000350: 1fa9 00be 4a50 10bf 720f 99be 7b45 8fbc
00000360: efd9 90be 3bf3 83be 15b1 90be 708b 923e
00000370: 26f3 4bbe a08a 98be 8b34 0dbe 7d1f 89be
00000380: ce85 85be 3ac3 75be 61ab 9cbe 5c6a 98be
00000390: a00b 8abe 0556 c13f 38ee 39bf ca18 debe
000003a0: ed87 26bd 343f 77be a64a bc3d 3008 02bf
000003b0: d6bf 143e 7486 6fbe 66c3 983e a5d0 853e
000003c0: 9453 dbbe 907a d2bf d67b 8dbe ef97 0ebf
000003d0: 97b3 b9bd e531 06bf fd81 96be efb2 54bd
000003e0: 999c 5ebe f796 94be 79ca 2abe 4985 103f
000003f0: 78a7 cabe d062 aa3d bf72 4abf 3627 0dbf

l2.bias f4 [128]
-0.4023852 -0.07674618 0.14355327 -0.5427982 0.12218317 -0.15391245 0.17036556 -0.41528314
0.1363685 -0.374658 -0.04362523 -0.2951245 -0.19251451 0.06315993 0.1940395 0.20831077
-0.46400845 -0.35500643 -0.3426414 -0.06347285 0.035337504 -0.21740347 -0.0731776 -0.24868426
-0.3275074 -0.010574804 -0.09534621 -0.2125744 -0.05129844 0.16493478 -0.39272565 -0.24596469
-0.14298424 -0.17064185 0.029443648 -0.20985627 -0.2840297 -0.24092211 0.21102026 -0.08971135
0.291323 -0.0046338127 -0.08786075 -0.22446173 0.25879237 0.35087118 0.42075184 -0.26747757
0.04311794 0.5393156 0.16984624 -0.048604593 -0.08093239 -0.08205266 -0.08319342 -0.19413662
0.14006126 -0.16504106 -0.06566875 0.1608461 0.25241616 -0.0498955 -0.26979035 0.30745006
-0.14462885 0.10516033 0.33240306 0.023109242 -0.14331114 -0.101857305 -0.27340597 -0.24730456
-0.34761158 0.2630604 -0.054018404 -0.436792 -0.22748113 0.15351081 -0.1959603 -0.4308515
0.36438373 -0.20977543 0.034871172 -0.24993804 0.27728435 -0.043577615 -0.16419032 -0.120672904
-0.08673779 0.15872318 0.0015977366 0.11699235 -0.3496733 0.58145595 -0.096974894 -0.02651915
-0.09391747 0.1980099 0.29483342 -0.13265994 -0.1532012 -0.00862473 0.32998675 0.30766115
-0.11022918 0.30968815 0.43746173 -0.22857381 0.06583279 0.10189421 -0.045729626 -0.12314992
0.1193445 0.123711765 -0.21296553 0.06015984 0.00933403 0.058245625 -0.22286609 -0.2329718
-0.021429254 -0.3985909 0.108591616 -0.27272987 -0.4040426 0.10076443 0.018610444 -0.14758147
00000000: 6f05 cebe 1a2d 9dbd a1ff 123e d3f4 0abf
00000010: 2b3b fa3d 3a9b 1dbe 4f74 2e3e fe9f d4be
00000020: 2fa4 0b3e 2cd3 bfbe 5fb0 32bd 8f1a 97be
00000030: 8622 45be fe59 813d 4ab2 463e 6b4f 553e
00000040: 8492 edbe 67c3 b5be b26e afbe 0efe 81bd
00000050: 0fbe 103d 049f 5ebe 23de 95bd 16a7 7ebe
00000060: 0daf a7be f141 2dbc e044 c3bd 1aad 59be
00000070: 501e 52bd aae4 283e 5613 c9be 2bde 7bbe
00000080: 766a 12be bdbc 2ebe ce33 f13c 90e4 56be
00000090: 576c 91be 49b4 76be b215 583e 96ba b7bd
000000a0: 4a28 953e 3dd7 97bb 56f0 b3bd 4cd9 65be
000000b0: 6f80 843e 63a5 b33e c96c d73e d2f2 88be
000000c0: 709c 303d 9610 0a3f 2cec 2d3e 9c15 47bd
000000d0: e2bf a5bd 3a0b a8bd 5061 aabd c0cb 46be
000000e0: 386c 0f3e 8600 29be 567d 86bd d7b4 243e
000000f0: b13c 813e 395f 4cbd f621 8abe 186a 9d3e
00000100: 9619 14be 4d5e d73d bc30 aa3e 984f bd3c
00000110: 28c0 12be 909a d0bd defb 8bbe 683d 7dbe
00000120: 25fa b1be daaf 863e 6742 5dbd 33a3 dfbe
00000130: d0f0 68be f031 1d3e d1a9 48be 9198 dcbe
00000140: 8190 ba3e 5fcf 56be 13d5 0e3d c2ef 7fbe
00000150: 37f8 8d3e 717e 32bd 8221 28be 5b23 f7bd
00000160: 95a3 b1bd 5488 223e 256b d13a af99 ef3d
00000170: 6108 b3be 4cda 143f c69a c6bd b03e d9bc
00000180: cd57 c0bd 1bc3 4a3e 68f4 963e 02d8 07be
00000190: c6e0 1cbe bd4e 0dbc 06f4 a83e c385 9d3e
000001a0: d6bf e1bd 728f 9e3e fcfa df3e 410f 6abe
000001b0: 58d3 863d e9ad d03d fd4e 3bbd 0636 fcbd
000001c0: e46a f43d 985c fd3d a313 5abe 2a6a 763d
000001d0: c2ed 183c f792 6e3d 0237 64be 2990 6ebe
000001e0: 678c afbc 1b14 ccbe 4865 de3d 40a3 8bbe
000001f0: acde cebe 955d ce3d ee74 983c 991f 17be

l3.weight f4 [256, 128]
-0.56445235 -0.35725704 0.18720627 0.6580254 -0.17585331 0.511351 -0.88352096 -0.45136085
-0.37134296 -0.2425326 0.088377535 -0.21952651 -0.07454993 -0.18967056 0.1612472 -0.4387601
-0.59450746 0.3696396 -0.21372074 -0.026223434 0.114653386 -0.6138977 -0.6673761 -0.34393057
-0.47529343 0.10968922 0.17466147 0.015383588 0.13297826 -0.14593136 -0.13454725 0.3744574
-0.15905704 0.26280445 0.061292816 0.24027398 -0.10464249 -0.33559376 -0.92775995 0.21447663
0.25291282 -0.34292185 -0.4799461 0.17128128 -0.077354826 0.08736405 0.08425655 -0.09339624
0.24158745 0.2951682 -0.17912768 -0.3413538 0.027302196 -0.1783102 0.07165425 -0.07931396
-0.6157833 -0.059112187 0.1761267 -0.43597475 -0.11053509 -0.18491061 -0.14438798 0.06499265
-0.20224994 -0.67067885 0.19503012 -0.24830693 -0.16215329 -0.4438976 -0.031941533 0.13823089
-0.57334477 -0.006403461 -0.5464179 -0.33528224 0.08579672 -0.3275567 -0.5079125 -0.1243884
0.2083849 0.1186474 0.87709713 -0.32151484 -0.10640226 -0.23419276 -0.27072057 -0.39351758
-0.44283953 0.15004921 -0.056905337 0.040426765 -0.0685308 -0.37679872 0.293804 0.030254018
-0.11959747 0.04808467 0.06411651 0.18696545 0.21493125 -0.17821072 0.05468429 0.3277887
-0.18457681 -0.5681827 -0.36722472 0.23584509 0.57337767 0.3137966 -0.27914706 -0.26878953
-0.5111904 0.07296937 0.51424426 0.08295106 -0.27598527 -0.034242176 0.18723322 0.15543205
-0.18660435 0.0027578867 -0.15156054 0.085769616 0.121540196 -0.11739972 -0.04179465 -0.13662033
0.11840954 -0.38589227 0.34177068 -0.12592207 -0.8887412 -0.2514993 -0.23196876 -0.52462125
-0.16026306 -0.22222276 0.16750386 -0.42757055 -0.32482743 0.018560061 0.20358245 -0.3366657
0.27368924 -0.36690965 -0.029321201 0.082975045 0.08083862 -0.38505122 0.04738961 -0.26122257
-0.47069222 0.013653164 0.40189397 -0.25976747 0.61767215 0.25555247 0.10510344 -0.063549675
0.29373887 -0.21024577 -0.22081472 -0.013682426 0.705195 -0.8778356 0.51408285 0.32470202
-0.89451885 -0.24503376 -0.5603954 -0.05688002 -0.19495563 0.12373764 -0.49069014 0.16988027
0.16052294 -0.67891437 -0.17110506 0.29062733 -0.07162688 0.036156893 0.19168271 -0.015495435
-0.35110345 -0.16187714 0.22792722 -0.24294992 0.061453182 0.32044545 -0.020090872 -0.3424228
0.21140455 0.307515 -0.05599899 0.073004566 0.051961258 0.0012786204 0.2865825 -0.28009686
-0.4192704 0.006670687 -0.5140576 -0.21426798 -0.0077482457 -0.037412312 0.2294723 -0.30953628
-0.7497321 0.40105808 -0.45763928 0.024281822 0.0566235 -0.23244235 0.35369208 -0.01255057
-0.04037212 -0.4946973 -0.24177615 -0.090428896 0.029502477 -0.10791177 0.17401928 0.35156605
-0.25383636 0.008103581 -0.5842223 0.45236516 -0.19499178 -0.010753636 -0.37179145 0.28151613
-0.16826282 0.030696092 -0.92636824 0.21684177 -0.08357275 -0.28716615 0.25583616 0.14161135
0.11469349 -0.1575925 0.108548805 0.052057434 -0.28755423 0.31171903 -0.019531762 -0.057807714
-0.07981231 0.22049011 -0.23104034 -0.12597544 -0.59019387 0.17482075 -0.049243208 0.058121644
00000000: f37f 10bf 65ea b6be 00b3 3f3e 5a74 283f
00000010: e412 34be e6e7 023f 6e2e 62bf c518 e7be
00000020: aa20 bebe 775a 78be 48ff b43d 8fcb 60be
00000030: a2ad 98bd 0039 42be fc1d 253e 2aa5 e0be
00000040: a431 18bf 6741 bd3e 9cd9 5abe 87d2 d6bc
00000050: 65cf ea3d 6628 1dbf 29d9 2abf ab17 b0be
00000060: a959 f3be bea4 e03d 75da 323e 720b 7c3c
00000070: 742b 083e 086f 15be c1c6 09be e1b8 bf3e
00000080: d9df 22be 4e8e 863e 2d0e 7b3d 620a 763e
00000090: cd4e d6bd f2d2 abbe ad81 6dbf c39f 5b3e
000000a0: ca7d 813e 7493 afbe 7fbb f5be 5c64 2f3e
000000b0: 356c 9ebd eceb b23d b38e ac3d 8746 bfbd
000000c0: b362 773e 4920 973e 3f6d 37be edc5 aebe
000000d0: dba8 df3c f396 36be 77bf 923d 5c6f a2bd
000000e0: f9a3 1dbf 9f1f 72bd 8f5a 343e 1538 dfbe
000000f0: 3960 e2bd 3559 3dbe 71da 13be de1a 853d
00000100: 9c1a 4fbe 9cb1 2bbf fab5 473e 2c44 7ebe
00000110: 830b 26be 8c46 e3be 20d5 02bd 668c 0d3e
00000120: b9c6 12bf 20d4 d1bb 0be2 0bbf 1daa abbe
00000130: 31b6 af3d 83b5 a7be 8e06 02bf 58bf febd
00000140: da62 553e 68fd f23d 7089 603f 989d a4be
00000150: 6ee9 d9bd 3ad0 6fbe e39b 8abe 237b c9be
00000160: ddbb e2be 80a6 193e 9215 69bd 8996 253d
00000170: e059 8cbd c3eb c0be 7a6d 963e 46d7 f73c
00000180: 85ef f4bd 6ef4 443d 844f 833d df73 3f3e
00000190: f016 5c3e df7c 36be a2fc 5f3d ecd3 a73e
000001a0: b401 3dbe 6c74 11bf e104 bcbe 6081 713e
000001b0: e1c8 123f f3a9 a03e 5dec 8ebe c89e 89be
000001c0: 60dd 02bf f770 953d 83a5 033f 3fe2 a93d
000001d0: f14d 8dbe 8641 0cbd 11ba 3f3e 9429 1f3e
000001e0: 3615 3fbe a9bd 343b b032 1bbe fba7 af3d
000001f0: 11ea f83d 446f f0bd de30 2bbd 33e6 0bbe
00000200: b380 f23d ac93 c5be 91fc ae3e b7f1 00be
00000210: 8b84 63bf 84c4 80be 3889 6dbe 944d 06bf
00000220: 001c 24be 5d8e 63be 2286 2b3e 87ea dabe
00000230: c84f a6be 450b 983c eb77 503e 725f acbe
00000240: ff20 8c3e 95db bbbe 0433 f0bc d2ee a93d
00000250: b88e a53d 6f25 c5be 9c1b 423d f7be 85be
00000260: 92fe f0be 85b1 5f3c 0cc5 cd3e 3e00 85be
00000270: c31f 1e3f c6d7 823e 7940 d73d 5526 82bd
00000280: f164 963e ab4a 57be 411d 62be 412c 60bc
00000290: a987 343f d5b9 60bf ef9a 033f 583f a63e
000002a0: 30ff 64bf 21ea 7abe 1376 0fbf 06fb 68bd
000002b0: 73a2 47be 296a fd3d bd3b fbbe 18f5 2d3e
000002c0: 2060 243e 55cd 2dbf 2a36 2fbe 1bcd 943e
000002d0: 1db1 92bd 4019 143d 7948 443e 91e0 7dbc
000002e0: d5c3 b3be 1fc3 25be c165 693e ddc7 78be
000002f0: 55b6 7b3d 6d11 a43e 9d95 a4bc 0b52 afbe
00000300: 6f7a 583e 9b72 9d3e 325f 65bd 6b83 953d
00000310: 54d5 543d 6297 a73a f1ba 923e db68 8fbe
00000320: 9caa d6be c795 da3b 4799 03bf 1169 5bbe
00000330: ffe4 fdbb a73d 19bd c9fa 6a3e 8a7b 9ebe
00000340: 71ee 3fbf 7c57 cd3e b24f eabe acea c63c
00000350: 0bee 673d 5e05 6ebe 2117 b53e e8a0 4dbc
00000360: 3c5d 25bd f748 fdbe 2b94 77be c932 b9bd
00000370: 2eaf f13c d900 ddbd 1c32 323e 7700 b43e
00000380: d7f6 81be e2c4 043c 988f 15bf 689c e73e
00000390: edab 47be 0530 30bc 735b bebe e222 903e
000003a0: 174d 2cbe 5f76 fb3c 7826 6dbf c50b 5e3e
000003b0: 3128 abbd 7107 93be f5fc 823e 9102 113e
000003c0: 6ce4 ea3d ee5f 21be d64e de3d 2d3a 553d
000003d0: 4f3a 93be a399 9f3e 1301 a0bc c8c7 6cbd
000003e0: a374 a3bd 29c8 613e d795 6cbe b5ff 00be
000003f0: f216 17bf 3604 333e 3fb3 49bd f610 6e3d

l3.bias f4 [256]
-0.27493155 -0.26383182 -0.39635488 0.08588729 -0.19046189 -0.1474328 -0.7220889 0.20253572
-0.30529606 -0.46952602 -0.12611948 0.049437076 -0.09129097 0.12266036 -0.21002135 0.24853438
-0.02339037 -0.04487821 0.3261825 -0.025778675 0.18487334 -0.14182524 0.13661651 -0.36162922
0.060412847 -0.063152164 0.05852438 -0.165836 -0.11193494 -0.24112111 -0.084811345 -0.15943009
-0.20093034 -0.42873538 -0.15193088 -0.25748238 0.09609901 -0.60284346 0.12609561 -0.0939357
-0.42746443 -0.3503193 -0.26331505 -0.29122254 -0.3927733 -0.54250723 0.31740233 -0.42903653
-0.20042345 -0.10235945 -0.15678117 -0.22395359 0.11796371 -0.10802964 -0.048428457 -0.49846798
-0.22932515 0.5697034 -0.32916543 0.08449646 0.116862535 -0.73414904 -0.016299868 0.4731789
0.091675445 0.10324831 0.43026835 0.19753364 0.406588 -0.043969624 -0.27708748 -0.09201287
-0.24152145 -0.09915504 -0.05676713 0.3080893 -0.08605292 0.2212307 -0.10868503 0.164079
-0.45500347 -0.13415618 -0.061363604 0.058922768 -0.02222747 -0.34921455 -0.2864067 0.084922895
-0.01590622 -0.003807661 -0.27105865 0.141261 0.218696 -0.49993324 -0.33446246 0.39721978
0.3987842 -0.3895483 -0.2821142 0.09736692 0.5030166 -0.21728858 -0.044094827 -0.056041256
0.048816256 -0.42144182 0.2368611 -0.023599423 -0.20372398 0.12841056 -0.017804014 -0.07742347
-0.3095815 0.101059265 -0.23853433 0.18720855 0.07993285 -0.43109024 -0.3164062 0.5272273
0.399147 0.16288505 0.09770258 0.18476175 0.047394007 0.48086467 0.109576054 -0.21623401
0.20658775 -0.1259652 0.254319 0.011390188 -0.44292948 -0.017767949 0.01715307 0.10480699
0.02710352 -0.1904649 0.2580556 -0.28331715 -0.10801401 -0.43553603 -0.2295274 -0.23642285
0.47252712 0.14628412 0.35993442 0.44731236 0.3235172 0.27286372 0.26482192 -0.026450004
-0.23088966 -0.1607577 -0.103123814 0.35668483 -0.079423286 0.25472733 0.013418966 -0.18776119
-0.30042294 0.40203676 -0.16240168 -0.38341627 0.35910928 -0.03649141 0.41301286 -0.16686752
-0.36289063 -0.14608283 0.42363688 -0.032574274 -0.36914858 -0.17799912 0.27329904 0.17367658
-0.012281455 -0.21687299 0.043847702 -0.21992989 -0.118225135 -0.17043766 0.22673084 -0.10342099
0.16752125 -0.08958379 0.32072544 -0.791681 -0.12065185 -0.6147758 -0.11094642 -0.0983272
0.3941083 -0.038068302 0.1408244 -0.11082051 0.23481005 -0.15914097 0.36667335 -0.31398746
-0.30149615 -0.4617651 0.22639719 -0.1810956 -0.03197679 0.42031148 -0.22508915 -0.16339204
0.3466978 -0.2463068 -0.036782876 -0.25626785 -0.6906598 0.16587764 0.43924326 0.2650921
0.074977554 0.37183836 0.06251088 -0.3402809 0.06699198 0.0599345 0.11294511 -0.12997255
-0.22423531 0.2785642 0.17427151 -0.18673871 -0.33658352 -0.42006603 0.041727502 0.093897805
-0.061352033 0.021435274 -0.08542094 0.25845876 -0.28756297 0.56363505 -0.4810222 -0.75193673
-0.27898878 -0.19607766 -0.08941974 0.072046384 -0.53129005 -0.17764518 -0.66063786 -0.2495869
-0.23581894 -0.21204367 -0.52125984 0.045596957 0.011029712 -0.061033342 0.041184325 0.1446977
00000000: d4c3 8cbe f714 87be 07ef cabe ade5 af3d
00000010: 7108 43be a0f8 16be d1da 38bf 8665 4f3e
00000020: c44f 9cbe b765 f0be 7725 01be 887e 4a3d
00000030: c3f6 babd 5b35 fb3d d60f 57be cc7f 7e3e
00000040: 299d bfbc 37d2 37bd 6501 a73e cd2d d3bc
00000050: 704f 3d3e a33a 11be 33e5 0b3e 7727 b9be
00000060: 7673 773d ec55 81bd 43b7 6f3d ead0 29be
00000070: 253e e5bd 74e8 76be 92b1 adbd a441 23be
00000080: afc0 4dbe 3483 dbbe c593 1bbe bbd4 83be
00000090: 8fcf c43d f353 1abf 351f 013e 5c61 c0bd
000000a0: 9edc dabe 0d5d b3be 3bd1 86be 1f1b 95be
000000b0: 9519 c9be c1e1 0abf 8f82 a23e adaa dbbe
000000c0: ce3b 4dbe d5a1 d1bd 3e8b 20be 1754 65be
000000d0: f596 f13d a53e ddbd eb5c 46bd 3237 ffbe
000000e0: 36d4 6abe 15d8 113f 5f88 a8be 7b0c ad3d
000000f0: a055 ef3d 31f1 3bbf 4d87 85bc 8144 f23e
00000100: 56c0 bb3d da73 d33d 224c dc3e 4246 4a3e
00000110: 4d2c d03e 7e19 34bd 69de 8dbe 3e71 bcbd
00000120: 6651 77be cc11 cbbd a684 68bd e1bd 9d3e
00000130: 833c b0bd 4d8a 623e 4296 debd 5304 283e
00000140: 37f6 e8be 3d60 09be 6758 7bbd 0059 713d
00000150: 6216 b6bc 40cc b2be e6a3 92be 0eec ad3d
00000160: c34d 82bc f389 79bb 33c8 8abe b9a6 103e
00000170: d8f1 5f3e 40f7 ffbe aa3e abbe 6460 cb3e
00000180: 712d cc3e e072 c7be 4671 90be 4f68 c73d
00000190: b2c5 003f e680 5ebe c79c 34bd 848b 65bd
000001a0: 8ef3 473d 39c7 d7be b78b 723e 9453 c1bc
000001b0: 059d 50be 0f7e 033e b9d9 91bc 3290 9ebd
000001c0: 7781 9ebe 29f8 ce3d 5842 74be 99b3 3f3e
000001d0: d6b3 a33d dcb7 dcbe feff a1be 5ef8 063f
000001e0: ff5c cc3e 57cb 263e 4a18 c83d 2f32 3d3e
000001f0: 3820 423d e533 f63e 6969 e03d 736c 5dbe
00000200: bd8b 533e 05fd 00be 1a36 823e e99d 3a3c
00000210: a7c7 e2be 178e 91bc 9884 8c3c 0ca5 d63d
00000220: 3408 de3c 3b09 43be dd1f 843e f20e 91be
00000230: 7336 ddbd 94fe debe 3b09 6bbe d518 72be
00000240: 13ef f13e 81cb 153e 5349 b83e 2006 e53e
00000250: 0ca4 a53e cbb4 8b3e bd96 873e aead d8bc
00000260: 576e 6cbe ab9d 24be 9432 d3bd 659f b63e
00000270: ada8 a2bd 9f6b 823e 39db 5b3c 7844 40be
00000280: 09d1 99be c3d7 cd3e a04c 26be 234f c4be
00000290: 2cdd b73e 0478 15bd 6c76 d33e 52df 2abe
000002a0: cdcc b9be bd96 15be efe6 d83e 9a6c 05bd
000002b0: 0b01 bdbe 6745 36be daed 8b3e 46d8 313e
000002c0: 2838 49bc f413 5ebe a699 333d 4d35 61be
000002d0: 0520 f2bd 3687 2ebe 212c 683e 62ce d3bd
000002e0: b18a 2b3e b577 b7bd 2036 a43e 9bab 4abf
000002f0: 5118 f7bd f261 1dbf e037 e3bd c55f c9bd
00000300: 90c8 c93e 82ed 1bbd 4634 103e ddf5 e2bd
00000310: 0c72 703e daf5 22be 9cbc bb3e f7c2 a0be
00000320: b45d 9abe 7a6c ecbe aad4 673e 2071 39be
00000330: 18fa 02bd 1133 d73e c57d 66be 3e50 27be
00000340: 6082 b13e da37 7cbe a4a9 16bd 8a35 83be
00000350: 15cf 30bf d4db 293e 7ee4 e03e 27ba 873e
00000360: d58d 993d 9961 be3e b405 803d 4c39 aebe
00000370: 1733 893d e17d 753d c44f e73d 8617 05be
00000380: f19d 65be f89f 8e3e 3b74 323e 6f38 3fbe
00000390: ad54 acbe e512 d7be 75ea 2a3d 7e4d c03d
000003a0: 454c 7bbd 0799 af3c 2cf1 aebd b554 843e
000003b0: 743b 93be 634a 103f 8b48 f6be ed7e 40bf
000003c0: 9ed7 8ebe 95c8 48be b221 b7bd 0e8d 933d
000003d0: a002 08bf 9ee8 35be 901f 29bf b593 7fbe
000003e0: 857a 71be fa21 59be 4971 05bf e0c3 3a3d
000003f0: f7b5 343c 19fe 79bd e5b0 283d a22b 143e

l4.weight f4 [4, 256]
-1.1685139 -0.42741188 0.7785641 0.09490941 0.95903236 0.6361321 0.041868635 -1.109137
-0.05778182 0.626911 -0.09452212 0.28603742 0.48241144 1.3329197 0.1777941 1.1041663
0.29729372 -0.7214225 -0.19302177 0.36799878 0.96052927 1.8619957 0.19026487 1.3955191
0.3653197 -0.21263082 0.38608173 -0.5536851 0.6653614 0.9471184 0.15707101 -0.90646726
-0.106549084 1.070738 0.29745632 -0.35855776 0.5751265 1.3578758 -1.0524082 0.37154007
-0.8858397 0.72580093 1.1726813 2.0512211 -0.9445027 0.97412133 0.4827491 1.022378
-0.080725074 0.23389857 0.9032195 0.24986863 0.89800227 0.7658925 -0.24581972 -0.51071507
0.5594093 0.16742992 -0.87190205 1.1632993 -0.90420896 -0.5108542 0.9992269 -0.7156043
-0.81138855 -0.5813798 -0.8840747 1.8363882 -0.54034424 0.083445154 0.7659421 0.465862
-0.3472603 1.0974247 0.9667372 -0.5777021 0.71375716 0.5258881 -0.64930105 -0.047119465
-1.2096206 0.6720661 0.22437514 -1.2814134 0.1719173 -0.44745484 -0.96939033 -0.33913538
0.64357996 -0.73531294 -0.4593481 1.517632 0.45214143 -0.75999546 0.8224727 -0.06773689
-0.06345169 1.5860811 -0.70929974 0.5106331 -2.7738543 -0.51418513 -0.4114459 -0.30512753
1.5658352 1.0174176 -3.3892753 -0.2968865 -0.55164766 0.56363535 -0.016740426 1.0694169
-1.4841269 0.71377474 -0.54544425 -0.7024108 -0.10072246 0.0029550618 0.55969834 -0.9659574
0.21592657 0.8683119 0.7814168 -0.2196362 -1.0758722 0.7571633 -0.2109827 0.81918794
-1.2629585 0.59067667 -0.12589465 -0.73222905 0.8286692 1.0221139 0.44842908 -0.641314
0.7762774 0.19574389 -0.06372736 -0.07130905 -0.22897187 -0.96235734 -1.5053586 1.3471617
0.56094575 0.7158735 -0.657457 0.31469834 0.6730782 1.2318214 0.66885304 -0.5560994
0.8594247 -0.1054693 -0.10053863 0.116725706 -1.0284499 -0.6549354 -0.3734867 -0.6548418
0.7729504 -1.1401834 -0.3273758 0.47291315 -0.3397001 0.91748965 0.30464512 0.050094336
-0.01169869 2.218781 0.4683273 -0.18307771 1.7670598 -1.7358181 0.24173602 0.7532153
-0.5123531 -0.09208125 -0.1815008 -0.9062434 0.22378077 -2.2116382 -3.1991425 0.021207303
1.309554 -0.71829796 -1.1102636 0.86587036 0.80724275 -0.25808445 1.183101 -0.90011114
-0.7549139 0.38996276 -0.5856313 -0.74878395 -0.8778503 0.47883928 -1.1099105 -0.2662403
0.025607433 0.04095448 0.070965566 -0.3035707 0.6777245 -0.5535478 -0.7630461 -0.24532413
-0.3129358 0.9308922 -0.90903175 -0.31999406 0.5319522 -0.17814568 -0.54162014 -0.03610851
1.0692408 0.75942254 -0.08272716 0.9554278 0.9126178 1.1548159 0.26568416 -0.32081354
0.6240762 1.4478662 -0.47697237 0.27424708 1.1351913 0.658623 -1.0290352 1.4412075
0.5057528 1.5995451 -1.2794559 -0.4949859 0.35925487 0.23826559 -0.6579485 -0.18685098
0.6562443 -0.4641253 -1.3593166 -1.9941863 -0.28943652 -1.5521601 -0.7701843 0.53632504
1.6840717 -0.39264444 -1.0300397 -1.9418505 -0.6891698 -0.0866303 0.5777072 -1.8416448
00000000: dd91 95bf bbd5 dabe fa4f 473f dd5f c23d
00000010: 2583 753f 8ed9 223f 727e 2b3d 34f8 8dbf
00000020: a1ac 6cbd 3d7d 203f d094 c1bd 7f73 923e
00000030: a2fe f63e 1d9d aa3f a80f 363e 5255 8d3f
00000040: e236 983e 25af 38bf 80a7 45be 566a bc3e
00000050: 3fe5 753f e055 ee3f cbd4 423e 5fa0 b23f
00000060: 2f0b bb3e e5bb 59be 81ac c53e 4fbe 0dbf
00000070: 2055 2a3f 5a76 723f 39d7 203e 3d0e 68bf
00000080: 6836 dabd f10d 893f 324c 983e e294 b7be
00000090: 7e3b 133f e0ce ad3f 50b5 86bf 803a be3e
000000a0: 64c6 62bf 17ce 393f 6c1a 963f 3547 0340
000000b0: eeca 71bf 0460 793f e42a f73e 48dd 823f
000000c0: 3053 a5bd 1b83 6f3e 6539 673f 90dd 7f3e
000000d0: 7ae3 653f 8811 443f 2ab8 7bbe 39be 02bf
000000e0: 7335 0f3f c072 2b3e f934 5fbf fee6 943f
000000f0: 3d7a 67bf 57c7 02bf 56cd 7f3f d831 37bf
00000100: 29b7 4fbf 4ed5 14bf b852 62bf c50e eb3f
00000110: 0054 0abf 4be5 aa3d c814 443f 7785 ee3e
00000120: 1acc b1be 6a78 8c3f 177c 773f 49e4 13bf
00000130: cab8 363f 9aa0 063f 9838 26bf 5700 41bd
00000140: d9d4 9abf 860c 2c3f 99c2 653e 5b05 a4bf
00000150: 170b 303e cd18 e5be f729 78bf 27a3 adbe
00000160: a8c1 243f 783d 3cbf ad2f ebbe c441 c23f
00000170: 157f e73e 108f 42bf 928d 523f a3b9 8abd
00000180: f6f2 81bd b504 cb3f ab94 35bf dab8 023f
00000190: d486 31c0 a3a1 03bf 09a9 d2be ad39 9cbe
000001a0: 4a6d c83f bd3a 823f e3e9 58c0 8201 98be
000001b0: c838 0dbf 684a 103f 3823 89bc a7e2 883f
000001c0: dff7 bdbf f1b9 363f 3ca2 0bbf 32d1 33bf
000001d0: 9447 cebd b6a9 413b 6448 0f3f fc48 77bf
000001e0: db1b 5d3e b049 5e3f ee0a 483f 50e8 60be
000001f0: 2eb6 89bf 74d5 413f d90b 58be 4db6 513f
00000200: a0a8 a1bf 9636 173f 87ea 00be 5d73 3bbf
00000210: aa23 543f a1d4 823f 7f98 e53e 282d 24bf
00000220: 1eba 463f 1671 483e 7d83 82bd 7b0a 92bd
00000230: 9a77 6abe 0d5d 76bf 97af c0bf cb6f ac3f
00000240: 249a 0f3f 7c43 373f 1a4f 28bf 2420 a13e
00000250: da4e 2c3f 53ac 9d3f f439 2b3f 885c 0ebf
00000260: 4203 5c3f 4a00 d8bd 32e7 cdbd e30d ef3d
00000270: 3fa4 83bf d9a9 27bf a639 bfbe b6a3 27bf
00000280: 14e0 453f 88f1 91bf cd9d a7be ac21 f23e
00000290: 2ced adbe 9ae0 6a3f 72fa 9b3e b82f 4d3d
000002a0: ddab 3fbc 8200 0e40 99c8 ef3e b978 3bbe
000002b0: 042f e23f 4a2f debf a689 773e b8d2 403f
000002c0: 9329 03bf 1895 bcbd 59db 39be 91ff 67bf
000002d0: c926 653e 7b8b 0dc0 c0be 4cc0 f0ba ad3c
000002e0: 779f a73f 60e2 37bf 1e1d 8ebf aea9 5d3f
000002f0: 76a7 4e3f a523 84be db6f 973f af6d 66bf
00000300: 0a42 41bf 33a9 c73e efeb 15bf 4eb0 3fbf
00000310: ccba 60bf 6c2a f53e 8c11 8ebf a650 88be
00000320: aec6 d13c e3bf 273d 6556 913d 9e6d 9bbe
00000330: 5a7f 2d3f 4fb5 0dbf fd56 43bf 4036 7bbe
00000340: 1f39 a0be f44e 6e3f 4eb6 68bf 43d6 a3be
00000350: 052e 083f d26b 36be 9ea7 0abf 84e6 13bd
00000360: e2dc 883f 8469 423f db6c a9bd eb96 743f
00000370: 52a1 693f 02d1 933f c107 883e ac41 a4be
00000380: 75c3 1f3f ae53 b93f b935 f4be 1d6a 8c3e
00000390: f34d 913f 849b 283f 6db7 83bf 7d79 b83f
000003a0: 0479 013f e5bd cc3f 36c5 a3bf cb6e fdbe
000003b0: 41f0 b73e e5fb 733e 506f 28bf dd55 3fbe
000003c0: a0ff 273f d5a1 edbe 16fe adbf 7f41 ffbf
000003d0: 0631 94be 2fad c6bf cc2a 45bf 994c 093f
000003e0: a98f d73f b108 c9be 57d8 83bf 8f8e f8bf
000003f0: 6f6d 30bf 3a6b b1bd 9ee4 133f 04bb ebbf

l4.bias f4 [4]
-0.082700305 0.37142694 0.1563551 -0.28122824
00000000: c75e a9bd ac2b be3e 8d1b 203e 26fd 8fbe
