preTrained/v1TD3_BipedalWalkerHardcore-v3_0_crtic_1.pth (torch_old, 175167 bytes, 7 tensors)

l1.weight f4 [64, 28]
00000000: ce7c 2a3f b222 9d40 0712 843e c130 733f
00000010: 893e 0d3f d511 5b3e f0d4 d53d 84f0 8e3d
00000020: 7ab7 d43c f686 b03d 948c 263e 36d4 9c3e
00000030: e0a8 8b3d 86dc 88bc 371a 213f 92fc 233f
00000040: b976 b63f 70b2 7d3f 7a0a 0d3f a79b c8be
00000050: afd2 ddbe cfc4 ccbd b4ce 63be 33cc a2be
00000060: 394f 1d3d d083 893c 9a26 7abd 378e 213d
00000070: 024f d53e 09ad 413f efc6 c53c 8e2e bd3f
00000080: d097 1a3d 0336 c8be c263 9fbd 1048 573e
00000090: 0688 db3e da93 f53d a521 063e cae4 203e
000000a0: 60eb 923d c14c 8c3d b125 f8be d288 6b3c
000000b0: 7ec8 d8bd 359e 07be a283 31bd 942f 253e
000000c0: 9454 b43d d19c 5a3d b633 49bc 7d83 44be
000000d0: fe46 16bf a83f ea3e 601f aebd 6130 4d3d
000000e0: 6aa3 393f f2b9 5140 6c1e 03c0 a8dd e23f
000000f0: 04db 8c3d 6586 35be 6c52 983e a900 2a3e
00000100: ccce 173d 00cb a33e 1cfa af3e 676e 5b3e
00000110: 9caa 903e a264 92bd 3f06 863e fb80 8a3e
00000120: 084f 1b3e 0540 883e ab11 983c a7b2 1abe
00000130: 916a d53d b00e 5d3e b0ca 203e b665 f4be
00000140: b1fb 58be a9ca dbbc 8b18 353e 46fb 783d
00000150: 5b1c 94be 8c90 29c0 726a 383f 7fa0 c33f
00000160: 1f68 8e3c 5059 25bd 37c2 46be 2174 a9bd
00000170: 79c9 99bc 82f1 35bc 7dcf 18be c1bd 95be
00000180: 4ff4 b9bd 3a58 66bd 8e91 be3f 22f5 c03f
00000190: fb78 b73f a719 443f cf37 a33e 0124 7abe
000001a0: 068e 97bf 5c03 c5be 5c1c d4be ab94 4ebd
000001b0: 1aee 35bd 04af 3a3c ad62 06bc 2f6e 573c
000001c0: 8799 9f3f 8773 863e 5d95 c43e fd48 96bf
000001d0: 974f a13f 1942 abbd 816b 023f 7bbe 44bd
000001e0: 61dc 863d 8a81 35be 21a2 e53d a85c fc3c
000001f0: 3ff2 d63c 2e43 4b3d 2b31 243e 5cc3 b03e
00000200: bc2a 01bf 0b9c 85bf 52ba 46bf 7ec5 37bf
00000210: 2375 883e c942 d43e 1722 c83d 1c59 b93d
00000220: ab2c 0abd cc24 e13c 94d6 ffbc b2a8 83bc
00000230: 0436 7f3f 4b23 b740 ad6e 89bf 737a f33f
00000240: 67c9 233c 44ef 8b3e f689 1c3e cf82 233e
00000250: ee96 01bd 2143 0f3f 739b 163d e257 86bd
00000260: f330 1ebe 2e39 c13c b80a b13e 71eb 913e
00000270: 4442 623e 0021 cd3e 4c62 b53e 80c3 32bd
00000280: 89b7 853e 4553 713b 79d8 d43d 94ac 2b3d
00000290: c506 3ebd 9433 513e fdf0 2e3d 2e1e 5ebd
000002a0: 4b8d a73f 1bb2 99be b542 04c0 8612 903f
000002b0: 7470 b63c 0fa8 61bd 6856 24be cf2a 743a
000002c0: 3264 75bd 6aca 853f f15f 10be 5d48 ea3e
000002d0: d2dd 5bbd 6649 573e f8bf b3be 4dac dbbe
000002e0: bd0d 5bbf f533 63bd 41f8 bd3e cb55 33bd
000002f0: d1dd 42bf 1f0b 853e 5e89 023f e0fc a73e
00000300: b6a6 7abd d23c 263d 34be 8c3d f1a1 b83c
00000310: 91bc e9bf 7c9e 05c0 ce84 1240 dc56 7cbf
00000320: 680c 94bf 9bce a2bd 00b4 95be 96ba 82bc
00000330: 3b96 bfbc 3719 9bbe 5d38 3cbd 85bd a0bd
00000340: cf5a 4cbc 4265 a1bd 9f5f 9f3e fcc1 033f
00000350: 7239 173f 8990 8d3e 8c74 a0be d9aa 8bbe
00000360: 50ca d0be e445 c3be a91e 01be 6fe7 d93d
00000370: 9906 abbc 0eeb cabc 1e53 603c 50b2 583c
00000380: b309 f5bc 9963 a4bd d92f 6c3e e3d0 c03f
00000390: 362a 8ebe da52 a03b 8351 5c3d e2a5 3f3c
000003a0: 4263 1a3e e9b2 283f 8e6c 8939 4bc4 b53e
000003b0: dda3 18bd 00c4 c13b 05d1 bf3d 3ea1 2d3e
000003c0: 1fc9 853f 666a 383f afca e13d 503d 88bd
000003d0: ed86 083f 1d3e 143f bb32 313d e88e ebbe
000003e0: ee17 4a3a 7e97 393b 8f10 923c 26af 84bb
000003f0: dd7b bfbf 9085 a0c0 d18a 823f 6801 f43f
0.66596687 4.9104853 0.25795004 0.9499627 0.55173546 0.21393521 0.10441005 0.069794685
0.025966395 0.08619492 0.16264564 0.30630654 0.0681932 -0.016706716 0.62930626 0.64057267
1.4254981 0.991004 0.5509411 -0.39181253 -0.433248 -0.09998476 -0.2224682 -0.31796417
0.03840563 0.016786486 -0.06107197 0.039442267 0.4166184 0.75654656 0.02414271 1.4779832
0.037742436 -0.39103708 -0.07782699 0.21023583 0.42877215 0.11991091 0.13098772 0.15712276
0.071738005 0.06850577 -0.48466256 0.014375882 -0.10585116 -0.13243945 -0.043338425 0.16131431
0.088051945 0.053372208 -0.012280395 -0.19190784 -0.58702075 0.4575169 -0.08502078 0.050094966
0.72514975 3.2769742 -2.0487318 1.7723894 0.068777114 -0.17727049 0.29750383 0.16601814
0.03706245 0.31990814 0.34370506 0.21428834 0.28255165 -0.071481004 0.2617664 0.2705153
0.15166867 0.26611343 0.018563112 -0.15107213 0.104207166 0.21587634 0.15702319 -0.4773385
-0.21189763 -0.026830034 0.17685144 0.060786508 -0.28927884 -2.6494474 0.7203742 1.5283355
0.017383633 -0.04036838 -0.19410025 -0.08274103 -0.018772827 -0.011104943 -0.149229 -0.29246333
-0.09079801 -0.056236483 1.488817 1.5074809 1.4333795 0.7660164 0.31878516 -0.24427797
-1.1840217 -0.38479125 -0.41427886 -0.05043475 -0.044416524 0.011394266 -0.008202237 0.013148828
1.2468728 0.26260015 0.38395205 -1.1741024 1.2602414 -0.083622165 0.5094529 -0.04803322
0.06585003 -0.17725196 0.11212564 0.0308059 0.026238559 0.049624614 0.16034381 0.34524047
-0.5045583 -1.0438246 -0.7762805 -0.71785724 0.26651868 0.41457203 0.09772127 0.090501994
-0.033734005 0.027483366 -0.031230249 -0.016071651 0.99691796 5.723058 -1.07369 1.9021744
0.0099967485 0.27330983 0.15287003 0.15967868 -0.03163808 0.55961806 0.03676934 -0.06559731
-0.1544836 0.023586836 0.3457849 0.2849994 0.22095591 0.4006424 0.35426557 -0.043643475
0.2611659 0.0036823314 0.103928514 0.04191263 -0.046393175 0.20429832 0.042710293 -0.054228
1.3089994 -0.30018696 -2.0665715 1.1255653 0.022270419 -0.055091914 -0.16048586 0.00093142403
-0.059910007 1.0452397 -0.14099099 0.45758334 -0.05367834 0.21024093 -0.35107398 -0.42904893
-0.8556784 -0.055469472 0.37103465 -0.04378299 -0.76119715 0.25985047 0.50990856 0.32810116
-0.061194144 0.040585347 0.06872216 0.022538157 -1.8260671 -2.087798 2.2893558 -0.98570037
-1.1566286 -0.07949563 -0.29238892 -0.015958112 -0.023387065 -0.30292675 -0.04595219 -0.07848648
-0.012472822 -0.078806415 0.3112764 0.5146787 0.5907203 0.27649334 -0.31338918 -0.27278784
-0.40779352 -0.3813926 -0.12609352 0.106398456 -0.02087717 -0.024770286 0.013691692 0.013226107
-0.029911852 -0.08026809 0.23065127 1.5063747 -0.2776658 0.004892689 0.053788673 0.011697264
0.15076926 0.65897995 0.00026211556 0.35501322 -0.037265647 0.0059132576 0.09366039 0.1695604
1.0452002 0.7203735 0.11024987 -0.066523194 0.5333088 0.5790728 0.04326127 -0.46007466
0.0007709254 0.0028319056 0.017830161 -0.0040491996 -1.4959675 -5.016304 1.0198613 1.9062929

l1.bias f4 [64]
00000000: 6b52 59bf 7cc8 29bf 1d48 a1bf 1964 c73c
00000010: 11c8 51be e049 51bf 6b92 4c3d 9110 233f
00000020: 083f 18bf b2f5 8c3e 0723 4f3e 988a cd3e
00000030: 726e 473e fddc 1abf 9475 0b3f 7632 063e
00000040: e4dd 05bf f2c9 d1be dea1 a33e 5ae9 4e3d
00000050: bb4d ee3e d787 d4be 0a15 3a3f 59aa e8bd
00000060: abff 933f 4057 f3bd da75 363e 9e50 a0be
00000070: 4655 d13e fde7 42bf 9688 d2be b670 503f
00000080: 9746 8a3e c84a af3d bab4 363e 6e11 d4be
00000090: d206 373f 8683 96bd d2fe 34bc f55f a5be
000000a0: 50c2 0d3f ed44 00bd 70e2 6abe b0eb d8be
000000b0: 82da 693c 5a53 483f b574 72bf 2af8 5abf
000000c0: 2bc2 45bf 9883 c1be c3c1 933d bc7b 04bf
000000d0: 51fd 0cbf 2517 72be 4d65 92bf b8ee dbbe
000000e0: 7619 cfbe cd3d 95be cab8 1dbe b749 90bc
000000f0: bd7c 93be 3d53 4cbf 1179 c73c e258 8fbe
-0.84891385 -0.6632154 -1.2600132 0.024339722 -0.20486476 -0.8175335 0.049944323 0.63697153
-0.5947118 0.275312 0.20228206 0.401448 0.19475725 -0.6049345 0.54476285 0.13105187
-0.52291703 -0.40974385 0.31959432 0.05051551 0.4654368 -0.41509888 0.72688353 -0.11360616
1.1562399 -0.11881876 0.17818394 -0.31311506 0.4088537 -0.76135236 -0.41119832 0.81421983
0.2700698 0.08559185 0.17842379 -0.41419548 0.7149478 -0.07349305 -0.011047082 -0.32299772
0.5537462 -0.031315733 -0.22937942 -0.42367315 0.014273288 0.78252184 -0.9470933 -0.8553492
-0.772494 -0.3779571 0.072146915 -0.51751304 -0.5507403 -0.23641641 -1.1437165 -0.42955565
-0.40449113 -0.29148713 -0.15402523 -0.017613275 -0.28806105 -0.7981451 0.024349721 -0.279975

l2.weight f4 [128, 64]
00000000: 1278 65bf be68 99bd 21a2 b0be 7ef8 94bd
00000010: 24ea b3bf 6218 e0be 78cf 823c ab68 fc3e
00000020: 6d2c d6be fba2 9abe 7dfc b9be df99 1cbe
00000030: dcdd d2bd 33d6 0a3f 10e1 dcbd 6002 a3bd
00000040: efa1 86be 9e3a 90bd 27e2 32be aa94 01bf
00000050: ea54 083e 9707 febe c261 12bf 98a8 dcbe
00000060: 0612 1e3d 6f42 8e3e e483 3cbf 19a1 303f
00000070: eb57 1fbf 6889 b8bd 032e 01be 320c cfbe
00000080: 3147 42bf fc25 55be e763 8f3e 63ec 22be
00000090: 8cfc 5dbe d290 39bf 8de9 24bf e061 debe
000000a0: d4f9 463d 15cd 0fbf 95cd 9b3d 4c18 68bf
000000b0: d1e9 5abc 8a39 5d3d 4706 53bf 6884 b13e
000000c0: d4a2 2cbf 0d01 1abf d2aa 44be 156e 67bf
000000d0: a4a8 50be 86b7 aa3e 65eb 8a3e 1b83 953e
000000e0: 6f05 e03e 7ef6 09be f867 3abf 9e75 61bd
000000f0: 171f 5a3f 4bfd eabe 0caf 1cbf 7768 78bc
00000100: 286e 263f 8fa9 e03e 35e7 2f3e 4537 9cbe
00000110: 9ea7 e23d 3c38 293f ca92 e4bd b547 09bf
00000120: fedd 203e de53 89be 5cc3 84be 1950 d1be
00000130: d37a 51be 3ab0 af3e 884e 7a3e fc61 99be
00000140: 3276 8cbe 8aec d43e f99f 67bf 02ee a9bc
00000150: 5109 b93d 3eb0 9c3e 43d8 4bbf 27de 203e
00000160: 3f4d 92be fcc0 f5be 3420 e13d 68e6 b03d
00000170: 92fa ee39 2659 e4be 72f0 87bd b262 c03d
00000180: 7cea ac3d 2e1f 803f a05f 063e b359 dc3e
00000190: 690b 1cbe 06a0 27bd 653b 31bc 8e58 0f3e
000001a0: 01a8 ac3d 492c b2bd fa8f 6b3e 0b6d 933e
000001b0: 6981 bfbe 4dfb 9ebe 3e03 b93e b67d e73d
000001c0: e3da e13e 19f7 0b3e 101d 2bbe 1ee7 6e3f
000001d0: 8788 32bd 59e9 5abf 9806 e0be 79d2 99bd
000001e0: 40aa cdbd 6b8d 32be 2728 80be 7392 663e
000001f0: 14e0 10bf 8827 c8bd 9e00 41bc 13e1 d03d
00000200: 944e cabf e051 903e 0339 f7be 340a 0f3f
00000210: cb63 26bf 6755 c2bf ce03 e6be dbe8 943f
00000220: d609 b33e 01d9 383e 28d6 83be a495 953e
00000230: a58d 14bd c225 f8be 222d 213f 2fb4 a1be
00000240: 3753 9b3e c321 2fbf 0cad ce3e de33 c73d
00000250: 04fa 7f3d c669 08bf 79c6 6e3e dbb6 e73d
00000260: cea1 2abf d1c8 d93e fe9a 16bf a061 81bf
00000270: cd45 ccbe 56cb 063f dfb2 99bf 5738 25be
00000280: 3fdb 0ebe c5ce f3bd 9720 8a3e d225 e8bd
00000290: c5d9 9a3d 3a33 68bf 71d2 09bc c0e9 1abe
000002a0: 547f e33e c337 3fbe 7f33 9cbe 999c 693d
000002b0: 46da 6c3e c239 283e f640 1ebf e4c5 58bf
000002c0: fe18 6dbf ad91 413f 291e 1d3d fdcb 7fbf
000002d0: af12 31bf 3771 dc3e 4bf4 4a3f cc59 e73e
000002e0: d389 02be aed1 c73e 446f ce3e 065a 1c3f
000002f0: f98b 883e f5d6 0a3f 8413 223f ecd8 54bf
00000300: 5f64 ad3e f594 c2be 5f0c a7bd 11f2 bebd
00000310: a908 7fbf d5e7 17bf c7fb 113e dc46 963d
00000320: d45f 2e3e c426 0abf 1e3c 3c3e 9dc7 a0be
00000330: 76fa 24bf ed3f 813d cd18 dcbe feba d0be
00000340: 8cb9 ddbe cc40 76be e39a efbd 57fd 273f
00000350: 9501 7abe d2a7 06bf 6d96 8a3c 7639 bbbe
00000360: 8211 33bf 6441 29be 94f0 82bf 96f9 28bf
00000370: a9bb b2be 92ba 543f bf94 95bd ce6f a43e
00000380: 7c91 613e a959 c7be f1d7 bcbd fbec aebe
00000390: f91f 77bd 7ac3 4cbf be27 debf e067 20bf
000003a0: a33e 083d d412 1a3e e370 3cbe 33f7 27be
000003b0: cd54 78bf fb43 62bf 4b3c 05bf f0aa 6dbe
000003c0: 2afa bfbe f78a 05be 4b25 e7bb ada0 ecbc
000003d0: af38 3cbe 5bad c4bf bca3 0d3e 155d e7be
000003e0: 7e26 0f3e 27ef 9bbe c110 57bf 766b dabf
000003f0: f2b5 8fbe 4fe5 2bbe 05be 85bf 083a afbd
-0.8963634 -0.07490681 -0.34498695 -0.072739586 -1.4055829 -0.43768603 0.01596807 0.49298605
-0.4183077 -0.3020247 -0.36325446 -0.15293072 -0.102962226 0.5423309 -0.10785115 -0.07959437
-0.2629542 -0.0704243 -0.17469083 -0.5061747 0.13313642 -0.49615166 -0.57180417 -0.43097377
0.038591407 0.2778506 -0.7363875 0.68995816 -0.6224353 -0.09010583 -0.12615208 -0.40438992
-0.7588988 -0.20815271 0.28005907 -0.15910487 -0.2167837 -0.72486603 -0.6441887 -0.43434048
0.0485781 -0.56172305 0.07607571 -0.90662074 -0.01336141 0.05400995 -0.82431453 0.3467133
-0.67435956 -0.60157853 -0.19205788 -0.90402347 -0.20376831 0.33343142 0.27132717 0.29201588
0.43754146 -0.13472936 -0.72814894 -0.05504381 0.8520369 -0.45896372 -0.612046 -0.015161625
0.65011835 0.43879363 0.17178042 -0.30510917 0.11067127 0.6610143 -0.1116081 -0.5362504
0.15709683 -0.26821798 -0.25930297 -0.40881422 -0.2045701 0.34314138 0.2444402 -0.2995757
-0.27433926 0.41586715 -0.90478474 -0.020743374 0.0903498 0.30603212 -0.79626864 0.15709744
-0.2857456 -0.47998798 0.109924704 0.086376965 0.00045581587 -0.44599265 -0.06637658 0.09393825
0.08443162 1.0009515 0.13122416 0.43037185 -0.15238728 -0.040924095 -0.010817383 0.13998625
0.08430482 -0.08699853 0.23004141 0.2879413 -0.3740342 -0.31051102 0.36135286 0.11303274
0.4411231 0.13668479 -0.16710305 0.93321407 -0.043587234 -0.8551231 -0.4375503 -0.075108476
-0.10042238 -0.17436759 -0.25030634 0.22516803 -0.56591916 -0.09773165 -0.011779932 0.101991795
-1.580523 0.28187466 -0.48285684 0.55874944 -0.6499602 -1.5182313 -0.44924778 1.1633562
0.34968442 0.1805153 -0.25749326 0.2921573 -0.036267895 -0.48466307 0.6295949 -0.31582782
0.30336925 -0.6841089 0.403664 0.0972669 0.062494293 -0.532864 0.23317899 0.11314174
-0.66653144 0.42536023 -0.5883025 -1.0107918 -0.39897004 0.52654016 -1.2007712 -0.16134773
-0.13950823 -0.119046725 0.2697799 -0.11335339 0.075610675 -0.90703166 -0.00841199 -0.15128231
0.4443308 -0.18673615 -0.30508038 0.05703411 0.2313014 0.16428283 -0.6181787 -0.8467696
-0.9261626 0.7561291 0.03835884 -0.99920636 -0.69169134 0.43055126 0.7927901 0.45185697
-0.12747888 0.3902716 0.40319264 0.61074865 0.2666929 0.5423425 0.6331103 -0.83143497
0.3386564 -0.3800427 -0.081566565 -0.09323514 -0.9962259 -0.5933812 0.14256202 0.07337734
0.17028743 -0.539654 0.18382308 -0.31402293 -0.64444673 0.06311021 -0.42987671 -0.40767664
-0.43305624 -0.24048156 -0.11699464 0.6562094 -0.24414666 -0.52599823 0.016917432 -0.36567277
-0.6994859 -0.16528851 -1.0229669 -0.6600584 -0.34908798 0.83097184 -0.07303762 0.3211655
0.22028154 -0.38935593 -0.09220875 -0.34165177 -0.060333226 -0.79985774 -1.7355878 -0.626585
0.03326286 0.15046245 -0.18402438 -0.16402893 -0.97004396 -0.8838498 -0.52045125 -0.23209739
-0.37495548 -0.13041292 -0.007054006 -0.02888521 -0.18380998 -1.5365404 0.13831991 -0.45188203
0.13979527 -0.30455896 -0.8400994 -1.7064044 -0.280685 -0.16786693 -1.0448614 -0.085559905

l2.bias f4 [128]
00000000: 8ea8 aebc 9218 9c3e 0a85 0a3e 5650 88bd
00000010: 89b2 13be 6284 9bbe d18e 403f 51db a6bd
00000020: 818f 633f dc72 a3be 0fa0 1fbf 4eab 9c3d
00000030: b2b0 023f 1115 52be 464f 2d3e 7ebc 0dbe
00000040: a422 4ebe 2501 a3be f2d6 6bbd 6934 e43e
00000050: a92c ae3d ae06 30be 8452 b9be 70eb 2cbc
00000060: 1d6a 99bd abdc 86be e3ca 213f 075d 88bd
00000070: 5ffc 3fbf e748 093f 4797 f2be 48f3 903e
00000080: 8f36 dabd bb9d 863d 8c95 2d3f b246 743e
00000090: d3b6 93be 518b c23e 82cf 9cbe b8a3 b93c
000000a0: fa48 a13e 93b7 76be 965e c5be da72 3f3f
000000b0: 5aec 19bc 9c7b 28be a206 8ebc 356e af3e
000000c0: ea8f 6c3f d215 87bd 8c1f ad3e 2c7c 98bf
000000d0: 7dcf 67bc 2ebc 4bbe 7f9b 75bd b189 0cbe
000000e0: 96fc 5e3f 967e d1bd 216a f43e 5fce 45bd
000000f0: 6b4f 9c3e 83b9 633f 4da5 1d3f 6f85 8a3d
00000100: beb7 d03d 8f31 b63d 0df4 3d3f dbe8 b4be
00000110: 3439 043f a6eb 5f3e 5b48 33be c05a 05be
00000120: 2e33 b8bd ade9 02be fcc4 663e 37dc 1f3f
00000130: c48e 4a3e 9ea1 573e 90e8 2a3e d702 1c3f
00000140: 494f 333e a8e2 5e3f a9e7 84bd 5b99 d53e
00000150: 4c46 0bbf 2ff6 123d 6804 55be e5a3 613e
00000160: 4abe 9c3d b759 51bd c89e f7bd d27a 82bf
00000170: 227e 78bd 2673 24be 26ee 62be 9f69 403e
00000180: 80f7 383e ead8 72be 7209 d73e 6d4f f7bd
00000190: 015a 023d 6e70 7abf 27ae 9e3d 7c1e ed3e
000001a0: 616d 4abd 252d 573e 9a5d 973e 66ff 4ebe
000001b0: 59f1 a93e a32f 8dbd bf81 ab3e 8ae3 693c
000001c0: adb4 043d c33c 77be a69e 9dbd b8e6 453f
000001d0: 6361 23bc 8898 8ebd 816e 1bbe 9206 283f
000001e0: 8a53 973f 4248 203e 800f 863f 117c 6dbe
000001f0: 5202 f5bb f9b9 8e3e cd29 95bc 051e a53d
-0.021320608 0.30487496 0.13527313 -0.06655948 -0.14423575 -0.30374438 0.7521792 -0.081473
0.88890845 -0.31923568 -0.62353605 0.07649861 0.51050866 -0.20515849 0.16924772 -0.13841435
-0.20130402 -0.3183681 -0.057578035 0.44571236 0.08504612 -0.17190048 -0.36195767 -0.01055418
-0.074909426 -0.2634023 0.63200206 -0.066583686 -0.7499446 0.53626865 -0.4738104 0.2831061
-0.106549375 0.065730534 0.67806315 0.23855093 -0.2885042 0.37996915 -0.30627066 0.022661075
0.3150099 -0.24093466 -0.38548726 0.74784625 -0.0093947295 -0.16453403 -0.017337147 0.3426377
0.92407095 -0.06595959 0.3381313 -1.1912894 -0.01414859 -0.19896004 -0.059962746 -0.137244
0.87104166 -0.102292225 0.4773722 -0.048292514 0.3052934 0.88954943 0.61580354 0.06763732
0.10191296 0.08896171 0.74200517 -0.35333905 0.51649785 0.21867236 -0.1750807 -0.130229
-0.08994137 -0.12784453 0.22536081 0.62445396 0.19781023 0.21057746 0.16690278 0.60941833
0.17510714 0.870646 -0.06489498 0.41718563 -0.5440414 0.03587931 -0.20802462 0.22035177
0.07653482 -0.05111095 -0.12090832 -1.0193732 -0.060667165 -0.1605955 -0.22161159 0.18790291
0.18063164 -0.23715559 0.41999394 -0.12075696 0.031824116 -0.97827804 0.07748061 0.4631232
-0.049420718 0.21013315 0.295636 -0.20214614 0.33191946 -0.068938516 0.33497426 0.014275441
0.03239887 -0.24144273 -0.076962754 0.77305174 -0.009971949 -0.06962687 -0.15178873 0.65635026
1.1822369 0.15652564 1.047348 -0.23191859 -0.0074770832 0.2787626 -0.018208409 0.080623664

l3.weight f4 [256, 128]
00000000: 6ab6 2d3e 9150 37be 4a12 45bf ec37 42bf
00000010: f582 e33d 5dd9 d93c df9f 56be 599b 70bd
00000020: 7f73 1f3e dd89 89bf 8772 93bf 0374 88bd
00000030: e922 f8be 26b8 d5be dcf7 8ebe 2442 98bf
00000040: 97d3 38bf 096f 57bf b4ca 22be 5ed4 003e
00000050: 00d5 9f3e 8d6d 1dbf 2599 dc3d 8437 413f
00000060: a429 323e 8b45 983e d643 8d3d ca8f 9d3a
00000070: c655 91be 45be 00bc 43dd 70bd c9e6 843e
00000080: a764 26be d59b 05bd f33d 29be d545 aa3d
00000090: 18ce 92bd 87f0 233e a427 4ebf 2d61 6a3e
000000a0: ce35 26be 495a b9b9 6096 bfbf 9166 f23d
000000b0: 54a4 093d b589 01bf 1788 efbc fc39 6fbe
000000c0: 365e febe 6bef d1be dd1a a1bf 0184 a4be
000000d0: 6fb2 e33e 16fa d3be a251 273b 0ce5 a2be
000000e0: ea20 bcbe 368e 1dbd 4a04 11be 5eeb 063e
000000f0: 61a4 58bf f699 ffbd df92 013e 0d36 24bf
00000100: 750d a73c 9e1d 53bf 73c1 44bd 5918 abbd
00000110: 7ee2 95bd 6f78 3a3e cf92 93bf adc3 a6be
00000120: d851 bdbd eccf 62bf 29c9 0b3e f802 b7bd
00000130: 1e5b d0be 6241 79bd c2ad 4c3e 65ac c13e
00000140: a8c9 f33c 1575 d93d bfa5 96bf 6a36 71be
00000150: b254 c0bd 6507 1b3e c18a 693d b7a4 3abe
00000160: 631b b33e a1cd b6be 64db adbd 24dd afbd
00000170: b699 6fbf fb5e 6bbf 2c4e a13e 0ab4 9b3e
00000180: 9b13 013d 4024 3ebe 8460 903e 988f a93e
00000190: 84f5 8c3c f82c aebe c722 053e d11e 65be
000001a0: e58e c3bd a518 41bf 6644 80be bc38 82be
000001b0: 1182 d73e f875 bf3e 7b57 03bf 755a c9bf
000001c0: c1b1 b63d 7e13 6dbf 6565 91bf 7b2f 9e3b
000001d0: 3484 9abe c9fe 3dbf ab99 8c3d 07b9 1c3d
000001e0: bb6f 12be 74b4 32be f244 52bd 6517 fabe
000001f0: 904f 29c0 add4 d5bf fbc7 363d 917f cf3d
00000200: 0103 3dbe 0f3b 15bf 29ce 0dbf 0a22 d2be
00000210: 9ef5 a7bd 17ed e3be 2843 0c3e fd2e 86be
00000220: c514 223d a5c7 00bf f838 28bf d7cf bbbc
00000230: 84dc 2c3d 2495 58bf ace5 8bbd 1c2a 82bf
00000240: 1a08 2fbf 9139 0abf a5c1 b7be 55cd 483e
00000250: 16be 6bbe 6c8d 1fbf d251 fdbe 0ef5 773f
00000260: 37d7 f5bd 4ca9 f4be 7f5a 0abe 0d45 4abd
00000270: 5681 5fbf 5f95 4ebc 0c41 d1be 74eb 21be
00000280: 8f03 f5be 1736 c73d d572 88be f278 26bd
00000290: 9da3 3abe 8801 e03d 8a69 d8be 2e5b ca3e
000002a0: 4c03 96be bf94 b2bc f8d7 88bf 4efd 14be
000002b0: 057c 40bd 2982 d2be 668b 0bbd a070 88bd
000002c0: 3c78 4cbf a5ac c7be 7dfa 1abf f977 a9bf
000002d0: 0781 623f 5648 21be 2fe6 57bd a177 63be
000002e0: bba5 3abd f788 ebbb 57eb c7bd 7b6c 3c3e
000002f0: 2aaf 0dbf 0540 02be 04a6 203e fa4b a2be
00000300: c154 da3c 4e7e 52bf 332e 733d 2c02 9bbe
00000310: c8b1 c2bd 8ca3 35bd 25ed acbf 6f39 b4be
00000320: 8957 8a3d b210 33bf cdff de3e ada8 2fbe
00000330: f959 4cbf eea9 93be 160b e93e e877 ad3e
00000340: 4bf1 1abe 967c bf3e 6700 25bf 9cc0 cabe
00000350: 24e4 50be 084a a33e 34db 323e 8104 b4bd
00000360: b770 883e 4d88 a8be 72f1 303e 820b f9be
00000370: db40 6bbf 34e2 83bf 1659 d23e 221e 34bc
00000380: 3cea 8c3d 7687 8cbe baab 83bd b116 393e
00000390: d6c8 9d3c 2a25 aabf a27d e23d 3aeb cdbd
000003a0: c522 afbe fd3a cebe ba58 3dbd ee54 0dbe
000003b0: c367 7a3e 12f6 08bd 1841 11bf 9949 2bbf
000003c0: da05 e1bd 5e8e 87bf 6726 91bf 9d18 59be
000003d0: 9ed6 523d 4860 acbf 94a3 503d c318 aabc
000003e0: 8a34 fbbd e261 98be 937a 15be 40a1 0fbf
000003f0: b882 b2bf 4c43 79bf 0d77 a43d 73d8 92bc
0.16964117 -0.17901827 -0.7698103 -0.7586658 0.111089624 0.026592905 -0.20959423 -0.0587419
0.15571402 -1.0745198 -1.1519326 -0.066627525 -0.48464134 -0.41742057 -0.27923477 -1.1895185
-0.7219786 -0.841538 -0.15897638 0.12581012 0.31217194 -0.61495286 0.107713975 0.75475335
0.17398697 0.29740557 0.06897704 0.0012021002 -0.28385752 -0.007857864 -0.05880476 0.25957325
-0.16249333 -0.032619316 -0.16527538 0.08314101 -0.071682155 0.16009723 -0.80529237 0.22888632
-0.16231462 -0.00035353217 -1.4967766 0.11835969 0.03360398 -0.5060075 -0.029239697 -0.23361963
-0.49681252 -0.41002974 -1.2586323 -0.3213196 0.44472072 -0.41401738 0.0025530835 -0.31815374
-0.3674386 -0.0384657 -0.14161792 0.13175723 -0.8462582 -0.124805376 0.12653683 -0.64144975
0.020392159 -0.8246707 -0.04803605 -0.08354253 -0.073185906 0.18210004 -1.1529177 -0.32571164
-0.09244126 -0.88598514 0.13650955 -0.08936113 -0.40694517 -0.06085337 0.19988158 0.3782684
0.029759243 0.10618035 -1.1769332 -0.23555914 -0.09391154 0.1513954 0.05701709 -0.18226896
0.34981832 -0.35703757 -0.08489111 -0.08587101 -0.9359392 -0.91941804 0.31504953 0.30410796
0.031512838 -0.18568516 0.28198636 0.33117366 0.017206915 -0.34018683 0.13001548 -0.22375037
-0.09548739 -0.7542823 -0.25052184 -0.2543391 0.4209142 0.3739469 -0.5130536 -1.573073
0.089206226 -0.9260787 -1.1359068 0.0048274375 -0.30178988 -0.74216896 0.06865247 0.038262393
-0.14300434 -0.1745165 -0.051335283 -0.48845974 -2.645481 -1.6705528 0.04462431 0.10131753
-0.18458177 -0.5829324 -0.553927 -0.41041595 -0.08201145 -0.44516823 0.13697493 -0.26207724
0.03957059 -0.50304633 -0.6571193 -0.022926254 0.042202488 -0.8460257 -0.06830916 -1.0169101
-0.68371737 -0.5399409 -0.35889927 0.19609578 -0.23021731 -0.6232517 -0.49476486 0.968583
-0.120039396 -0.47785413 -0.13511084 -0.04938226 -0.87306726 -0.012608855 -0.4086994 -0.15812474
-0.47854277 0.09727114 -0.2665011 -0.040642686 -0.18226476 0.10937792 -0.4226802 0.3952269
-0.2929939 -0.021799443 -1.0690908 -0.14549753 -0.046993274 -0.4111493 -0.034068488 -0.066621065
-0.79870963 -0.38998905 -0.60538465 -1.3239738 0.8847813 -0.1575025 -0.052709755 -0.22213604
-0.04556821 -0.0071879583 -0.097616844 0.18400757 -0.55345404 -0.12719734 0.1568833 -0.3169859
0.026651742 -0.82223976 0.05937023 -0.30275095 -0.09506565 -0.044345424 -1.3509871 -0.35200068
0.06754977 -0.6994735 0.43554536 -0.17154188 -0.7982479 -0.28840584 0.4551627 0.33880544
-0.15131108 0.3739974 -0.6445374 -0.39600074 -0.20399529 0.3189242 0.17466432 -0.087899216
0.26648495 -0.3291649 0.17279604 -0.48641592 -0.91895837 -1.0303407 0.41083592 -0.010993512
0.06880614 -0.27447098 -0.064292386 0.18075062 0.019260805 -1.3292592 0.11059119 -0.100546315
-0.34206215 -0.4027938 -0.046227194 -0.1380193 0.24453644 -0.033437796 -0.5673995 -0.66909176
-0.10987444 -1.0590322 -1.1339844 -0.21200795 0.051474206 -1.3466883 0.05093725 -0.02076376
-0.122658804 -0.2976218 -0.1459754 -0.5610542 -1.3946142 -0.9736831 0.0803052 -0.017925477

l3.bias f4 [256]
00000000: 2569 e33d 7b44 f73c 9921 9b3f 7392 7e3e
00000010: 81d9 b43f 5d2b a0bc 1258 dc3d f061 3f3e
00000020: b2c9 5a3f f529 963e 74dc 9c3e fedc 883f
00000030: 9bf9 1ac0 60a8 15be d2cc 553f f59a be3d
00000040: 0036 71be f9dd 1b3e 4959 e4bd eefd bfbd
00000050: 7ef9 903f 0dfd 67bc 9888 683e d0a6 773f
00000060: 4b57 6b3e 3919 523e 53fd c43f 7af0 a43e
00000070: 1fa5 56bd 8d00 d63b 2f72 ea3e 7503 993e
00000080: a9ac f53d 6c1f 19c0 0f28 da3e 0cbb 6e3f
00000090: 1790 cfbe c286 43be 52c1 31be 505d d0bd
000000a0: b3f4 d23f 123f 7e3e 9da3 703e 0d3d e73e
000000b0: 3596 6a3e ea5a b23e 442c 203e 04c4 3ebe
000000c0: 84a9 8d3d f1bd 4f3e 56d0 0c40 2248 633e
000000d0: 7176 1b3f d66f cabe 09b0 e23d 9d27 603f
000000e0: b033 ca3f c809 3ebe 7acb 7cbe 438e c93e
000000f0: 6d64 c6be 0d56 7fbd b324 6cbf 202d 5d3e
00000100: 30f9 cc3f 87b3 573e e03f 183e 1ee9 f9bd
00000110: f17f d03f 5172 6cbe 00e5 54be 622b 923e
00000120: 8282 0c3e 3626 a73f c92d 96be c5d0 57bf
00000130: abc2 3c3f 33dd de3f c571 903d ca98 633e
00000140: 4633 a73f 21c8 773e aa10 703e e287 4cbf
00000150: 944b 4e3e 8a7f e2bd 4252 5e3e 5937 50be
00000160: cdcc 99be 0936 2abf ad02 4fbe 8bb6 31be
00000170: f3da 043e 726e 263f cc8d 76bf f6f2 27bd
00000180: df80 cc3d 8c6a 9ebf 46d2 c63f ed14 4a3f
00000190: adaa 2b3e df6c 933e 2976 f33d 33c8 48be
000001a0: e5cc 2bbf c4ce 5bbe 2ceb 653f cf0d 2bbf
000001b0: cd52 4b3f 4344 403e 8a80 383f acd8 e6be
000001c0: 6c3a f93e 42f4 153e f055 9d3d be2c 0a3f
000001d0: 1aa9 833d 4236 283f b00d 843f c3f5 ba3f
000001e0: a37a 873e ea45 fe3d 2894 953f 0bac a0bf
000001f0: cdaf cfbf a4f4 0d3f f188 3e3f 1d80 463f
00000200: 117a 363e 9370 d73e 9d2d 573e 3f6f 843c
00000210: bad9 b13e 41ce e2bf f41f 88bf 6064 a33d
00000220: a270 533e bee1 bbbe dd38 dfbe c691 853f
00000230: a054 173f 03d9 983f b0fe 5fbe c76f f4be
00000240: 3d04 ca3f 711e d3bc b1db d7bd a09f 23bf
00000250: 52d7 af3e 90ad 1a3f 75c7 fa3f 9798 07c0
00000260: cfaf 47be cb8b f5bf 442d 5f3f 6995 033e
00000270: 498d b63e ef63 29bf 7c10 68bf 45d1 d5bd
00000280: 9fb8 d73f 7628 8f3f 69a8 b23d 734d b83e
00000290: c894 3a3e 27ce 1a3e bdca 03c0 2353 b73e
000002a0: 45e5 b33e 8664 fd3d abfd ad3d fa3d b83f
000002b0: 62e2 4e3d d266 b33e b59d ed3f 2461 973f
000002c0: 87a9 a93f 0821 ec3d aaa4 183c 78c7 cd3f
000002d0: e19e 973f 4d97 25bd e0c2 49be 97e0 1ec0
000002e0: 1cf8 eebd 3849 773e 8225 c5be 9ea5 c43f
000002f0: f85a d0bf f748 1bbe 416d 97bf 126c 503f
00000300: 0cd5 623f 403a 7d3f 6f96 673e 3be9 383e
00000310: 02ab 3c3f 5860 26c0 c495 9a3e f30c ec3d
00000320: e527 013f d46c e23c a690 62be b70c e1be
00000330: a8ea 363e 0bf3 d4bd a930 e8be 3fdc b33c
00000340: 4fc6 e43f 6faa 62bd 5c9a 853e 0d88 a43e
00000350: a5b7 913f c303 b4be a63e 7f3f 2cf1 4d3f
00000360: c498 22bf 38fc 1cbe a81e 3ebf ec2f e3be
00000370: aae1 223f 10d2 96be 299a b63d b65f 773f
00000380: 9be9 b63e bfec 1dbe 086f c33f 38b4 4f3f
00000390: 0a62 e7be 4a7a 333f 55ee 71bf e4d7 3a3e
000003a0: 8552 433e 0634 3a3e fedd 4f3e 8a6d 9bbf
000003b0: 8c16 2abd 1d10 3fbf 7ad8 0d3e 402e 013c
000003c0: 8886 1dbf 00fc a3be a3b0 3ebe 4c52 0d3f
000003d0: 49f5 db3b 4247 92bc 52bb 853f 5db4 8bbf
000003e0: 6a39 1bbf 91a9 9e3d 95d0 6dbf 0df7 5cbe
000003f0: 5b04 64be 19df 703f 5c73 343f 8aca 333d
0.11104039 0.030184021 1.2119628 0.24860553 1.4128877 -0.019551927 0.107589856 0.18689704
0.8546401 0.29328886 0.30636942 1.0692441 -2.4214847 -0.14615011 0.83515656 0.093068995
-0.23555756 0.15221395 -0.11149842 -0.09374605 1.1326139 -0.014159453 0.22708356 0.9673891
0.22982518 0.20517434 1.5389808 0.3221472 -0.052403565 0.0065308274 0.4579024 0.2988545
0.11995823 -2.3925428 0.42608687 0.9325416 -0.4053962 -0.19094375 -0.17358902 -0.10174048
1.6480926 0.24828747 0.23499914 0.45163766 0.22908862 0.34834987 0.15641886 -0.18629462
0.06917098 0.202873 2.2002158 0.22195485 0.607276 -0.3953845 0.11068732 0.87560445
1.5797024 -0.18558419 -0.24686995 0.3936635 -0.38748494 -0.062337924 -0.922435 0.21599245
1.6013546 0.21064578 0.14868116 -0.12202667 1.6289045 -0.23090483 -0.20790482 0.28548723
0.1372166 1.3058536 -0.29331806 -0.8430293 0.7373454 1.7411255 0.0705295 0.22226253
1.3062522 0.24197437 0.23443857 -0.7989484 0.20146018 -0.110594824 0.21711066 -0.20333613
-0.30039063 -0.664887 -0.20215864 -0.17354791 0.12974147 0.65012276 -0.96310115 -0.04100319
0.09985518 -1.2376266 1.553292 0.7893818 0.16764326 0.28794 0.11887772 -0.1960762
-0.6710952 -0.21465594 0.8981197 -0.66817945 0.7942322 0.1877604 0.72071135 -0.45087183
0.48677385 0.14643958 0.07682407 0.5397452 0.06428738 0.6570779 1.0316677 1.460625
0.26460752 0.12415679 1.1685839 -1.2552503 -1.6225525 0.55451417 0.74427706 0.77539235
0.17820002 0.42078075 0.21013494 0.016166328 0.34736425 -1.7719194 -1.0634751 0.079781294
0.20648435 -0.36695665 -0.4359807 1.0435112 0.591135 1.1941227 -0.218745 -0.4774153
1.5782543 -0.025771352 -0.1053995 -0.63915443 0.34343964 0.60421085 1.959212 -2.1186883
-0.1950066 -1.9183286 0.87178445 0.12849964 0.35654667 -0.6616811 -0.90650153 -0.104403056
1.6853217 1.1184223 0.08723528 0.3599659 0.18220818 0.15117703 -2.0592492 0.35805616
0.35135856 0.12372689 0.08495649 1.4393914 0.050508864 0.35039383 1.8563753 1.182652
1.3254861 0.11529738 0.009316603 1.6076498 1.1845361 -0.040427495 -0.19703245 -2.4824579
-0.11668417 0.24149024 -0.3850518 1.5363042 -1.6277761 -0.15164553 -1.1830217 0.814149
0.88606334 0.9891701 0.2261598 0.1805772 0.7369844 -2.5996304 0.30192387 0.11525907
0.504515 0.027639784 -0.22125491 -0.43955013 0.17862952 -0.10397919 -0.45349625 0.021955607
1.7873019 -0.05533832 0.2609433 0.32135049 1.1384169 -0.3515912 0.9970497 0.80446124
-0.6351435 -0.15330589 -0.7426553 -0.443725 0.63625586 -0.2945714 0.089161225 0.9663042
0.35725102 -0.15422343 1.5268259 0.81134367 -0.45191985 0.70108473 -0.9450429 0.18246418
0.19074447 0.18183908 0.20299527 -1.2142804 -0.04152541 -0.7463396 0.1385211 0.007884562
-0.61533403 -0.32028198 -0.18622069 0.552037 0.00671259 -0.017856244 1.0447791 -1.0914418
-0.6063448 0.07747186 -0.92896396 -0.21578617 -0.22267286 0.9409042 0.70488524 0.04389433

l4.weight f4 [1, 256]
00000000: 642e 4fbe 9f9e 53bf 599a f8be a60e fd3e
00000010: 9338 90bf 3118 853e f5c3 43bf ec3f a2bf
00000020: eacd 59bf 5354 213f 7689 8dbf 3aa1 f8be
00000030: 2fe6 9e3f e41d aabf 5e89 0dbf 5da3 c0bf
00000040: e814 363f 92b0 81bf 33ac 6b3e 1141 9dbf
00000050: f256 43bf b7dc 623f e16a 0cbf 2f4a 16bf
00000060: 73e1 08bf 61d6 a2bf 77e7 bdbe b927 e6be
00000070: b69c 02c0 d727 a23f ae57 08bf b500 a7bf
00000080: 7815 cbbf 7c37 8f3f a982 02bf 142c b4be
00000090: 8ca2 0040 32d8 a6bf a67f dd3f 18f3 f53f
000000a0: 2474 8ebf 7e3c b4bf 741b 64bf 7e48 edbf
000000b0: 1801 e13e 6531 e63e 69a1 0040 c47d 1040
000000c0: a961 a8be 3ced c0be 1665 2fbf 2ecd 3bbf
000000d0: 8291 6ebf 367a 933f 520d 83bf d92a 78bf
000000e0: e24a 4abf a108 753e b303 b53f 877f 87bf
000000f0: b6b0 b33f d77d aaba b0d3 0340 4050 cabe
00000100: 7f7f 9bbe 49a7 97bf 01b6 30bf 0730 9c3f
00000110: de09 f3be aac7 8b3f b788 4cbb 4b43 c3bf
00000120: ddc0 7c3f ce80 c7bf 2901 ab3f 55b0 e43f
00000130: 981a a6bf fbc7 d4bf 3981 68bf 6858 cbbf
00000140: 1792 dabe bf12 a6bf 5e91 67bf 8b5f fb3f
00000150: 648b 53bf 6cef 9bbf 7b97 0c3f 718c b73e
00000160: 14fb 783f 0d64 0640 0b83 383f 988d 93bf
00000170: 9824 a4bf 7b40 d6be 8a80 8d3f 0b47 643f
00000180: 0d1a 47bf 4491 0440 e915 e5be 5783 84be
00000190: 249a cd3e 2713 f0be 86ae 8f3f ebba 8fbf
000001a0: 5629 9b3f 1ad2 e83f c63b 90bf e9d8 cf3f
000001b0: d870 cbbe 8db8 dabf 3ec8 cabf c536 913f
000001c0: 6d9a a7be 00e5 6a3f a6d0 aebe 2fe5 c5bf
000001d0: a182 c4bf d344 11bf b7a3 5cbf 125a 32bf
000001e0: 5093 d43e 00ff 91be cb1d 08bf 21b2 1840
000001f0: 0455 b93f da24 d1be 0c79 d1bf c116 3bbe
00000200: fad4 e3bf 969d d7bf 73df 203f abe8 69bf
00000210: 09fe 65be a6e1 c03f db62 9a3f bcf2 ffbe
00000220: cca7 3abf 18f7 0240 0671 c23f dc16 73bf
00000230: 1d23 6fbe ad51 1ebf ea77 0d3f 7ed7 2c40
00000240: 136e c6bf 5c76 0440 58d4 cebf 3bf9 d63f
00000250: 4cdb 96bd 38d9 c4bf 7afc 48bf 5a1f 6a3f
00000260: 0e96 623f b43f a33f a7bc 5dbf 5ebc 3fbf
00000270: 0a35 1ebf e730 0240 86f9 5d3f 9402 8b3f
00000280: 7c4a 27bf d654 43bf fc1e b33f 6fc5 493f
00000290: 9adb 103f 2ed8 a03e 21c4 a13f a3fc 4fbf
000002a0: 9086 c1be 8e4f f03f e5ca f23e a9b3 47bf
000002b0: 325d 0fbf b72d dcbe 5cf2 26bf 190c 69bf
000002c0: 1a4d 21be eec7 c0be c0aa 8cbe eebb 3dbe
000002d0: 29f5 7abf 5875 81bf ac9b 89bf e901 823f
000002e0: a9b9 a0bf b6b9 1a3f 8cf4 aa3f 3931 d8bf
000002f0: c3d4 a73f 2df1 f53d d481 b93f 8354 ffbe
00000300: 588b 0bbf 985e 07c0 e930 3bbf 8f33 5dbf
00000310: 634e a8bf cbcc 0140 e335 903f 0fe8 c8bf
00000320: d882 64bf c947 c73e a761 603f b283 1540
00000330: e55a 4dbf 7a1b 7f3f 704c e63f 3cd7 273f
00000340: 3af0 95bf fc66 dabf 2dec 1dbf d5e2 983f
00000350: cd68 c7be bf2f f93f 78db 94be 3099 e9bd
00000360: 4766 103f 264f f2bf 77a4 623f 2f53 f03f
00000370: 74a5 0fbf 9e73 9e3f 3914 e9bf 529f 8abf
00000380: ebc6 183f 0139 d7bf 258f 7bbf f02b 5ebe
00000390: df9e a33f 25d4 65bf ade7 f13f f013 abbf
000003a0: 21fa 37bf 1c3f d6bf 43a7 ccbf 7ee7 8a3f
000003b0: fdf6 643f d457 0a40 a71b 32bf d7c8 b7bf
000003c0: cdfb 223f 82e4 eb3f 507b b03f 0d6a 38bf
000003d0: 8a1f 91bf 4b65 77bf e7a1 e7be 339b 0f40
000003e0: edfd d63f 7856 66bf 76cc a03f 8cca 1abf
000003f0: b849 d33e c42a 88be a4f9 90bf b022 3e3f
-0.2023254 -0.8266391 -0.48555258 0.49425238 -1.1267265 0.2599502 -0.7647088 -1.2675757
-0.85079825 0.63019294 -1.1057575 -0.48560506 1.2413996 -1.3290372 -0.5528773 -1.5049855
0.7112565 -1.013201 0.23014908 -1.2285482 -0.76304543 0.88618034 -0.54850584 -0.58706945
-0.5346901 -1.2721673 -0.37090656 -0.4495218 -2.0408149 1.2668408 -0.5325879 -1.3047091
-1.5865927 1.1188807 -0.5098062 -0.3518988 2.009921 -1.3034728 1.730458 1.9214811
-1.1129193 -1.4080961 -0.8910439 -1.8537748 0.43946147 0.4495956 2.0098517 2.2576761
-0.3288701 -0.37680995 -0.6851362 -0.73359954 -0.9319078 1.1521671 -1.023844 -0.9694038
-0.7902051 0.23929073 1.4141754 -1.0585793 1.4038303 -0.0013007474 2.0597954 -0.3951435
-0.3037071 -1.1847926 -0.69027716 1.2202157 -0.47468466 1.0920308 -0.0031209418 -1.5254911
0.98731786 -1.5586183 1.3359729 1.7866312 -1.2976866 -1.6623529 -0.9082218 -1.5886354
-0.42689583 -1.2974471 -0.9045619 1.9638532 -0.8263457 -1.2182441 0.5491864 0.35849336
0.97258115 2.0998566 0.72074956 -1.1527586 -1.2823668 -0.4184607 1.1054852 0.891709
-0.77774125 2.0713663 -0.4474328 -0.25881454 0.40156662 -0.46889612 1.1225135 -1.1228918
1.212199 1.8189118 -1.1268241 1.6238071 -0.3973453 -1.708757 -1.5842359 1.1344839
-0.32735005 0.91755676 -0.3414356 -1.5460566 -1.5352365 -0.5674564 -0.8618731 -0.69668686
0.4151864 -0.28514862 -0.5317046 2.3858721 1.447907 -0.40848428 -1.6365066 -0.18270399
-1.779937 -1.6844966 0.62840956 -0.9137065 -0.22460188 1.5068862 1.2061418 -0.4998988
-0.7291229 2.0463314 1.5190742 -0.94956756 -0.23353238 -0.6184338 0.552611 2.7006526
-1.5502342 2.069724 -1.6158552 1.6794809 -0.07366046 -1.537879 -0.7851025 0.9145409
0.88510215 1.2753816 -0.86615986 -0.748968 -0.6179968 2.0342348 0.8670887 1.0860162
-0.6534803 -0.76301324 1.3993831 0.78816885 0.56585085 0.31414932 1.2637979 -0.8124487
-0.37797976 1.8774278 0.4742042 -0.78008515 -0.5600158 -0.43003628 -0.6521356 -0.91034085
-0.15752068 -0.37652534 -0.27474022 -0.1852872 -0.98030335 -1.0113935 -1.0750632 1.0156833
-1.2556659 0.6043962 1.335588 -1.6890022 1.3111805 0.12008891 1.4492745 -0.49869165
-0.54509497 -2.1151485 -0.73121506 -0.864068 -1.3148922 2.0281246 1.1266445 -1.5695819
-0.8926215 0.38921955 0.87649006 2.336163 -0.8021682 0.996513 1.7992077 0.65562797
-1.1713936 -1.7062678 -0.616885 1.1944224 -0.38947144 1.9467696 -0.2907369 -0.11406171
0.5640606 -1.8930404 0.88532203 1.8775386 -0.56111836 1.2379034 -1.8209296 -1.0829871
0.59678525 -1.6814271 -0.98265296 -0.21696448 1.2782859 -0.8977683 1.8898827 -1.336546
-0.7186604 -1.673801 -1.5988544 1.0851896 0.89439374 2.1616106 -0.69573444 -1.4358166
0.6366547 1.842911 1.3787632 -0.7203682 -1.133775 -0.96638936 -0.4524071 2.2438476
1.6796242 -0.8997569 1.2562397 -0.6046531 0.4126718 -0.26595128 -1.1326184 0.7427168
