preTrained/v2TD3_BipedalWalkerHardcore-v3_0_crtic_1.pth (torch_old, 175167 bytes, 7 tensors)

l1.weight f4 [64, 28]
00000000: b040 2fc1 9a72 07c2 09a9 0141 fdb9 8a3f
00000010: ebdf bcc0 e2b0 74bf 02ee 36c0 4296 a9be
00000020: 0b9b 213f e782 37be 737b 9abf fa49 16c0
00000030: 5b13 6cbf 6d5b 423e 2a8b ed3f c7f4 8e40
00000040: a2d3 8b40 ab28 973e 307d 37c0 1de0 7cc0
00000050: 62fe 14c0 343f e7be ac97 1ebf 2c8d 0b3f
00000060: ecab 513e 4a5e cb3d 8617 03be f570 073e
00000070: d4f2 24c1 dbc5 cec1 d269 ee41 be68 4a41
00000080: 5500 f4c0 00fc 873e 8cde 3bbf 9c34 c73d
00000090: 3e1c 4e3f b9c4 a53f a095 0ebe b807 9a3f
000000a0: a243 b4bf aa5b ae3f e83d 3bbf b54a 053f
000000b0: 046b d13f c2bb a33f 9af2 a93d 22b1 a5bf
000000c0: f5f5 11c0 c29b e6bf 1816 9bbe 5654 f5bd
000000d0: 3a3b 593f 59c3 d43f 2ade 20be 9288 1fbe
000000e0: fafb 6941 d1f7 8241 0e4b 89c0 7b3f f2c0
000000f0: 0593 12be 7958 2bbf 4afb 963f 04db c43e
00000100: 117e 08bf 9bf7 3041 805f a13f 514f 2140
00000110: a62e c53e e396 033f 870c bbbf 8b42 89bf
00000120: cb60 25bf adee a0bf 7abf 3fbf de70 84bf
00000130: a7d4 c4bf 61c0 d2bd cc23 edbd 49f0 41be
00000140: b448 f3be a268 e0be a049 d33d 01a7 fd3e
00000150: 65ef 46be 33dc 36c2 15aa b23f d67b fc41
00000160: f70b bfc0 0b21 24c0 3fdf 0bbe 236d 11bd
00000170: 4471 3fbf 6e13 56c0 62c2 8bbf 0017 633e
00000180: dbb1 493e d6fa 733d 41c6 923e 234b b13f
00000190: 9922 683f 437a 4b3f 66c3 35be d1f7 693f
000001a0: 606f ad3d 95a8 6abf 1f8d 48bf 378f bb3e
000001b0: a65e cabe ae24 c93f 6b2b 73be a1c1 c03d
000001c0: 0e6e b0c0 6bf7 efbf 6de6 43bf da64 3941
000001d0: 0b1f 19c0 cbaf 88bf 89ff a6c0 226d 743f
000001e0: 3b89 833f 1df4 9140 daaf 883e 9f1f cebe
000001f0: c854 5abd c5f8 123f 919a 93be 9c91 9dbf
00000200: 87d0 a1bf b5d7 c6bf a3d1 603d 2cb5 3cbf
00000210: 96cb 50bf 3216 1a3e 267f c93e 5e11 4c3f
00000220: 9b29 e83e 7a4a adbc 923b b13e e1d8 813d
00000230: c074 a140 2223 1ac1 8f6c 9e41 f170 0641
00000240: d5c2 a73f d134 143e 68ff 0c40 431e 1d3f
00000250: 3f1a ebbd e865 4fc0 0eff bebe 9558 4a3f
00000260: ac73 693e 8295 71bb 561e 27c0 4f7b 51c0
00000270: 6ed4 19c0 42bf 1a3e 468e 8d40 7214 7140
00000280: 9521 44bf ce7d bfbf 84ba 7ec0 70a2 e0bf
00000290: d7e8 9f3e bb1f 1d3e 23cf 0cbf 5881 0340
000002a0: dedc 7840 59bd 8fc1 9348 ccc0 8b4f 3a41
000002b0: c82e debf f0cd 88bf def5 c2be fb82 1d3f
000002c0: 0ca7 f040 dc07 0bc0 fe86 a240 01e7 1dc0
000002d0: 0da5 9540 575e a2bf 7883 653f 80b9 af3d
000002e0: b95f c1bf fda9 6ac0 7167 82c0 0b7a 8fbf
000002f0: c875 3fc0 a200 f4bf e394 30c0 84c2 033e
00000300: 33be c0be 4e51 ff3d e5a3 563e 5d35 1c3e
00000310: bf14 2dbb 2b81 9dbc 99c0 7f3e 8f8d 11be
00000320: 7e66 fa3d fa6e 183d 4f2e 3f3d 1d6c 533e
00000330: 06ff f9bd 0d8a 7d3c c8aa 83be 37ce c5bc
00000340: 1fe0 163e 5523 7dbe a31d c1be c806 14bf
00000350: 2548 bdbe 0ec6 14bf 7cb9 f4be b317 03bf
00000360: 8ff7 1bbf f0ee 0abf f319 d3be d9cf cabe
00000370: 4b9e 373d 2ba3 f43d f5b0 ffbc 37a5 65bc
00000380: abbc 703f cfee 7b3e 372d 4840 640f a1be
00000390: e3b4 f6bf 44ce 6f3f 66b3 963f b1d1 fd3e
000003a0: 3ed0 183f 3f7e 3240 e641 983f 99e5 6740
000003b0: 8db7 923f 2ca5 793e b647 8fbf afbb 3cbf
000003c0: dac8 70bf bba9 ffbf 7278 f3bf 7b87 f9bf
000003d0: b065 05c0 b60d 13c0 ba59 ddbf 2c1d d6bf
000003e0: 965c 933e a354 a1bf 1039 a3be 11cf 3fbf
000003f0: eaba 1c41 4aad d840 94fe 54c1 5001 30be
-10.953293 -33.861916 8.103768 1.0838009 -5.9023337 -0.955824 -2.8582768 -0.3312245
0.631272 -0.17921029 -1.2068924 -2.3482652 -0.92217034 0.18980189 1.8558095 4.46738
4.369584 0.29523215 -2.8670158 -3.9511788 -2.3280263 -0.45165408 -0.6195018 0.54512286
0.20475739 0.099300936 -0.12801942 0.13226683 -10.309284 -25.84661 29.80167 12.650572
-7.6250405 0.26559448 -0.73386455 0.09726831 0.80511844 1.295066 -0.13924265 1.2033606
-1.408314 1.3621724 -0.73141336 0.5206712 1.6360784 1.2791674 0.08298226 -1.2944682
-2.280637 -1.8016284 -0.30290294 -0.119789764 0.84856 1.6622115 -0.15709749 -0.15579441
14.624018 16.371004 -4.290412 -7.570249 -0.14313896 -0.66931874 1.1795437 0.38448346
-0.5331736 11.060451 1.2607269 2.520466 0.38512152 0.5140211 -1.4613198 -1.0723432
-0.6460082 -1.2572838 -0.74901545 -1.0346944 -1.5377396 -0.102905996 -0.11579093 -0.18939318
-0.47516406 -0.43829829 0.10316777 0.49541476 -0.1942726 -45.71504 1.3958155 31.560467
-5.9702106 -2.5645168 -0.1365938 -0.03550447 -0.74782205 -3.344936 -1.0918696 0.22176743
0.19696753 0.059565388 0.2866688 1.3851055 0.9067779 0.7948343 -0.1775032 0.9139376
0.08468509 -0.91663486 -0.78340334 0.36632702 -0.39525336 1.5714319 -0.23747031 0.09411932
-5.5134344 -1.8747381 -0.76523477 11.587122 -2.3925197 -1.0678648 -5.2186933 0.95479023
1.0276254 4.561049 0.26696664 -0.402585 -0.05330351 0.5741084 -0.28828862 -1.2310061
-1.2641762 -1.5534579 0.054887425 -0.73713946 -0.8156065 0.1504753 0.3935482 0.79714
0.45344242 -0.021153677 0.3461576 0.063401945 5.0455017 -9.633577 19.803007 8.402574
1.3106333 0.14473273 2.2030888 0.613743 -0.114796154 -3.2405949 -0.37303966 0.79041415
0.22798032 -0.0036862795 -2.6112266 -3.2731512 -2.4035907 0.15112022 4.4236174 3.766873
-0.7661374 -1.4960268 -3.980134 -1.7549572 0.3123233 0.15344135 -0.55003566 2.0547695
3.8884807 -17.967455 -6.383859 11.64442 -1.7358027 -1.0687847 -0.38078207 0.61527985
7.5203915 -2.1723547 5.0789785 -2.4672244 4.676398 -1.268504 0.8965373 0.08580303
-1.5107337 -3.6666253 -4.075127 -1.120912 -2.9915638 -1.9062693 -2.7590873 0.1286717
-0.3764511 0.124666795 0.20960958 0.15254731 -0.002641007 -0.019226631 0.24975814 -0.14214157
0.1222658 0.03721521 0.046675023 0.2064671 -0.12206845 0.015474808 -0.25716233 -0.024146182
0.14733933 -0.2472051 -0.37717924 -0.5782285 -0.36969104 -0.5811471 -0.47797763 -0.5120804
-0.6092462 -0.5427084 -0.41230735 -0.396117 0.044828694 0.11945184 -0.03121231 -0.014016441
0.94037884 0.24602817 3.1277597 -0.31457055 -1.9273952 0.9367411 1.1773498 0.49574044
0.5969275 2.7889555 1.1895111 3.6233885 1.1462265 0.24379414 -1.119376 -0.7372388
-0.94056475 -1.9973673 -1.9021132 -1.949447 -2.0843315 -2.2977118 -1.7293007 -1.6727653
0.28781575 -1.2603954 -0.31879473 -0.74925333 9.795633 6.7711535 -13.312153 -0.17188

l1.bias f4 [64]
00000000: a352 5c40 d4fa 9f3f 19c9 70c0 9d82 6e3e
00000010: 8a66 883f 478a 4ec0 9f9b 883f 0b89 54be
00000020: db4e 5cc0 e089 af3f a40e a1bf 93bf febe
00000030: 85c7 30bf e902 fbbe b4a1 11bf 4b76 10c0
00000040: 6944 f2bf 425b 7abf aa14 95bf 5e24 7dc0
00000050: b671 7d40 73b8 45c0 c76b 5b3d bd04 c1c0
00000060: a0e9 8fbe 8a81 7dbf b03c 83c0 2e6e 92c0
00000070: d49b 73be e633 14c0 af41 8340 e590 54bf
00000080: d429 6b3e cb1a 0ac0 4e4e c3bf c62d edbf
00000090: 1c79 14c0 bfb5 b3be d685 c9bf bde8 05c0
000000a0: 96c8 a040 5016 aec0 c78b 543f d689 76be
000000b0: 38df 09bf 9a5c 143f dbd7 8b3f 5f04 96bf
000000c0: 228e 1ec0 7ab0 2e3e 0f3d 40bf b0d8 76c0
000000d0: 89af 58c0 0026 a4be 2f19 83be 708b b7bf
000000e0: 9e88 1640 95d9 46be 7321 39c0 ce0b 18c0
000000f0: 0c19 0b3e 11a0 79bd a868 b6c0 11b4 4b3f
3.4425437 1.2498422 -3.762274 0.23292013 1.0656292 -3.2271898 1.0672492 -0.20755403
-3.442313 1.3713951 -1.2582593 -0.49755535 -0.6905444 -0.49025658 -0.56887364 -2.25722
-1.8927127 -0.977955 -1.1646931 -3.9553447 3.9600654 -3.089383 0.05356958 -6.0318284
-0.2810793 -0.99025786 -4.101158 -4.5759497 -0.23789912 -2.3156676 4.101768 -0.8303359
0.22965175 -2.1578853 -1.5258272 -1.8529594 -2.319892 -0.350996 -1.5743968 -2.0923302
5.0244856 -5.4402237 0.83025783 -0.24076018 -0.5385623 0.579538 1.0925249 -1.1720084
-2.477425 0.17059508 -0.7509317 -3.8569756 -3.3857138 -0.32060242 -0.2560515 -1.4339428
2.3520885 -0.19418938 -2.8926666 -2.3757205 0.13583773 -0.060943667 -5.7002754 0.79571635

l2.weight f4 [128, 64]
00000000: 8829 a4c0 ff4a 9dc0 6de3 9dc0 1449 21c0
00000010: a72c d73f da98 86c0 d99a d83c 4284 453c
00000020: 67d3 00bf f017 60c0 f3ae f53d fc73 b1c0
00000030: 461e a73e 1d40 fd3f 67fd 05be fc38 b73f
00000040: 4ffa 2fc0 2452 b2be 5c07 a4c0 52a8 d9bf
00000050: c544 e23c 8375 b4bf cf96 a3be 85e3 7dbf
00000060: d0f0 43bc d630 7bbf 461f bbbf c2e0 ebbf
00000070: ac44 bb3d 345c 79bf 2b19 69bf 191c d8bf
00000080: fe20 83c0 4c54 43bf 09fc 12c0 997c c1bf
00000090: 6498 3a3f dc89 35be 54a1 22bf efbf c83f
000000a0: bfb1 b440 0e4e 9ac0 9a41 a23f 3ed6 ea3d
000000b0: 26af 9cbf ca14 3e3e 1f2e 7abf 28bc 98c0
000000c0: bff7 dabf 59eb 49bf 2630 2dc0 76ca 33c0
000000d0: 6930 58bf 00f9 ecbf b1a4 92bb b3a9 0340
000000e0: d765 b9c0 3eda 64be ca59 c7be d5d2 e1bf
000000f0: d823 60bf 7cb9 a4bf c5dc 47c0 5b7b a1c0
00000100: f896 95bf 7d8b b63f 21c3 29c0 a95b 5abf
00000110: 996c 22bf 755f fd3e db70 34c0 bdab 18be
00000120: 2372 2bbe e1a1 d7be 794d 20c0 9d64 61c0
00000130: 8296 b2be 5859 f03f 546c 4b3d 8998 0940
00000140: f7b2 5ac0 ac1a c93f 3454 9abf 6a02 7ebe
00000150: 46de 76c0 d5a3 01c0 7ff0 823e adee 423f
00000160: f85c f63d 9191 f2bf cdc3 6dbf c695 d73e
00000170: 6429 633d 2201 29c0 da66 ddbf 194d 60c0
00000180: 6e42 f6bf c337 7cbd 4aaf 15c0 8e11 7cbf
00000190: c471 2dc0 af8d 7ebd ac84 a03f 02c7 35bf
000001a0: 4f9c 683f 1bf7 8ebf 35bb 2bc0 c3a7 073d
000001b0: 0ffc 9dbf 6c5e c03e 4aa9 99bf 57b4 093f
000001c0: 40c5 81bf 828e 17be 0773 7cbf df2b bcbf
000001d0: 1d2d 8a3d 6efe 86bf eaa4 babd 06d8 00c0
000001e0: 8ded f2bf f31d 583d 5a62 13c0 26ac 96c0
000001f0: b13f c6bf 0b4a bbbf 8879 d1bf f89a 603f
00000200: 35be b2bf 8ebe efbf 78a4 18bf 964e 2ac0
00000210: 228f 23c0 1e26 2fbf f9f1 1dc0 db46 97bd
00000220: 9dc6 98bf 6b29 f9bf 4764 d5bf 87ef 703f
00000230: 2b80 603f 6526 05c0 afcd ad3d 397e 983e
00000240: 38f7 6340 67d6 ddbf b844 0dc0 a2a3 21c0
00000250: 9ddb b1bd 9fbd 4ebe 974e c8bf 2d12 b0bf
00000260: b59c d4bd 9e72 6bc0 28fb ddbf f687 e8bf
00000270: cc2e 92bd bca2 efbe a887 09c0 e6e5 493e
00000280: 068a 3ac0 2294 9abf 3379 b2bf f73c 81bf
00000290: a0ff 5540 4ed0 debd e282 bc3f 4d2a 6bc0
000002a0: 0e4f e9bd 4d0b fd3e 722c 04c0 27f5 783d
000002b0: d008 b2bf c932 ac3e 5289 9bbf 9f06 0ac0
000002c0: d462 a73e 25fe fcbb 5a8c 76c0 c6ff 40c0
000002d0: bbcb 863f 11a1 a1bf ea30 86b8 8fd7 babc
000002e0: d491 0ec0 f573 e73d 529d fabe d86c 0640
000002f0: 08ee 9d3e 7d93 d8be 8500 ed3d 87fe aebf
00000300: 13d1 d4bf a151 75bc f5c4 ecc0 251a 763f
00000310: 9f72 4fbf ac5f d13f 159e 48be db2b ec3e
00000320: 08c2 a440 4a76 febf e740 b13f 0638 23c0
00000330: 1290 1dbf 7000 aebf 3ebb ba3e c530 ad3e
00000340: 3714 f93f e7b6 edbe 1b53 8fbe 8a4a 933f
00000350: 39ee f33f b488 2340 4ea9 7cbe fe71 983f
00000360: 17ba 8cbd f89f 88c0 d3d6 47c0 e29f 1bbf
00000370: 3696 fb3e ea8b 0640 8d6d 1ac0 5bc0 b7c0
00000380: 4c90 adbf a3f3 1c40 be73 f33e 9c09 c3bf
00000390: 90b7 b93f a515 913e fb2d 9e3e a549 adc0
000003a0: c5d7 f4c0 90c8 39c0 e3e9 33c0 1af2 673e
000003b0: 0efd 16c0 9f7d e9bf d5cf b0c0 920f e53f
000003c0: 6d41 41bf 5bae 81bd c7be c1bf 235d b7bf
000003d0: cf72 45c0 ab23 3bc0 c1ae 5fbd bb0d 14c0
000003e0: d162 97c0 3e6d 23be b217 323f 91b3 3cbf
000003f0: 434b 79c0 d102 0c3f ed2f eebf 3854 9b3e
-5.1300697 -4.915405 -4.934012 -2.5200853 1.6810502 -4.2061586 0.026441025 0.0120554585
-0.50322574 -3.501461 0.119962595 -5.5454082 0.32640284 1.9785191 -0.13084947 1.4314265
-2.7496526 -0.34828293 -5.1258984 -1.7004492 0.027620682 -1.4098362 -0.31950995 -0.9917529
-0.01195927 -0.9812139 -1.4618919 -1.8427966 0.091439575 -0.97406316 -0.9105403 -1.6883575
-4.0977774 -0.763005 -2.296633 -1.5116149 0.7288878 -0.1772837 -0.6352742 1.5683573
5.6466975 -4.822028 1.267627 0.11466645 -1.2240951 0.18562618 -0.97726625 -4.7729683
-1.7106856 -0.7887474 -2.7060637 -2.8092322 -0.8444887 -1.8513489 -0.004475199 2.0572326
-5.7936816 -0.22348878 -0.3893569 -1.7642466 -0.87554693 -1.2869105 -3.1228497 -5.046308
-1.1686697 1.4261318 -2.6525347 -0.8529611 -0.63446957 0.4948689 -2.8193882 -0.14909263
-0.16742758 -0.4211569 -2.5047286 -3.521766 -0.34880453 1.8777266 0.049663857 2.149935
-3.4171731 1.5711265 -1.2056947 -0.24805608 -3.8573165 -2.0256245 0.2557411 0.7614544
0.12029451 -1.8950673 -0.92876893 0.42106456 0.055459395 -2.6406941 -1.7297013 -3.5047057
-1.9239023 -0.061576616 -2.3388238 -0.98464286 -2.7100687 -0.06214684 1.2540488 -0.71006787
0.9086351 -1.1169161 -2.6833012 0.033118974 -1.2342547 0.37572038 -1.2004788 0.537908
-1.0138321 -0.14800456 -0.9861302 -1.4700888 0.06746886 -1.0546396 -0.09113486 -2.013185
-1.8978745 0.052762937 -2.302878 -4.708514 -1.5488187 -1.4631971 -1.6365213 0.87736464
-1.3964297 -1.8730028 -0.5962596 -2.6610465 -2.5556111 -0.6841754 -2.4678938 -0.073865615
-1.1935612 -1.9465765 -1.6671227 0.9411549 0.8769557 -2.0804684 0.08486497 0.297838
3.561964 -1.7331055 -2.2073193 -2.5256124 -0.08684466 -0.20189522 -1.5648984 -1.3755547
-0.10381452 -3.6788707 -1.7342272 -1.8166492 -0.07137832 -0.46803844 -2.1489048 0.19716606
-2.9146743 -1.2076457 -1.3943237 -1.009673 3.343727 -0.10879575 1.4727442 -3.6744568
-0.113920316 0.49422684 -2.0652127 0.06078067 -1.3908939 0.33632496 -1.2151282 -2.1566541
0.32692587 -0.007720726 -3.8523164 -3.0156112 1.0530924 -1.2627279 -6.398729e-05 -0.022807864
-2.2276506 0.11301414 -0.4894815 2.1003933 0.30845666 -0.42300025 0.11572365 -1.3671426
-1.6626304 -0.014973075 -7.3990426 0.96133643 -0.8103427 1.6357322 -0.19591554 0.4612721
5.1486855 -1.9879849 1.3847932 -2.5502944 -0.6154796 -1.3593884 0.3647098 0.3382627
1.9459294 -0.46428606 -0.27993092 1.1507123 1.9057075 2.5552187 -0.2467396 1.1909788
-0.06871431 -4.2695274 -3.1224868 -0.60790837 0.4913804 2.1022897 -2.4129364 -5.742231
-1.3559661 2.4523704 0.47549242 -1.5237308 1.4509144 0.28336826 0.30894455 -5.41524
-7.651339 -2.9028664 -2.8111503 0.22650948 -2.3591952 -1.8241462 -5.52537 1.7895377
-0.75490457 -0.06332084 -1.5136346 -1.4325298 -3.0851324 -2.924052 -0.054610018 -2.313338
-4.7308125 -0.15959641 0.69567406 -0.73711497 -3.8952186 0.546918 -1.8608376 0.3033769

l2.bias f4 [128]
00000000: 7813 6240 81ee b83f 2288 1940 d3ec a240
00000010: 1e02 58be 9c73 9ec0 8ee9 1dbe f328 2840
00000020: f924 48be ef8d e6bd a1cc 5abf 8072 473e
00000030: 0679 1dbf 5fa7 29be 33fe a3be da26 c23f
00000040: faa4 6cbd 413a 3fbf a5fa c7bf 578e eec0
00000050: d606 c1bd 25a9 d63e f446 3dbf 474b 1541
00000060: 6beb 29c0 5485 79be a4e4 49c0 a474 0cbe
00000070: f313 cbbe b113 a6bf 202b 34c0 9395 0dc0
00000080: 51ff 8040 4627 18bf 9b81 aebf fdad b5bd
00000090: 8483 e340 5783 6cbe c5a9 8abf c7a5 8340
000000a0: e19f 6cbf 9388 25bd 52d1 b0bf da12 b0be
000000b0: 626e 3dc0 3021 8cbd 3239 d4c0 7da8 5cbf
000000c0: 184c 26c0 5cbc 0740 ba51 9440 722d c9bb
000000d0: b78a cb40 e8ee 9c40 363b ddbf da1c 8d3f
000000e0: e8f4 bc3e bc83 b13f 01e8 27bf 80ee 5b3f
000000f0: a238 b4c0 db2a 0bc0 5bf2 373e 068d f4bf
00000100: c845 2ac0 58eb 7940 e557 04be 1b18 d8bf
00000110: 5490 473e 7cf2 b040 999e 263f 1a9f ebbf
00000120: 4b48 6ec0 beb2 1641 a43e 8dbf 2e2d 93be
00000130: 8ab0 43c0 fd42 c53e 3bdb 91be 1bf2 de3f
00000140: 8cac 11c0 85ab 1dbe 1a18 54bf 1ad7 9dc0
00000150: b33f 053f c319 0ac0 a1c3 afbf cf10 af3f
00000160: 59b3 3bbf ad5b 3240 137c 4b3f aae6 18bf
00000170: 4939 6cc0 6bb8 15c0 021d 80be 11bf cfbf
00000180: 3349 b9be 5e5c 59c0 a9ca 15be 94bf 9ac0
00000190: 8ad0 4bbf 1345 93be 894d 75c0 cd28 2cbf
000001a0: db62 1dbe 6c76 92c0 19a1 4cc0 9ede e5bf
000001b0: 0e50 8c3e 0ca9 edbf d4c7 94c0 3fc9 4940
000001c0: ed15 4ebe 1240 2c40 6a37 1940 63cb 79c0
000001d0: d104 06c0 3a58 6b40 c8c6 0f3f 9acb 45bf
000001e0: 8acf 09be 875b 8ebe 3747 b43f 2cb9 d9bd
000001f0: c972 4b40 59c9 593f 449b a63f 0a49 8abe
3.5324383 1.4447786 2.398934 5.091409 -0.21094558 -4.9516125 -0.15421125 2.6274993
-0.19545354 -0.112575404 -0.8546849 0.19477272 -0.6151279 -0.16567753 -0.32029876 1.5168107
-0.05777452 -0.74698263 -1.5623366 -7.4548755 -0.09425132 0.41925922 -0.7393639 9.330878
-2.6549938 -0.24367267 -3.15458 -0.1371637 -0.39663658 -1.2974759 -2.8151321 -2.2122543
4.0311666 -0.59434927 -1.3633302 -0.08871076 7.109804 -0.23096977 -1.083306 4.1139865
-0.92431456 -0.04041345 -1.381388 -0.34389383 -2.9598622 -0.068422675 -6.631982 -0.8619459
-2.5983944 2.1208715 4.6349764 -0.0061394507 6.360683 4.9041634 -1.7283695 1.102443
0.369056 1.3868327 -0.65588385 0.859108 -5.631913 -2.1744907 0.17963545 -1.9105537
-2.660509 3.9049892 -0.12924154 -1.6882356 0.1948865 5.5296 0.6508575 -1.8407929
-3.7231624 9.418638 -1.1034741 -0.28745407 -3.05765 0.3852767 -0.28487572 1.7417635
-2.2761564 -0.15397461 -0.82849276 -4.9325075 0.5205032 -2.1578224 -1.3731576 1.3677005
-0.7332054 2.7868454 0.794862 -0.59726965 -3.6909964 -2.339381 -0.2502213 -1.6230184
-0.3618866 -3.3962626 -0.1462809 -4.835886 -0.7961508 -0.28763637 -3.8328574 -0.6724976
-0.15369742 -4.576956 -3.1973326 -1.7958562 0.27404827 -1.8567214 -4.649393 3.152908
-0.20125552 2.6914105 2.3940072 -3.9030387 -2.094044 3.67726 0.5616269 -0.77263796
-0.13458076 -0.27804205 1.4084233 -0.10631022 3.178881 0.8507286 1.3016133 -0.2700885

l3.weight f4 [256, 128]
00000000: 37e0 56bc 00bd 78bc 8df8 0abe d9b7 b4bd
00000010: 1ef4 a6bc 3fb9 943b 4efb 6a3d ddcb adbd
00000020: 5a3c 443d d473 27bd e74b 8bbd bdad f5bc
00000030: d64d 43bc abbc 68bd d0d5 debb 9558 3d39
00000040: 887c adbc 95df 9bbd 9ced 8cbd 0b3b 80bd
00000050: fe4c 3d3d 4bcf b5bd a6df 0ebe 02f7 9dbb
00000060: f1e7 20bd 204f 5abc a254 abbd 7def 993d
00000070: 3904 58bd 6d9c 26bd 4811 adbd 2338 28bd
00000080: 06cc d3bd 80ca cebb 2efd 04bd 8aaa 2a3d
00000090: 2177 3cbd e3dd 8ebd 730b 22be 370b 75be
000000a0: 2f36 a6bc d153 2dbc bc8d a0bc 3ee3 a9bd
000000b0: da43 b3bb 7cb2 853c 0911 9a3a 1f61 2cbd
000000c0: 25f4 f9bc bfeb 84bd b6a8 03be bb3e a7bd
000000d0: f164 dabd 8884 afbc ddaa 9bbc 7e6e 32bd
000000e0: 5f7f bbbd 289e 46bc 2df3 8b3d 9390 a5bd
000000f0: 1f5a 293c 53bd 1d3c bcc5 793c 197a 3dbd
00000100: a216 f7bc 78e1 d0bc 5634 5e3d 37e4 ab3c
00000110: 897e aebd 6f24 83bd 9412 1cbe 7793 9ebd
00000120: d52a f4bd 2ce7 83be dc87 733b 0469 59bd
00000130: 7483 91bd fe39 1abd df29 643d b902 8fbd
00000140: 7279 edbd b6ea 62bd b8a1 a2bd c2a4 abbd
00000150: d2d3 613c 9546 17bd 6020 c1bc 3fa6 bdbd
00000160: 9974 8338 00b0 48bd fe98 55bd 09ac ed3b
00000170: e23f c0bd 23cf 8dbd 24a8 32bd e713 90be
00000180: 9235 6cbd 293f 15be e09a b83b 200f b2bd
00000190: 2c80 dfba 46e4 20bd de46 e2bd d11b 85bd
000001a0: 805d 53bc a2ee 03be 6a55 13be 27d4 44bd
000001b0: 0eac 7dbd 824f 2abd 5536 99bd 0aeb 9f39
000001c0: 0006 55bb 5b72 d4bd 9f78 de3c 1aa2 ecbd
000001d0: 488a b0bd bb2d 93bd 88cd 33be 8017 0a3c
000001e0: 4934 883d 227a 1bbd 61b6 57bd 1592 e93b
000001f0: e80d 47bd 504b 8b3c 5c9c 62bd cb56 49bd
00000200: ea52 92bf 1126 3e3f a2d0 583f 0d64 89bd
00000210: 3991 173e b5db 53bf 6869 aa3d 0989 30bf
00000220: 6f1c 37bd 4bc0 82bd 3c99 8dbf 955b e1bf
00000230: c439 df3d 9077 583d 1f96 72bb f757 f73e
00000240: 8411 993c 2537 a2bf 8f45 0ebf 6d47 39bf
00000250: 8454 b63c 505f 81bf 2840 f7bf 2d75 adc0
00000260: 8c8f 173f 23e6 a43e 34ad 8dbf c736 903d
00000270: 5803 a53d b21b 4940 a7f7 f3bf cbb5 da3c
00000280: c1be 4dc0 2b15 8e3f 2319 433f 7f37 9d3d
00000290: 0dce 6abf 353e 04bf 5459 d3be 72e3 e7bf
000002a0: 7b5c a6bf 2825 4e3c 1230 7fbf 91ac 253e
000002b0: ea1d ae3f 3929 863d 0812 c73f 9e49 2b3e
000002c0: f7f4 5cc0 26d5 46bf acec f13f 8f9d 8dbf
000002d0: 98ad 3bc0 85fa 8abf ed3c b83f 6930 d1be
000002e0: abec b5bd 1101 1abf 0ad3 2a3d 5def 26c0
000002f0: 4883 1ebf c4b5 1fc0 5646 44bd 5fc8 43c0
00000300: 8ecc 01bf cd28 12bf 5ae8 d33d 6bd9 0a3d
00000310: f06b 31bf 4767 a1bd efc0 393f 4352 a9bf
00000320: 1e6e 8cc0 69fb 7dbf d2db 533f c219 fc3b
00000330: 0a15 203f 5b78 a73f 12cd bf3d 1ac2 22c0
00000340: 5ab7 4d3e f717 833d c82c c9bf 0d86 2dc0
00000350: 62ee e53f f65a 18bf cba1 9e3e f48b 61bf
00000360: cde1 943f 5112 0fc0 788f b9bf c755 f4bf
00000370: 82ec 3fbf dffa 0e40 8e71 74be c14f 643f
00000380: fca7 813d 8f8d 3c3e da92 9bbd bb44 3dc0
00000390: e744 5c3f de7a d8bf e549 e1bf 81a6 0240
000003a0: 408f 293c 8408 6ec0 0d94 4ac0 414d 3dbb
000003b0: c5d5 713f b467 25c0 87b6 8f3e bbd1 29c0
000003c0: e748 663d d29b 3cc0 b1bc 393f d172 8d3e
000003d0: 9bdc fe3e a780 53c0 16a1 5bbe a58d 19bd
000003e0: 6d39 a1bc 7ba5 103d 1b24 373c c516 02c0
000003f0: 5ef0 043f 5c27 80bf 1afc 02c0 c12b 98bd
-0.01311498 -0.01518178 -0.13571377 -0.08824129 -0.020380076 0.0045386846 0.05736857 -0.084861495
0.04790912 -0.040881947 -0.068015866 -0.029990071 -0.011920413 -0.056820553 -0.006800391 0.00018057444
-0.021177545 -0.07611004 -0.06881258 -0.062612616 0.046216004 -0.088774286 -0.13952503 -0.0048207054
-0.039283697 -0.013324529 -0.08365752 0.07516382 -0.052738402 -0.040676523 -0.08450562 -0.04106916
-0.10341649 -0.006310761 -0.032468013 0.041666545 -0.046012048 -0.06975915 -0.1582468 -0.2393006
-0.020289509 -0.010579065 -0.019598834 -0.08295296 -0.005470735 0.01632046 0.0011754344 -0.04208481
-0.030511925 -0.064902775 -0.12857327 -0.08166262 -0.10663784 -0.0214255 -0.019002372 -0.043562405
-0.091551535 -0.012122668 0.068334915 -0.08084216 0.010336428 0.009627658 0.015244897 -0.04625902
-0.03016216 -0.025498137 0.05424913 0.020982845 -0.085202284 -0.064034335 -0.15241462 -0.077429704
-0.11922232 -0.25762308 0.0037159836 -0.053078666 -0.07105151 -0.037652962 0.055703994 -0.06982941
-0.115954295 -0.05539962 -0.07941002 -0.083810344 0.013783412 -0.036932547 -0.023575008 -0.092602246
6.268285e-05 -0.04899597 -0.052147858 0.007253174 -0.09387185 -0.06924274 -0.043617383 -0.28140184
-0.057668276 -0.14574875 0.005633697 -0.08694291 -0.0017051748 -0.0392802 -0.11048673 -0.06499446
-0.01290071 -0.12884 -0.14388052 -0.048053887 -0.061931662 -0.04157973 -0.07481066 0.0003050196
-0.0032504797 -0.10373374 0.027157126 -0.11554356 -0.08620125 -0.07186457 -0.17558873 0.008428454
0.066505976 -0.03795827 -0.052664164 0.00712801 -0.048597246 0.017003685 -0.055324897 -0.049155038
-1.1431553 0.74276835 0.8469335 -0.06708536 0.14801492 -0.8275712 0.08320886 -0.689591
-0.04470485 -0.06384333 -1.1062388 -1.7606074 0.1089969 0.0528484 -0.0037015749 0.483093
0.01868511 -1.2673079 -0.5557489 -0.7237461 0.022257097 -1.0107212 -1.9316454 -5.4205537
0.5920341 0.3220683 -1.1068482 0.07041698 0.080572784 3.1423154 -1.9059952 0.026698014
-3.2147677 1.110021 0.7621023 0.07676601 -0.9172066 -0.5165742 -0.4127909 -1.8116286
-1.2996973 0.012582101 -0.99682724 0.1617911 1.3602879 0.06550831 1.5552378 0.16727301
-3.4524515 -0.7766899 1.8900352 -1.1063708 -2.9324703 -1.0857702 1.4393593 -0.40857247
-0.088830315 -0.6015788 0.04170517 -2.6083596 -0.6191907 -2.495469 -0.04791864 -3.0591047
-0.5070275 -0.5709351 0.10347052 0.033898752 -0.69305325 -0.07881027 0.7256002 -1.3228229
-4.388442 -0.99211746 0.82757294 0.0076935003 0.62532103 1.3083605 0.09365286 -2.543097
0.20089474 0.06401055 -1.5716791 -2.7113068 1.7963374 -0.59513795 0.30982813 -0.88104177
1.1631409 -2.235493 -1.4496908 -1.9088677 -0.7497026 2.234062 -0.23871443 0.89184195
0.063308686 0.18413375 -0.07596369 -2.95732 0.86042637 -1.6912496 -1.7600676 2.0414126
0.010349095 -3.7192698 -3.1652863 -0.0028885158 0.9446681 -2.5844545 0.28068945 -2.653426
0.05622187 -2.9470105 0.72553545 0.2762666 0.49777684 -3.3047273 -0.21448168 -0.0374886
-0.019680703 0.035314064 0.011178042 -2.0326397 0.5192927 -1.0012012 -2.046637 -0.074302204

l3.bias f4 [256]
00000000: c2e7 52bf d989 2d41 a12e c4bf 183a c6c0
00000010: afe1 c9c0 6162 85c0 3e66 a1bf 4595 88c0
00000020: f0b9 01c0 c683 fdc0 ffad f0c0 5fb0 c640
00000030: a240 5dbf 3fc0 1ec0 6215 90c0 fd6c 4ac1
00000040: 12d7 51c0 b2c0 35c1 65c7 adc0 d1a9 0bc1
00000050: 4c1c 9ec0 8576 9b40 d8eb 71c0 205e 9cbe
00000060: ddb5 93bf a28e 8fc0 0066 fbbf 8dbb cebe
00000070: 5cab 05c0 5876 a1c0 b14b debf 6ad4 7abf
00000080: 0198 ab41 2983 00c1 a3d3 11c1 0810 3bc1
00000090: 6ff6 46c0 fd66 69c0 f4c6 b1bf 23ad a1bf
000000a0: 6552 c2c0 0395 abc0 30aa 09c0 dc3c e1bf
000000b0: c170 b041 68f3 17c0 f2cf 88c0 02b0 3ac1
000000c0: 73c8 c540 e86b 20c0 922e f7c0 ef7c 30c1
000000d0: f9a4 40c0 cea1 edc0 0103 77c0 c08c c5bf
000000e0: ac64 06bf b129 4f3c faf1 8ec0 ea57 7240
000000f0: 366d 4abf 17d9 a0c0 e629 77c0 2354 16c1
00000100: d54a 1bc0 228c e2bf ae48 96c0 9d30 b3bf
00000110: de03 2fc1 bac2 adbe a19a e540 d9f1 abc0
00000120: 798c dabe df05 bcbf a560 c2bf 8174 73be
00000130: 0a72 e3c0 bae2 5cc1 7af2 98c0 7568 bec0
00000140: 2cf5 5cbd 4db3 d7c0 a0ad 23c0 3a3d 74c0
00000150: 78df 9040 fed1 efc0 9e28 c23f 0c0c 12c1
00000160: 3b85 50c0 7f09 69c0 6732 f5c0 148b b4bf
00000170: 7cb9 9ac0 2c97 d0be 6515 e2be d257 66c1
00000180: fd38 e5be 0f39 4bbf 44cc 8ac0 7b10 d6c0
00000190: 463f 36c0 a0a9 40c0 f91f 27c0 3fde 1fc1
000001a0: 5aeb 9ac0 90e3 83c0 bbbd 55c0 60f1 49bf
000001b0: d13f 8dc0 36bd e6bf 4498 0cc0 7ea7 babf
000001c0: f1ff c2c0 d2c6 7fc0 8963 90bd 52b2 43c0
000001d0: 728e 373e 2a10 60c0 ddf9 8bc0 021e 7ac0
000001e0: b336 3ac0 367c 8cc1 7d54 fbc0 a021 66c0
000001f0: 5e80 54bf f752 fabf c923 eebf ddb0 7341
00000200: ab59 d0c0 9b15 62bf a500 c6bf 957a 7ec1
00000210: 88bf e3bf ab5a adbf f95c ba41 8a8a 4ebe
00000220: 69cf f8bf bfac 34c0 9b56 94c1 f04b 23c1
00000230: 5f5f a9c0 81a9 94c0 3fc3 78bf c765 56be
00000240: fa83 a2c0 70ab f6c0 bbdf a1c0 5f2f 06c1
00000250: 4093 0fc0 1224 02c0 7c55 6dc0 486b 8141
00000260: 6cc5 9ac0 d0cd 68c0 256b 01c0 51bd 5fbf
00000270: d09c 50c0 741e f6c0 3e03 d3bf fe5c 59c0
00000280: b880 5fc0 ff8d e8c1 97ec e8c0 5c1e 8a40
00000290: b3a7 7bc0 526c 2ac0 ae4b 99c0 fe70 5cc1
000002a0: 589b 68c0 52ea 27c1 1b2c 68c0 75df 8041
000002b0: a0bc 4c3f d11c ca3f e27a a4bf 5828 c4be
000002c0: 91da d4bf 4a73 cabf 474b 9741 6440 23c0
000002d0: a468 01c0 824e cfc0 d3e5 68bf 650e f241
000002e0: 5ae4 8041 cf6a 3fc1 8243 04c1 ccbf fd3e
000002f0: 9a53 213d 5b65 5ac0 e491 36c0 b41f 3cc0
00000300: 2bdf 65bf 8ec5 b941 cc87 10c0 f659 f9bf
00000310: 0a49 91bf 1d1b 34c1 a81e 95c0 5d4a 64c0
00000320: 6656 4ac0 1063 17bf 84d0 a2c0 91fa 36c1
00000330: bb94 80c0 2289 5fc0 6b0f eebf 409c 28c0
00000340: 4a21 a33f 0fc4 8ec0 ec42 40c1 b473 39c0
00000350: 36b9 39c0 06f6 56c0 c57c bec1 6d3f adc0
00000360: 6438 e1bf 842e d741 5b3c dbc0 c54f b9bf
00000370: d392 30c0 7fa2 8bc0 d9f3 14c1 9e16 4abf
00000380: fef5 96bb 3b03 dd41 2984 9fc0 f6a8 cc3d
00000390: 9120 96c0 9a33 a841 8fd5 c2c0 2a5f 3d3f
000003a0: 39d2 40c1 eebc 31c0 e1aa 04c1 d85e c1c0
000003b0: 903c 96c1 ae74 0941 9450 7c40 06be 9cc0
000003c0: feb5 83bf 682c ab3e 39bf e7c0 78f2 73c1
000003d0: dfb9 b3c0 cf08 2041 30da b8c0 80bd aac1
000003e0: b510 58bf 5b11 45c1 e41f 46c1 aa22 1bc1
000003f0: 6b23 04c1 1c3d 11c1 741c 37c0 e85b 7bc0
-0.82384884 10.846154 -1.532673 -6.1945915 -6.3087993 -4.168259 -1.2609327 -4.2682214
-2.0269737 -7.9223356 -7.5212398 6.2090297 -0.86426747 -2.4804838 -4.50261 -12.651608
-3.2787519 -11.359545 -5.43059 -8.728959 -4.940954 4.8582177 -3.7800198 -0.30540562
-1.1539875 -4.486161 -1.9640503 -0.40377465 -2.088584 -5.0456963 -1.7366849 -0.9798037
21.44922 -8.0320215 -9.114169 -11.691414 -3.108791 -3.646911 -1.3888841 -1.2630962
-6.072558 -5.36194 -2.1510124 -1.7596698 22.055056 -2.3742313 -4.275384 -11.667971
6.180719 -2.506586 -7.724435 -11.030501 -3.0100691 -7.4260015 -3.8595583 -1.5433578
-0.52497363 0.012644217 -4.467038 3.7866158 -0.7907289 -5.0265 -3.8619323 -9.395541
-2.4264424 -1.7699015 -4.696372 -1.3999211 -10.938444 -0.33937627 7.1751256 -5.3732724
-0.42685297 -1.4689292 -1.5185744 -0.23774911 -7.107671 -13.805353 -4.779599 -5.950251
-0.05394475 -6.7406373 -2.5574722 -3.816237 4.527279 -7.494384 1.5168645 -9.127941
-3.2581317 -3.6412046 -7.6624026 -1.4104943 -4.835142 -0.40740335 -0.44156948 -14.3964405
-0.4477004 -0.7938394 -4.337435 -6.689512 -2.847612 -3.010353 -2.6113265 -9.991759
-4.8412294 -4.1215286 -3.3397052 -0.78883934 -4.41404 -1.8026493 -2.1967936 -1.4582365
-6.093743 -3.99651 -0.07050235 -3.0577588 0.17925432 -3.5009866 -4.374251 -3.9080815
-2.9095886 -17.56065 -7.8540635 -3.5958023 -0.8300837 -1.9556569 -1.8604671 15.2306795
-6.510946 -0.8831422 -1.5468947 -15.904927 -1.7792826 -1.3543295 23.295397 -0.20170036
-1.9438297 -2.8230436 -18.542288 -10.206039 -5.292892 -4.6456914 -0.9717292 -0.20937262
-5.0786104 -7.7084274 -5.058561 -8.386565 -2.2433624 -2.0334516 -3.7083426 16.177383
-4.8365993 -3.6375618 -2.0221646 -0.8739825 -3.259571 -7.6912174 -1.6485364 -3.3963008
-3.4922314 -29.069334 -7.2788806 4.316206 -3.9321105 -2.6628613 -4.7904882 -13.777586
-3.6344814 -10.494707 -3.627692 16.10911 0.7997532 1.5790044 -1.2850001 -0.3831203
-1.6629201 -1.5816433 18.911757 -2.550805 -2.0220118 -6.4783335 -0.90975684 30.257029
16.1115 -11.963576 -8.266481 0.49560392 0.03938637 -3.4124362 -2.8526545 -2.939435
-0.8979365 23.221462 -2.2582884 -1.9480579 -1.1350415 -11.256619 -4.659992 -3.5670388
-3.1615233 -0.5913553 -5.0879536 -11.436173 -4.0181556 -3.492745 -1.8598455 -2.6345367
1.2744534 -4.461433 -12.016338 -2.897687 -2.9019294 -3.358766 -23.810923 -5.4139924
-1.7595334 26.897713 -6.8511176 -1.4477469 -2.7589614 -4.363586 -9.309533 -0.7894076
-0.0046069613 27.626577 -4.984883 0.09993164 -4.6914754 21.025196 -6.088569 0.73973334
-12.051324 -2.7771564 -8.2917185 -6.0428276 -18.779572 8.590986 3.942418 -4.898196
-1.0289915 0.33432317 -7.2420926 -15.246696 -5.6164393 10.002151 -5.776634 -21.34253
-0.8440049 -12.316737 -12.382786 -9.695963 -8.258647 -9.077419 -2.8611116 -3.9274845

l4.weight f4 [1, 256]
00000000: cd01 003c bf99 d4bc fc75 303d 3193 bd3f
00000010: ec8d adbe 8016 033f 6f75 84bc 03d5 e6be
00000020: 9cbd 0c3c 5904 793e 03b8 0cbe 571a c3be
00000030: fa01 3f3c 8031 543c d0df 013d 083c bcbd
00000040: c55f 31bf a5a2 42c0 2fcf ffbc 57a8 73bd
00000050: e449 b63e e1dd 8cbe 7095 f7bd 3aa3 a93f
00000060: 78f0 e2bc 9f47 da3d 2a38 b83e e48e 803d
00000070: cf25 80bc 295a a33d 3b49 c33c 20ae 4ebd
00000080: 52c6 ccbc cbf3 d1bb 7f18 90bd 434e 313f
00000090: 49e1 363c 77e3 5ebc 9d61 84be 99f6 e6bc
000000a0: 89ce 473e f45c a23f dfd5 e33c 031f e1bd
000000b0: f700 3cbc e57b 2c3e 29b7 993d a32a 1b3f
000000c0: f33e eb3b 1e42 a73e d22b 6b3e 861a 92bd
000000d0: b26d abbc 781d 14bf c74d 7c3e c9fe e8bd
000000e0: 70a2 8dbe 5805 693e 4f26 fabc a69e 14bb
000000f0: 342d aa3b 1199 053c bdd3 f13c df50 053d
00000100: e215 c7bd 063f a8bd 0555 693c 49de d03c
00000110: af22 9eba e6d9 33bc 45d5 cfbd d208 563f
00000120: 0d65 503d 1dc5 5dbd 8cf8 02bf 4c8b 6c3e
00000130: 56a0 4ebd e45a 8e3e b746 8dbc c581 d3bf
00000140: 8f30 2cbe 477b 393c 8e30 93be b599 8fbe
00000150: 4c9e afbd 1543 8a3e ff24 8bbc 0cd6 0abe
00000160: bd00 82bf 106d b8bd 430e 453e c8d8 85ba
00000170: 516b cf3d 1cd8 07bf f976 41bc 396b b03e
00000180: 9558 c8bc 0e2d f5bc 2b6a 013c 8ddb c93d
00000190: 30a3 343e ba72 ed3e 11b3 ed3b 38a5 07be
000001a0: c4b0 c63c 475f 14bd d35c e6bd da19 f83c
000001b0: 07f7 b63b eb2b 60ba c447 573c a4c7 db3d
000001c0: b38e 273f 2fae 3d3f bbf8 9b3c c4b8 0d3d
000001d0: d673 d8bc e6e0 07be 0fbc 6bbc 438b 83bc
000001e0: 6e49 183f b67d 83be 7fd0 5dbd 7603 96be
000001f0: 6212 40be c04f 783c dd32 87bd f3a5 96bd
00000200: 38e5 9f3e 7ce4 f8be d052 11bc 87b4 c93c
00000210: 1721 59bc b62d 253b a051 a03d 0da2 693c
00000220: 406f a83b 5a5a e83e 512d 2e3f 284e 1f3d
00000230: c9d6 033f b9f6 87bb 3392 88bb 1f34 4abd
00000240: c9ee 993f d4f1 bd3e 7ec2 f4bb 19b3 0a3f
00000250: 9f33 b53e c527 683d c793 13be f59e 633b
00000260: ba8c 6ebd b2a1 e23c e24c fdba b2f5 6ebc
00000270: c353 9dbc b526 f53e 328f 18be 951a be3e
00000280: 347e 503f d254 b53e 8795 48bf 6419 da3c
00000290: c1e5 ac3e 6815 413e 2bec c1bd 45df 1b3e
000002a0: 0361 c9bb fda3 cfbb d6e9 80be 12b6 ca3c
000002b0: fa56 c33c 106d 94bc 9bd8 123e eff0 79bf
000002c0: 2081 e73a efda 5b3d 6d00 3c3d 5741 84bc
000002d0: 1bdf 5abe f833 973f 2149 a83c d306 92bd
000002e0: 5264 13bd c68d 543c d40a 583e 1f7c a8bd
000002f0: 93c1 b53b 8bb9 9fbc 90f2 523f 76d9 83bd
00000300: 5b02 cebb 62f1 343e 1911 9b3d 4d7c ccbb
00000310: 1570 f93d c8d5 853e 8cb4 08bc cab2 943b
00000320: b166 033c 0856 87bd 859c 29be d167 413d
00000330: aa90 51bf c66f 0bbe c316 60b9 7304 9b3c
00000340: 36ac 9cbc 3d5e acbe 3648 8f3e 57db a83f
00000350: 8c4e 36bd 2d39 89bc 537c 8f3e d9f4 a0bc
00000360: 5e08 96bc 907c 4cbd 546d 16bd d473 de3c
00000370: 05b1 a5bd 49ad 4d37 cb5f b03d 9cc0 31bd
00000380: e9ea abbc d079 17bd fdde 093f 2799 9f3c
00000390: 37eb 0dbc c75f 933b cd06 663e af00 2b3e
000003a0: 4f39 ab3f 8968 ea3b a9cf 4a3d 0514 bc3b
000003b0: d60f 303f f352 c93c a063 6c3f 2b6a b3bf
000003c0: a4b2 6c3c b888 e43e b613 b4be 2508 893e
000003d0: 42cc e9bb 378e 9abc 6708 373c 5c7f 8e3a
000003e0: 3973 0439 7f63 1c3f 1800 3c3e c5e4 1e3e
000003f0: 8a7b 3b3e 954e d5bc aec6 923e 6cb3 a33f
0.007812929 -0.025952218 0.04308127 1.4810544 -0.3389734 0.5120621 -0.016169278 -0.4508439
0.008590128 0.24318065 -0.1374207 -0.38106033 0.011658186 0.012951255 0.031707585 -0.091911376
-0.6928676 -3.041177 -0.031226723 -0.059486713 0.3560325 -0.2751303 -0.1208905 1.3252938
-0.027702555 0.10658192 0.3598035 0.06277254 -0.015643029 0.07976181 0.02383863 -0.050459027
-0.02499691 -0.006407236 -0.07035922 0.6926004 0.011162111 -0.0136040365 -0.25855723 -0.028193759
0.1951238 1.2684617 0.027811943 -0.10992243 -0.011474839 0.16844137 0.07505638 0.60611933
0.007179135 0.3266763 0.22965935 -0.07133965 -0.02092633 -0.57857466 0.24639045 -0.113767214
-0.27662992 0.22755945 -0.030535845 -0.002267757 0.005193377 0.00815417 0.02951991 0.032547828
-0.09720971 -0.08215146 0.014241462 0.025496619 -0.001206478 -0.010977244 -0.101481 0.8360721
0.05087762 -0.05414306 -0.511605 0.23100013 -0.050445877 0.2780372 -0.017245634 -1.6523978
-0.16815399 0.0113208955 -0.28747982 -0.28046957 -0.085751146 0.27004305 -0.016985415 -0.13558215
-1.0156475 -0.09005177 0.19243722 -0.00102117 0.10127891 -0.5306413 -0.01180815 0.34456804
-0.024456302 -0.02992871 0.007898848 0.09856329 0.17640376 0.46376592 0.0072540124 -0.1324662
0.02425421 -0.036223676 -0.112481736 0.030285764 0.005583647 -0.0008551466 0.013139669 0.10731438
0.65452117 0.7409391 0.019039502 0.034600034 -0.026422422 -0.13269386 -0.014388098 -0.016057616
0.59487045 -0.25681847 -0.054153915 -0.29299515 -0.18757012 0.015155733 -0.06601498 -0.07355871
0.31229568 -0.4861182 -0.008869842 0.024622215 -0.013252518 0.0025204248 0.07828069 0.014259827
0.005140215 0.45381433 0.680379 0.038892895 0.5149961 -0.0041492847 -0.004167819 -0.049366113
1.2025996 0.37098563 -0.0074694743 0.5417953 0.35390946 0.056678552 -0.14411841 0.0034732197
-0.058239676 0.027664993 -0.0019325281 -0.0145849455 -0.01920498 0.47881094 -0.14898375 0.37129655
0.8144257 0.35416275 -0.7835316 0.026623435 0.33769038 0.18855822 -0.094688736 0.1522189
-0.006145598 -0.0063366876 -0.25178403 0.024745021 0.023845185 -0.018118411 0.14340441 -0.9763326
0.0017662384 0.05367559 0.045898844 -0.016144438 -0.2137417 1.1812735 0.020542683 -0.07130208
-0.035984345 0.012973255 0.2109788 -0.08226799 0.0055467575 -0.019497653 0.8240137 -0.06437962
-0.006286902 0.17670205 0.075716205 -0.0062404037 0.12179581 0.26139665 -0.008343827 0.004537915
0.008020089 -0.06608206 -0.16563614 0.047218148 -0.81861365 -0.13616857 -0.00021370784 0.01892302
-0.019125085 -0.33665648 0.2798478 1.3191937 -0.044508502 -0.016750896 0.2802454 -0.019648002
-0.018314537 -0.04992348 -0.036725357 0.02715484 -0.080904044 1.2259298e-05 0.08612021 -0.043396577
-0.020986037 -0.036981404 0.5385588 0.019482208 -0.008662037 0.0044975015 0.22463532 0.1669948
1.3376864 0.007153575 0.049514446 0.005739691 0.68774164 0.024575686 0.92339516 -1.4016775
0.014446888 0.44635558 -0.35171288 0.26764026 -0.007134945 -0.018866641 0.011171437 0.0010871696
0.00012631425 0.6108932 0.18359411 0.15516956 0.18308845 -0.026038447 0.28667206 1.278913
