preTrained/v2TD3_BipedalWalkerHardcore-v3_0_crtic_2.pth (torch_old, 529892 bytes, 5 tensors)

l1.weight f4 [400, 28]
7.2685513 -3.0930698 3.862728 10.420675 4.286179 -0.22932662 1.5152946 0.81415796
-0.5245548 1.9070708 0.4026057 -1.7794442 -0.83788717 0.060745303 0.5462876 1.1904604
0.77399856 -0.14646468 0.17406978 0.18365693 0.6956254 0.3586474 0.3713846 0.9705787
-0.05488014 -0.49363527 0.18529901 0.24554506 0.31977144 0.8897566 -0.46734172 0.44616276
-0.025659814 0.09496946 -0.044349276 0.1668817 -0.1385991 0.29503438 -0.5721716 0.43856066
-0.8666879 -0.24266542 -0.9861563 -1.0181979 -1.191873 -0.98141825 -1.1468732 -1.2069021
-0.9713666 -1.1644657 -1.3065265 -0.74249375 -0.093516454 -0.04277649 -0.018654745 -0.1155619
1.3794657 23.219646 -6.199907 3.0507348 2.8255494 0.71575296 -0.093204275 0.31569046
1.1709546 0.1269358 0.12877412 -0.1749222 -0.34226024 -2.0609322 -1.6482399 -1.5417382
-2.4206572 0.44572803 0.65733606 2.24415 0.61062014 -0.8743035 -0.40740848 -0.38062268
-0.27672267 0.264506 0.46857104 -0.48271337 -1.8711077 6.604338 -21.46605 1.9302783
-0.2645746 0.5205524 -0.741916 0.43859592 -0.82417345 -1.4210193 -0.54131556 -5.362188
0.055166773 -0.32118315 0.9408336 0.452074 -0.1720832 0.62201303 1.068507 1.0868194
0.52658665 -0.43009734 0.23606518 -1.9367558 -0.0692022 -0.38293764 -0.25387728 -0.10617039
-0.61139756 1.4451648 1.3587604 -2.488973 1.0667464 0.43268606 3.5417197 -1.6179988
0.17970961 -2.1364233 -1.3661275 -0.6093685 0.4659912 -0.2178052 -1.3897651 -0.9991339
-1.258974 -2.0245256 -2.079327 -2.106619 -2.0991464 -1.9092665 -1.3899399 -0.32744417
-1.3992324 1.2188174 -1.2535001 -1.2295455 -0.024632167 2.2957468 0.26275706 0.41631204
0.18073288 -0.13296083 0.42581007 -0.30454692 -0.8290207 0.15121049 -0.29819095 -0.18384072
0.02351436 -0.14663115 -0.0616061 0.105230615 -0.21581845 -0.23415904 -0.4089319 -0.3732473
-0.33108035 -0.29820767 -0.7461557 -0.98670197 0.046513453 0.047492705 -0.32889134 0.1367222
-2.8628995 -1.9355048 1.2964041 -1.4606155 -0.8184222 -2.103563 -5.9480658 0.12007615
-3.5798295 -0.45126188 1.2089411 -3.730157 2.1604464 -0.96778446 -1.4267302 -1.1767526
-0.43622518 -0.9252775 -1.8349165 -2.2964256 -2.5797734 -2.5159483 -1.939254 0.0029047476
-0.5146246 -1.3166436 0.3451483 1.445309 -2.2727187 -0.3132527 9.324027 1.2339753
-1.8672111 -0.022433568 -2.2869956 -0.64248824 -0.181212 -2.7301688 -2.4575531 -2.5982642
-1.7923032 -1.254163 0.5950693 -0.4820173 0.061678052 0.021140065 0.23213923 -0.40789866
-0.38460255 -0.17856407 0.19749697 0.23972438 -0.45399857 -0.4230947 -0.71660465 -0.47624737
0.22356716 -0.96149117 -3.8111289 -0.7987028 -0.58863187 -1.5323474 -0.20149274 -2.4301667
-2.8132792 -1.4205686 0.3506661 -1.9741602 -0.44955397 0.21927688 -0.5835686 -0.8132953
-1.1268436 -0.24413654 -0.79303694 -0.6824813 -1.0855103 -1.008982 -0.9511898 -1.4801716
-0.079622224 -0.09209457 0.0658063 -0.7549059 -0.7750707 -0.4180302 0.383327 0.5816895
00000000: f997 e840 dbf4 45c0 f036 7740 16bb 2641
00000010: 6128 8940 99d4 6abe 2cf5 c13f a86c 503f
00000020: 3949 06bf e51a f43f 5622 ce3e d4c4 e3bf
00000030: c67f 56bf 11d0 783d 81d9 0b3f 0261 983f
00000040: c524 463f d6fa 15be 593f 323e 9010 3c3e
00000050: 8214 323f a2a0 b73e 1f26 be3e d877 783f
00000060: ffc9 60bd c3bd fcbe 06bf 3d3e 2a70 7b3e
00000070: 15b9 a33e 17c7 633f 6a47 efbe 726f e43e
00000080: 8834 d2bc 597f c23d 96a7 35bd 09e3 2a3e
00000090: ecec 0dbe bf0e 973e d779 12bf 068b e03e
000000a0: 42df 5dbf 497d 78be bd74 7cbf 4f54 82bf
000000b0: 4b8f 98bf 3a3e 7bbf becc 92bf c57b 9abf
000000c0: 7bab 78bf 360d 95bf 433c a7bf 1214 3ebf
000000d0: 8e85 bfbd 6736 2fbd d6d1 98bc b8ab ecbd
000000e0: 5592 b03f d6c1 b941 a365 c6c0 3d3f 4340
000000f0: cdd5 3440 963b 373f e2e1 bebd 2ea2 a13e
00000100: d7e1 953f 75fb 013e 5ddd 033e ce1e 33be
00000110: bc3c afbe 50e6 03c0 86f9 d2bf ad57 c5bf
00000120: 0cec 1ac0 7736 e43e 2d47 283f 27a0 0f40
00000130: 9a51 1c3f 5bd2 5fbf d897 d0be fae0 c2be
00000140: 98ae 8dbe 556d 873e 8be8 ef3e 3526 f7be
00000150: 7580 efbf bd56 d340 78ba abc1 5c13 f73f
00000160: 5276 87be ec42 053f 35ee 3dbf a58f e03e
00000170: 08fd 52bf f6e3 b5bf a893 0abf 0b97 abc0
00000180: 8ef6 613d 1e72 a4be 79da 703f 3e76 e73e
00000190: 9436 30be 3f3c 1f3f d6c4 883f e61c 8b3f
000001a0: 62ce 063f b835 dcbe 12bb 713e 9de7 f7bf
000001b0: e2b9 8dbd 6710 c4be 34fc 81be dd6f d9bd
000001c0: 8d84 1cbf 29fb b83f dceb ad3f 554b 1fc0
000001d0: 258b 883f 0789 dd3e 89ab 6240 961a cfbf
000001e0: cc05 383e 29bb 08c0 44dd aebf 93ff 1bbf
000001f0: 6696 ee3e 5408 5fbe d3e3 b1bf 3dc7 7fbf
00000200: 0f26 a1bf d491 01c0 b213 05c0 d8d2 06c0
00000210: 6a58 06c0 d862 f4bf 8de9 b1bf c3a6 a7be
00000220: 0c1a b3bf 3502 9c3f b172 a0bf bf61 9dbf
00000230: 66c9 c9bc 84ed 1240 1888 863e da26 d53e
00000240: 0a12 393e e226 08be c703 da3e 93ed 9bbe
00000250: b33a 54bf ecd6 1a3e 7cac 98be be40 3cbe
00000260: 30a1 c03c 7a26 16be ae56 7cbd 2683 d73d
00000270: 83ff 5cbe 63c7 6fbe 865f d1be 451a bfbe
00000280: 5d83 a9be adae 98be 0f04 3fbf 8098 7cbf
00000290: e484 3e3d b687 423d 7264 a8be e800 0c3e
000002a0: bf39 37c0 9fbe f7bf 92f0 a53f 73f5 babf
000002b0: 1e84 51bf c7a0 06c0 8e56 bec0 7cea f53d
000002c0: ed1b 65c0 cc0b e7be 95be 9a3f e4ba 6ec0
000002d0: c144 0a40 b9c0 77bf 189f b6bf d49f 96bf
000002e0: e858 dfbe fcde 6cbf 8bde eabf a3f8 12c0
000002f0: 021b 25c0 4c05 21c0 7a39 f8bf 945d 3e3b
00000300: 70be 03bf c787 a8bf 47b7 b03e e3ff b83f
00000310: 3974 11c0 a862 a0be 372f 1541 e7f2 9d3f
00000320: c600 efbf 9ac6 b7bc 235e 12c0 1c7a 24bf
00000330: a38f 39be 16bb 2ec0 8d48 1dc0 f649 26c0
00000340: 316a e5bf 6a88 a0bf 7656 183f f9ca f6be
00000350: 20a2 7c3d ee2d ad3c e8b5 6d3e 18d8 d0be
00000360: a0ea c4be 80d9 36be a53c 4a3e 4f7a 753e
00000370: 8072 e8be de9f d8be 6773 37bf b2d6 f3be
00000380: caee 643e 4924 76bf 89e9 73c0 c977 4cbf
00000390: 94b0 16bf f623 c4bf 1d54 4ebe da87 1bc0
000003a0: c40c 34c0 31d5 b5bf 828a b33e 48b1 fcbf
000003b0: f02b e6be 1e8a 603e c064 15bf 1f34 50bf
000003c0: 693c 90bf eefe 79be 7804 4bbf 18b7 2ebf
000003d0: 00f2 8abf 5226 81bf 2d81 73bf 4376 bdbf
000003e0: fa10 a3bd 149c bcbd 74c5 863d 8341 41bf
000003f0: 096b 46bf 0e08 d6be 7043 c43e 9ae9 143f

l1.bias f4 [400]
-1.0481472 -1.0305165 -0.17814884 -3.03284 0.05753577 -0.6578618 -0.91380966 -0.9822397
-1.9012717 -0.38419545 -3.317793 -1.5910032 -4.2035484 -0.2878222 -0.47264877 -0.8355209
-1.8871777 0.8404256 -0.25048885 -1.1275067 -2.8469877 -1.9143561 -0.59447104 -0.32325098
-0.6118541 -0.09405341 -0.8192632 -1.2020845 -1.5798825 -0.4864339 -0.18635954 0.59185195
-0.95043975 -0.53794944 -0.1789723 -0.75510585 -0.14425969 -1.3164623 -0.14704314 -0.35602254
-1.5509055 0.017140258 0.3750597 -0.23744133 -1.4547902 0.90834284 -0.13036859 -0.3258529
-0.1988587 -0.40098542 -1.6854823 -1.171931 0.16911025 -2.3162048 -1.7932211 -1.772686
-0.97417873 -1.7099645 -0.04966979 -2.8544025 -2.9133186 -0.5960077 -1.7564884 3.5491703
-2.3867762 -1.28582 -0.9216539 -0.38757914 -2.0231717 0.5544648 -0.68886745 -0.12574776
-0.36097297 2.892109 -0.7592118 0.15056463 1.8711221 -1.7375867 0.092098996 -4.7001524
-1.1789075 -0.4091741 -0.45627788 -0.5701904 -1.3202512 -0.3207761 0.041357215 -2.2723455
-1.0987419 2.88689 -3.7536788 -3.6496205 -1.8374686 -0.52475363 0.24460267 -0.48648626
-1.691522 -0.14985193 -1.3264357 -0.6404304 -2.961574 -0.8850868 0.4331019 -0.3608557
-0.71575207 2.4030151 -0.34478828 2.7200544 -2.4349723 -0.66275513 -0.72627586 0.8753086
1.8939266 -2.882066 -1.2617259 0.27344537 -1.9734355 -1.9662145 -2.1615431 -0.36217403
-0.78339213 -2.2877421 -1.0059681 -0.2945348 -0.56421274 -0.17256464 -0.9312174 -1.3653828
-0.52114195 -1.2135341 -0.4649478 -0.7972766 -1.8793986 1.5647562 0.5155956 -0.14702357
-0.290201 -0.27385652 -0.20384061 -0.18917076 1.3000711 -1.9094853 -4.1658325 -1.5656846
-0.37111408 -0.36616385 -6.9211135 -1.21494 -0.5749653 -0.8735287 -1.9119941 -1.8571044
-1.3676015 -0.7452176 -0.3769678 -1.0955536 -0.2202877 -0.45043722 -2.240251 -0.40796468
-1.9711559 0.008348782 -2.1655617 -0.16287312 -0.24512893 2.0416832 -1.0231901 -4.754819
3.3334494 -0.09496731 -0.13572755 -0.7848555 -0.4428712 -0.8167611 -1.9572957 -1.8825538
-0.31260368 -0.23669782 -0.29873568 0.4874246 -1.9198412 -3.3521123 -0.28459117 -0.4027507
-3.2112112 -1.6720194 -0.480753 -0.62753797 -1.6558139 0.31760946 -1.3733578 -1.5904324
1.0975556 -4.646016 -0.8681388 -4.208123 0.68278676 -2.5990763 -1.7547381 -4.644344
-0.715017 -1.3898095 0.23284052 -0.86254925 -0.9270533 -1.1630354 -0.8827462 0.24755314
-0.82714534 -1.7660285 -0.57146806 -0.6017839 -0.3270849 0.021434613 -0.2992587 -2.414013
-2.5173674 -1.7677219 -0.84383106 -2.1507206 -0.23259056 -0.28031924 -0.05617302 -1.668176
-1.3023376 -0.22515725 -2.7701476 -0.3947796 -0.76892537 -0.22205865 -0.210357 -0.35627332
-1.8372694 -0.08927721 -1.3621403 -1.1478851 0.046856485 -0.60319996 -1.6714375 -2.8421872
-2.2044249 -0.21754669 -1.0801812 0.27181217 -0.0592926 0.09472484 -4.853645 -0.23081645
0.40683383 2.0916014 -0.35257196 -0.1406284 -1.566338 -1.0749749 0.21970424 -0.1721521
00000000: b029 86bf f7e7 83bf a66c 36be 0d1a 42c0
00000010: a1aa 6b3d a269 28bf 6eef 69bf 1074 7bbf
00000020: df5c f3bf 44b5 c4be b856 54c0 fea5 cbbf
00000030: 7883 86c0 6e5d 93be 05ff f1be b3e4 55bf
00000040: 0a8f f1bf 2226 573f 1340 80be 2452 90bf
00000050: 0c35 36c0 9f09 f5bf 412f 18bf 2781 a5be
00000060: 78a2 1cbf 139f c0bd 3cbb 51bf e8dd 99bf
00000070: 9739 cabf dd0d f9be 09d5 3ebe 9c83 173f
00000080: 0550 73bf 0eb7 09bf 8444 37be 9e4e 41bf
00000090: d0b8 13be d681 a8bf 7a92 16be 9648 b6be
000000a0: 1284 c6bf ba69 8c3c d307 c03e d223 73be
000000b0: 9136 babf 2889 683f 587f 05be 31d6 a6be
000000c0: 9da1 4bbe f64d cdbe e2bd d7bf d601 96bf
000000d0: 3d2b 2d3e b33c 14c0 4588 e5bf 60e7 e2bf
000000e0: c763 79bf 1ee0 dabf 8d72 4bbd 88ae 36c0
000000f0: d073 3ac0 f693 18bf 9dd4 e0bf 9b25 6340
00000100: f1c0 18c0 c095 a4bf 83f1 6bbf c670 c6be
00000110: a57b 01c0 68f1 0d3f 9e59 30bf 05c4 00be
00000120: 73d1 b8be 5018 3940 b45b 42bf 9d2d 1a3e
00000130: ee80 ef3f 3e69 debf 669e bc3d a667 96c0
00000140: 71e6 96bf 457f d1be 419d e9be 00f8 11bf
00000150: fefd a8bf c43c a4be 2f66 293d 1c6e 11c0
00000160: 93a3 8cbf cec2 3840 463c 70c0 6293 69c0
00000170: 2c32 ebbf 4156 06bf 1f79 7a3e ba14 f9be
00000180: cb83 d8bf c972 19be a5c8 a9bf 3ff3 23bf
00000190: 6e8a 3dc0 0c95 62bf 88bf dd3e 14c2 b8be
000001a0: 873b 37bf 00cb 1940 1788 b0be 5f15 2e40
000001b0: 96d6 1bc0 52aa 29bf 37ed 39bf 3914 603f
000001c0: 306c f23f c573 38c0 3c80 a1bf 0801 8c3e
000001d0: 8999 fcbf ebac fbbf b956 0ac0 e06e b9be
000001e0: 638c 48bf 5e6a 12c0 90c3 80bf 44cd 96be
000001f0: 3f70 10bf c9b4 30be 4364 6ebf ddc4 aebf
00000200: 8f69 05bf 1655 9bbf a30d eebe 521a 4cbf
00000210: 2290 f0bf ee49 c83f 13fe 033f 598d 16be
00000220: 3a95 94be ec36 8cbe 98bb 50be fbb5 41be
00000230: bb68 a63f 046a f4bf 804e 85c0 5a68 c8bf
00000240: aa02 bebe d479 bbbe c379 ddc0 2783 9bbf
00000250: ed30 13bf 949f 5fbf 39bc f4bf 99b5 edbf
00000260: 910d afbf 95c6 3ebf ec01 c1be 1a3b 8cbf
00000270: 1993 61be b59f e6be 4660 0fc0 bfe0 d0be
00000280: d64e fcbf 54c9 083c 9098 0ac0 36c8 26be
00000290: 1403 7bbe f0aa 0240 e5f7 82bf 7a27 98c0
000002a0: 3c57 5540 397e c2bd 2afc 0abe 4aec 48bf
000002b0: 04c0 e2be 4117 51bf aa88 fabf 86f7 f0bf
000002c0: 970d a0be ea60 72be e2f3 98be b88f f93e
000002d0: 5bbd f5bf 0289 56c0 efb5 91be 5735 cebe
000002e0: 7c84 4dc0 bb04 d6bf 4225 f6be 54a6 20bf
000002f0: b6f1 d3bf b59d a23e 30ca afbf 4a93 cbbf
00000300: b47c 8c3f 2aac 94c0 583e 5ebf f2a8 86c0
00000310: 1dcb 2e3f 4457 26c0 429b e0bf 779e 94c0
00000320: 5b0b 37bf 47e5 b1bf bf6d 6e3e 07d0 5cbf
00000330: 5d53 6dbf 58de 94bf a8fb 61bf 927e 7d3e
00000340: ccbf 53bf 390d e2bf bb4b 12bf 820e 1abf
00000350: ac77 a7be a497 af3c 7038 99be 307f 1ac0
00000360: 8c1c 21c0 b644 e2bf 5005 58bf 68a5 09c0
00000370: 382c 6ebe 0186 8fbe ae15 66bd cb86 d5bf
00000380: 00b3 a6bf 9f8f 66be 194a 31c0 8d20 cabe
00000390: 4bd8 44bf 5863 63be d367 57be 7569 b6be
000003a0: a52b ebbf f8d6 b6bd 9d5a aebf e6ed 92bf
000003b0: 96ec 3f3d 506b 1abf aaf1 d5bf 65e6 35c0
000003c0: 4c15 0dc0 8fc4 5ebe 6143 8abf f72a 8b3e
000003d0: ccdc 72bd 19ff c13d 0f51 9bc0 265b 6cbe
000003e0: 864c d03e ccdc 0540 5084 b4be e400 10be
000003f0: c37d c8bf c798 89bf 26fa 603e a448 30be

l2.weight f4 [300, 400]
-0.35907125 0.056655888 0.011591722 0.16490044 -0.005213666 -0.04777969 -0.096994124 -0.047609206
0.00848615 0.13417467 -0.3381639 0.06266782 -0.07889012 0.050221615 -0.20286246 0.050739944
-0.38474983 0.05491458 -0.037460513 -0.35736027 -0.0042924355 -0.045645054 -0.2943382 -0.18344852
-0.2895019 -0.04356989 -0.03224725 -0.013277418 0.014830915 -0.012438988 0.024902567 -0.19750845
-0.09337025 -0.3781648 -0.0062330537 -0.13562384 -0.00731468 -0.6659528 0.023842786 0.07825922
0.03009212 0.0029919455 -0.006785277 -0.13732478 -0.04292269 0.059904523 0.06669266 -0.41979486
-0.018758822 -0.029457092 -0.51264673 0.0021162198 -0.008251508 0.0055390582 0.021057395 0.17375676
0.006777661 -0.17014332 -0.0123353 0.12558979 0.04450533 -0.07465657 -0.15463634 0.016005013
-0.03070049 -0.11878981 -0.78055805 0.055206448 -0.106983714 -0.26029128 -0.153866 -0.0043674493
-0.28715274 -0.14380127 0.028902616 -0.4660078 -0.44884387 -0.10514773 0.014751918 -0.33548805
-0.19136947 -0.042819247 0.062426094 -0.21883109 -0.19827887 -0.046099573 -0.021885902 -0.06456945
0.008441112 -0.23756179 -0.30120027 -0.6455825 -0.24695882 0.068977736 0.04069279 0.16745041
-0.14149956 -0.03130385 -0.22750168 -0.32042965 -0.26365125 -0.24189115 -0.04142355 -0.053372584
0.12879395 -0.033144962 -0.018751903 -0.23355345 0.043279283 -0.015633868 0.05227474 -0.4169784
0.09200195 -0.28573745 0.10802674 0.040463936 -0.6100733 -0.27414122 -0.0484563 0.14370711
-0.08112981 0.03751119 -0.008768344 0.12377724 -0.1152288 0.07388148 -0.054248277 0.09226471
-0.041938562 -0.07629019 -0.023735965 -0.3171911 -0.29314867 -0.014901559 -0.024777109 0.020463282
-0.019265875 0.0826317 0.07332592 0.0063569825 -0.13602202 0.014237275 -0.08459826 -0.02587263
-0.20593031 0.028705256 -0.40883112 -0.010206689 -0.13227776 -0.23009223 -0.61887544 0.08949954
-0.4088306 0.46246463 -0.039544046 -0.31480762 -0.045257304 0.06827919 -0.23690093 -0.047548957
-0.3454179 0.045464586 -0.104994826 -0.010165276 0.046324756 -0.31408647 -0.17756082 -0.21462785
0.028837655 -0.26102886 0.010347944 -0.03797459 -0.008861668 -0.24584071 -0.3388089 -0.10015048
0.059215453 0.06957396 -0.013257458 -0.08658709 -0.0015658509 0.010880362 0.0827469 -0.014893575
-0.05119256 -0.23030181 0.10958567 0.0075847134 0.0009476251 -0.122908965 0.06480018 -0.086314134
-0.2452687 -0.3975105 -0.010248569 -0.34939644 0.034626152 -0.27694383 0.101334736 -0.29067197
0.021073248 0.026932444 0.04896611 -0.21785964 -0.11683341 -0.45206127 -0.6060332 0.12588513
-0.0198847 0.4213718 -0.21101706 -0.022667328 -0.3331648 -0.29422718 -0.18874986 0.083824545
-0.28017285 -0.074820995 -0.17933613 0.19000615 -0.10869432 -0.4803062 0.084475055 -0.6227267
0.02748723 -0.2857336 -0.84836733 0.01568639 -0.740229 -0.42679635 -0.00537505 0.11421506
0.033650506 0.24446915 -0.8455958 -0.29735947 -0.04415707 -0.014595246 -0.04139042 0.017302182
-0.20432898 0.00014126564 0.25127316 -0.22198474 0.01657488 -0.10421358 -0.5828153 -0.044366334
0.022271182 -0.11197469 -0.21015021 0.080792926 -0.42618632 -0.31404027 -0.22934735 -0.020243471
00000000: 30d8 b7be 0110 683d 35eb 3d3c a9db 283e
00000010: 66d7 aabb a3b4 43bd dba4 c6bd df01 43bd
00000020: 7e09 0b3c 1665 093e d223 adbe fc57 803d
00000030: 2591 a1bd 2eb5 4d3d 2dbb 4fbe b0d4 4f3d
00000040: eefd c4be 1cee 603d 3270 19bd edf7 b6be
00000050: 8fa7 8cbb 4ff6 3abd 7fb3 96be eed9 3bbe
00000060: 9839 94be 5776 32bd b115 04bd 8789 59bc
00000070: 5efd 723c e6cc 4bbc 7800 cc3c a83f 4abe
00000080: e738 bfbd d19e c1be a53e ccbb fae0 0abe
00000090: fcaf efbb e27b 2abf f251 c33c 5f46 a03d
000000a0: c083 f63c 8414 443b 0757 debb de9e 0cbe
000000b0: b4cf 2fbd 725e 753d 2996 883d 5aef d6be
000000c0: 1aac 99bc 0050 f1bc d13c 03bf 47b0 0a3b
000000d0: 5531 07bc fd80 b53b 8f80 ac3c 4bed 313e
000000e0: 2417 de3b 0d3a 2ebe 001a 4abc 9c9a 003e
000000f0: 394b 363d 8be5 98bd fd58 1ebe f21c 833c
00000100: 987f fbbc 1248 f3bd a7d2 47bf 2820 623d
00000110: 471a dbbd e644 85be 0c8f 1dbe d21c 8fbb
00000120: af05 93be a440 13be 2ec5 ec3c 9398 eebe
00000130: ddce e5be b157 d7bd 07b2 713c 17c5 abbe
00000140: 5cf6 43be 3c63 2fbd 81b2 7f3d 4215 60be
00000150: 9e09 4bbe e8d2 3cbd 104a b3bc fd3c 84bd
00000160: 974c 0a3c 6643 73be ec36 9abe e544 25bf
00000170: c6e2 7cbe 3344 8d3d 7cad 263d 1f78 2b3e
00000180: 43e5 10be 7738 00bd 33f6 68be 5b0f a4be
00000190: 4cfd 86be 50b2 77be beab 29bd 369d 5abd
000001a0: 90e2 033e 03c3 07bd 979d 99bc a328 6fbe
000001b0: 9e45 313d 9912 80bc 0a1e 563d 317e d5be
000001c0: 856b bc3d 2e4c 92be 203d dd3d 83bd 253d
000001d0: c42d 1cbf 3d5c 8cbe 1d7a 46bd f527 133e
000001e0: 6327 a6bd 55a5 193d 1aa9 0fbc ec7e fd3d
000001f0: 14fd ebbd 2c4f 973d 7133 5ebd 48f5 bc3d
00000200: c5c7 2bbd 083e 9cbd ed71 c2bc df66 a2be
00000210: 9517 96be ab25 74bc 5df9 cabc 9da2 a73c
00000220: 78d3 9dbc cf3a a93d e62b 963d 3c4e d03b
00000230: 5b49 0bbe 7643 693c da41 adbd d6f2 d3bc
00000240: 65df 52be 4927 eb3c 5052 d1be f539 27bc
00000250: d273 07be 4c9d 6bbe 9f6e 1ebf 894b b73d
00000260: 3f52 d1be 2ac8 ec3e f0f8 21bd 772e a1be
00000270: b95f 39bd f6d5 8b3d 2896 72be b2c2 42bd
00000280: 9dda b0be 1339 3a3d 8707 d7bd 428c 26bc
00000290: 07bf 3d3d f1cf a0be 81d2 35be 67c7 5bbe
000002a0: f23c ec3c 93a5 85be 6c8a 293c 3e8b 1bbd
000002b0: 8830 11bc abbd 7bbe 5c78 adbe b21b cdbd
000002c0: e78b 723d cb7c 8e3d cf35 59bc 9254 b1bd
000002d0: 3d3d cdba 8c43 323c 3577 a93d 2e04 74bc
000002e0: 4aaf 51bd 3dd4 6bbe 746e e03d 3089 f83b
000002f0: 0b6a 783a b2b7 fbbd f5b5 843d 77c5 b0bd
00000300: b827 7bbe 7f86 cbbe 9de9 27bc 17e4 b2be
00000310: 27d4 0d3d 95cb 8dbe 9688 cf3d f5d2 94be
00000320: cea1 ac3c 6ea1 dc3c b090 483d 9916 5fbe
00000330: 5b46 efbd 9374 e7be fe24 1bbf 08e8 003e
00000340: 3de5 a2bc 0bbe d73e db14 58be d5b0 b9bc
00000350: 9494 aabe f2a4 96be a547 41be 34ac ab3d
00000360: d172 8fbe c03b 99bd e4a3 37be f990 423e
00000370: 219b debd b2ea f5be 4201 ad3d 046b 1fbf
00000380: e62c e13c ad4b 92be 9a2e 59bf bf80 803c
00000390: a67f 3dbf 0d85 dabe 3021 b0bb 96e9 e93d
000003a0: 1dd5 093d 1f56 7a3e f778 58bf 803f 98be
000003b0: 0bde 34bd e620 6fbc 0089 29bd 4ebd 8d3c
000003c0: 9e3b 51be b520 1439 e0a6 803e f84f 63be
000003d0: 0bc8 873c ee6d d5bd 6233 15bf 79b9 35bd
000003e0: 0e72 b63c fc52 e5bd 9e31 57be c376 a53d
000003f0: 1835 dabe e3c9 a0be 08da 6abe a3d5 a5bc

l2.bias f4 [300]
-0.0024410002 -0.25775763 -0.96947736 -0.08930688 -0.032091457 -0.084957495 0.113034576 -0.15577003
1.4350307 0.670344 -0.035195813 -0.10957558 -0.6210965 -0.67374104 -0.25321022 -0.09830568
-0.89882874 -0.09286632 3.134898 -0.9845315 -0.08979789 -0.1191696 -0.013650141 0.4688822
-0.6007468 0.6355649 -0.05180993 -0.027544875 -1.6798601 -0.07015632 2.1916962 -0.019284964
0.945859 -0.7902439 -0.18317221 -0.47543636 -0.033285752 -0.18607077 -0.036534056 0.23712885
-0.25181013 -0.3069115 -1.0374149 0.09059765 -0.49767938 -0.102157235 -0.0923198 -0.09118106
-0.06884321 -0.989282 0.18335588 -0.38136044 -0.42008016 -0.7167738 -1.9630381 0.8726893
-1.6120865 0.023108428 -1.3521745 0.29213968 1.2226796 -0.02563421 -0.3755916 -1.5234632
-0.3925105 -0.081259266 0.5763145 -1.220424 -0.080923684 0.8961561 -0.49552587 -0.074016534
0.23076825 -0.07748128 0.13644427 -0.032501735 -0.07182813 -0.09673354 -1.8015584 -0.014726086
-0.036208384 -0.10944142 0.09242266 -0.5041443 -0.85358137 1.6106808 -0.10035944 -0.15543628
-0.22201449 -1.690392 0.56652784 0.7294544 -0.10125421 0.5407659 -0.096700214 -0.25829643
-0.021238593 0.023477584 -0.07981236 -0.07290718 -1.7958256 -1.199119 -0.11937047 -0.1402308
-0.059865654 -0.5669885 -0.3991709 -0.19255093 -0.12396279 0.10245336 -0.07732212 -0.31409085
-0.9578124 -0.08843912 0.030668242 -0.21754119 -0.08433111 -0.03545329 -0.082914695 -0.096389115
-0.42988512 0.87937164 0.028516795 -0.015514575 -0.90155154 -0.06014928 -0.8302818 -0.109653786
0.90231293 -0.15679985 0.6200364 -0.7684234 3.2607033 -0.87354296 0.087327 -0.055573344
-0.07066592 0.08197111 -0.076007545 -0.057304975 -0.14788249 0.29951558 -0.08586571 -0.2520745
0.64472246 -0.11509626 -0.05642731 -0.012294236 0.74708813 -1.261449 -1.1005752 -0.46182856
2.6659155 1.3518289 -0.07394222 -0.02384666 1.5849936 2.085569 0.597795 -0.18308643
-0.013797979 -0.2075051 -0.99452704 -0.016880915 -0.70231616 -0.07181827 -2.4124787 -0.5037699
-0.09632509 -0.104792416 -0.65938324 -0.036712427 -0.05475589 -2.3553288 -0.2616335 -0.6723387
-1.5869327 -0.060171045 -0.06417664 -0.09274465 -1.5688785 0.51592475 -0.07256269 -0.09964664
-1.6768645 -0.11696989 -0.4160201 0.9758676 -0.10129647 0.325101 -0.04943352 -0.03252938
-1.3162146 -0.07983221 -0.71333164 -3.013779 0.4400827 -0.06292899 -1.2573472 0.6143471
0.5119914 0.1629755 -0.012716085 1.3684882 -0.057489265 -0.50630194 0.7493666 -0.10094813
-0.04361808 -0.03138732 -0.13909826 -0.11902102 -0.56658137 0.1443448 0.054240603 0.0052820733
-1.5247366 1.1546645 0.02307649 -0.12454776 -1.0864447 -0.0023678497 -0.024007624 -0.17381492
-0.34783864 7.147484 -1.1815573 0.49507272 -1.6710167 0.03715959 -0.0363454 -0.043826908
-0.58610594 0.53424716 -0.48989663 -0.06272782 -1.7720869 -0.17770892 1.178294 -0.15104824
-0.072267525 -0.19471945 -1.9908457 -0.04319767 -0.31304285 -0.21034423 -0.10296301 -0.03806371
-0.058068097 -0.091480024 0.8270893 -0.9421343 -0.5450765 -0.021831146 0.19523057 -0.4712179
00000000: 30f9 1fbb cff8 83be ab2f 78bf 87e6 b6bd
00000010: 5572 03bd 32fe adbd ac7e e73d 2e82 1fbe
00000020: 16af b73f aa9b 2b3f 7c29 10bd 2969 e0bd
00000030: 2e00 1fbf 4b7a 2cbf c5a4 81be 7d54 c9bd
00000040: a419 66bf b230 bebd 2ba2 4840 420a 7cbf
00000050: f5e7 b7bd 310f f4bd d7a4 5fbc 5411 f03e
00000060: 8bca 19bf 62b4 223f a636 54bd caa5 e1bc
00000070: a805 d7bf 1eae 8fbd c044 0c40 80fb 9dbc
00000080: d123 723f 6d4d 4abf 7f91 3bbe 656c f3be
00000090: a456 08bd 5689 3ebe bca4 15bd e8d1 723e
000000a0: 42ed 80be 8123 9dbe 03ca 84bf 438b b93d
000000b0: d5cf febe d037 d1bd 2a12 bdbd 23bd babd
000000c0: abfd 8cbd 9641 7dbf a5c1 3b3e ad41 c3be
000000d0: bf14 d7be 7d7e 37bf d544 fbbf 9168 5f3f
000000e0: da58 cebf e34d bd3c 0e14 adbf 5593 953e
000000f0: c480 9c3f d6fe d1bc 8b4d c0be d800 c3bf
00000100: 23f7 c8be 426b a6bd 5989 133f db36 9cbf
00000110: 51bb a5bd 7c6a 653f 91b5 fdbe fb95 97bd
00000120: 834e 6c3e 81ae 9ebd 0cb8 0b3e 8a20 05bd
00000130: a01a 93bd 3c1c c6bd 7799 e6bf ae45 71bc
00000140: 3e4f 14bd d322 e0bd 1748 bd3d 9a0f 01bf
00000150: 4f84 5abf ca2a ce3f 4089 cdbd b02a 1fbe
00000160: c457 63be c45e d8bf f807 113f 86bd 3a3f
00000170: 5e5e cfbd a26f 0a3f c30a c6bd 6e3f 84be
00000180: 8ffc adbc 1054 c03c aa74 a3bd 5c50 95bd
00000190: 9ddd e5bf bb7c 99bf 8178 f4bd aa98 0fbe
000001a0: b035 75bd 2926 11bf 2160 ccbe 122c 45be
000001b0: 34e0 fdbd 11d3 d13d 0f5b 9ebd 84d0 a0be
000001c0: 3233 75bf 921f b5bd f73b fb3c 1ec3 5ebe
000001d0: cab5 acbd 7837 11bd 2ecf a9bd a867 c5bd
000001e0: e719 dcbe 801e 613f 0e9c e93c d830 7ebc
000001f0: 15cc 66bf 175f 76bd 598d 54bf 2a92 e0bd
00000200: fbfd 663f 2490 20be b5ba 1e3f 65b7 44bf
00000210: 5daf 5040 83a0 5fbf 80d8 b23d e0a0 63bd
00000220: 4bb9 90bd 78e0 a73d d8a9 9bbd 9fb8 6abd
00000230: 826e 17be 1b5a 993e 5dda afbd e90f 81be
00000240: 880c 253f 97b7 ebbd 5320 67bd c36d 49bc
00000250: 2b41 3f3f 2977 a1bf a6df 8cbf cb74 ecbe
00000260: 5c9e 2a40 bb08 ad3f 056f 97bd 125a c3bc
00000270: 12e1 ca3f f679 0540 1809 193f 027b 3bbe
00000280: eb10 62bc 387c 54be 5399 7ebf d849 8abc
00000290: feca 33bf 7515 93bd 0d66 1ac0 10f7 00bf
000002a0: 1746 c5bd 689d d6bd 57cd 28bf c55f 16bd
000002b0: b647 60bd b5bd 16c0 d3f4 85be 641e 2cbf
000002c0: 9c20 cbbf ea75 76bd 0b6f 83bd e8f0 bdbd
000002d0: 03d1 c8bf a513 043f bf9b 94bd 8a13 ccbd
000002e0: 7fa3 d6bf e98d efbd 9600 d5be 76d2 793f
000002f0: 8674 cfbd a373 a63e cd7a 4abd 873d 05bd
00000300: b879 a8bf 127f a3bd e79c 36bf c1e1 40c0
00000310: 8552 e13e eae0 80bd c1f0 a0bf da45 1d3f
00000320: de11 033f 0de3 263e 2057 50bc 9f2a af3f
00000330: dd79 6bbd 019d 01bf 7dd6 3f3f e5bd cebd
00000340: dfa8 32bd fe8f 00bd c66f 0ebe 4bc1 f3bd
00000350: 7a0b 11bf 20cf 133e 652b 5e3d 3e15 ad3b
00000360: 922a c3bf 0ccc 933f e80a bd3c e512 ffbd
00000370: 9f10 8bbf ed2d 1bbb a3ab c4bc 8afc 31be
00000380: e817 b2be 30b8 e440 453d 97bf 2c7a fd3e
00000390: e0e3 d5bf a734 183d eade 14bd d883 33bd
000003a0: 0a0b 16bf 6cc4 083f bbd3 fabe 7177 80bd
000003b0: bed3 e2bf 54f9 35be 56d2 963f 64ac 1abe
000003c0: ff00 94bd 8964 47be 08d4 febf 0af0 30bd
000003d0: 2747 a0be 7a64 57be 45de d2bd b1e8 1bbd
000003e0: d0d8 6dbd e159 bbbd 20bc 533f b72f 71bf
000003f0: 228a 0bbf 3bd7 b2bc 86ea 473e 7943 f1be

l3.weight f4 [1, 300]
-0.51105154 -0.9172088 0.16266929 0.0038900608 0.00964751 -0.01379171 -0.5338251 -1.664588
-0.13123718 -0.0034205252 0.10498776 0.0032967885 -0.7616596 -0.14608046 0.058257997 2.353983e-05
-0.21132249 -0.0039358926 -1.055615 -0.48656547 -0.30009425 0.0809977 0.013825091 0.057158902
1.0147027 -0.52429616 -0.0045694243 0.015230442 -0.28873187 0.01530108 -0.07179327 0.0047748494
0.118400306 -0.6017467 -0.013685333 -0.262457 -0.025241923 -0.018840615 0.007871361 -0.35251835
0.3818745 -0.5964396 -0.4657839 -0.35050532 -0.5842934 -0.008537412 -0.0066578677 0.007455406
-0.0020759632 0.18713892 -1.0212642 -0.040313784 0.014059185 -0.43539053 -0.11814676 -0.17136116
-0.20438018 -0.623615 -0.13492638 -0.5588051 -0.12637793 0.0069543086 -0.53526694 -0.0134889195
0.24758407 -0.0044719237 -0.22134784 -0.21766539 -0.0109807355 -0.754598 0.58605254 0.014570591
0.04485082 0.005657179 -0.42031384 0.002412975 -0.011964374 -0.009904169 1.054436 0.011900416
-0.07002008 -0.22193244 -0.6746432 0.029749285 -0.09961473 -0.003453248 -0.056811918 -1.0414413
-1.0300598 0.07100545 0.33451855 -0.32022595 0.012983707 -0.017882038 -0.0005196692 0.0127537465
-0.054786775 -0.48144448 -0.102697946 -0.9934517 0.11708996 -0.14963269 -0.06679262 0.04506686
-0.014184072 1.154173 -0.39805645 -0.057590194 -0.12616609 -0.5765113 0.00017168587 -0.068135366
-0.98932415 -0.0001321823 -0.48124757 -0.4461944 -0.09545063 -0.024494866 0.013477846 0.010217911
-0.3833272 -0.24025872 0.0027592464 -0.0009756863 -0.18914853 -0.0030192854 0.50932366 -0.32654417
-0.95784515 -0.6834988 0.22118078 0.5210864 0.5576091 0.68831384 -0.1073795 -0.01673273
0.011304433 -0.73788524 -0.010840371 0.009298607 -0.002319286 0.33835772 -0.013053504 -0.427888
-0.023574099 0.03633151 0.015816905 -0.53044 0.28538212 -0.1901692 0.2360436 -0.48513386
0.98114467 -0.2732347 0.0065322565 -0.008639856 -0.692542 -0.20599036 -1.2451446 -0.52686715
0.0039613163 -0.3448383 0.1191484 -0.0026670343 -0.2751715 -0.51040363 0.11709101 0.20543337
-0.6411444 -0.0022241538 -0.4807615 0.003923425 -0.0043427437 0.32873705 -0.0018163606 0.35670784
-0.69982165 -0.028489446 -0.0045935023 0.015839443 0.32326403 -0.90364814 0.014184472 -0.003454143
-0.7242001 0.025048018 -0.28673285 -1.1083777 -0.013321159 -0.36744314 -0.051153824 -0.09230717
-0.309757 -0.010320435 -0.36128438 0.32217044 -1.092272 0.013243547 -0.3892783 -0.93507785
-0.2208096 -0.45092455 -0.012682133 -0.27538222 -0.054742314 0.56895477 -0.28617084 -0.0056904317
-0.0013004366 -0.008537198 0.0077521084 -0.005783375 0.15619391 0.12071607 -0.4530144 -0.06255662
1.790333 -0.17704155 0.015230935 0.0052218903 0.29589978 -0.098339096 -0.00044411447 -0.38423526
-0.16403927 -0.29244986 -0.003445559 -0.63935447 0.40156987 -0.5080215 -0.05572949 -0.007932293
0.11539842 -0.0040828194 0.12351358 -0.21466716 0.21356796 0.45422015 -0.21034047 -0.03556191
0.010188696 -0.43460685 0.92911667 -7.94819e-05 0.81942743 0.37970766 -0.0054776147 -0.5522443
-0.020005718 0.002192498 0.21043657 -2.876207 -0.71589184 0.007193093 -0.9733637 -0.3898867
00000000: 46d4 02bf 32ce 6abf c792 263e 64f0 7e3b
00000010: 9710 1e3c a0f6 61bc c3a8 08bf 3811 d5bf
00000020: 0a63 06be e42a 60bb d303 d73d ef0e 583b
00000030: 20fc 42bf 1e96 15be f09f 6e3d 6677 c537
00000040: ec64 58be a9f8 80bb 641e 87bf 1c1f f9be
00000050: f4a5 99be 1fe2 a53d a282 623c 741f 6a3d
00000060: c7e1 813f 4638 06bf 1cbb 95bb 1b89 793c
00000070: aad4 93be 62b1 7a3c 5a08 93bd 5776 9c3b
00000080: dc7b f23d 120c 1abf 7238 60bc c460 86be
00000090: 26c8 cebc a257 9abc e2f6 003c 497d b4be
000000a0: 0e85 c33e 44b0 18bf 3a7b eebe 6f75 b3be
000000b0: 4194 15bf 80e0 0bbc 3e2a dabb 7a4c f43b
000000c0: e20c 08bb 58a1 3f3e c9b8 82bf 1120 25bd
000000d0: 7f58 663c 82eb debe eef6 f1bd 4d79 2fbe
000000e0: 0a49 51be 3ca5 1fbf 242a 0abe da0d 0fbf
000000f0: 3769 01be f8e0 e33b 4107 09bf a100 5dbc
00000100: ae86 7d3e 3789 92bb 02a9 62be ade3 5ebe
00000110: 8be8 33bc 562d 41bf 8a07 163f 7db9 6e3c
00000120: 7eb5 373d db5f b93b 6033 d7be 0123 1e3b
00000130: 3906 44bc 1845 22bc c2f7 863f f6f9 423c
00000140: b066 8fbd 4242 63be 6bb5 2cbf c6b4 f33c
00000150: cf02 ccbd e34f 62bb 9db3 68bd f34d 85bf
00000160: 00d9 83bf 4e6b 913d 0446 ab3e a8f4 a3be
00000170: 9db9 543c 5a7d 92bc 693a 08ba 17f5 503c
00000180: 1968 60bd e47f f6be 4d53 d2bd da52 7ebf
00000190: dccc ef3d 5039 19be 92ca 88bd 0798 383d
000001a0: 4f64 68bc f1bb 933f 0ece cbbe b2e3 6bbd
000001b0: af31 01be 3f96 13bf 9306 3439 8e8a 8bbd
000001c0: 5944 7dbf 6a9a 0ab9 1566 f6be 9873 e4be
000001d0: 9f7b c3bd 75a9 c8bc 2fd2 5c3c 0669 273c
000001e0: 7643 c4be 6206 76be 79d4 343b 33c5 7fba
000001f0: 27b0 41be 34df 45bb 0963 023f cc30 a7be
00000200: 5735 75bf c7f9 2ebf 377d 623e eb65 053f
00000210: 78bf 0e3f 5635 303f c9e9 dbbd 1413 89bc
00000220: 3b36 393c 0ce6 3cbf d09b 31bc 2f59 183c
00000230: 2aff 17bb 393d ad3e 5dde 55bc 2314 dbbe
00000240: 781e c1bc 59d0 143d 7492 813c eaca 07bf
00000250: 9b1d 923e b7bb 42be 6ab5 713e 7763 f8be
00000260: 4c2c 7b3f 6be5 8bbe 8a0c d63b 2f8e 0dbc
00000270: 6f4a 31bf 23ef 52be e660 9fbf c4e0 06bf
00000280: eecd 813b a58e b0be 1404 f43d 69c9 2ebb
00000290: 47e3 8cbe d0a9 02bf 69cd ef3d 205d 523e
000002a0: 0a22 24bf 1cc3 11bb 5f26 f6be 1390 803b
000002b0: 934d 8ebb 3950 a83e f312 eeba 69a2 b63e
000002c0: 8327 33bf b362 e9bc 1785 96bb b8c1 813c
000002d0: dd82 a53e 7c55 67bf fd65 683c e75e 62bb
000002e0: 2e65 39bf 8031 cd3c a6ce 92be 52df 8dbf
000002f0: fe40 5abc 8221 bcbe ac86 51bd 8b0b bdbd
00000300: 7898 9ebe 0b17 29bc 44fa b8be 86f3 a43e
00000310: 92cf 8bbf 76fb 583c 7c4f c7be 4361 6fbf
00000320: e91b 62be 95df e6be b9c8 4fbc e6fe 8cbe
00000330: 7a39 60bd 05a7 113f fc84 92be cd76 babb
00000340: 6973 aaba 9bdf 0bbc 6605 fe3b 7782 bdbb
00000350: 4cf1 1f3e fd39 f73d 81f1 e7be af1d 80bd
00000360: a229 e53f 614a 35be 2c8b 793c 641c ab3b
00000370: 2d80 973e 0266 c9bd 09d8 e8b9 7cba c4be
00000380: e9f9 27be fdbb 95be e3ce 61bb bcac 23bf
00000390: 919a cd3e b20d 02bf 9b44 64bd 73f6 01bc
000003a0: 0256 ec3d 2cc9 85bb b0f4 fc3d b5d1 5bbe
000003b0: 8fb1 5a3e 8b8f e83e 7e63 57be 5ea9 11bd
000003c0: 7dee 263c ca84 debe 97da 6d3f 85af a6b8
000003d0: ffc5 513f 0b69 c23e 907d b3bb e25f 0dbf
000003e0: 08e3 a3bc 03b0 0f3b af7c 573e c713 38c0
000003f0: b044 37bf 0ab4 eb3b 5d2e 79bf 3b9f c7be
