preTrained/v2TD3_BipedalWalkerHardcore-v3_0_critic_2_target.pth (torch_old, 529892 bytes, 5 tensors)

l1.weight f4 [400, 28]
0	0x40e89eba	7.269376
1	0xc045e4fd	-3.0921013
2	0x40776355	3.8654377
3	0x4126b20b	10.4184675
4	0x408927ab	4.2860923
5	0xbe685b94	-0.22691184
6	0x3fc1e9b8	1.514945
7	0x3f4fc306	0.8115696
8	0xbf04892f	-0.51771826
9	0x3ff3aca9	1.9037067
10	0x3ece0f3d	0.40246
11	0xbfe4429b	-1.7832826
12	0xbf5552df	-0.83329576
13	0x3d86be41	0.06579257
14	0x3f0c13c2	0.5471765
15	0x3f987e28	1.19135
16	0x3f465f11	0.7748881
17	0xbe151210	-0.14557672
18	0x3e332837	0.1749581
19	0x3e3cfc2c	0.18455571
20	0x3f325526	0.69661176
21	0x3eb814f3	0.35953483
22	0x3ebeb7e0	0.3724966
23	0x3f78bf90	0.971673
24	0xbd5c22c6	-0.0537441
25	0xbefc9ee1	-0.49339965
26	0x3e3e36dd	0.18575616
27	0x3e7c56f3	0.24642543
28	0x3ea3b9b6	0.31977624
29	0x3f63c762	0.8897611
30	0xbeef47ea	-0.46734554
31	0x3ee46f5b	0.44616207
32	0xbcd234f1	-0.02566001
33	0x3dc27fd8	0.094970405
34	0xbd35a790	-0.044349253
35	0x3e2ae287	0.16687976
36	0xbe0dec75	-0.13859732
37	0x3e970f85	0.29504028
38	0xbf127a15	-0.5721753
39	0x3ee08b42	0.43856245
40	0xbf5ddfa9	-0.86669403
41	0xbe787dbb	-0.24266712
42	0xbf7c7494	-0.98615384
43	0xbf8253b5	-1.0181795
44	0xbf988f1e	-1.1918676
45	0xbf7b3da4	-0.9814093
46	0xbf92cc1e	-1.1468542
47	0xbf9a7b4e	-1.206888
48	0xbf78ab0c	-0.97135997
49	0xbf950cae	-1.1644495
50	0xbfa73c27	-1.3065232
51	0xbf3e13d0	-0.7424898
52	0xbdbf861f	-0.093517534
53	0xbd2f3657	-0.042776432
54	0xbc98d24d	-0.018654967
55	0xbdecab2b	-0.11556085
56	0x3faff3e0	1.37463
57	0x41b9c36a	23.220417
58	0xc0c66422	-6.1997232
59	0x40430d10	3.0476723
60	0x403504d6	2.8284202
61	0x3f365ab1	0.71232134
62	0xbdb95433	-0.09049263
63	0x3ea1b7c9	0.3158553
64	0x3f963b29	1.1736804
65	0x3e01a006	0.126587
66	0x3df72475	0.120675005
67	0xbe363a53	-0.17795686
68	0xbeae6659	-0.3406246
69	0xc003efc7	-2.0615098
70	0xbfd28dad	-1.6449486
71	0xbfc4ebd4	-1.5384469
72	0xc01ab61d	-2.4173653
73	0x3ee5e62c	0.4490217
74	0x3f291f25	0.6606315
75	0x400fd635	2.2474492
76	0x3f1d2db1	0.61397845
77	0xbf5efa4c	-0.8710067
78	0xbecefc57	-0.40426895
79	0xbec17be7	-0.37789842
80	0xbe8af0fc	-0.2713698
81	0x3e88d2c0	0.2672329
82	0x3eee9fab	0.46606192
83	0xbef8d2b0	-0.48598242
84	0xbfef5ff3	-1.8701156
85	0x40d32b68	6.5990486
86	0xc1abc0b7	-21.469099
87	0x3ff783e1	1.9337121
88	0xbe87a83d	-0.26495543
89	0x3f07e777	0.5308756
90	0xbf3dff38	-0.7421756
91	0x3ee209ce	0.44148105
92	0xbf523dd5	-0.821256
93	0xbfb5a24e	-1.4190156
94	0xbf0a7599	-0.5408569
95	0xc0ab947d	-5.361876
96	0x3d526754	0.051368073
97	0xbeac8581	-0.33695605
98	0x3f70d043	0.9406778
99	0x3ee761b7	0.45191738
100	0xbe305fbb	-0.17224018
101	0x3f1f3206	0.62185705
102	0x3f88bfb7	1.0683507
103	0x3f8b1791	1.0866567
104	0x3f06bad6	0.5262884
105	0xbedc4b98	-0.43026423
106	0x3e717d96	0.23583063
107	0xbff7f031	-1.9370176
108	0xbd86d11b	-0.065828525
109	0xbec43024	-0.38317978
110	0xbe81c568	-0.25345922
111	0xbdd93abf	-0.10606908
112	0xbf1c1ad7	-0.60978454
113	0x3fb8d5e2	1.4440272
114	0x3fadbe25	1.3573653
115	0xc01f4f61	-2.48922
116	0x3f8863a9	1.0655414
117	0x3edcffd2	0.43163925
118	0x40628e7a	3.539946
119	0xbfce9a85	-1.6140906
120	0x3e37b048	0.1793834
121	0xc0089796	-2.134252
122	0xbfae9c2d	-1.3641411
123	0xbf1b5a5c	-0.6068475
124	0x3eedb091	0.46423772
125	0xbe5eefe7	-0.21771203
126	0xbfb237ea	-1.3923314
127	0xbf8037b2	-1.0016997
128	0xbfa17a25	-1.26154
129	0xc001bc62	-2.027123
130	0xc0053e06	-2.0819106
131	0xc006fcf6	-2.1091895
132	0xc0068679	-2.1019576
133	0xbff4b7af	-1.9118556
134	0xbfb2403d	-1.3925854
135	0xbea8a070	-0.32934904
136	0xbfb31fb6	-1.3994052
137	0x3f9bd168	1.2173281
138	0xbfa03826	-1.2517135
139	0xbf9d15e1	-1.2272302
140	0xbcc9c978	-0.0246322
141	0x4012edb5	2.2957585
142	0x3e868844	0.26275837
143	0x3ed526da	0.41631204
144	0x3e3911c8	0.1807319
145	0xbe082655	-0.13295873
146	0x3eda0429	0.425813
147	0xbe9bed9d	-0.30454722
148	0xbf543a22	-0.82901204
149	0x3e1ad77d	0.15121265
150	0xbe98accd	-0.29819337
151	0xbe3c40a0	-0.18384027
152	0x3cc0a1b8	0.023514614
153	0xbe1625ee	-0.14662907
154	0xbd7c561c	-0.061605558
155	0x3dd78389	0.10523135
156	0xbe5cff72	-0.2158182
157	0xbe6fc743	-0.23415856
158	0xbed15ee2	-0.40892702
159	0xbebf1a50	-0.37324762
160	0xbea982f7	-0.3310773
161	0xbe98ae5e	-0.29820532
162	0xbf3f03a8	-0.74614954
163	0xbf7c9884	-0.9867022
164	0x3d3e8450	0.0465129
165	0x3d428870	0.0474934
166	0xbea86506	-0.32889575
167	0x3e0c010c	0.13672274
168	0xc03780f7	-2.8672464
169	0xbff82f3f	-1.9389418
170	0x3fa58b75	1.2933184
171	0xbfbb922f	-1.4653987
172	0xbf518817	-0.8184828
173	0xc006f572	-2.1087308
174	0xc0be330d	-5.943732
175	0x3df5eb23	0.120077394
176	0xc0651b3b	-3.579787
177	0xbee94514	-0.45560515
178	0x3f9abf45	1.2089621
179	0xc06e9a29	-3.7281592
180	0x400ac2d5	2.1681416
181	0xbf77c173	-0.96779555
182	0xbfb63564	-1.4235044
183	0xbf96361e	-1.1735265
184	0xbeddb22d	-0.433
185	0xbf6c0b96	-0.9220518
186	0xbfea750e	-1.8316972
187	0xc012c3e8	-2.2932072
188	0xc024e63f	-2.576553
189	0xc020d096	-2.512731
190	0xbff7cfe0	-1.9360313
191	0x3bd28e1e	0.006425633
192	0xbf04b293	-0.5183498
193	0xbfa7f469	-1.3121463
194	0x3eae8973	0.3408924
195	0x3fb998f4	1.4499803
196	0xc0117ccb	-2.2732418
197	0xbe9e40f0	-0.30908918
198	0x41152eee	9.323957
199	0x3f9d69d6	1.2297924
200	0xbfeef954	-1.8669839
201	0xbce8a00e	-0.028396633
202	0xc0124f4f	-2.2860906
203	0xbf2548d9	-0.6456428
204	0xbe3973f6	-0.18110642
205	0xc02ef845	-2.7339032
206	0xc01d3d35	-2.4568608
207	0xc02664fd	-2.5999138
208	0xbfe51129	-1.7895862
209	0xbfa0877d	-1.2541348
210	0x3f187f44	0.5956919
211	0xbef67986	-0.4813959
212	0x3d7f2df1	0.062299673
213	0x3cb23591	0.021754058
214	0x3e6e5875	0.23275931
215	0xbed0863d	-0.40727416
216	0xbec48bb5	-0.38387838
217	0xbe363430	-0.17793345
218	0x3e4ad78b	0.19808786
219	0x3e7644b5	0.24049647
220	0xbee9a496	-0.45633382
221	0xbed843ea	-0.42239314
222	0xbf37ab23	-0.7174551
223	0xbef3fb11	-0.47652486
224	0x3e656cfb	0.22404854
225	0xbf7612e7	-0.9612259
226	0xc073dd53	-3.8103836
227	0xbf4c5990	-0.7982416
228	0xbf16ee8c	-0.58957744
229	0xbfc3ede6	-1.5306976
230	0xbe4edba8	-0.2020098
231	0xc01b8746	-2.4301314
232	0xc0340ca0	-2.8132706
233	0xbfb5c58b	-1.420091
234	0x3eb38aef	0.35066935
235	0xbffc9fd1	-1.9736272
236	0xbee6a673	-0.45048866
237	0x3e608a7a	0.21927825
238	0xbf159ade	-0.58439434
239	0xbf506a44	-0.8141215
240	0xbf905787	-1.1276711
241	0xbe7ad75a	-0.24496213
242	0xbf4b3a9d	-0.7938631
243	0xbf2eed3d	-0.68330747
244	0xbf8b0d12	-1.0863364
245	0xbf814160	-1.0098076
246	0xbf73b754	-0.9520161
247	0xbfbd914d	-1.4809967
248	0xbda22530	-0.07917249
249	0xbdbe2759	-0.09284849
250	0x3d87045a	0.06592627
251	0xbf410eea	-0.7541338
252	0xbf45d9b1	-0.77285296
253	0xbed4f768	-0.41595006
254	0x3ec51ea7	0.38499948
255	0x3f15e2ad	0.58549005

l1.bias f4 [400]
0	0xbf8605e6	-1.047055
1	0xbf83e79d	-1.0305058
2	0xbe33a281	-0.17542459
3	0xc0421f1c	-3.0331488
4	0x3d63bc03	0.055599224
5	0xbf2868ef	-0.65785116
6	0xbf68d31a	-0.90947115
7	0xbf7b3efd	-0.9814299
8	0xbff36d6f	-1.9017771
9	0xbec533e9	-0.38516167
10	0xc054365f	-3.3158185
11	0xbfcba609	-1.5910045
12	0xc08685e2	-4.203843
13	0xbe935d6e	-0.2878222
14	0xbef1fe74	-0.47264445
15	0xbf562962	-0.83656895
16	0xbff13d9e	-1.8846929
17	0x3f57b7b0	0.8426466
18	0xbe800caf	-0.25009677
19	0xbf9003b7	-1.1251134
20	0xc0361899	-2.8452513
21	0xbff4e274	-1.9131608
22	0xbf182f06	-0.5944675
23	0xbea550d2	-0.32288224
24	0xbf1c7c88	-0.6112752
25	0xbdc115d4	-0.094279915
26	0xbf5285e0	-0.8223553
27	0xbf99dd7e	-1.2020719
28	0xbfca4b6a	-1.5804265
29	0xbef81b58	-0.48458362
30	0xbe3ed4c8	-0.18635857
31	0x3f17e916	0.59340036
32	0xbf723ca9	-0.9462381
33	0xbf091fe1	-0.5356427
34	0xbe374410	-0.17897058
35	0xbf3e7bde	-0.74407756
36	0xbe13b8d6	-0.14425978
37	0xbfa86b23	-1.3157696
38	0xbe1691be	-0.14704034
39	0xbeb64880	-0.35602188
40	0xbfc683f9	-1.5509025
41	0x3c8c6a84	0.017140634
42	0x3ec0e3ab	0.37673697
43	0xbe7493ad	-0.23884459
44	0xbfbb1968	-1.4617128
45	0x3f68ea12	0.9098216
46	0xbe0a9689	-0.13533987
47	0xbea687af	-0.32525393
48	0xbe4ba159	-0.19885768
49	0xbecd4d79	-0.4009817
50	0xbfd7be21	-1.6854898
51	0xbf967213	-1.1753563
52	0x3e2cc673	0.16872577
53	0xc0140999	-2.3130858
54	0xbfe587d3	-1.7932075
55	0xbfe3db7e	-1.7801359
56	0xbf7a00c9	-0.9765745
57	0xbfda669a	-1.7062562
58	0xbd583f69	-0.052794848
59	0xc036bcb3	-2.8552673
60	0xc03a709c	-2.9131231
61	0xbf1893ce	-0.5960053
62	0xbfe091ac	-1.7544456
63	0x406331b9	3.5499098
64	0xc018b8a0	-2.3862686
65	0xbfa5e02d	-1.2959038
66	0xbf6bab0c	-0.9205787
67	0xbec56fc6	-0.3856184
68	0xc0017a98	-2.0231075
69	0x3f0d99be	0.55312717
70	0xbf3058f8	-0.68885756
71	0xbe014769	-0.12624897
72	0xbebb674a	-0.3660224
73	0x4038b66c	2.8861341
74	0xbf425b21	-0.759203
75	0x3e163413	0.14668302
76	0x3fef81ba	1.8711464
77	0xbfde59b0	-1.737112
78	0x3dbbeb12	0.091756955
79	0xc0966f0b	-4.701055
80	0xbf96e61e	-1.1788976
81	0xbed12b59	-0.40853384
82	0xbee85d31	-0.453836
83	0xbf11fe9d	-0.57029134
84	0xbfa8fd5f	-1.3202323
85	0xbea43c2f	-0.32077166
86	0x3d19bde1	0.0375346
87	0xc0115584	-2.2708445
88	0xbf8c7e15	-1.0975977
89	0x4038b0c5	2.8857892
90	0xc0704df9	-3.754759
91	0xc06992fb	-3.649596
92	0xbfeab395	-1.8336054
93	0xbf065645	-0.52475387
94	0x3e7be1a9	0.24597801
95	0xbefa6bc0	-0.48910332
96	0xbfd834e9	-1.6891147
97	0xbe197276	-0.1498507
98	0xbfa9d633	-1.3268493
99	0xbf243762	-0.6414701
100	0xc03d8a50	-2.961567
101	0xbf62945b	-0.8850762
102	0x3eddbfa1	0.43310264
103	0xbeb9cac3	-0.36287507
104	0xbf37371d	-0.7156847
105	0x4019cb85	2.4030468
106	0xbeaebbac	-0.34127557
107	0x402deb5c	2.7174902
108	0xc01bc3a0	-2.433815
109	0xbf2ad910	-0.6673746
110	0xbf3a699a	-0.72817385
111	0x3f5f9041	0.8732949
112	0x3ff26991	1.8938466
113	0xc038781e	-2.8823314
114	0xbfa1802f	-1.2617244
115	0x3e8c01d4	0.27345145
116	0xbffcb9d5	-1.9744211
117	0xbffbac94	-1.9662042
118	0xc00a57a5	-2.1615994
119	0xbeb96ec0	-0.36217308
120	0xbf488d10	-0.78340244
121	0xc011d6b9	-2.2787306
122	0xbf80c2ed	-1.0059487
123	0xbe968396	-0.29397267
124	0xbf107036	-0.5642122
125	0xbe30b460	-0.17256308
126	0xbf6e63cb	-0.9312102
127	0xbfae8301	-1.3633729
128	0xbf05698d	-0.5211418
129	0xbf9b56c3	-1.2135853
130	0xbeee0d13	-0.4649435
131	0xbf4c19a9	-0.79726654
132	0xbff0e124	-1.8818707
133	0x3fc8ad8c	1.5677962
134	0x3f01b5f7	0.5066828
135	0xbe140516	-0.14455065
136	0xbe9678cb	-0.29389033
137	0xbe8c362e	-0.27385086
138	0xbe50bb9a	-0.20384064
139	0xbe40b79c	-0.18820041
140	0x3fa68389	1.3008891
141	0xbff4bbb0	-1.9119778
142	0xc0855ab1	-4.1673207
143	0xbfc84942	-1.5647357
144	0xbebe213b	-0.37134728
145	0xbebb7968	-0.36616063
146	0xc0dd7952	-6.9210596
147	0xbf9b4d47	-1.2132958
148	0xbf1477f6	-0.57995546
149	0xbf5f9f52	-0.8735248
150	0xbff4bc04	-1.9119878
151	0xbfedb593	-1.8571037
152	0xbfaf0cef	-1.3675822
153	0xbf3d4d8e	-0.73946464
154	0xbec101d1	-0.37696698
155	0xbf8c3add	-1.0955464
156	0xbe62b6e7	-0.22140084
157	0xbee69f83	-0.45043573
158	0xc00f40e7	-2.2383363
159	0xbed0e052	-0.40796143
160	0xbffbea61	-1.9680902
161	0x3c08c99c	0.008348849
162	0xc00a98c5	-2.1655743
163	0xbe26c7bf	-0.16287135
164	0xbe7b030c	-0.24512881
165	0x40025d2d	2.036937
166	0xbf83089d	-1.0237004
167	0xc0984809	-4.7587934
168	0x40554ffe	3.3330073
169	0xbdc27d81	-0.09496594
170	0xbe0afc1d	-0.13572736
171	0xbf48eb99	-0.78484493
172	0xbee2bf53	-0.44286594
173	0xbf514e9c	-0.81760573
174	0xbffa2f45	-1.9545676
175	0xbff09bad	-1.8797508
176	0xbea00d17	-0.31259987
177	0xbe7260e4	-0.23669773
178	0xbe98f10b	-0.298714
179	0x3ef97652	0.48723084
180	0xbff621af	-1.922903
181	0xc05671a5	-3.3506863
182	0xbe91b536	-0.28458565
183	0xbece34b9	-0.402746
184	0xc04d8429	-3.2111914
185	0xbfd604ba	-1.6720192
186	0xbef624f4	-0.48075068
187	0xbf20a637	-0.62753624
188	0xbfd3f17a	-1.6558068
189	0x3ea17f55	0.3154246
190	0xbfafc9ff	-1.3733519
191	0xbfcb9349	-1.5904323
192	0x3f8c7c36	1.0975406
193	0xc094abce	-4.6459723
194	0xbf5e3e32	-0.8681365
195	0xc086bdbb	-4.2106605
196	0x3f2eae1a	0.6823441
197	0xc026573f	-2.599075
198	0xbfe0c4a8	-1.7560015
199	0xc094a26d	-4.6448274
200	0xbf370b08	-0.7150121
201	0xbfb1e510	-1.3898029
202	0x3e6c1bbb	0.23057453
203	0xbf5ede77	-0.87058204
204	0xbf6d8584	-0.92781854
205	0xbf9411c7	-1.1567925
206	0xbf61a872	-0.8814765
207	0x3e7f31d7	0.24921356
208	0xbf53bf7a	-0.82714045
209	0xbfe1c01c	-1.7636752
210	0xbf11abdc	-0.5690286
211	0xbf1a0dee	-0.60177505
212	0xbea77787	-0.3270838
213	0x3c6d1a77	0.014471642
214	0xbe984cdd	-0.29746142
215	0xc01aacb3	-2.4167907
216	0xc021128a	-2.5167565
217	0xbfe244ab	-1.7677206
218	0xbf577642	-0.8416482
219	0xc009d6cc	-2.1537352
220	0xbe6fce90	-0.23418641
221	0xbe8da1f2	-0.27662617
222	0xbd66153b	-0.05617259
223	0xbfd580ca	-1.6679928
224	0xbfa69dd6	-1.3016918
225	0xbe670c59	-0.22563304
226	0xc0314e1d	-2.7703927
227	0xbeca2031	-0.39477685
228	0xbf442a1e	-0.76626766
229	0xbe627c8a	-0.2211782
230	0xbe57676a	-0.21035543
231	0xbeb66950	-0.35627222
232	0xbfeb391b	-1.8376802
233	0xbdba4d4a	-0.09096773
234	0xbfae6b53	-1.3626503
235	0xbf945c52	-1.1590674
236	0x3d4712f3	0.048602056
237	0xbf1ba358	-0.6079612
238	0xbfd5d090	-1.6704273
239	0xc03606de	-2.8441691
240	0xc00d14d5	-2.2043965
241	0xbe5ec492	-0.21754673
242	0xbf8a4ca9	-1.0804645
243	0x3e8da33c	0.276636
244	0xbd8a65cf	-0.067577
245	0x3dc8824c	0.09790477
246	0xc09b5096	-4.853587
247	0xbe6c5ab3	-0.23081474
248	0x3ed1273e	0.40850252
249	0x4005e149	2.0918753
250	0xbeb682cc	-0.35646665
251	0xbe10007e	-0.14062688
252	0xbfc8370e	-1.5641801
253	0xbf8998a5	-1.0749708
254	0x3e62d1e5	0.22150381
255	0xbe304890	-0.1721518

l2.weight f4 [300, 400]
0	0xbeb7d7b8	-0.35906768
1	0x3d681042	0.05665613
2	0x3c3debf7	0.011591903
3	0x3e28dbc6	0.16490087
4	0xbbaad6cf	-0.0052135955
5	0xbd43b471	-0.047779504
6	0xbdc6a4c9	-0.09699399
7	0xbd430189	-0.047608886
8	0x3c0b0a2c	0.008486312
9	0x3e0965dc	0.13417763
10	0xbead2317	-0.33815834
11	0x3d80587a	0.062668756
12	0xbda19097	-0.078889064
13	0x3d4db560	0.0502218
14	0xbe4fba91	-0.20286013
15	0x3d4fd520	0.05074036
16	0xbec4fd59	-0.3847454
17	0x3d60ee7a	0.05491493
18	0xbd19701e	-0.03746044
19	0xbeb6f780	-0.35735703
20	0xbb8ca775	-0.0042924234
21	0xbd3af628	-0.04564491
22	0xbe96b356	-0.29433697
23	0xbe3bd980	-0.18344688
24	0xbe9438f6	-0.28949708
25	0xbd327660	-0.043569922
26	0xbd0415b5	-0.032247264
27	0xbc598982	-0.013277413
28	0x3c72fd24	0.014830861
29	0xbc4bcc51	-0.01243885
30	0x3ccc00a8	0.024902657
31	0xbe4a3f71	-0.19750763
32	0xbdbf38c8	-0.09337002
33	0xbec19ed9	-0.37816504
34	0xbbcc3e61	-0.006233022
35	0xbe0ae18c	-0.13562602
36	0xbbefafd3	-0.007314661
37	0xbf2a7c2e	-0.66595733
38	0x3cc351f2	0.023842786
39	0x3da046e6	0.07826023
40	0x3cf68443	0.030092364
41	0x3b441550	0.002991993
42	0xbbde566a	-0.0067852037
43	0xbe0c9fa4	-0.13732773
44	0xbd2fcf77	-0.042922463
45	0x3d755e83	0.059904587
46	0x3d8896d4	0.06669393
47	0xbed6ef1a	-0.41979295
48	0xbc99ab7e	-0.018758532
49	0xbcf15000	-0.029457092
50	0xbf033c85	-0.5126422
51	0x3b0ab054	0.0021162229
52	0xbc073105	-0.008251433
53	0x3bb58147	0.0055390927
54	0x3cac815e	0.02105778
55	0x3e31eda7	0.17375813
56	0x3bde17e9	0.0067777527
57	0xbe2e39ff	-0.17014311
58	0xbc4a1a00	-0.0123353
59	0x3e009ae2	0.12559083
60	0x3d364b9f	0.04450571
61	0xbd98e50e	-0.07465564
62	0xbe1e585e	-0.15463397
63	0x3c831d44	0.016005166
64	0xbcfb7f44	-0.030700333
65	0xbdf3475c	-0.11878845
66	0xbf47d320	-0.78056526
67	0x3d621ff3	0.05520625
68	0xbddb1a4a	-0.106983736
69	0xbe8544d5	-0.26029077
70	0xbe1d8f95	-0.15386803
71	0xbb8f1c5d	-0.004367395
72	0xbe9305ed	-0.2871546
73	0xbe134086	-0.14380082
74	0x3cecc52e	0.028902616
75	0xbeee9823	-0.46600446
76	0xbee5cfb2	-0.4488502
77	0xbdd75702	-0.10514642
78	0x3c71b2ab	0.01475207
79	0xbeabc517	-0.33548805
80	0xbe43f611	-0.19136836
81	0xbd2f62df	-0.0428189
82	0x3d7fb30b	0.062426608
83	0xbe60154b	-0.21883123
84	0xbe4b0901	-0.19827653
85	0xbd3cd2b8	-0.046099395
86	0xbcb34a18	-0.021885917
87	0xbd843cc5	-0.06456903
88	0x3c0a4d1c	0.008441236
89	0xbe73443b	-0.23756497
90	0xbe9a368e	-0.30119747
91	0xbf254506	-0.64558446
92	0xbe7ce2bc	-0.24695867
93	0x3d8d447c	0.06897828
94	0x3d26adf6	0.040693246
95	0x3e2b7886	0.16745195
96	0xbe10e565	-0.14150007
97	0xbd00380f	-0.03130346
98	0xbe68f5f3	-0.22750072
99	0xbea40edf	-0.32042596
100	0xbe86fcad	-0.2636465
101	0xbe77b29b	-0.24189226
102	0xbd29ac5e	-0.041424148
103	0xbd5a9c82	-0.053371914
104	0x3e03e2ec	0.12879533
105	0xbd07c255	-0.033144314
106	0xbc999d6e	-0.018751826
107	0xbe6f28ab	-0.23355357
108	0x3d3145af	0.043279346
109	0xbc80122b	-0.015633663
110	0x3d561dba	0.052274443
111	0xbed57d92	-0.41697365
112	0x3dbc6b97	0.09200209
113	0xbe924bfe	-0.28573602
114	0x3ddd3df1	0.1080283
115	0x3d25be1e	0.040464513
116	0xbf1c2e75	-0.6100839
117	0xbe8c5bad	-0.27413693
118	0xbd4679d1	-0.048456017
119	0x3e13284d	0.14370842
120	0xbda62796	-0.08113019
121	0x3d19a605	0.037511844
122	0xbc0fa8fd	-0.008768317
123	0x3dfd7fc2	0.123778835
124	0xbdebfcf3	-0.115228556
125	0x3d974f95	0.07388226
126	0xbd5e3342	-0.054248102
127	0x3dbcf5df	0.09226584
128	0xbd2bc7c5	-0.041938562
129	0xbd9c3e15	-0.07629029
130	0xbcc271c9	-0.023735898
131	0xbea2676e	-0.31719536
132	0xbe961716	-0.29314488
133	0xbc74253c	-0.0149014555
134	0xbccaf961	-0.024777116
135	0x3ca7a346	0.020463597
136	0xbc9dd2c6	-0.019265544
137	0x3da93b16	0.08263223
138	0x3d962c2d	0.073326446
139	0x3bd04f01	0.0063570742
140	0xbe0b4974	-0.13602239
141	0x3c694412	0.014237421
142	0xbdad418f	-0.0845977
143	0xbcd3f242	-0.025872353
144	0xbe52e009	-0.20593275
145	0x3ceb27aa	0.028705437
146	0xbed1519a	-0.4088257
147	0xbc2739cf	-0.010206654
148	0xbe07736d	-0.13227625
149	0xbe6b9da2	-0.23009351
150	0xbf1e6f05	-0.6188815
151	0x3db74bdf	0.08950018
152	0xbed1519a	-0.4088257
153	0x3eecc8da	0.46246988
154	0xbd21f8f0	-0.039544046
155	0xbea12e27	-0.31480524
156	0xbd395f20	-0.045256734
157	0x3d8bd614	0.068279415
158	0xbe7296cb	-0.23690335
159	0xbd42c241	-0.047548536
160	0xbeb0daa8	-0.3454182
161	0x3d3a39df	0.045465346
162	0xbdd70752	-0.10499443
163	0xbc268b97	-0.010165117
164	0x3d3dbf07	0.046324756
165	0xbea0cf9f	-0.31408402
166	0xbe35d34f	-0.17756389
167	0xbe5bc6f2	-0.2146261
168	0x3cec3d02	0.028837685
169	0xbe85a4ed	-0.2610239
170	0x3c2989ff	0.010347842
171	0xbd1b8b2e	-0.03797453
172	0xbc113066	-0.008861637
173	0xbe7bbcfc	-0.2458381
174	0xbead783f	-0.33880803
175	0xbdcd1c40	-0.10015154
176	0x3d728ca3	0.059216153
177	0x3d8e7cfc	0.06957433
178	0xbc593522	-0.013257297
179	0xbdb15488	-0.08658701
180	0xbacd3d11	-0.0015658458
181	0x3c32445e	0.010880558
182	0x3da97806	0.08274846
183	0xbc7403a4	-0.014893446
184	0xbd51ae92	-0.051191874
185	0xbe6bd38b	-0.23029916
186	0x3de06f22	0.10958697
187	0x3bf88973	0.0075847446
188	0x3a786a33	0.0009476274
189	0xbdfbb784	-0.12290862
190	0x3d84b6a4	0.064801484
191	0xbdb0c4c8	-0.08631283
192	0xbe7b27c4	-0.24526888
193	0xbecb8601	-0.39750674
194	0xbc27e997	-0.010248563
195	0xbeb2e3c0	-0.34939384
196	0x3d0dd427	0.034626152
197	0xbe8dcadd	-0.27693835
198	0x3dcf8958	0.10133618
199	0xbe94d3a5	-0.29067722
200	0x3caca22e	0.021073427
201	0x3cdca1b1	0.02693257
202	0x3d4890f8	0.048966378
203	0xbe5f169a	-0.21785966
204	0xbdef465b	-0.11683341
205	0xbee77403	-0.45205697
206	0xbf1b24d6	-0.6060308
207	0x3e00e86c	0.12588662
208	0xbca2e537	-0.019884689
209	0x3ed7be21	0.42137244
210	0xbe5815a1	-0.21102001
211	0xbcb9b060	-0.02266711
212	0xbeaa9467	-0.33316347
213	0xbe96a545	-0.29422966
214	0xbe414759	-0.18874873
215	0x3dabacde	0.08382581
216	0xbe8f724d	-0.28016892
217	0xbd993bc6	-0.07482104
218	0xbe37a360	-0.17933416
219	0x3e429108	0.19000638
220	0xbdde9b2a	-0.10869439
221	0xbef5eb23	-0.48030958
222	0x3dad017e	0.0844755
223	0xbf1f6b5d	-0.622732
224	0x3ce12cfa	0.027487267
225	0xbe924b36	-0.28573006
226	0xbf592e1a	-0.8483597
227	0x3c80811a	0.01568656
228	0xbf3d7f60	-0.74022484
229	0xbeda8512	-0.4267965
230	0xbbb02130	-0.00537505
231	0x3de9e9b2	0.11421527
232	0x3d09d594	0.03365095
233	0x3e7a5663	0.24447016
234	0xbf5878da	-0.84559405
235	0xbe983f6e	-0.29735893
236	0xbd34de00	-0.04415703
237	0xbc6f20db	-0.014595236
238	0xbd29886f	-0.04138988
239	0x3c8dbd94	0.017302312
240	0xbe513af2	-0.20432642
241	0x39142185	0.00014126867
242	0x3e80a6cd	0.2512726
243	0xbe634fdb	-0.22198431
244	0x3c87c894	0.016575135
245	0xbdd56df2	-0.10421361
246	0xbf1532f6	-0.58280885
247	0xbd35b8c0	-0.044365644
248	0x3cb672af	0.022271482
249	0xbde552b3	-0.11197414
250	0xbe573182	-0.2101498
251	0x3da57706	0.080793425
252	0xbeda349a	-0.42618257
253	0xbea0c95f	-0.31403634
254	0xbe6ad98b	-0.22934549
255	0xbca5d58f	-0.020243434

l2.bias f4 [300]
0	0xbb1ff8c6	-0.0024409755
1	0xbe83f8cd	-0.25775757
2	0xbf782f9c	-0.96947646
3	0xbdb6e650	-0.089306474
4	0xbd0371a5	-0.0320908
5	0xbdadfdd7	-0.08495682
6	0x3de77ef2	0.1130351
7	0xbe1f8206	-0.15576944
8	0x3fb7afdf	1.4350547
9	0x3f2b9c76	0.67035615
10	0xbd10291e	-0.035195462
11	0xbde068e3	-0.109575056
12	0xbf1eff8e	-0.62108696
13	0xbf2c798f	-0.67372984
14	0xbe81a4b5	-0.25320974
15	0xbdc95449	-0.09830529
16	0xbf661923	-0.89882106
17	0xbdbe30b8	-0.09286636
18	0x4048a456	3.1350303
19	0xbf7c098c	-0.9845207
20	0xbdb7e758	-0.08979672
21	0xbdf40e94	-0.11916843
22	0xbc5fa4ca	-0.013650129
23	0x3ef0117b	0.46888337
24	0xbf19c9f6	-0.6007379
25	0x3f22b4c6	0.6355709
26	0xbd54363a	-0.051809527
27	0xbce1a54b	-0.027544638
28	0xbfd704fa	-1.6798394
29	0xbd8fadad	-0.07015548
30	0x400c4504	2.1917124
31	0xbc9dfb66	-0.019284915
32	0x3f7223f3	0.94586104
33	0xbf4a4cb9	-0.7902332
34	0xbe3b90d8	-0.18316972
35	0xbef36c14	-0.47543395
36	0xbd0855fd	-0.03328513
37	0xbe3e8900	-0.18606949
38	0xbd15a43e	-0.036533587
39	0x3e72d164	0.23712689
40	0xbe80ed1d	-0.25180903
41	0xbe9d22fe	-0.3069076
42	0xbf84c965	-1.0373961
43	0x3db98ba7	0.0905984
44	0xbefecfb4	-0.4976784
45	0xbdd137d2	-0.10215725
46	0xbdbd1200	-0.09231949
47	0xbdbabd20	-0.09118104
48	0xbd8cfd65	-0.06884269
49	0xbf7d4144	-0.9892771
50	0x3e3bc20f	0.18335746
51	0xbec34199	-0.38135985
52	0xbed7149a	-0.42007905
53	0xbf377de0	-0.71676445
54	0xbffb44ac	-1.9630332
55	0x3f5f68a1	0.87269026
56	0xbfce58a9	-1.6120807
57	0x3cbd4e27	0.023108555
58	0xbfad1377	-1.3521565
59	0x3e9593d5	0.2921435
60	0x3f9c8145	1.222695
61	0xbcd1fe42	-0.025633935
62	0xbec04d59	-0.37559012
63	0xbfc300c1	-1.5234605
64	0xbec8f689	-0.3925059
65	0xbda66ac7	-0.08125835
66	0x3f1389f5	0.5763238
67	0xbf9c3646	-1.2204063
68	0xbda5baff	-0.08092307
69	0x3f656aea	0.8961626
70	0xbefdb4e4	-0.4955207
71	0xbd9795e6	-0.07401638
72	0x3e6c4efa	0.23077002
73	0xbd9eae4e	-0.0774809
74	0x3e0bb864	0.13644558
75	0xbd05201d	-0.03250133
76	0xbd931a3e	-0.0718274
77	0xbdc61c11	-0.09673322
78	0xbfe69943	-1.8015522
79	0xbc71454c	-0.014725994
80	0xbd144ed6	-0.036207996
81	0xbde02293	-0.109440945
82	0x3dbd48af	0.09242379
83	0xbf010f7d	-0.5041426
84	0xbf5a844a	-0.8535811
85	0x3fce2b58	1.6106977
86	0xbdcd88d9	-0.10035867
87	0xbe1f2a86	-0.15543565
88	0xbe6357ab	-0.22201411
89	0xbfd85e4a	-1.6903775
90	0x3f10af03	0.56517047
91	0x3f3abd20	0.7294483
92	0xbdcf5e61	-0.10125423
93	0x3f0a7044	0.54077554
94	0xbdc60a19	-0.09669895
95	0xbe843f1d	-0.25829402
96	0xbcadfc47	-0.02123846
97	0x3cc05460	0.023477733
98	0xbda3742f	-0.07981145
99	0xbd954fde	-0.07290624
100	0xbfe5dcfb	-1.7958063
101	0xbf997c9e	-1.1991155
102	0xbdf4780c	-0.119369596
103	0xbe0f9895	-0.14023049
104	0xbd75351c	-0.059865102
105	0xbf111805	-0.56677276
106	0xbecc5ff9	-0.3991697
107	0xbe452b71	-0.19254853
108	0xbdfddfdc	-0.123962134
109	0x3dd1d349	0.102453776
110	0xbd9e5ab6	-0.077321455
111	0xbea0d067	-0.31408998
112	0xbf7532c4	-0.9578059
113	0xbdb51ed8	-0.088437736
114	0x3cfb3c13	0.030668294
115	0xbe5ec302	-0.21754077
116	0xbdacb5b7	-0.08433097
117	0xbd11376e	-0.035453252
118	0xbda9cebf	-0.08291387
119	0xbdc56799	-0.096389
120	0xbedc19c2	-0.42988402
121	0x3f613ded	0.87985116
122	0x3ce99c5a	0.028516937
123	0xbc7e3054	-0.015514452
124	0xbf66cc0b	-0.90155095
125	0xbd765ec4	-0.06014897
126	0xbf548cf2	-0.83027565
127	0xbde09183	-0.10965254
128	0x3f66fe0a	0.9023138
129	0xbe208f8f	-0.15679763
130	0x3f1ebacd	0.62003785
131	0xbf44f10b	-0.769303
132	0x4050af1a	3.2606874
133	0xbf5fa01a	-0.8735367
134	0x3db2d8cf	0.08732759
135	0xbd63a053	-0.05557282
136	0xbd90b8de	-0.070665106
137	0x3da7e0fe	0.08197211
138	0xbd9ba9a6	-0.07600717
139	0xbd6ab7f3	-0.057304334
140	0xbe176e0e	-0.14788076
141	0x3e995a3d	0.2995166
142	0xbdafda67	-0.08586579
143	0xbe810f7d	-0.2520713
144	0x3f250cc6	0.64472616
145	0xbdebb76b	-0.115095936
146	0xbd671fa3	-0.056426656
147	0xbc496d49	-0.012294122
148	0x3f3f415f	0.74709123
149	0xbfa176cf	-1.2614383
150	0xbf8cdeed	-1.1005532
151	0xbeec747b	-0.46182618
152	0x402a9e8e	2.6659274
153	0x3fad094e	1.3518465
154	0xbd976ed6	-0.07394187
155	0xbcc359d1	-0.023846539
156	0x3fcadb43	1.5848163
157	0x40057abc	2.085616
158	0x3f1909c5	0.5978053
159	0xbe3b7bbf	-0.18308924
160	0xbc621053	-0.013797837
161	0xbe547bc2	-0.20750335
162	0xbf7e9904	-0.99452233
163	0xbc8a4935	-0.016880611
164	0xbf33cb00	-0.7023163
165	0xbd9314c6	-0.071816966
166	0xc01a6635	-2.4124882
167	0xbf00f67d	-0.5037611
168	0xbdc54601	-0.09632493
169	0xbdd69d12	-0.104791775
170	0xbf28ccef	-0.65937704
171	0xbd165fbe	-0.0367124
172	0xbd60474b	-0.05475549
173	0xc016bd7e	-2.3553157
174	0xbe85f49d	-0.26163188
175	0xbf2c1e27	-0.6723351
176	0xbfcb2071	-1.5869275
177	0xbd76756c	-0.060170576
178	0xbd836e85	-0.06417564
179	0xbdbdf0a8	-0.09274417
180	0xbfc8d109	-1.5688792
181	0x3f041424	0.5159323
182	0xbd949b66	-0.072562024
183	0xbdcc1369	-0.0996464
184	0xbfd6a419	-1.6768829
185	0xbdef8d73	-0.11696901
186	0xbed50092	-0.41601998
187	0x3f79d323	0.97587794
188	0xbdcf7441	-0.101295955
189	0x3ea67426	0.3251049
190	0xbd4a7ad1	-0.049433533
191	0xbd053d05	-0.032528896
192	0xbfa87957	-1.316203
193	0xbda37e57	-0.07983082
194	0xbf369ce0	-0.7133312
195	0xc040dd2c	-3.0134993
196	0x3ee15342	0.44008833
197	0xbd80e09d	-0.062928416
198	0xbfa0f06f	-1.2573375
199	0x3f1d4625	0.6143516
200	0x3f03118d	0.51198655
201	0x3e26e3de	0.16297862
202	0xbc5056d2	-0.012716012
203	0x3faf2b66	1.3685119
204	0xbd6b79b3	-0.05748911
205	0xbf0318db	-0.512098
206	0x3f3fd697	0.74936813
207	0xbdcebd71	-0.10094727
208	0xbd32a860	-0.043617606
209	0xbd008f8f	-0.03138691
210	0xbe0e6fb5	-0.139098
211	0xbdf3c13c	-0.11902091
212	0xbf110ae6	-0.56657255
213	0x3e13cf7d	0.14434619
214	0x3d5e2c38	0.05424139
215	0x3bad15ce	0.0052821403
216	0xbfc32a29	-1.5247241
217	0x3f93cb96	1.1546504
218	0x3cbd0af7	0.023076518
219	0xbdff12e4	-0.12454775
220	0xbf8b106d	-1.0864388
221	0xbb1b2d6e	-0.0023678201
222	0xbcc4ab51	-0.024007471
223	0xbe31fc80	-0.17381477
224	0xbeb2189f	-0.3478441
225	0x40e4b57e	7.147155
226	0xbf973cd6	-1.1815441
227	0x3efd7a4b	0.49507365
228	0xbfd511a9	-1.6646014
229	0x3d18347e	0.037159435
230	0xbd14de96	-0.036345087
231	0xbd338320	-0.043826222
232	0xbf160a96	-0.586099
233	0x3f08c4ec	0.5342548
234	0xbefad364	-0.48989403
235	0xbd8076f3	-0.06272688
236	0xbfe2d3a3	-1.7720836
237	0xbe35f8d0	-0.17770696
238	0x3f96d295	1.1783015
239	0xbe1aabbe	-0.15104577
240	0xbd9400b6	-0.07226698
241	0xbe476431	-0.19471814
242	0xbffed39c	-1.9908328
243	0xbd30efc0	-0.043197393
244	0xbea046e7	-0.31304094
245	0xbe57644a	-0.21034351
246	0xbdd2ddb2	-0.10296191
247	0xbd1be826	-0.03806319
248	0xbd6dd8bb	-0.05806802
249	0xbdbb5960	-0.09147906
250	0x3f53bb92	0.82708085
251	0xbf712f6c	-0.94212985
252	0xbf0b8a4c	-0.545079
253	0xbcb2d740	-0.021831155
254	0x3e47eb58	0.1952337
255	0xbef142f4	-0.47121394

l3.weight f4 [1, 300]
0	0xbf02d49c	-0.51105666
1	0xbf6ace9a	-0.917215
2	0x3e269366	0.16267166
3	0x3b7eefbc	0.0038900217
4	0x3c1e107e	0.009647487
5	0xbc61f68b	-0.013791691
6	0xbf08a8cc	-0.53382564
7	0xbfd511c1	-1.6646043
8	0xbe06638c	-0.13123912
9	0xbb602a63	-0.0034204952
10	0x3dd70431	0.10498846
11	0x3b580e9a	0.0032967688
12	0xbf42fcd8	-0.7616706
13	0xbe15962d	-0.14608069
14	0x3d6ea0ba	0.05825875
15	0x37c57739	2.3539747e-05
16	0xbe586551	-0.21132399
17	0xbb80f80d	-0.00393582
18	0xbf87204e	-1.0556734
19	0xbef91f73	-0.48656806
20	0xbe99a605	-0.30009475
21	0x3da5e2d6	0.08099906
22	0x3c628263	0.013825032
23	0x3d6a1f9a	0.057159044
24	0x3f81e26c	1.0147223
25	0xbf063894	-0.5243008
26	0xbb95bae6	-0.004569399
27	0x3c7988ec	0.015230399
28	0xbe93d4f5	-0.2887341
29	0x3c7ab104	0.015300993
30	0xbd93090d	-0.07179461
31	0x3b9c7656	0.004774849
32	0x3df27c3b	0.11840101
33	0xbf1a0c5d	-0.60175115
34	0xbc603873	-0.013685334
35	0xbe866134	-0.26246035
36	0xbccec860	-0.02524203
37	0xbc9a5825	-0.018840859
38	0x3c00f67d	0.007871267
39	0xbeb47d20	-0.35251713
40	0x3ec38590	0.38187838
41	0xbf18b0b5	-0.59644634
42	0xbeee7c02	-0.46578985
43	0xbeb375d7	-0.35050842
44	0xbf15949d	-0.5842989
45	0xbc0be03d	-0.008537349
46	0xbbda29aa	-0.006657799
47	0x3bf44d13	0.007455477
48	0xbb080c8d	-0.0020759434
49	0x3e3fa177	0.18713938
50	0xbf82b944	-1.0212789
51	0xbd25204e	-0.04031401
52	0x3c665932	0.014059352
53	0xbedeeba1	-0.43539146
54	0xbdf1f76b	-0.11814769
55	0xbe2f7986	-0.17136201
56	0xbe5149c9	-0.20438303
57	0xbf1fa5f5	-0.62362605
58	0xbe0a2abc	-0.13492864
59	0xbf0f0e4c	-0.5588119
60	0xbe016954	-0.12637836
61	0x3be3e12a	0.006954332
62	0xbf090754	-0.53526807
63	0xbc5d003a	-0.013488824
64	0x3e7d86cb	0.2475845
65	0xbb9288ee	-0.0044718897
66	0xbe62a972	-0.22134951
67	0xbe5ee3d1	-0.21766593
68	0xbc33e7e8	-0.010980584
69	0xbf412d90	-0.7546015
70	0x3f16083d	0.5860632
71	0x3c6eb8f3	0.0145704625
72	0x3d37b61f	0.04485142
73	0x3bb95f20	0.0056570917
74	0xbed733d9	-0.42031744
75	0x3b1e233d	0.002412989
76	0xbc4405b1	-0.011964248
77	0xbc22450f	-0.00990416
78	0x3f86f7fc	1.0544429
79	0x3c42f9b9	0.011900359
80	0xbd8f675c	-0.07002136
81	0xbe634292	-0.22193363
82	0xbf2cb4ef	-0.6746358
83	0x3cf3b583	0.029749637
84	0xbdcc0300	-0.0996151
85	0xbb625062	-0.0034532775
86	0xbd68b452	-0.05681259
87	0xbf854e34	-1.0414491
88	0xbf83d98c	-1.0300765
89	0x3d916bc5	0.071006335
90	0x3ea9d0a8	0.33167005
91	0xbea3f44f	-0.3202233
92	0x3c54b97a	0.012983674
93	0xbc927dfd	-0.017882342
94	0xba0839dd	-0.00051966106
95	0x3c50f4a2	0.0127536375
96	0xbd6068e2	-0.054787524
97	0xbef6805b	-0.48144802
98	0xbdd25369	-0.102698155
99	0xbf7e537b	-0.9934613
100	0x3defcd82	0.117091194
101	0xbe19396d	-0.14963312
102	0xbd88cb2c	-0.06679377
103	0x3d3898af	0.045067485
104	0xbc6863db	-0.014183964
105	0x3f93ba5b	1.1541246
106	0xbecbcea8	-0.39806104
107	0xbd6be3f2	-0.057590432
108	0xbe0131dc	-0.12616676
109	0xbf139675	-0.57651454
110	0x39340660	0.00017168513
111	0xbd8b8b14	-0.068136364
112	0xbf7d452b	-0.98933667
113	0xb90a99ad	-0.00013217954
114	0xbef66693	-0.48125133
115	0xbee4740a	-0.4461978
116	0xbdc37c30	-0.09545171
117	0xbcc8a9f8	-0.02449511
118	0x3c5cd222	0.013477834
119	0x3c2768af	0.01021783
120	0xbec44430	-0.38333273
121	0xbe764a1d	-0.2405171
122	0x3b34d3d8	0.002759209
123	0xba7fc5cb	-0.00097569515
124	0xbe41b0d0	-0.18915105
125	0xbb45df21	-0.003019281
126	0x3f026354	0.5093281
127	0xbea73136	-0.32654732
128	0xbf7535e3	-0.9578535
129	0xbf2efa2e	-0.68350494
130	0x3e627db2	0.22118261
131	0x3f056bea	0.5211779
132	0x3f0ec02c	0.5576198
133	0x3f3035cf	0.68832105
134	0xbddbea19	-0.1073801
135	0xbc8913d4	-0.016733088
136	0x3c3935b8	0.011304311
137	0xbf3ce63f	-0.7378883
138	0xbc319ba0	-0.010840327
139	0x3c185936	0.009298613
140	0xbb17fe96	-0.0023192517
141	0x3ead3da6	0.33836097
142	0xbc55ddaa	-0.013053337
143	0xbedb14d1	-0.4278932
144	0xbcc11eb8	-0.023574218
145	0x3d14d085	0.036331672
146	0x3c8191f5	0.015816668
147	0xbf07cbb4	-0.530452
148	0x3e921de5	0.28538433
149	0xbe42bc00	-0.19017029
150	0x3e71b5cb	0.23604505
151	0xbef863f3	-0.48513755
152	0x3f7b2c73	0.981147
153	0xbe8be5b4	-0.27323687
154	0x3bd60c8a	0.0065322565
155	0xbc0d8ded	-0.008639795
156	0xbf309580	-0.6897812
157	0xbe52efa9	-0.20599236
158	0xbf9f6135	-1.245154
159	0xbf06e08d	-0.5268639
160	0x3b81cd55	0.003961245
161	0xbeb08edf	-0.34484002
162	0x3df4046b	0.11914905
163	0xbb2ec9be	-0.002667054
164	0xbe8ce39c	-0.27517402
165	0xbf02aa6c	-0.51041293
166	0x3defccbb	0.11708971
167	0x3e525d91	0.20543505
168	0xbf242266	-0.6411499
169	0xbb11c27e	-0.002224117
170	0xbef625bc	-0.48075664
171	0x3b808f8f	0.0039233635
172	0xbb8e4d55	-0.004342715
173	0x3ea850b6	0.32874078
174	0xbaee128b	-0.0018163485
175	0x3eb6a31f	0.35671327
176	0xbf3327b7	-0.69982475
177	0xbce96352	-0.028489742
178	0xbb968476	-0.0045934273
179	0x3c81c19d	0.015839392
180	0x3ea58386	0.32326907
181	0xbf675652	-0.9036609
182	0x3c68656b	0.014184336
183	0xbb625e73	-0.003454116
184	0xbf39655f	-0.72420305
185	0x3ccd3220	0.025048316
186	0xbe92cf3d	-0.28673735
187	0xbf8ddff4	-1.108397
188	0xbc5a4052	-0.013320999
189	0xbebc2227	-0.36744806
190	0xbd518780	-0.051154613
191	0xbdbd0bbf	-0.09230756
192	0xbe9e9935	-0.30976263
193	0xbc29165f	-0.010320275
194	0xbeb8fa57	-0.36128494
195	0x3ea4935c	0.32143676
196	0xbf8bcfd4	-1.0922799
197	0x3c58fb52	0.013243513
198	0xbec74fe0	-0.38928127
199	0xbf6f61b2	-0.93508446
200	0xbe621b43	-0.22080712
201	0xbee6e05a	-0.45093042
202	0xbc4fc968	-0.012682296
203	0xbe8cfef4	-0.27538264
204	0xbd603a02	-0.05474282
205	0x3f0f3b48	0.5594983
206	0xbe9285cc	-0.28617704
207	0xbbba76d0	-0.005690433
208	0xbaaa72cf	-0.0013004186
209	0xbc0bdf75	-0.008537163
210	0x3bfe055c	0.0077521037
211	0xbbbd8280	-0.005783379
212	0x3e1ff1bd	0.1561956
213	0x3df73a4b	0.120716654
214	0xbee7f1ca	-0.45301658
215	0xbd801e46	-0.06255774
216	0x3fe52a12	1.7903464
217	0xbe3549d0	-0.17703938
218	0x3c798a7c	0.015230771
219	0x3bab1c57	0.005221884
220	0x3e9780cd	0.29590455
221	0xbdc96640	-0.09833956
222	0xb9e8d842	-0.00044411613
223	0xbec4baf0	-0.38423872
224	0xbe27f937	-0.16403662
225	0xbe955154	-0.2916361
226	0xbb61cf7a	-0.003445594
227	0xbf23ad36	-0.63936174
228	0x3ecdf3b1	0.40224984
229	0xbf020d65	-0.5080169
230	0xbd64452a	-0.055730022
231	0xbc01f5f5	-0.007932176
232	0x3dec56ca	0.11539991
233	0xbb85c8dd	-0.0040827827
234	0x3dfcf57b	0.12351509
235	0xbe5bd1e1	-0.21466781
236	0x3e5ab261	0.21357109
237	0x3ee88f9a	0.4542206
238	0xbe576449	-0.2103435
239	0xbd11a97d	-0.035562027
240	0x3c26ee07	0.010188586
241	0xbede8549	-0.43461064
242	0x3f6dda4b	0.92911214
243	0xb8a6b04e	-7.948336e-05
244	0x3f51c6c9	0.8194395
245	0x3ec26930	0.37970877
246	0xbbb37ce0	-0.0054775327
247	0xbf0d609c	-0.5522554
248	0xbca3e31e	-0.020005759
249	0x3b0fb005	0.0021924984
250	0x3e577c82	0.2104359
251	0xc03813df	-2.8762128
252	0xbf374410	-0.7158823
253	0x3bebb383	0.0071930303
254	0xbf792f13	-0.97337455
255	0xbec79f90	-0.38988924
