preTrained/v2TD3_BipedalWalkerHardcore-v3_0_critic_1_target.pth (torch_old, 175167 bytes, 7 tensors)

l1.weight f4 [64, 28]
00000000: 4641 2fc1 a472 07c2 9da8 0141 b5b9 8a3f
00000010: 38df bcc0 4cb0 74bf 58ed 36c0 7e96 a9be
00000020: 869b 213f 9082 37be 4e7b 9abf de49 16c0
00000030: 9a13 6cbf e85b 423e 628b ed3f 4cf5 8e40
00000040: bcd3 8b40 4d29 973e 187d 37c0 9cdf 7cc0
00000050: d6fd 14c0 e33e e7be a697 1ebf 6c8d 0b3f
00000060: 39ac 513e 295e cb3d cc17 03be 4d70 073e
00000070: fef2 24c1 bdc5 cec1 4369 ee41 d868 4a41
00000080: 8300 f4c0 5dfb 873e 30de 3bbf 5035 c73d
00000090: b91b 4e3f 26c5 a53f fc95 0ebe 7508 9a3f
000000a0: 1744 b4bf 5e5c ae3f 073e 3bbf 4d4a 053f
000000b0: 9a6a d13f 47bb a33f e7f1 a93d 9eb1 a5bf
000000c0: 0df6 11c0 629c e6bf c516 9bbe 2355 f5bd
000000d0: 9a3a 593f a1c3 d43f afdd 20be 4688 1fbe
000000e0: abfb 6941 c5f7 8241 4c4b 89c0 4c3f f2c0
000000f0: 4e92 12be 7f58 2bbf fdfb 963f c0db c43e
00000100: d57d 08bf 57f8 3041 5f5f a13f f74e 2140
00000110: 912e c53e 5d96 033f 080c bbbf ed41 89bf
00000120: 5f60 25bf 17ee a0bf 28bf 3fbf 5570 84bf
00000130: f1d3 c4bf 02c0 d2bd 7b23 edbd 19f0 41be
00000140: 2448 f3be 1b68 e0be 494a d33d d4a6 fd3e
00000150: 01ef 46be efdc 36c2 b7aa b23f 9c7b fc41
00000160: 780b bfc0 d720 24c0 adde 0bbe 8e6c 11bd
00000170: 0871 3fbf 9113 56c0 8cc2 8bbf 9a17 633e
00000180: 41b1 493e 0bfb 733d a5c6 923e ef4b b13f
00000190: 0223 683f 107b 4b3f e8c2 35be 8af8 693f
000001a0: a66f ad3d 53a8 6abf 118d 48bf 478f bb3e
000001b0: b15e cabe 6825 c93f 032c 73be f9c0 c03d
000001c0: d76e b0c0 b2f7 efbf 38e7 43bf 9864 3941
000001d0: de1e 19c0 0daf 88bf 37ff a6c0 1c6d 743f
000001e0: dc89 833f 7df4 9140 9cb0 883e a11f cebe
000001f0: 6955 5abd 6df9 123f 5e9a 93be 2691 9dbf
00000200: dfcf a1bf 91d7 c6bf 5ad2 603d 08b5 3cbf
00000210: 3acb 50bf 8516 1a3e 407f c93e d811 4c3f
00000220: 0a2a e83e ee4a adbc 883b b13e 45d8 813d
00000230: 3e75 a140 cd23 1ac1 ad6c 9e41 9c71 0641
00000240: 4ec3 a73f 0d35 143e f5fe 0c40 861d 1d3f
00000250: 621a ebbd 3066 4fc0 bfff bebe 7158 4a3f
00000260: f472 693e fc94 71bb af1d 27c0 027b 51c0
00000270: 1ed4 19c0 0dc0 1a3e b48e 8d40 db14 7140
00000280: 0921 44bf 887d bfbf d4b9 7ec0 eba1 e0bf
00000290: 25e9 9f3e 161f 1d3e 4ccf 0cbf 4581 0340
000002a0: 4937 7840 a4ca 8fc1 9e01 ccc0 db6f 3a41
000002b0: 5708 dfbf 9029 8abf e3bb bfbe 4b3a 163f
000002c0: 0070 f040 ca99 0ac0 8d55 a340 297d 1dc0
000002d0: d495 9540 5a27 a3bf 550d 643f fb07 a43d
000002e0: db1a c2bf 9507 6bc0 4596 82c0 3635 90bf
000002f0: 61d3 3fc0 cebb f4bf 76f2 30c0 2e73 f73d
00000300: 33f2 c3be 2f82 073e b7e0 5c3e 64af 233e
00000310: 0615 2dbb 8581 9dbc 1bc1 7f3e 258e 11be
00000320: cb66 fa3d 156f 183d 9f2e 3f3d e26b 533e
00000330: e4fe f9bd ec89 7d3c 74ab 83be b8ce c5bc
00000340: a5e0 163e cc22 7dbe 291d c1be 2e06 14bf
00000350: e847 bdbe 96c5 14bf e4b8 f4be 0517 03bf
00000360: fef6 1bbf d5ee 0abf da19 d3be 31cf cabe
00000370: af9e 373d cba3 f43d 7bb1 ffbc bba4 65bc
00000380: 5bbd 703f fbee 7b3e f92c 4840 ae0f a1be
00000390: 7bb5 f6bf 12cf 6f3f 1db4 963f cbd1 fd3e
000003a0: f6cf 183f f77e 3240 8d42 983f 4be5 6740
000003b0: 06b7 923f d3a5 793e 5547 8fbf 48bb 3cbf
000003c0: 4cc8 70bf aca9 ffbf cc77 f3bf 5c87 f9bf
000003d0: a565 05c0 be0d 13c0 4a59 ddbf f21c d6bf
000003e0: de5b 933e 6f54 a1bf cf38 a3be 8fcf 3fbf
000003f0: 15bb 1c41 32ad d840 3afe 54c1 7701 30be
-10.953436 -33.861954 8.103665 1.0837923 -5.9022484 -0.9558151 -2.8582363 -0.3312263
0.63127935 -0.179209 -1.206888 -2.3482585 -0.9221741 0.18980372 1.8558161 4.4674435
4.3695965 0.29523697 -2.86701 -3.951148 -2.327993 -0.45165166 -0.6195015 0.5451267
0.20475854 0.09930069 -0.12802047 0.13226433 -10.309324 -25.846552 29.801397 12.650597
-7.6250625 0.26558962 -0.73385906 0.097269654 0.8051105 1.295079 -0.13924402 1.2033831
-1.4083279 1.3621938 -0.7314152 0.520665 1.6360657 1.2791528 0.08298092 -1.294483
-2.2806427 -1.8016474 -0.3029081 -0.11979129 0.84855044 1.6622201 -0.15709566 -0.15579328
14.623942 16.370981 -4.2904415 -7.5702267 -0.14313623 -0.6693191 1.1795651 0.38448906
-0.53317004 11.06063 1.260723 2.5204446 0.3851209 0.5140131 -1.4613047 -1.0723244
-0.64600176 -1.2572659 -0.74901056 -1.0346781 -1.5377179 -0.10290529 -0.11579033 -0.18939246
-0.47515976 -0.43829426 0.10316903 0.49541342 -0.1942711 -45.715755 1.3958348 31.560356
-5.97015 -2.5645044 -0.13659163 -0.035503916 -0.74781847 -3.3449442 -1.0918746 0.22176972
0.19696523 0.059565585 0.2866718 1.3851298 0.9067842 0.79484653 -0.17750132 0.91394866
0.08468561 -0.9166309 -0.7834025 0.3663275 -0.3952537 1.571454 -0.23747258 0.094118066
-5.5135303 -1.8747466 -0.76524687 11.587059 -2.392509 -1.0678421 -5.218654 0.9547899
1.0276446 4.5610948 0.26697242 -0.40258506 -0.05330411 0.57411844 -0.2882871 -1.2309921
-1.2641562 -1.5534536 0.054888107 -0.7371373 -0.815601 0.15047653 0.39354897 0.7971473
0.45344573 -0.021153893 0.3461573 0.06340078 5.045562 -9.63374 19.803064 8.402737
1.3106477 0.14473362 2.2030613 0.61373174 -0.114796415 -3.240612 -0.37304494 0.790412
0.22797757 -0.0036862483 -2.6111867 -3.2731328 -2.4035716 0.15112324 4.42367 3.766898
-0.7661291 -1.4960184 -3.980092 -1.7549413 0.31232563 0.1534389 -0.5500381 2.054765
3.8783743 -17.973946 -6.3751974 11.652308 -1.742442 -1.0793934 -0.37448034 0.586827
7.513672 -2.1656365 5.104193 -2.4607642 4.6745396 -1.2746384 0.89082843 0.08009335
-1.5164446 -3.6723378 -4.0808434 -1.1266239 -2.9972765 -1.9119813 -2.7647986 0.12082516
-0.3827072 0.13233255 0.21570097 0.15984875 -0.0026410236 -0.019226799 0.24976008 -0.1421438
0.122266375 0.03721531 0.04667532 0.20646623 -0.1220682 0.015474778 -0.25716746 -0.024146423
0.14734133 -0.24720305 -0.3771756 -0.5782193 -0.36968923 -0.5811399 -0.4779731 -0.51207
-0.60923755 -0.5427068 -0.4123066 -0.396112 0.044829067 0.119453035 -0.031212559 -0.014016326
0.94038934 0.24602883 3.127745 -0.31457275 -1.9274133 0.9367534 1.1773716 0.49574122
0.59692323 2.7889993 1.189531 3.62337 1.1462104 0.24379663 -1.1193644 -0.7372327
-0.9405563 -1.9973655 -1.9020934 -1.9494433 -2.084329 -2.2977138 -1.7292874 -1.6727583
0.28781027 -1.2603892 -0.3187928 -0.74926084 9.795674 6.771142 -13.312067 -0.17188059

l1.bias f4 [64]
00000000: c952 5c40 56fa 9f3f 14c9 70c0 0a83 6e3e
00000010: 2c67 883f e189 4ec0 20bf 873f 0a89 54be
00000020: e24e 5cc0 ee89 af3f 1f0e a1bf 4cbf febe
00000030: 20c7 30bf 4402 fbbe aea1 11bf ae75 10c0
00000040: fc43 f2bf 145b 7abf 1d8d 95bf 5c24 7dc0
00000050: 7b72 7d40 d8b8 45c0 2dce 573d 2904 c1c0
00000060: 0de9 8fbe 5481 7dbf 103b 83c0 966d 92c0
00000070: bc9b 73be 7e33 14c0 fc41 8340 a761 55bf
00000080: ac46 683e 1c1b 0ac0 8821 c3bf a32d edbf
00000090: 0679 14c0 20b5 b3be 4886 c9bf e4e8 05c0
000000a0: 4fba a040 6019 aec0 b652 543f bc89 76be
000000b0: f5de 09bf 6e22 153f 6cd8 8b3f 5604 96bf
000000c0: 137e 1ec0 beb0 2e3e f13c 40bf cff6 76c0
000000d0: 8aaf 58c0 8725 a4be 9518 83be ef8b b7bf
000000e0: 2589 1640 21d9 46be bcfa 38c0 160b 18c0
000000f0: cc19 0b3e 96fc 6cbd 8868 b6c0 1403 4b3f
3.4425528 1.2498271 -3.7622728 0.23292175 1.0656486 -3.2271655 1.0605202 -0.20755401
-3.4423146 1.3713968 -1.2582434 -0.49755323 -0.6905384 -0.49025166 -0.5688733 -2.2571826
-1.8926997 -0.97795224 -1.1683689 -3.9553442 3.9601123 -3.089407 0.05268686 -6.031758
-0.2810749 -0.99025464 -4.10096 -4.575877 -0.23789877 -2.3156428 4.1018047 -0.8335213
0.22683209 -2.1579046 -1.5244608 -1.8529552 -2.3198867 -0.35099125 -1.5744104 -2.0923395
5.0227427 -5.4405975 0.82938707 -0.24075979 -0.5385583 0.5825566 1.0925422 -1.1720073
-2.476445 0.1705961 -0.7509299 -3.858814 -3.385714 -0.3205988 -0.25604692 -1.4339579
2.3521206 -0.19418766 -2.8903036 -2.3756766 0.1358406 -0.057858072 -5.70026 0.7930157

l2.weight f4 [128, 64]
00000000: 362a a4c0 d64a 9dc0 2ee3 9dc0 7e49 21c0
00000010: d12c d73f 7499 86c0 399b d83c 8084 453c
00000020: 55d3 00bf 6a18 60c0 c3af f53d 8f74 b1c0
00000030: 761e a73e b43f fd3f 35fd 05be 1f39 b73f
00000040: 6efa 2fc0 a851 b2be 0f07 a4c0 c1a8 d9bf
00000050: 7245 e23c 5075 b4bf 5697 a3be c3e3 7dbf
00000060: d0f0 43bc 5c30 7bbf c81e bbbf 0be0 ebbf
00000070: 0f45 bb3d 9c5b 79bf 1b19 69bf a91c d8bf
00000080: 2c21 83c0 9253 43bf 8dfc 12c0 797c c1bf
00000090: 2f99 3a3f e089 35be 3fa1 22bf a0c0 c83f
000000a0: 3fb2 b440 fe4d 9ac0 2741 a23f a3d5 ea3d
000000b0: 96ae 9cbf 9814 3e3e 8b2e 7abf a6bb 98c0
000000c0: 22f7 dabf 11eb 49bf 972f 2dc0 38ca 33c0
000000d0: 3230 58bf 83f8 ecbf 46a4 92bb 1da9 0340
000000e0: 6065 b9c0 9bd9 64be 4159 c7be 62d3 e1bf
000000f0: 5b23 60bf f6b9 a4bf 48dd 47c0 b77a a1c0
00000100: f696 95bf e88a b63f 07c3 29c0 aa5b 5abf
00000110: 1f6c 22bf f45e fd3e a070 34c0 3eab 18be
00000120: 7f71 2bbe 3aa1 d7be ee4d 20c0 3a65 61c0
00000130: 2f97 b2be 235a f03f 006d 4b3d a498 0940
00000140: 62b2 5ac0 791a c93f 7653 9abf 3c02 7ebe
00000150: 1cde 76c0 eca3 01c0 bcf0 823e c8ee 423f
00000160: f85c f63d 1b92 f2bf a3c3 6dbf 4996 d73e
00000170: cb28 633d 4601 29c0 5967 ddbf 8a4d 60c0
00000180: dc41 f6bf 6b38 7cbd 2eaf 15c0 5c11 7cbf
00000190: fe71 2dc0 4c8d 7ebd 6685 a03f d0c6 35bf
000001a0: e29c 683f a4f7 8ebf efba 2bc0 c5a7 073d
000001b0: 66fb 9dbf c15d c03e eda9 99bf fdb3 093f
000001c0: bdc4 81bf dd8e 17be cb73 7cbf 4f2c bcbf
000001d0: 152d 8a3d 04ff 86bf afa5 babd 05d8 00c0
000001e0: 4bee f2bf 391e 583d 1e62 13c0 4dac 96c0
000001f0: 393f c6bf c049 bbbf 397a d1bf aa9b 603f
00000200: 07bf b2bf e3bd efbf fda4 18bf 174e 2ac0
00000210: 868f 23c0 ef25 2fbf 3ef1 1dc0 fd46 97bd
00000220: 5dc7 98bf 9b29 f9bf ca63 d5bf 23f0 703f
00000230: 8b7f 603f 2427 05c0 2ece ad3d b57e 983e
00000240: d2f7 6340 11d7 ddbf 7d44 0dc0 1ea4 21c0
00000250: afdb b1bd 38be 4ebe 914e c8bf a712 b0bf
00000260: 929c d4bd 7273 6bc0 02fb ddbf cb87 e8bf
00000270: 4e2e 92bd 52a3 efbe 7587 09c0 60e6 493e
00000280: 9089 3ac0 8693 9abf b878 b2bf cd3c 81bf
00000290: 42ff 5540 4ad0 debd 4082 bc3f 032a 6bc0
000002a0: 034f e9bd 220c fd3e 5d2c 04c0 43f5 783d
000002b0: ff08 b2bf 3e33 ac3e 9d89 9bbf 0506 0ac0
000002c0: 3663 a73e 14fe fcbb 148c 76c0 79ff 40c0
000002d0: 3ccc 863f c6a1 a1bf 8c31 86b8 afd7 babc
000002e0: 4d91 0ec0 ca74 e73d b49c fabe ec6c 0640
000002f0: 1dee 9d3e 6a93 d8be 5300 ed3d 17fe aebf
00000300: b1d1 d4bf 3c51 75bc bac5 ecc0 cb1a 763f
00000310: b072 4fbf 7160 d13f 409e 48be d32b ec3e
00000320: 8ec2 a440 a376 febf ff40 b13f ce38 23c0
00000330: 968f 1dbf 2f00 aebf 8fbb ba3e 5f30 ad3e
00000340: bc13 f93f 5bb6 edbe 4b1c 90be ad4a 933f
00000350: 8bee f33f 4689 2340 eca8 7cbe 3572 983f
00000360: 6db9 8cbd 6d9f 88c0 dc16 48c0 7e9f 1bbf
00000370: b396 fb3e 658b 0640 056e 1ac0 e19b b7c0
00000380: 1d7f adbf 1df4 1c40 22a4 f13e 5909 c3bf
00000390: 2fb8 b93f d515 913e 2d2e 9e3e 264a adc0
000003a0: db9d f4c0 982c 3ac0 3fea 33c0 92f2 673e
000003b0: c6fc 16c0 95d9 e9bf cfcf b0c0 4a10 e53f
000003c0: fc58 42bf 15ae 81bd 19be c1bf 105d b7bf
000003d0: 5073 45c0 3f24 3bc0 2aae 5fbd fd0d 14c0
000003e0: 5662 97c0 ee6d 23be d717 323f 78b3 3cbf
000003f0: fb4b 79c0 20ac 0b3f 3a30 eebf 695a 9b3e
-5.1301527 -4.9153852 -4.933982 -2.5201106 1.6810552 -4.206232 0.026441203 0.012055516
-0.5032247 -3.50149 0.119964145 -5.5454783 0.32640427 1.9785066 -0.13084872 1.4314307
-2.74966 -0.34827924 -5.1258616 -1.7004625 0.027621005 -1.4098301 -0.31951398 -0.9917566
-0.01195927 -0.98120666 -1.4618769 -1.8427747 0.09144031 -0.9740541 -0.9105393 -1.6883746
-4.0977993 -0.76299393 -2.2966645 -1.5116111 0.7288999 -0.17728376 -0.6352729 1.5683784
5.6467586 -4.8220205 1.2676133 0.11466529 -1.2240779 0.18562543 -0.9772727 -4.7729063
-1.7106669 -0.7887431 -2.7060297 -2.8092175 -0.8444854 -1.851334 -0.0044751493 2.0571969
-5.793625 -0.22348635 -0.38935283 -1.7642634 -0.8755395 -1.2869251 -3.122881 -5.04623
-1.1686695 1.4261141 -2.6525285 -0.8529612 -0.6344623 0.49486506 -2.819374 -0.14909074
-0.16742514 -0.42115194 -2.5047565 -3.5218034 -0.3488097 1.8777508 0.049664497 2.1499414
-3.4171376 1.5711204 -1.205672 -0.2480554 -3.8573065 -2.02563 0.2557429 0.761456
0.12029451 -1.8950838 -0.9287664 0.42106846 0.055458825 -2.6407027 -1.7297164 -3.5047326
-1.9238849 -0.061577242 -2.3388171 -0.9846399 -2.7100825 -0.06214647 1.254071 -0.7100649
0.90864384 -1.1169324 -2.6832845 0.033118982 -1.2342346 0.3757153 -1.2004982 0.53790265
-1.0138165 -0.14800592 -0.98614186 -1.4701022 0.0674688 -1.0546575 -0.09113633 -2.0131848
-1.8978971 0.052763198 -2.3028636 -4.708533 -1.5488044 -1.4631882 -1.6365424 0.87737525
-1.3964547 -1.8729824 -0.5962675 -2.6610162 -2.555635 -0.6841726 -2.4678493 -0.07386587
-1.1935841 -1.9465822 -1.6671078 0.9411642 0.87694615 -2.080514 0.08486591 0.2978417
3.5620008 -1.7331258 -2.2073052 -2.525642 -0.086844794 -0.2018975 -1.5648977 -1.3755692
-0.10381426 -3.6789212 -1.7342227 -1.8166441 -0.07137738 -0.4680429 -2.1488926 0.19716787
-2.9146461 -1.207627 -1.394309 -1.009668 3.3437047 -0.10879572 1.4727249 -3.6744392
-0.113920234 0.4942332 -2.0652077 0.060780775 -1.3908995 0.33632845 -1.2151371 -2.1566174
0.3269288 -0.007720718 -3.8522997 -3.0155928 1.0531077 -1.2627494 -6.398847e-05 -0.022807924
-2.2276185 0.113015726 -0.4894768 2.100398 0.3084573 -0.42299968 0.115723275 -1.3671292
-1.6626493 -0.014972981 -7.3991365 0.9613463 -0.81034374 1.6357557 -0.19591618 0.46127185
5.1487494 -1.9879955 1.384796 -2.550342 -0.6154722 -1.3593806 0.3647122 0.33825967
1.9459147 -0.4642819 -0.28146586 1.1507164 1.9057173 2.5552535 -0.24673814 1.1909853
-0.06871305 -4.269461 -3.1263952 -0.6079024 0.49138412 2.102258 -2.412965 -5.737778
-1.3554417 2.4523995 0.47195536 -1.5237228 1.4509333 0.2833697 0.30894604 -5.4153013
-7.6442695 -2.9089718 -2.8111722 0.22651127 -2.359178 -1.8269526 -5.5253673 1.7895596
-0.7591703 -0.06332032 -1.5136138 -1.4325275 -3.085163 -2.9240873 -0.054609455 -2.3133538
-4.730754 -0.15959904 0.69567627 -0.7371135 -3.8952625 0.54559517 -1.8608468 0.30342415

l2.bias f4 [128]
00000000: 7313 6240 9fee b83f 5588 1940 ccd3 a240
00000010: 1a02 58be ee72 9ec0 6ee9 1dbe a629 2840
00000020: 6124 48be 8b8d e6bd 2acc 5abf 0873 473e
00000030: ee78 1dbf e7a6 29be affd a3be ef79 c23f
00000040: eba4 6cbd 9039 3fbf 3e34 c8bf 82c2 eec0
00000050: 8106 c1bd 91a9 d63e 5846 3dbf 4f4a 1541
00000060: dfea 29c0 6c74 79be 22c8 49c0 e673 0cbe
00000070: f113 cbbe 4713 a6bf df2b 34c0 f594 0dc0
00000080: dcff 8040 3627 18bf 5a7e aebf d0ad b5bd
00000090: 3d7e e340 5383 6cbe ad7b 8abf cf81 8340
000000a0: 739f 6cbf 3788 25bd b264 afbf a812 b0be
000000b0: 306e 3dc0 1521 8cbd 5939 d4c0 f2a7 5cbf
000000c0: 874b 26c0 dcbc 0740 f551 9440 392d c9bb
000000d0: 799b cb40 a4e4 9c40 d23a ddbf 6c1d 8d3f
000000e0: 1a5a ba3e 6883 b13f 07e8 27bf 67f9 593f
000000f0: 6038 b4c0 352a 0bc0 48f2 373e 5c8c f4bf
00000100: 4646 2ac0 e0fb 7940 5557 04be fa17 d8bf
00000110: b890 473e dff2 b040 1e9f 263f 6b9e ebbf
00000120: ab47 6ec0 ebad 1641 3d3e 8dbf fe2c 93be
00000130: 89b0 43c0 3e2d c33e b6da 91be a9f2 de3f
00000140: d6ab 11c0 eeaa 1dbe c217 54bf aed6 9dc0
00000150: 2440 053f 541a 0ac0 bec3 afbf 9e11 af3f
00000160: ffb3 3bbf 085b 3240 e07c 4b3f 27ec 15bf
00000170: 1b39 6cc0 c6b7 15c0 b71c 80be f5c9 cebf
00000180: 7848 b9be 325c 59c0 86ca 15be 46bf 9ac0
00000190: 00d1 4bbf 6e44 93be 544d 75c0 4f28 2cbf
000001a0: 4662 1dbe 2e76 92c0 d1a0 4cc0 8bde e5bf
000001b0: bc50 8c3e 13a9 edbf 26c7 94c0 78c9 4940
000001c0: 7915 4ebe 8640 2c40 dd37 1940 54cb 79c0
000001d0: 3d04 06c0 e258 6b40 61c4 0f3f 99cb 45bf
000001e0: 55cf 09be 655b 8ebe ff47 b43f 264a d7bd
000001f0: a13e 4a40 8cbe 593f fe9b a63f 6d48 8abe
3.532437 1.4447821 2.398946 5.088354 -0.21094552 -4.9515295 -0.15421078 2.627542
-0.19545127 -0.11257466 -0.8546778 0.19477475 -0.6151265 -0.16567574 -0.32029483 1.5193461
-0.057774466 -0.7469721 -1.5640943 -7.4612436 -0.09425069 0.41926244 -0.7393546 9.330642
-2.6549604 -0.24360818 -3.1528401 -0.13716087 -0.39663652 -1.2974633 -2.8151777 -2.2122166
4.031233 -0.5943483 -1.363231 -0.08871043 7.10916 -0.23096971 -1.0818993 4.109596
-0.924308 -0.040413108 -1.3702605 -0.34389234 -2.9598503 -0.068422474 -6.6320004 -0.86193764
-2.5983598 2.120902 4.6350045 -0.006139424 6.3627286 4.90291 -1.7283576 1.1024604
0.36396867 1.3868227 -0.6558842 0.8514618 -5.6318817 -2.174451 0.17963517 -1.9105334
-2.6605392 3.9059982 -0.1292394 -1.6882317 0.194888 5.5296474 0.65086544 -1.840772
-3.7231243 9.41746 -1.1034619 -0.28745264 -3.0576499 0.38120455 -0.28487176 1.7417804
-2.276113 -0.15397236 -0.8284875 -4.932456 0.52050996 -2.157857 -1.3731611 1.3677251
-0.7332153 2.786806 0.7948742 -0.58563465 -3.6909854 -2.3393416 -0.25021908 -1.6155382
-0.36188102 -3.3962522 -0.14628038 -4.835849 -0.79615784 -0.28763145 -3.8328447 -0.67249006
-0.1536952 -4.576926 -3.1973155 -1.795854 0.27405345 -1.8567222 -4.64931 3.1529217
-0.20125379 2.6914382 2.3940346 -3.9030352 -2.0940087 3.6773 0.56159025 -0.7726379
-0.13457997 -0.27804103 1.4084471 -0.105121896 3.1600726 0.85056376 1.3016355 -0.2700838

l3.weight f4 [256, 128]
00000000: 42e0 56bc 04bd 78bc 35f8 0abe b8b7 b4bd
00000010: 7ff3 a6bc ddb9 943b 4efb 6a3d ddcb adbd
00000020: 613c 443d d473 27bd e74b 8bbd 6cad f5bc
00000030: 514d 43bc 23bc 68bd c2d5 debb 1759 3d39
00000040: 887c adbc 95df 9bbd fdec 8cbd cb3a 80bd
00000050: fe4c 3d3d a0ce b5bd 6ddf 0ebe b6f6 9dbb
00000060: f1e7 20bd 2a4f 5abc a254 abbd 7def 993d
00000070: 3904 58bd ff9b 26bd 4811 adbd b737 28bd
00000080: facb d3bd 80ca cebb f5fc 04bd 0eab 2a3d
00000090: 8876 3cbd e3dd 8ebd 3f0b 22be ec0a 75be
000000a0: a735 a6bc 8753 2dbc bc8d a0bc 3ee3 a9bd
000000b0: d843 b3bb 7cb2 853c 0e11 9a3a 8f60 2cbd
000000c0: f4f3 f9bc c5eb 84bd 1ca9 03be 7f3e a7bd
000000d0: 4264 dabd 7784 afbc 6eaa 9bbc c86d 32bd
000000e0: e07e bbbd 289e 46bc 2df3 8b3d 0790 a5bd
000000f0: 565a 293c adbd 1d3c dbc5 793c 197a 3dbd
00000100: 2317 f7bc 78e1 d0bc 5634 5e3d 56e4 ab3c
00000110: 897e aebd 4d24 83bd 5612 1cbe f692 9ebd
00000120: b42a f4bd d5e6 83be 3388 733b 0469 59bd
00000130: fd83 91bd fe39 1abd 9a2a 643d 5c03 8fbd
00000140: 6b79 edbd b6ea 62bd 3fa1 a2bd c2a4 abbd
00000150: 2ad4 613c 3646 17bd 1021 c1bc a8a5 bdbd
00000160: c474 8338 71af 48bd ea98 55bd 32ac ed3b
00000170: 493f c0bd 23cf 8dbd 24a8 32bd 3e13 90be
00000180: 9235 6cbd 753f 15be e09a b83b 780e b2bd
00000190: 1280 dfba 46e4 20bd 3b46 e2bd 6d1b 85bd
000001a0: 805d 53bc a5ee 03be 9d55 13be 27d4 44bd
000001b0: 0eac 7dbd 824f 2abd 4e36 99bd 7deb 9f39
000001c0: 0a06 55bb 2973 d4bd c978 de3c cba1 ecbd
000001d0: 308a b0bd fe2c 93bd 58cd 33be 8017 0a3c
000001e0: 4934 883d 227a 1bbd 52b6 57bd 3292 e93b
000001f0: 400e 47bd 054b 8b3c 2b9c 62bd cb56 49bd
00000200: 0553 92bf c825 3e3f 21d1 583f 8563 89bd
00000210: 3691 173e 9adb 53bf 6f69 aa3d a088 30bf
00000220: 381c 37bd 4dc0 82bd a499 8dbf da5b e1bf
00000230: c239 df3d 4a77 583d cb96 72bb c358 f73e
00000240: ce10 993c ff36 a2bf 8545 0ebf e846 39bf
00000250: 8454 b63c 2d5f 81bf c43f f7bf 1f75 adc0
00000260: de8e 173f 7ee6 a43e f4ad 8dbf c736 903d
00000270: 6603 a53d 411b 4940 ebf7 f3bf 82b5 da3c
00000280: 88bf 4dc0 1515 8e3f c019 433f 4e37 9d3d
00000290: 9ace 6abf 8d3d 04bf 2259 d3be f3e2 e7bf
000002a0: ef5b a6bf e025 4e3c 9330 7fbf eeac 253e
000002b0: a61e ae3f 3929 863d 2812 c73f 6e4a 2b3e
000002c0: 82f4 5cc0 38d5 46bf 43ed f13f 549e 8dbf
000002d0: f8ac 3bc0 8dfa 8abf 803c b83f 0230 d1be
000002e0: 50ec b5bd 6d01 1abf aed3 2a3d cfee 26c0
000002f0: 8e82 1ebf 96b5 1fc0 8846 44bd c0c8 43c0
00000300: 54cd 01bf d628 12bf 1ae8 d33d bcd9 0a3d
00000310: f86b 31bf 2f67 a1bd c8c0 393f bf51 a9bf
00000320: a56d 8cc0 34fb 7dbf 61dc 533f 2c19 fc3b
00000330: e714 203f 1679 a73f 70cc bf3d 0fc2 22c0
00000340: b8b7 4d3e f717 833d 712c c9bf 8785 2dc0
00000350: 2bee e53f c65a 18bf cea1 9e3e 4a8c 61bf
00000360: 7de2 943f 3512 0fc0 c88e b9bf ac55 f4bf
00000370: 78ec 3fbf c5fa 0e40 cb71 74be 1a50 643f
00000380: 9ca8 813d 308d 3c3e 3692 9bbd c744 3dc0
00000390: 8145 5c3f 317b d8bf e349 e1bf 85a6 0240
000003a0: 408f 293c 6308 6ec0 9894 4ac0 984c 3dbb
000003b0: 9ad6 713f 6767 25c0 45b6 8f3e 17d1 29c0
000003c0: cb48 663d 079c 3cc0 dfbc 393f 5c73 8d3e
000003d0: fbdc fe3e f980 53c0 71a1 5bbe 068d 19bd
000003e0: de39 a1bc 56a5 103d cf24 373c c516 02c0
000003f0: adef 043f a627 80bf 74fc 02c0 1e2b 98bd
-0.013114991 -0.015181784 -0.13571246 -0.08824104 -0.02037978 0.004538758 0.05736857 -0.084861495
0.047909144 -0.040881947 -0.068015866 -0.02998992 -0.011920289 -0.056820046 -0.0068003843 0.00018057633
-0.021177545 -0.07611004 -0.068811394 -0.06261214 0.046216004 -0.08877301 -0.13952418 -0.00482067
-0.039283697 -0.013324538 -0.08365752 0.07516382 -0.052738402 -0.040676113 -0.08450562 -0.04106876
-0.1034164 -0.006310761 -0.0324678 0.041667037 -0.046011478 -0.06975915 -0.15824603 -0.23929948
-0.020289255 -0.0105789965 -0.019598834 -0.08295296 -0.005470734 0.01632046 0.001175435 -0.042084273
-0.030511834 -0.06490282 -0.12857479 -0.08166217 -0.10663654 -0.021425469 -0.019002166 -0.043561727
-0.09155059 -0.012122668 0.068334915 -0.08084112 0.010336479 0.009627742 0.015244926 -0.04625902
-0.0301624 -0.025498137 0.05424913 0.020982902 -0.085202284 -0.06403408 -0.1524137 -0.07742874
-0.119222075 -0.25762048 0.0037160038 -0.053078666 -0.07105253 -0.037652962 0.05570469 -0.069830626
-0.11595424 -0.05539962 -0.079409115 -0.083810344 0.013783494 -0.036932193 -0.023575336 -0.09260112
6.268316e-05 -0.04899544 -0.052147783 0.0072531933 -0.09387071 -0.06924274 -0.043617383 -0.2813968
-0.057668276 -0.14574988 0.005633697 -0.08694166 -0.0017051718 -0.0392802 -0.11048552 -0.06499372
-0.01290071 -0.12884004 -0.14388128 -0.048053887 -0.061931662 -0.04157973 -0.07481061 0.00030502296
-0.003250482 -0.103735276 0.027157204 -0.11554297 -0.08620107 -0.07186316 -0.17558801 0.008428454
0.066505976 -0.03795827 -0.05266411 0.0071280235 -0.048597574 0.017003546 -0.055324715 -0.049155038
-1.1431586 0.742764 0.84694105 -0.06708435 0.14801487 -0.8275696 0.08320891 -0.68958473
-0.044704646 -0.06384335 -1.1062512 -1.7606156 0.10899688 0.052848138 -0.003701615 0.48309907
0.01868477 -1.2673033 -0.5557483 -0.7237382 0.022257097 -1.010717 -1.9316335 -5.420547
0.59202373 0.32207102 -1.1068711 0.07041698 0.08057289 3.1422884 -1.9060034 0.026697878
-3.2148151 1.1100184 0.76211166 0.07676564 -0.917215 -0.5165642 -0.4127894 -1.8116134
-1.2996806 0.012582272 -0.99683493 0.16179249 1.3603103 0.06550831 1.5552416 0.16727611
-3.4524236 -0.77669096 1.8900532 -1.1063943 -2.9324322 -1.0857712 1.4393463 -0.4085694
-0.08882964 -0.60158426 0.04170578 -2.6083257 -0.6191796 -2.4954581 -0.047918826 -3.0591278
-0.5070393 -0.5709356 0.10347004 0.033899054 -0.6930537 -0.07881009 0.72559786 -1.3228072
-4.3883843 -0.9921143 0.82758147 0.0076934304 0.62531894 1.3083827 0.09365165 -2.5430944
0.20089614 0.06401055 -1.5716687 -2.7112749 1.7963308 -0.5951351 0.30982822 -0.8810469
1.1631619 -2.2354863 -1.4496698 -1.9088645 -0.749702 2.2340558 -0.23871534 0.89184725
0.06330988 0.18413234 -0.07596247 -2.9573228 0.86043555 -1.6912595 -1.7600673 2.0414135
0.010349095 -3.719262 -3.1653194 -0.0028884765 0.9446808 -2.5844362 0.28068748 -2.6533868
0.056221765 -2.9470232 0.7255382 0.27627075 0.4977797 -3.3047469 -0.21448304 -0.037488006
-0.019680914 0.035313927 0.011178209 -2.0326397 0.51928216 -1.00121 -2.0466585 -0.07430099

l3.bias f4 [256]
00000000: 12e7 52bf 368a 2d41 182f c4bf 883a c6c0
00000010: b1e1 c9c0 bd61 85c0 9f65 a1bf 0c96 88c0
00000020: cdb9 01c0 ac83 fdc0 83ae f0c0 10b8 c640
00000030: 4a40 5dbf 46c0 1ec0 ce14 90c0 c16c 4ac1
00000040: 6ad6 51c0 90c0 35c1 27c7 adc0 8da9 0bc1
00000050: 3439 9ec0 dd76 9b40 7bec 71c0 1e5e 9cbe
00000060: b6b5 93bf 6d8e 8fc0 4366 fbbf e0bb cebe
00000070: 2dab 05c0 ccea a1c0 7a4b debf 2cd4 7abf
00000080: 70b1 ab41 ab82 00c1 add3 11c1 f00f 3bc1
00000090: 09f6 46c0 7366 69c0 98c6 b1bf b7ac a1bf
000000a0: c151 c2c0 6e95 abc0 d5a9 09c0 623d e1bf
000000b0: 2f71 b041 26ff 18c0 a4d0 88c0 d8af 3ac1
000000c0: 40c9 c540 9f6b 20c0 942e f7c0 af7d 30c1
000000d0: d9a4 40c0 43a1 edc0 d402 77c0 188d c5bf
000000e0: 5cd4 05bf 082a 4f3c 65f1 8ec0 4b58 7240
000000f0: c16c 4abf ffd8 a0c0 e429 77c0 cd54 16c1
00000100: 564a 1bc0 8a8c e2bf 4e48 96c0 5030 b3bf
00000110: 8f03 2fc1 77c2 adbe af99 e540 9ff1 abc0
00000120: e18c dabe 0706 bcbf 9960 c2bf ab74 73be
00000130: 7371 e3c0 51e3 5cc1 56f2 98c0 3068 bec0
00000140: 82f4 5cbd 32b3 d7c0 37ad 23c0 ac3c 74c0
00000150: ccc0 9040 6bd1 efc0 2ff3 c23f ee0b 12c1
00000160: b185 50c0 7b09 69c0 fc31 f5c0 688a b4bf
00000170: 06b9 9ac0 e296 d0be 0315 e2be a357 66c1
00000180: eb38 e5be a938 4bbf adcb 8ac0 3385 d6c0
00000190: 203f 36c0 50aa 40c0 3f1f 27c0 fdde 1fc1
000001a0: 06eb 9ac0 b4e3 83c0 a2bd 55c0 51f1 49bf
000001b0: cd3f 8dc0 33bd e6bf d597 0cc0 40a7 babf
000001c0: f9ff c2c0 94c6 7fc0 ee62 90bd 19b2 43c0
000001d0: 0f8f 373e d30f 60c0 3df9 8bc0 5c1d 7ac0
000001e0: f835 3ac0 7c7c 8cc1 d556 fbc0 f320 66c0
000001f0: aa7f 54bf 7c52 fabf bb23 eebf efe3 7341
00000200: 4156 d0c0 46ee 61bf bde4 c4bf 8c7a 7ec1
00000210: 93bf e3bf 8f5a adbf 6043 ba41 e189 4ebe
00000220: fcce f8bf c8ac 34c0 de55 94c1 8f4b 23c1
00000230: 075f a9c0 76a9 94c0 44c3 78bf 6166 56be
00000240: 5684 a2c0 54ab f6c0 7fdf a1c0 fc2f 06c1
00000250: e493 0fc0 0d24 02c0 4256 6dc0 ac6b 8141
00000260: bec4 9ac0 53cd 68c0 e56a 01c0 02bd 5fbf
00000270: 5a9c 50c0 ec1d f6c0 f903 d3bf fa5c 59c0
00000280: 1280 5fc0 0b8e e8c1 18f0 e8c0 3d1e 8a40
00000290: 1ca7 7bc0 8e6c 2ac0 664b 99c0 7a70 5cc1
000002a0: 539b 68c0 97e9 27c1 9b2b 68c0 d4df 8041
000002b0: f0bc 4c3f 101d ca3f 3cc6 a4bf 1128 c4be
000002c0: 4ada d4bf 0173 cabf ad4b 9741 d73f 23c0
000002d0: 8d68 01c0 f94d cfc0 8be5 68bf bf27 f241
000002e0: 84e4 8041 c86a 3fc1 557d 04c1 9bc0 fd3e
000002f0: a653 213d 0a65 5ac0 2891 36c0 cf1f 3cc0
00000300: 8bde 65bf baac b941 6571 10c0 d456 f9bf
00000310: 9e48 91bf b01a 34c1 a61e 95c0 db49 64c0
00000320: 1956 4ac0 f9b2 16bf e6d0 a2c0 d8f9 36c1
00000330: 3f94 80c0 aa88 5fc0 6b0f eebf b79b 28c0
00000340: 5e21 a33f dcc4 8ec0 6942 40c1 7073 39c0
00000350: bfb9 39c0 5af5 56c0 477d bec1 373f adc0
00000360: eb37 e1bf 6446 d741 e23b dbc0 804f b9bf
00000370: 8f93 30c0 85a2 8bc0 fa2d 15c1 0916 4abf
00000380: bef5 96bb 9202 dd41 9683 9fc0 68a9 cc3d
00000390: 7620 96c0 ce33 a841 01d5 c2c0 575f 3d3f
000003a0: 29d2 40c1 70bc 31c0 25aa 04c1 c95e c1c0
000003b0: 5d3d 96c1 7c75 0941 6a51 7c40 6ebd 9cc0
000003c0: 9db5 83bf be2c ab3e 03bf e7c0 74f2 73c1
000003d0: d0b9 b3c0 9dd0 1f41 88d9 b8c0 07bd aac1
000003e0: 2a10 58bf e110 45c1 d51d 46c1 1822 1bc1
000003f0: fd22 04c1 e63c 11c1 381c 37c0 545b 7bc0
-0.82383835 10.846243 -1.5326872 -6.194645 -6.3088 -4.168181 -1.2609137 -4.2683163
-2.0269654 -7.922323 -7.5213027 6.2099686 -0.8642622 -2.4804854 -4.5025396 -12.651551
-3.2787118 -11.359512 -5.4305606 -8.728894 -4.944483 4.8582597 -3.7800586 -0.30540556
-1.1539829 -4.486136 -1.9640583 -0.40377712 -2.0885727 -5.0599117 -1.7366784 -0.9798
21.46164 -8.031901 -9.114179 -11.691391 -3.1087668 -3.646878 -1.3888731 -1.2630833
-6.0724797 -5.361991 -2.1509907 -1.7596858 22.055265 -2.390573 -4.275469 -11.667931
6.1808167 -2.5065687 -7.724436 -11.030684 -3.0100615 -7.4259353 -3.8595476 -1.5433683
-0.5227716 0.012644298 -4.466967 3.786639 -0.79072195 -5.026489 -3.8619318 -9.395703
-2.426412 -1.7699139 -4.6963263 -1.3999119 -10.938369 -0.33937427 7.17501 -5.373245
-0.42685607 -1.4689339 -1.5185729 -0.23774974 -7.107599 -13.805497 -4.779582 -5.950218
-0.05394412 -6.7406244 -2.5574472 -3.816203 4.523535 -7.4943137 1.5230464 -9.1279125
-3.2581599 -3.6412036 -7.6623516 -1.4104738 -4.835086 -0.40740114 -0.44156656 -14.396396
-0.44769987 -0.7938333 -4.337363 -6.7037597 -2.8476028 -3.010395 -2.611282 -9.9919405
-4.8411894 -4.121546 -3.3396993 -0.78883845 -4.414038 -1.8026489 -2.196767 -1.4582291
-6.0937467 -3.9964952 -0.07050119 -3.0577452 0.17925666 -3.5009658 -4.3741746 -3.908042
-2.909544 -17.560783 -7.8543496 -3.595761 -0.830073 -1.9556422 -1.8604654 15.243148
-6.510529 -0.882542 -1.5382305 -15.904919 -1.7792839 -1.3543261 23.282898 -0.20169784
-1.9438167 -2.8230457 -18.541927 -10.205947 -5.29285 -4.645686 -0.9717295 -0.20937492
-5.0786543 -7.708414 -5.058532 -8.386715 -2.2434015 -2.0334504 -3.7083898 16.177574
-4.8365164 -3.637532 -2.0221493 -0.8739778 -3.259543 -7.6911526 -1.6485587 -3.3962998
-3.4921918 -29.069357 -7.2793083 4.316191 -3.9320745 -2.6628757 -4.790454 -13.77746
-3.6344802 -10.494529 -3.6276615 16.109291 0.79975796 1.5790119 -1.2872996 -0.38311818
-1.6629117 -1.5816346 18.911951 -2.5507715 -2.0220063 -6.478268 -0.90975255 30.269407
16.11158 -11.96357 -8.280599 0.4956101 0.039386414 -3.412417 -2.8526096 -2.9394414
-0.897927 23.20934 -2.256921 -1.9479623 -1.1350286 -11.2565155 -4.6599913 -3.5670078
-3.161505 -0.5886684 -5.0880003 -11.435997 -4.0180964 -3.4927163 -1.8598455 -2.634504
1.2744558 -4.4615307 -12.016213 -2.8976707 -2.901962 -3.358725 -23.81117 -5.4139667
-1.759519 26.90937 -6.85106 -1.4477386 -2.7590063 -4.363589 -9.323725 -0.7893987
-0.0046069315 27.626255 -4.9848127 0.09993249 -4.6914625 21.025295 -6.0885015 0.739736
-12.051309 -2.7771263 -8.291539 -6.0428205 -18.779963 8.591183 3.9424691 -4.8981237
-1.0289799 0.33432573 -7.242067 -15.246693 -5.616432 9.988431 -5.776554 -21.342299
-0.84399664 -12.316621 -12.382283 -9.695824 -8.258542 -9.077368 -2.8610973 -3.9274492

l4.weight f4 [1, 256]
00000000: 5f01 003c 7299 d4bc e075 303d e892 bd3f
00000010: 1e8e adbe 0417 033f 0575 84bc a3d4 e6be
00000020: 1cbe 0c3c e304 793e ddb7 0cbe 3a0c c4be
00000030: 5001 3f3c 8a31 543c 14e0 013d b73c bcbd
00000040: 3f60 31bf 00a3 42c0 f3cf ffbc 03a9 73bd
00000050: 7cc6 b73e 24de 8cbe ec94 f7bd c6a3 a93f
00000060: c3ef e2bc 2148 da3d d037 b83e 638e 803d
00000070: 1626 80bc 0037 863d a148 c33c 98ae 4ebd
00000080: 326f 19bd 52f3 d1bb ee17 90bd 0f4f 313f
00000090: d8e0 363c 0ae3 5ebc 4462 84be 3bf6 e6bc
000000a0: 38cf 473e 7f5c a23f 73d5 e33c eb1e e1bd
000000b0: 9000 3cbc 6b1a 273e 6eb6 993d 152b 1b3f
000000c0: 533e eb3b 6642 a73e 5a2c 6b3e fe19 92bd
000000d0: 976d abbc 9d1d 14bf 4b4e 7c3e 8bfe e8bd
000000e0: 4503 8dbe 9205 693e f425 fabc 869e 14bb
000000f0: 7f2c aa3b 3499 053c 43d4 f13c 8d50 053d
00000100: 1016 c7bd bf3e a8bd 7b54 693c fadd d03c
00000110: 7622 9eba d8d9 33bc be83 cfbd 6909 563f
00000120: e264 503d 1ac5 5dbd 54f9 02bf ea8b 6c3e
00000130: 88a0 4ebd 9d5a 8e3e d446 8dbc 8982 d3bf
00000140: e630 2cbe 407b 393c e530 93be 249a 8fbe
00000150: a2c6 a5bd bc43 8a3e d5b6 cabc 9cd6 0abe
00000160: 1d00 82bf b76d b8bd 880e 453e 44d9 85ba
00000170: a86b cf3d 34d8 07bf 0177 41bc b76b b03e
00000180: f157 c8bc 842c f5bc e46a 013c cf55 ae3d
00000190: 67a3 343e 6372 ed3e 73b2 ed3b a5a4 07be
000001a0: 81b0 c63c 3e5f 14bd 1a5d e6bd bc19 f83c
000001b0: b8f6 b63b f32b 60ba 6247 573c b9c7 db3d
000001c0: f68e 273f 3fae 3d3f 8ef8 9b3c e4b8 0d3d
000001d0: 2974 d8bc 94e1 07be 1bbc 6bbc 6c8b 83bc
000001e0: 9549 183f 5d7d 83be feb8 6bbd 8d03 96be
000001f0: c012 40be a44f 783c 5c33 87bd df2b b0bd
00000200: 151d a13e db25 fdbe af04 84bc 61b4 c93c
00000210: d220 59bc 972d 253b 64f2 863d d3a1 693c
00000220: f66f a83b 7a5a e83e 7e2d 2e3f 754e 1f3d
00000230: 34d7 033f adf6 87bb ec92 88bb b933 4abd
00000240: aeee 993f 37f2 bd3e 44c2 f4bb eeab 0b3f
00000250: 2833 b53e 7a28 683d 5693 13be 8a9f 633b
00000260: 328d 6ebd 6aa2 e23c 344c fdba 1bf5 6ebc
00000270: 3554 9dbc 0b27 f53e 1e8f 18be d71a be3e
00000280: a97e 503f 8755 b53e 3aa7 46bf 4219 da3c
00000290: 26e6 ac3e 5915 413e f8ec c1bd 8ddf 1b3e
000002a0: c960 c9bb e9a3 cfbb fce9 80be 30b6 ca3c
000002b0: b156 c33c 4d6d 94bc bc30 173e 9bf1 79bf
000002c0: 4a81 e73a 41db 5b3d 8f00 3c3d ad40 84bc
000002d0: b1df 5abe 3d34 973f ae49 a83c 018d abbd
000002e0: 7564 13bd 818e 543c 458a 493e 767c a8bd
000002f0: 58c1 b53b 7eb9 9fbc c9f2 523f c5d8 83bd
00000300: b802 cebb 9395 283e 566a 973d b7f1 cebb
00000310: b370 f93d 24d6 853e 85b4 08bc d5b2 943b
00000320: b566 033c 668f 8ebd be9c 29be 2868 413d
00000330: e190 51bf 8470 0bbe 1316 60b9 0604 9b3c
00000340: 3eac 9cbc 375e acbe e448 8f3e c6db a83f
00000350: f84d 36bd 8d38 89bc ad7b 8f3e 57f4 a0bc
00000360: 3e08 96bc df84 7ebd cd6d 16bd 5273 de3c
00000370: d7b0 a5bd c9ac 4d37 343c 933d 1fc1 31bd
00000380: 97ea abbc c679 17bd bcdf 093f 7599 9f3c
00000390: aceb 0dbc 8d60 933b 2a07 663e fe00 2b3e
000003a0: 063a ab3f 4368 ea3b f8cf 4a3d 5013 bc3b
000003b0: 880f 303f b952 c93c 1264 6c3f e76a b3bf
000003c0: 33b2 6c3c 2289 e43e 6f14 b4be e408 893e
000003d0: 03cc e9bb c968 b8bc e807 373c 1c80 8e3a
000003e0: 7473 0439 9563 1c3f 3359 3c3e e6f4 123e
000003f0: bf7b 3b3e ea4d d5bc 6dc7 923e 3eb4 a33f
0.007812827 -0.025952075 0.043081164 1.4810457 -0.3389749 0.51206994 -0.01616908 -0.45084104
0.0085902475 0.2431827 -0.13742013 -0.38290578 0.011658028 0.012951264 0.03170784 -0.09191268
-0.69287485 -3.0411987 -0.031227088 -0.059487354 0.3589362 -0.2751323 -0.120889515 1.3253105
-0.027702218 0.10658289 0.35980082 0.06277158 -0.01564316 0.06553459 0.023838343 -0.050459474
-0.03745956 -0.00640718 -0.07035814 0.6926126 0.011162005 -0.013603935 -0.2585622 -0.028193584
0.19512641 1.2684478 0.027811741 -0.10992225 -0.0114747435 0.16318671 0.07505499 0.6061261
0.0071790605 0.32667845 0.22966138 -0.07133864 -0.02092628 -0.57857686 0.24639241 -0.11376675
-0.27541557 0.22756031 -0.030535676 -0.0022677495 0.0051932926 0.008154202 0.02952016 0.032547522
-0.09721005 -0.08215093 0.014241333 0.025496472 -0.0012064714 -0.010977231 -0.1013255 0.8360811
0.05087746 -0.05414305 -0.51161695 0.23100248 -0.050446063 0.27803507 -0.017245688 -1.6524211
-0.16815528 0.011320889 -0.2874824 -0.28047287 -0.08094527 0.27004802 -0.024745384 -0.1355843
-1.0156285 -0.090053014 0.19243824 -0.0010211845 0.10127956 -0.53064275 -0.011808158 0.3445718
-0.024455996 -0.029928453 0.00789902 0.085124604 0.17640458 0.46376333 0.007253939 -0.132464
0.024254085 -0.036223643 -0.112482265 0.030285709 0.0055836104 -0.0008551471 0.013139578 0.107314534
0.65452516 0.74094003 0.019039419 0.034600154 -0.026422577 -0.13269645 -0.01438811 -0.016057692
0.5948728 -0.25681582 -0.05754947 -0.29299584 -0.18757153 0.015155707 -0.06601593 -0.08602118
0.314675 -0.49442944 -0.016115515 0.024622144 -0.013252454 0.0025204176 0.06589201 0.014259773
0.0051403 0.45381528 0.68038166 0.03889318 0.5150025 -0.004149279 -0.004167905 -0.049365733
1.2025964 0.37098858 -0.0074694473 0.5455922 0.35390592 0.056679226 -0.14411673 0.0034732544
-0.058240123 0.027665336 -0.0019325078 -0.014584805 -0.019205192 0.4788135 -0.14898345 0.37129852
0.8144327 0.35416815 -0.7759892 0.026623372 0.3376934 0.188558 -0.09469026 0.15221997
-0.006145571 -0.0063366783 -0.25178516 0.024745077 0.023845049 -0.018118525 0.14764684 -0.97634286
0.0017662433 0.053675894 0.04589897 -0.016144121 -0.21374394 1.1812817 0.020542946 -0.08376504
-0.035984475 0.012973429 0.19681652 -0.08226864 0.00554673 -0.01949763 0.8240171 -0.0643783
-0.006286945 0.16463308 0.07393329 -0.0063154357 0.12179699 0.2613994 -0.00834382 0.00453792
0.008020093 -0.06960945 -0.16563699 0.04721847 -0.8186169 -0.1361714 -0.00021370528 0.018922817
-0.0191251 -0.3366563 0.279853 1.319207 -0.04450795 -0.016750598 0.28024045 -0.01964776
-0.018314477 -0.062138434 -0.036725808 0.027154598 -0.0809037 1.2259182e-05 0.07189217 -0.043397065
-0.020985885 -0.036981367 0.53857017 0.019482354 -0.008662146 0.0044975937 0.2246367 0.16699597
1.3377082 0.0071535422 0.04951474 0.005739607 0.687737 0.024575578 0.92340195 -1.4016999
0.014446783 0.44635874 -0.3517184 0.26764596 -0.007134916 -0.022510903 0.011171319 0.001087192
0.0001263151 0.6108945 0.18393402 0.14351234 0.18308924 -0.026038129 0.28667775 1.278938
