preTrained/v2TD3_BipedalWalkerHardcore-v3_0_critic_2_target.pth (torch_old, 175167 bytes, 7 tensors)

l1.weight f4 [64, 28]
0	0xbf356a9f	-0.70865816
1	0x420a99ac	34.65007
2	0xbf6b3d8b	-0.9189078
3	0x41914325	18.157785
4	0xbf51aaaa	-0.8190104
5	0x4005dc65	2.0915768
6	0xbf025b85	-0.509209
7	0xbd3b4128	-0.045716435
8	0xbfe43652	-1.7829077
9	0x3f0f611d	0.5600756
10	0x3f228e7e	0.63498676
11	0x3fa508df	1.2893332
12	0x3f309cf0	0.6898947
13	0x3e98f1af	0.2987189
14	0x402902d6	2.640798
15	0x4022789e	2.538612
16	0x3ff5545b	1.9166368
17	0x3fc93a80	1.5720978
18	0x3f8c1174	1.0942826
19	0x3fda7ed1	1.7069951
20	0xbea7f487	-0.32803747
21	0x3fd7a2c9	1.6846553
22	0x3dfa6f63	0.122282766
23	0xc01abf46	-2.4179244
24	0xbf1ed305	-0.6204074
25	0x3d94cfbd	0.072661854
26	0x3e31b6f8	0.17354953
27	0x3f9d009e	1.2265813
28	0x41162ee5	9.386449
29	0xbe3c47f6	-0.18386826
30	0x40895dd0	4.2927017
31	0xc1a3b79d	-20.464655
32	0x3def6106	0.116884276
33	0x3f0f2e50	0.5593004
34	0x3f81c13f	1.0137099
35	0xbeb274ea	-0.34854823
36	0xbdda11ac	-0.10647902
37	0x3e98eb8c	0.29867208
38	0xc07d2991	-3.955662
39	0x402dc7ee	2.7153277
40	0x3e2aca48	0.16678727
41	0x3ea55be1	0.3229666
42	0xc09cbdb2	-4.898156
43	0xc0a849ed	-5.259024
44	0xc0a36e34	-5.1072025
45	0xc0f26913	-7.5753264
46	0xc086b823	-4.2099776
47	0x4075b705	3.8392956
48	0x40fd66df	7.9188075
49	0x3fd44c16	1.658572
50	0x3fa2987c	1.2702785
51	0xbf18edb9	-0.59737736
52	0x3e0a2450	0.13490415
53	0x3c796f96	0.015224358
54	0xbce430ad	-0.027855242
55	0x3dad96ec	0.08476052
56	0xbcf3bbc3	-0.029752618
57	0xbd66c052	-0.056335755
58	0x3db58147	0.08862548
59	0x3e4712f1	0.1944082
60	0x3e2c86d6	0.16848311
61	0xbd7a38b4	-0.061089233
62	0xbe2456bf	-0.16048716
63	0xbc0b5144	-0.008503262
64	0xbd1e3856	-0.038627945
65	0xbdb9c4af	-0.090707175
66	0xbd76b003	-0.06022645
67	0xbd26b1de	-0.04069697
68	0x3e156e56	0.14592871
69	0x3d9ce095	0.07660023
70	0xbea043c7	-0.3130171
71	0xbec59bf1	-0.38595536
72	0xbe04b1f5	-0.1295851
73	0xbe451721	-0.19247104
74	0xbd2da0df	-0.042389747
75	0xbecb3fb1	-0.3969703
76	0xbdea8b6b	-0.11452373
77	0xbe89fca5	-0.26950565
78	0xbe922a66	-0.28547972
79	0xbd919786	-0.07108979
80	0x3bfe5ffb	0.0077629066
81	0xbd706dab	-0.058698338
82	0x3ca4c5af	0.020113794
83	0xbd548db9	-0.05189297
84	0xc0b73c3f	-5.7261043
85	0xc0fca11b	-7.894666
86	0xc1a9d5c7	-21.229383
87	0x3fa213d7	1.2662305
88	0xbe9937de	-0.29925436
89	0xbea2725e	-0.3172788
90	0x3f9bd6f5	1.2174975
91	0xbfa96c4e	-1.3236177
92	0xbfa7bdd6	-1.3104808
93	0xc043d799	-3.060034
94	0xbf6348d3	-0.88782996
95	0xbda9d4fe	-0.08292578
96	0x3ca8e076	0.020614844
97	0xbec7dc81	-0.3903542
98	0xc08fcced	-4.4937654
99	0xc0981d0e	-4.7535467
100	0xc0ada0df	-5.4258876
101	0xc05d5d32	-3.4588132
102	0xbfc10299	-1.5078918
103	0xbfc34d51	-1.525797
104	0xc02c4b77	-2.692106
105	0xc048cd21	-3.13752
106	0xc032e938	-2.7954845
107	0xc02abb77	-2.667692
108	0x3e11eb1d	0.14249845
109	0xbeaae737	-0.33379528
110	0xbe17b9d6	-0.14816985
111	0x3f3d12c8	0.7385678
112	0xc15cafc2	-13.79291
113	0xc155ca22	-13.361849
114	0x40d27759	6.577069
115	0xbec93698	-0.39299464
116	0xbff5306c	-1.9155402
117	0x3faa6266	1.3311279
118	0xbfeb55c2	-1.8385546
119	0x3f1f69ce	0.6227082
120	0xbf56d2fa	-0.83915675
121	0xc00b00cc	-2.1719236
122	0xbf114965	-0.56752616
123	0x3d85ab2d	0.0652679
124	0xbfabb4ae	-1.3414514
125	0x3e440808	0.19143689
126	0xbf265677	-0.64975685
127	0x3ea1cbf6	0.31600922
128	0x40409538	3.0091076
129	0x4089f72c	4.3114223
130	0x3fc2c6f0	1.5216961
131	0xbfbe16f0	-1.485075
132	0xc027ea5f	-2.6236799
133	0xbfe458b3	-1.7839569
134	0xbf5e9a62	-0.8695432
135	0xbf62e0eb	-0.8862445
136	0x3dbc292f	0.09187543
137	0x3db36ed0	0.0876137
138	0x3e0f1235	0.13971789
139	0x3ede7d7a	0.43455106
140	0xc0e4038b	-7.1254325
141	0x410861b5	8.523854
142	0xc144a381	-12.289918
143	0xc062ebda	-3.5456452
144	0xc04188f9	-3.0239851
145	0x3eb497b0	0.35271978
146	0x3feed512	1.8658774
147	0x3f225576	0.63411653
148	0xbe1ebdee	-0.1550214
149	0xbf8e93a5	-1.1138808
150	0x3eeda39b	0.46413884
151	0xbc9c613e	-0.019089337
152	0xbde6121b	-0.11233922
153	0x3db4b55f	0.08823656
154	0x3fb7d307	1.4361275
155	0x3fe32f0a	1.774873
156	0xbe11a65e	-0.1422362
157	0xbff1567c	-1.8854518
158	0xbd1d8956	-0.038461052
159	0x3f326467	0.6968445
160	0x3de9a42a	0.11408265
161	0x3fb9ff47	1.453103
162	0xbeeee003	-0.46655282
163	0xbfdde9d2	-1.7336981
164	0xbf80141f	-1.000614
165	0xbeaf4e8e	-0.3423962
166	0xbf5f4af1	-0.87223727
167	0x3f6859b3	0.9076187
168	0xc09ecd8e	-4.962592
169	0xc1dae141	-27.359987
170	0x410df8f4	8.87328
171	0x40cab7c1	6.334931
172	0xc036a0c8	-2.8535633
173	0xbfb1e5d8	-1.3898268
174	0xbf8b28a4	-1.0871778
175	0x3fb6568f	1.4245166
176	0xbf348810	-0.70520115
177	0xc08bf6e4	-4.373888
178	0xbd8c812c	-0.06860575
179	0x3fc01839	1.5007392
180	0x3fd3c1d2	1.6543524
181	0xbf31faf0	-0.69523525
182	0x4036bb57	2.8551843
183	0x4006363c	2.0970602
184	0x40b611cf	5.689674
185	0x406827b2	3.6274228
186	0xc06851e3	-3.629998
187	0xc0dbfffa	-6.874997
188	0xbfc687e1	-1.5510217
189	0x3fc26480	1.518692
190	0xbed15262	-0.40883166
191	0x3d3da287	0.046297576
192	0xbf07eaf5	-0.5309289
193	0x3ef5dea4	0.48021424
194	0x3d5141fa	0.05108831
195	0x3f28fd5f	0.66011614
196	0x3fc11c61	1.5086786
197	0x41a8cb5f	21.099302
198	0x40519c9a	3.2751832
199	0x419fb406	19.962902
200	0xc0a8963f	-5.2683406
201	0x4087367c	4.225401
202	0xbefe12a4	-0.49623597
203	0xbfef2eea	-1.8686192
204	0x3dbe3adf	0.092885725
205	0x404d5ea8	3.2089024
206	0x4001d394	2.0285387
207	0x3fedd40a	1.8580334
208	0x3f19eac6	0.6012386
209	0x3d9bbdf5	0.07604591
210	0xc032d998	-2.7945309
211	0xbfcd2029	-1.602544
212	0xbfe9e5cb	-1.8273252
213	0xc01e35fe	-2.4720454
214	0xbeb3db68	-0.3512833
215	0x40826354	4.074625
216	0x3fab6436	1.3389957
217	0x3f01c714	0.50694394
218	0xbf59acaa	-0.8502909
219	0xbb331e58	-0.0027331319
220	0x3d4df318	0.05028066
221	0xbce2990a	-0.027660865
222	0x3fd0ea7a	1.6321557
223	0x3f413179	0.75466114
224	0x3e27fc57	0.16404854
225	0x40434d51	3.051594
226	0xc152bce2	-13.171114
227	0x41326917	11.150657
228	0xc0d6c291	-6.711251
229	0xbf5f9529	-0.87336975
230	0x3ee26192	0.44215065
231	0xbf287187	-0.6579823
232	0x3f90eadd	1.1321675
233	0x3fb0262f	1.3761653
234	0xbfccb779	-1.5993491
235	0xbf61f9aa	-0.8827158
236	0xbeeead3b	-0.4661654
237	0xbf799ae3	-0.97501963
238	0x3f5fd6c9	0.8743711
239	0xbf82272d	-1.0168205
240	0xc07deb94	-3.9675035
241	0xc09a1cc6	-4.8160124
242	0xc01a6c76	-2.41287
243	0x3fd88c61	1.691784
244	0x3ebb7d4f	0.3661904
245	0xbf1f6c26	-0.62274396
246	0xbfaa8657	-1.3322247
247	0xbf423989	-0.7586904
248	0xbf9767cd	-1.1828552
249	0x3f80f5b4	1.0074983
250	0x3eccaa30	0.39973593
251	0x4016bf0e	2.355411
252	0xbbdf0ae2	-0.0068067173
253	0xbd13239e	-0.03592264
254	0xbcf69bb3	-0.03010354
255	0xbc808cd2	-0.015692148

l1.bias f4 [64]
0	0xc0b57018	-5.6699333
1	0xc081ff5d	-4.0624223
2	0xbe6304db	-0.22169821
3	0xc037a9a0	-2.869728
4	0x3f26334e	0.64922035
5	0xbfb21710	-1.3913288
6	0x3f89405c	1.0722766
7	0xc002a4f5	-2.0413182
8	0xbfe08373	-1.7540115
9	0xbe163eee	-0.14672443
10	0x4002a814	2.0415087
11	0x4096358d	4.694037
12	0xbf4ff049	-0.8122602
13	0x3edc5071	0.43030122
14	0xc00482ce	-2.0704837
15	0x3fb570df	1.417507
16	0xbd1595f9	-0.03651998
17	0x3fb8d4d7	1.4439954
18	0x3fac7e3e	1.3476026
19	0xc0a8b855	-5.2725015
20	0xbe7e5ffc	-0.24841303
21	0xc00f4d95	-2.2391102
22	0xbf3bb4c8	-0.73322725
23	0xbfe264b3	-1.7686981
24	0xbfda86a2	-1.7072337
25	0xbff35c71	-1.9012586
26	0x40176289	2.365389
27	0xbf07c18d	-0.5302971
28	0xc0ec79cd	-7.3898683
29	0xbf94d9e5	-1.1628996
30	0xc023dcdf	-2.560356
31	0x3e9c7e25	0.3056499
32	0xc069c0fd	-3.652404
33	0xbea7a347	-0.32741758
34	0xbfe9e75b	-1.8273729
35	0xbfb79d4c	-1.4344878
36	0xbedf8651	-0.43657163
37	0xbe530a3a	-0.2060937
38	0xbe57d4ca	-0.21077266
39	0xbf7d8154	-0.99025464
40	0xbf4e5539	-0.8059879
41	0xbe879e64	-0.2648803
42	0xbf6ecf9b	-0.9328553
43	0xbe13bbf6	-0.1442717
44	0xbfb58210	-1.4180317
45	0x4098cf28	4.7752876
46	0xbf86bfbd	-1.0527264
47	0x3fac1bc6	1.3445976
48	0xc01aa25e	-2.41616
49	0xbf206177	-0.6264872
50	0xc053760a	-3.3040795
51	0xbf9df77e	-1.2341154
52	0xbe3febb0	-0.18742251
53	0x3dd3636b	0.10321697
54	0xbff2ad74	-1.8959184
55	0x402905f7	2.640989
56	0x3fdd3559	1.7281905
57	0x3ff73a4b	1.9314665
58	0xbf5096e2	-0.8148023
59	0xc0a17477	-5.045467
60	0x3ea0ef2d	0.31432477
61	0xbf900cfe	-1.1253965
62	0xbf6e1140	-0.9299507
63	0xbeb31368	-0.34975743

l2.weight f4 [128, 64]
0	0xc0428230	-3.039196
1	0x40be3b8d	5.9447694
2	0xbd9af145	-0.0756555
3	0xc0151abe	-2.3297572
4	0x3fb92b90	1.4466419
5	0xbffd213c	-1.9775767
6	0xbdf2520b	-0.11832055
7	0xbe120cb6	-0.14262661
8	0x3f2700c7	0.6523556
9	0x3d88a692	0.06672396
10	0xbf0fbaf4	-0.5614464
11	0xc03f2220	-2.9864578
12	0xbdf0e422	-0.11762263
13	0xc0a26387	-5.0746493
14	0xc005fba5	-2.0934842
15	0xbfa7abdf	-1.3099326
16	0x405d4a6e	3.4576678
17	0xbee03232	-0.43788296
18	0xc089612d	-4.2931123
19	0x3f3551e2	0.7082807
20	0x3e8ae4ac	0.27127588
21	0x403886b7	2.8832223
22	0xbd957ebd	-0.07299564
23	0xc00a6eb4	-2.1630068
24	0xbff2d86b	-1.8972296
25	0x403e4c17	2.9733942
26	0xc02f319e	-2.7374034
27	0xbfc249f1	-1.5178815
28	0x4027918a	2.618258
29	0xbe00d41c	-0.12580913
30	0xbf5e54da	-0.86848223
31	0xc01a34fe	-2.4094844
32	0x406e9954	3.7281084
33	0x3ce2d2da	0.027688432
34	0xc0a3c187	-5.117374
35	0xc0773344	-3.862504
36	0xc086d8bd	-4.2139573
37	0xbc2d96b7	-0.010595015
38	0x3d12429d	0.03570806
39	0xbfdfb469	-1.7476932
40	0xbf4b8f20	-0.79515266
41	0xbf8f0a65	-1.1175047
42	0xbe64fd8b	-0.22362344
43	0x3de49caa	0.11162694
44	0xbfd2e261	-1.6475335
45	0xc016a15e	-2.353599
46	0x3f93e626	1.1554611
47	0x3e4b9ca9	0.1988398
48	0xbf9e27ed	-1.2355934
49	0xbffcaf2c	-1.9740958
50	0xc054cc39	-3.3249648
51	0xc07eaa33	-3.9791381
52	0xbdfc4423	-0.123176835
53	0xc002deef	-2.0448568
54	0xbfc667d8	-1.5500441
55	0x3e48f750	0.19625592
56	0xbf883cfd	-1.0643612
57	0xc0742e9b	-3.8153446
58	0xc06bc003	-3.6835945
59	0xbf0880f5	-0.5332177
60	0xc08a1c08	-4.315922
61	0xc003ef6c	-2.0614882
62	0x3fac70f8	1.3471975
63	0xc015147d	-2.3293755
64	0xbe240967	-0.16019212
65	0xc029d4ff	-2.6536252
66	0x3c930206	0.0179453
67	0xbf9dcd4e	-1.2328279
68	0xbfeb40ab	-1.837911
69	0x3f80a186	1.0049293
70	0x3ea27bbe	0.31735033
71	0x3f3133b7	0.69219536
72	0xc02d4a27	-2.707651
73	0xbdcf7562	-0.10129811
74	0xbfa73db6	-1.3065708
75	0xc07a98cc	-3.915576
76	0xc07a2143	-3.9082801
77	0xbfbfc248	-1.4981165
78	0xc0d7a5ea	-6.739003
79	0x404339c9	3.050402
80	0xc0b89400	-5.7680664
81	0xbf241e7f	-0.64109033
82	0x40094da4	2.1453638
83	0xc0a302e6	-5.094104
84	0xbde477b4	-0.11155644
85	0x3fa13c36	1.25965
86	0xbe92749e	-0.28604597
87	0x3f3cf130	0.7380552
88	0xbffc8c04	-1.9730229
89	0xc021deb7	-2.5292184
90	0xc007a955	-2.1197102
91	0xbf078885	-0.5294269
92	0xc0363430	-2.8469353
93	0x3f1b259d	0.6060427
94	0xbfd6d939	-1.6785041
95	0xc049c0e1	-3.1523974
96	0xc0b91fd7	-5.7851367
97	0x3cbc5178	0.022988066
98	0x3f8dc94d	1.1077057
99	0xbf3379c0	-0.7010765
100	0x3f8a4f74	1.0805497
101	0xbd0a3700	-0.03374386
102	0xbc818704	-0.01581145
103	0xbed30652	-0.4121576
104	0xbface7b7	-1.3508214
105	0xbfe31c4a	-1.7743008
106	0x3d7b64b3	0.06137533
107	0xbda2a90f	-0.079424016
108	0x3faa8b07	1.3323678
109	0x3f94062d	1.1564385
110	0xc098a756	-4.7704268
111	0xbf14431d	-0.57914907
112	0x3facd8df	1.3503684
113	0xbf700fec	-0.93774295
114	0xbedca409	-0.430939
115	0xc0051915	-2.079656
116	0x3d9da575	0.07697574
117	0xc0c38401	-6.1098638
118	0xbf98ef35	-1.1948
119	0xbf8b44c5	-1.0880362
120	0xc02b235f	-2.6740339
121	0xc0ba7477	-5.826717
122	0xc038ff08	-2.8905659
123	0x3edb302a	0.42810184
124	0xc0f973d4	-7.795389
125	0xc00b471d	-2.1762154
126	0xc02509a6	-2.578714
127	0xc04e21f9	-3.2208235
128	0x3f93bd84	1.154221
129	0x40802de6	4.005603
130	0x3d4482b0	0.047976196
131	0x3e38f7ff	0.18063353
132	0xc0783063	-3.8779533
133	0x3fa83306	1.3140571
134	0xbf165406	-0.5872196
135	0xbeae45b7	-0.34037563
136	0xbed247b1	-0.4107032
137	0xbd5566e9	-0.052100096
138	0x3fbc6d27	1.4720811
139	0x3ef147a3	0.47124967
140	0xbff1409c	-1.8847842
141	0xbe889094	-0.26672804
142	0xc02d7456	-2.7102256
143	0xbeec4663	-0.4614745
144	0xbc514771	-0.012773381
145	0x3e7596c4	0.23983294
146	0x406a3c82	3.659943
147	0xbf4e7b09	-0.80656487
148	0x3ea086f6	0.31352967
149	0xbfd87041	-1.6909257
150	0xbf71648c	-0.9429405
151	0xbd09437c	-0.033511624
152	0xbf043684	-0.51645684
153	0xbf123235	-0.5710786
154	0xc07aca03	-3.9185798
155	0x400cb4bd	2.1985314
156	0xc00d861d	-2.2113106
157	0x3e86e85c	0.2634915
158	0xc07ae87c	-3.9204397
159	0xc086c91d	-4.21205
160	0xbe2703e7	-0.16310082
161	0x3dc55988	0.09636217
162	0x3f1236e5	0.5711501
163	0x3d03e15c	0.03219734
164	0xc033ddbf	-2.8104093
165	0xbd7515db	-0.059835296
166	0xbd9ba1d5	-0.075992264
167	0xbf6ca422	-0.92437947
168	0xc02dfe9f	-2.7186658
169	0xbf85bc5d	-1.0448109
170	0xbe6eb82a	-0.2331244
171	0x3dd85101	0.10562325
172	0x3f8e32c4	1.1109242
173	0x3f3096af	0.68979925
174	0xc0a70ed6	-5.220561
175	0xbf21df7e	-0.63231647
176	0xbf96407e	-1.1738431
177	0xbfc8e558	-1.569499
178	0x3fa65fd7	1.2997998
179	0xc19d4625	-19.65925
180	0xbda7d79f	-0.08195423
181	0x3df0c20c	0.117557615
182	0xbf6ffc62	-0.9374448
183	0xbe4d2a51	-0.20035674
184	0xc00b2d55	-2.1746418
185	0xbf5db709	-0.86607414
186	0xbeecd943	-0.46259508
187	0x3ded2da2	0.115809694
188	0xbf318cc8	-0.6935544
189	0xbfa64b86	-1.2991798
190	0x3cd45d49	0.025923388
191	0x3ecd1218	0.40052867
192	0xbfec07e2	-1.8439906
193	0xbec028a0	-0.37530994
194	0x3cb764df	0.022386966
195	0xbce7f103	-0.028313166
196	0xbf09dc9c	-0.5385225
197	0x3d4c58f1	0.04988951
198	0xbe4dccd1	-0.20097663
199	0xbf9c852d	-1.2228142
200	0xbf0e9d05	-0.5570834
201	0xbd8b0af4	-0.067891985
202	0xbeee2ac3	-0.46517
203	0x3e706c1b	0.23478739
204	0xbed3a03a	-0.4133318
205	0xbf3011e0	-0.68777275
206	0xbe61bd83	-0.22044949
207	0xbe6de21b	-0.23230784
208	0xbe74e3dc	-0.23915046
209	0xbff26ef4	-1.894011
210	0xbfd9bea2	-1.7011302
211	0xbdfcbd3c	-0.12340781
212	0x3e9e585d	0.3092679
213	0xbe07173d	-0.13192458
214	0x3e1dfc2d	0.15428229
215	0xbf5300d9	-0.8242317
216	0xbf4b89e8	-0.79507303
217	0x3dfd759b	0.12375947
218	0xbf4eba50	-0.8075304
219	0xbdcb2201	-0.09918595
220	0xbdb024a0	-0.08600736
221	0x3e83b40c	0.25723302
222	0x3dcd61c9	0.10028417
223	0xbf50a042	-0.81494534
224	0xbe863d45	-0.2621862
225	0xbde17e3b	-0.11010405
226	0xbf89c6bd	-1.0763775
227	0xbfb55ee8	-1.4169588
228	0x3d26e7c6	0.04074838
229	0x3ddbd692	0.107342854
230	0xbd154bf5	-0.03644939
231	0x3cd77af1	0.02630374
232	0xbf8f0425	-1.117314
233	0xbeb2e3bf	-0.3493938
234	0xbea914ce	-0.33023685
235	0xbd27144f	-0.040790852
236	0xbe33c7df	-0.17556714
237	0xc02b2b2f	-2.6745107
238	0xbe7831f4	-0.24237806
239	0x3d132465	0.03592338
240	0xbfafa92e	-1.3723505
241	0xbf0605cc	-0.52352595
242	0xbf0c6a85	-0.54850036
243	0xbcddecf2	-0.027090523
244	0xbe1c852d	-0.15285178
245	0x3e237fe7	0.1596676
246	0xbf0f517c	-0.5598371
247	0xbede49ea	-0.43415767
248	0xbf898e7d	-1.0746609
249	0xbf8d253d	-1.1026989
250	0x3ea634de	0.3246221
251	0xbf1a84ae	-0.60358703
252	0xbeddfd5a	-0.43357354
253	0xbf3ae9a7	-0.73012775
254	0xbe0ed6d5	-0.1394914
255	0xbf65249b	-0.8950898

l2.bias f4 [128]
0	0x40026629	2.0374854
1	0x3ff83b53	1.9393104
2	0xbfec2273	-1.8448013
3	0x3d7ab1cb	0.061204713
4	0xbf8b36b4	-1.0876069
5	0x40fcec09	7.903813
6	0xc0235a62	-2.5523915
7	0x3f10fcd5	0.5663579
8	0xc02bedb7	-2.686384
9	0xbe840f75	-0.25793043
10	0xbe849f35	-0.25902715
11	0x403a350a	2.9094872
12	0xbd81d90d	-0.06340227
13	0x401c10c5	2.4385235
14	0x3f56a258	0.83841467
15	0x40337768	2.804163
16	0xbe58cf92	-0.21172932
17	0x41151301	9.31714
18	0xbdd130ca	-0.10214384
19	0xc083cd0d	-4.1187806
20	0x3f8aaee4	1.0834622
21	0xbe932dc6	-0.2874586
22	0xbea56cdf	-0.32309625
23	0xbeb46b28	-0.35238004
24	0x3f5c0891	0.8595057
25	0x4095e93a	4.68472
26	0xbdc37911	-0.09544576
27	0xbf34fed0	-0.70701313
28	0xbfaa777f	-1.3317717
29	0x403df170	2.9678612
30	0xbf5faef2	-0.8737632
31	0x3e79c063	0.24389796
32	0xbe202048	-0.15637314
33	0xc10d6165	-8.836278
34	0xbe26f05f	-0.16302632
35	0xbf2eb4a6	-0.682444
36	0xbe64b673	-0.22335224
37	0xc0978cb5	-4.735926
38	0xbed0353a	-0.4066561
39	0xbfa4d616	-1.2877834
40	0xc062431b	-3.5353458
41	0xbd6acd0a	-0.057324447
42	0x3e7e9f43	0.24865441
43	0x40e892fd	7.267943
44	0xc04d5208	-3.2081318
45	0xbe385580	-0.18001366
46	0xbde22ecb	-0.11044081
47	0xbf93b106	-1.1538398
48	0xbe1b9a06	-0.15195474
49	0xbfda080e	-1.7033708
50	0xc01b7ac6	-2.4293685
51	0xbf0c48ed	-0.54798776
52	0xbe15499e	-0.14578864
53	0xbdce89e1	-0.10084892
54	0xbf209697	-0.6272978
55	0xc0660314	-3.5939379
56	0xc017b526	-2.3704314
57	0xbe403e81	-0.18773843
58	0xbe46f2e9	-0.194286
59	0xbe91c59e	-0.28471082
60	0xbe8ca5e5	-0.27470317
61	0xbfabacdf	-1.3412131
62	0xbf0f5885	-0.55994445
63	0xc09a8256	-4.82841
64	0x3fbd73a7	1.4800919
65	0xbe9ad9d6	-0.3024432
66	0xbe6520b3	-0.22375755
67	0xc004d1fd	-2.0753167
68	0xbd4f4ec1	-0.050612215
69	0xbde7ec53	-0.11324372
70	0xc05de2ca	-3.466967
71	0xbdb34f90	-0.0875541
72	0xbd6c602b	-0.0577089
73	0xbe114006	-0.14184579
74	0xbeaa4c87	-0.3326151
75	0x3fda2819	1.7043487
76	0xbe32d290	-0.17463136
77	0xbf5aa6a9	-0.85410553
78	0xc080fb2d	-4.030661
79	0x3d8b151c	0.06791136
80	0xbe69e5cb	-0.22841565
81	0x3f888be4	1.0667691
82	0xbfb1fd48	-1.390542
83	0xbfc78501	-1.5587465
84	0xbe781444	-0.2422648
85	0x3e87aae4	0.26497567
86	0xbe3d3e88	-0.18480885
87	0x409c9e4e	4.8943243
88	0xbfda5d3a	-1.70597
89	0xbef61dec	-0.48069704
90	0x40ca7fe6	6.3281126
91	0xbe51ad02	-0.20476153
92	0xbe160a96	-0.14652476
93	0x410bb28a	8.731089
94	0xbf36e588	-0.71443987
95	0x3db3381f	0.087509386
96	0xbf04fcf4	-0.51948476
97	0xc07e663c	-3.97499
98	0xc0648b7b	-3.5710132
99	0x3ed8fc19	0.42379835
100	0xbfe82493	-1.8136162
101	0x413bcc47	11.737372
102	0x3f78c719	0.971788
103	0xbdbaf628	-0.09128982
104	0x3f774b7b	0.9659955
105	0x3fe36470	1.7765026
106	0xbf87ff45	-1.0624777
107	0xbe3ba848	-0.18325913
108	0x3f8055be	1.0026166
109	0xbe4a19f1	-0.19736458
110	0xc038a530	-2.8850822
111	0x3f6d25d2	0.92635834
112	0xbf3b8a98	-0.7325835
113	0xbe22d33f	-0.15900896
114	0x40d0893b	6.516752
115	0xbfea8e8a	-1.832475
116	0xbfe47bdb	-1.7850298
117	0x411f06d7	9.93917
118	0xbe705894	-0.2347129
119	0x3f0c13cc	0.5471771
120	0xbe3939a0	-0.18088388
121	0xc09839f6	-4.7570753
122	0xbe06f7fd	-0.13180538
123	0xbdb5fcb8	-0.08886093
124	0xbf9f1bad	-1.2430321
125	0xbe67477b	-0.22585861
126	0xbe4f5051	-0.20245482
127	0x3fd5d9c1	1.6707078

l3.weight f4 [256, 128]
0	0xbcee173a	-0.02906381
1	0x3e21e686	0.15810594
2	0x3e7bd78b	0.24593942
3	0xbdad689e	-0.0846722
4	0xbdf863f3	-0.12128439
5	0xbefdb73c	-0.4955386
6	0xbf5644ca	-0.83698714
7	0x3e5f0ba9	0.21781792
8	0xbe89e5fd	-0.2693328
9	0x3ebe187f	0.37128064
10	0xbd0259f5	-0.03182407
11	0xbeac414e	-0.33643574
12	0xbd97fc3e	-0.07421158
13	0xbff147a3	-1.8849987
14	0xbf020a44	-0.50796914
15	0xbf3e9647	-0.74448055
16	0x3d815e65	0.063168325
17	0xbfba1207	-1.4536752
18	0xbc60f712	-0.013730781
19	0xbfc5d9a8	-1.5457048
20	0x3f355c8f	0.7084436
21	0xbd2801cf	-0.04101735
22	0x3ef1e703	0.4724656
23	0x3dbb3c77	0.09142392
24	0xbf8cf1ad	-1.1011254
25	0xbe8507e5	-0.25982586
26	0xbc57770a	-0.01315094
27	0xbee15023	-0.44006452
28	0xbdc48da1	-0.09597326
29	0x3e649f02	0.22326282
30	0x3f7fe2b3	0.9995529
31	0x3ea49c46	0.32150477
32	0xbf62cc9a	-0.8859345
33	0xc00e40d5	-2.222707
34	0xbd3c292f	-0.045937713
35	0x3e803b92	0.2504545
36	0x3d993ee5	0.07482699
37	0xbf2b5ad6	-0.6693548
38	0xbf4d89a1	-0.8028813
39	0xbe4c76a1	-0.19967128
40	0xbf0480bd	-0.5175894
41	0x3f572d99	0.8405395
42	0xbf3d88c0	-0.7403679
43	0xbfffec14	-1.999392
44	0xbbfd885c	-0.0077372026
45	0xbda6e56f	-0.0814923
46	0xbc7c2d7c	-0.015391704
47	0xbefa75a4	-0.48917878
48	0xbd52ce12	-0.051466055
49	0xc049df58	-3.1542568
50	0x3eb107f7	0.3457639
51	0xbede3341	-0.4339848
52	0x3c40a1b8	0.011757307
53	0x3e0981fd	0.13428493
54	0x3d97ca3d	0.07411621
55	0xbec857f1	-0.39129594
56	0xbe72fdec	-0.23729676
57	0xbd538d7a	-0.051648594
58	0xbcebb062	-0.02877063
59	0xbd9905de	-0.07471822
60	0xbdbe3567	-0.092875294
61	0xbeb821f0	-0.35963392
62	0xbec21660	-0.37907696
63	0x3f942186	1.157273
64	0xbf32b288	-0.6980367
65	0x3d8094a3	0.0627835
66	0xbdd83b21	-0.10558153
67	0xbeaa2d47	-0.3323767
68	0x3cda28e1	0.02663082
69	0x3c8dea1d	0.017323548
70	0xbfd89a72	-1.6922133
71	0x3c6b2c5a	0.014353836
72	0x3c8293c5	0.015939603
73	0x3d6de53b	0.05807994
74	0x3cc624a8	0.024187401
75	0xbd82a4f5	-0.06379119
76	0xbd609e03	-0.05483819
77	0xbe9cc08e	-0.30615658
78	0xbfbdbabf	-1.4822615
79	0x3f6e46e2	0.9307691
80	0xbd85c9a4	-0.065326005
81	0xbf70bb04	-0.94035363
82	0xbf75cfcb	-0.9602019
83	0x3f164786	0.58702886
84	0x3e121616	0.14266238
85	0x3ee640fa	0.44971448
86	0xbb4ec220	-0.0031548813
87	0xc037585f	-2.8647687
88	0xbfae548f	-1.3619555
89	0x3f57f72a	0.8436152
90	0x3f7a7733	0.97838134
91	0x3da44d5e	0.08022569
92	0xbd5d77c2	-0.054069288
93	0xbf10a7ae	-0.5650586
94	0xbf28ba2f	-0.65909094
95	0xbe78d924	-0.24301583
96	0xbecb5591	-0.3971372
97	0xbe422089	-0.18957724
98	0xbcae6a6f	-0.021290986
99	0xbfcfb9c9	-1.6228572
100	0xbf1fe156	-0.6245321
101	0xbf5d1d22	-0.8637258
102	0xc00102fd	-2.0158074
103	0x3d6a2ce3	0.057171714
104	0xbd2ba446	-0.04190471
105	0x3d7642a4	0.060122147
106	0xbf4e5ee8	-0.80613565
107	0xbcf0f4d4	-0.029413618
108	0xbfbc5bf7	-1.4715565
109	0x3d9a8bb5	0.07546178
110	0xbf11952d	-0.5686825
111	0x3e4daa70	0.20084548
112	0xbf3660b8	-0.7124133
113	0x3e78cd6c	0.24297112
114	0xbf82e43c	-1.0225902
115	0x3d9af915	0.0756704
116	0x3e4ccb00	0.19999313
117	0xbea66f76	-0.32506913
118	0x3d913066	0.070893094
119	0xbeb858a0	-0.36005116
120	0x3d1dfdbe	0.038572066
121	0x3de6c372	0.11267747
122	0x3d17ebd5	0.03709014
123	0xbc06d72d	-0.008230013
124	0xbf71ee0c	-0.94503856
125	0xbd3784e8	-0.044804484
126	0xbe58021a	-0.21094552
127	0x3f1ed0ad	0.62037164
128	0xbfe21cd3	-1.7665046
129	0x3e832dac	0.25620782
130	0xbf8115bd	-1.0084759
131	0xbdb8a918	-0.09016627
132	0x3f5a2e59	0.8522697
133	0xc04898c9	-3.1343253
134	0x3fe52dfa	1.7904656
135	0xc008c35d	-2.136924
136	0xbf2b3236	-0.6687349
137	0xbddb78d2	-0.10716404
138	0x3d23cd16	0.039990507
139	0xc03a1077	-2.907255
140	0xbd5c0e56	-0.05372461
141	0xc001b904	-2.0269175
142	0xbf765244	-0.9621928
143	0xbfe04363	-1.7520565
144	0x3d91313f	0.07089471
145	0xc026a947	-2.6040819
146	0xbbeaaaaa	-0.007161458
147	0xc0a0b5d6	-5.022197
148	0xbf80bb1d	-1.0057102
149	0x3d99a827	0.07502776
150	0xbca08de4	-0.019598909
151	0xbdac68da	-0.08418436
152	0xbfe2e8ba	-1.7727273
153	0xc04ddf91	-3.2167704
154	0xbbf804a4	-0.0075689126
155	0xbe3f7360	-0.18696356
156	0xbecc26f1	-0.3987346
157	0xc00c1df5	-2.1893284
158	0x3e1f877d	0.15579028
159	0xbf4d2d71	-0.80147463
160	0x3e9f4386	0.31106204
161	0xbfa56767	-1.2922181
162	0xbd2378b3	-0.03991003
163	0x3f2294bf	0.6350822
164	0xba979940	-0.0011566058
165	0xbfb78420	-1.4337196
166	0xbd83b1b5	-0.06430379
167	0xbebab168	-0.36463475
168	0xbf590579	-0.84773976
169	0xbfbe2118	-1.485385
170	0x3eb90ea7	0.3614399
171	0xbff7b10c	-1.9350905
172	0xc00b81b5	-2.1797917
173	0x3e0c04f5	0.13673766
174	0x3ceca5b2	0.028887603
175	0xbff72e94	-1.931109
176	0x3c94305d	0.018089468
177	0xbff4fffc	-1.914062
178	0x3fbe042f	1.4845027
179	0xbfb2e6e0	-1.3976707
180	0x3d7d407c	0.061829075
181	0xbd70725c	-0.05870281
182	0xbcc21981	-0.023693802
183	0xbfabbf9f	-1.3417853
184	0xbefb864b	-0.49125895
185	0x3d7e0303	0.06201459
186	0x3c9fcaa4	0.019505806
187	0xbd921152	-0.0713221
188	0x3c3c5b30	0.01149635
189	0xbc1cc606	-0.009568697
190	0x3f35cab7	0.71012443
191	0xc03ff447	-2.9992845
192	0x3e6b1d83	0.22960477
193	0xbd5222fa	-0.051302887
194	0xbbdb9560	-0.0067011565
195	0xc03457a0	-2.8178482
196	0xbbbf97f0	-0.00584697
197	0xbda596b7	-0.08085387
198	0xc01a9a8d	-2.415683
199	0x3c9aaac0	0.018880248
200	0x3b624bb2	0.0034529981
201	0xbdcd7c59	-0.10033483
202	0x3d823553	0.06357827
203	0x3db157a7	0.086592965
204	0xbd04de7d	-0.032438744
205	0x3f38df00	0.7221527
206	0x3ecb4078	0.39697623
207	0xbf75b53b	-0.9597966
208	0xbd138096	-0.0360113
209	0xbe9c7335	-0.30556646
210	0xbfadd2df	-1.3579978
211	0xbebef278	-0.37294364
212	0x3cc7fe80	0.024413347
213	0xbe7cf4b4	-0.24702722
214	0xbd0b5465	-0.03401603
215	0x3c57c529	0.013169565
216	0x3e637f82	0.22216609
217	0xc00adb4c	-2.1696348
218	0x3ed0a109	0.4074786
219	0xbde1ade3	-0.110194944
220	0xbd9a4eb9	-0.075345464
221	0xc00c4e65	-2.1922848
222	0x3e098c25	0.13432367
223	0x3de6a9ab	0.1126283
224	0xbfac91c7	-1.3481988
225	0x404d4350	3.2072334
226	0xc00807dd	-2.12548
227	0x3e8b80ed	0.272468
228	0xbf08b86d	-0.5340641
229	0xc01c8f56	-2.4462485
230	0xbf936476	-1.1515033
231	0xbd76f0dc	-0.060288295
232	0x3eb8a787	0.36065313
233	0x3edbb432	0.42910916
234	0xbfe8bb5a	-1.8182175
235	0x3cf942cc	0.030427359
236	0x3ef80e04	0.48448193
237	0x3d202eae	0.039107017
238	0x3f5ad331	0.854785
239	0xbff60294	-1.9219537
240	0x3e24af06	0.16082391
241	0x3d0d5804	0.034507766
242	0xbf568e3a	-0.8381077
243	0xbf12f3f6	-0.57403505
244	0x3fedab6a	1.8567936
245	0xbe16bcb6	-0.14720425
246	0xbda27d4f	-0.07934057
247	0xbf30efbf	-0.69115824
248	0xbcc52f59	-0.024070429
249	0xbf471868	-0.77771616
250	0x3d99873d	0.07496498
251	0xbd24e427	-0.040256646
252	0xc01100bd	-2.26567
253	0x3d0c7ed4	0.03430064
254	0xbd2ebe07	-0.042661693
255	0x402fc2f6	2.7462745

l3.bias f4 [256]
0	0xc0ec4ca3	-7.384355
1	0xc156433a	-13.391413
2	0xc05d5562	-3.4583364
3	0xc001f52d	-2.0305893
4	0xbfbbf988	-1.4685526
5	0xc092fe1e	-4.59352
6	0xc0a98616	-5.297618
7	0xc019c92e	-2.402904
8	0xc0350510	-2.828434
9	0xc0c31831	-6.096703
10	0xc0cab7c0	-6.3349304
11	0xc09b6fd5	-4.8574014
12	0xc10c4cd5	-8.768758
13	0xbf9ed87e	-1.2409818
14	0xc12c3d67	-10.764991
15	0xc0c9aa39	-6.302029
16	0xc036e0d7	-2.8574731
17	0xc0d534ea	-6.662709
18	0xc031a820	-2.7758865
19	0xc15157da	-13.083948
20	0xc09ea746	-4.957919
21	0xbf541d3a	-0.82857096
22	0x40526881	3.2876284
23	0x3f339db0	0.7016249
24	0xbfbf5100	-1.4946594
25	0xc04773d1	-3.1164439
26	0xc1934216	-18.407269
27	0xc124bea7	-10.296546
28	0xc106250d	-8.384046
29	0xbfbe29af	-1.4856471
30	0x40b97c07	5.79639
31	0x41ba12cf	23.259184
32	0xc005585d	-2.0835183
33	0xc024a66f	-2.5726583
34	0xbf2e4bf6	-0.6808466
35	0xc0789f54	-3.8847246
36	0x403b0c07	2.922609
37	0xbd44d4b9	-0.04805443
38	0xbae90d63	-0.0017780479
39	0xc07b3e6b	-3.9256847
40	0xc0196146	-2.396562
41	0xc09ad90e	-4.838996
42	0xc0b81bb0	-5.75338
43	0xc0a09697	-5.0183825
44	0xbfe06f23	-1.7533916
45	0xba8a3995	-0.0010545725
46	0xc0aec50e	-5.4615545
47	0xc09e8676	-4.9539137
48	0xc1def501	-27.86963
49	0x3f633ac2	0.8876153
50	0xc02216f7	-2.5326517
51	0xc063ba1b	-3.558234
52	0xc10966a5	-8.58756
53	0xbfc3f229	-1.5308276
54	0xbf0b93ad	-0.5452221
55	0xc106d59c	-8.427151
56	0xc1095bb5	-8.584889
57	0xc100c47c	-8.04797
58	0xc036d1ff	-2.8565671
59	0xc0a9e7bf	-5.3095393
60	0x4184b9c4	16.590706
61	0xc0059ead	-2.0878098
62	0x41d4ec42	26.61536
63	0xbf7be27c	-0.9839246
64	0xc180623f	-16.047972
65	0xc0c117b0	-6.0341415
66	0xc0abb63f	-5.365997
67	0xc10f517d	-8.957395
68	0xc0c98711	-6.2977376
69	0xc17b95ec	-15.724102
70	0xc0639ec3	-3.556565
71	0xc1053e95	-8.327779
72	0xbf7c85c3	-0.98641604
73	0xc160bf9b	-14.046779
74	0xc109ae85	-8.605107
75	0xc1094765	-8.57993
76	0xc0192a96	-2.3932242
77	0xc09a6ece	-4.826026
78	0xc102a685	-8.165654
79	0x41c2b751	24.33951
80	0xc08de24d	-4.4338746
81	0xbfdfc022	-1.7480509
82	0xc00aee0d	-2.1707795
83	0xbfe3e44b	-1.7804044
84	0xc0562c91	-3.34647
85	0xbfa3d37f	-1.2798918
86	0xc14e8469	-12.907327
87	0xc0efc99b	-7.49336
88	0xc04024b9	-3.0022414
89	0xc09df9d6	-4.9367476
90	0xbf8a215d	-1.0791432
91	0x3f71a0b3	0.9438583
92	0xc0573569	-3.362635
93	0xc196484d	-18.785303
94	0xbfc3f611	-1.5309469
95	0x4152e4b9	13.1808405
96	0xbf60d323	-0.8782217
97	0xbf7c90b4	-0.986583
98	0xc0796a74	-3.8971224
99	0xc0e89e73	-7.269342
100	0xc1114325	-9.078893
101	0xc0c18381	-6.0473027
102	0x3f815b44	1.0105977
103	0xbed33789	-0.41253307
104	0xc010cdf6	-2.2625709
105	0xc0092a7d	-2.1432183
106	0xc0d9f2fa	-6.81091
107	0xbf8c3c6d	-1.095594
108	0xbf3132ef	-0.69218343
109	0xc11cdd76	-9.804068
110	0xbe38fd78	-0.1806544
111	0xbff98ff4	-1.9497056
112	0xbfcf2c61	-1.6185418
113	0xbfe66a63	-1.8001217
114	0xc109e5fd	-8.6186495
115	0xc032e168	-2.7950077
116	0xc0611bcb	-3.5173213
117	0xc048bfd9	-3.1367095
118	0xc02545ce	-2.5823855
119	0xbfe96803	-1.8234867
120	0xbed9746a	-0.4247163
121	0xc0e627fb	-7.1923804
122	0x3ffc3163	1.9702572
123	0xc0b8cb78	-5.7748375
124	0xc0ae881e	-5.454116
125	0xc1c7cf39	-24.976183
126	0xc11f6b5e	-9.963713
127	0xc060f96b	-3.5152233
128	0xc0173505	-2.362611
129	0xc0a2130f	-5.0648265
130	0xc01bc116	-2.43366
131	0xc06cb48b	-3.6985195
132	0xc0a5dfb7	-5.183559
133	0xc09b4cae	-4.8531103
134	0x409ec29d	4.9612565
135	0xc0fd861c	-7.922621
136	0xbffaf81c	-1.9606967
137	0xc153d492	-13.239397
138	0xbf42c561	-0.76082426
139	0xc1490309	-12.563241
140	0xc0ea5583	-7.3229384
141	0xc18a86ed	-17.315882
142	0xc0341d08	-2.814272
143	0xc12930ee	-10.574446
144	0xc044e9d1	-3.076771
145	0xc080e485	-4.0278955
146	0xc0cb4079	-6.35162
147	0xc0131015	-2.2978566
148	0x3fb1f707	1.3903512
149	0xc045e629	-3.0921729
150	0xbf83c605	-1.0294806
151	0xc00507e5	-2.0786068
152	0xc08a09ed	-4.3137116
153	0x40088284	2.132966
154	0xc0a7ef0f	-5.247932
155	0xc090ad26	-4.5211363
156	0xc1761554	-15.380207
157	0xbf6f258b	-0.9341666
158	0xc08aa17d	-4.332213
159	0x4185d494	16.728798
160	0xc0f3c31d	-7.6175675
161	0xc0e6c43b	-7.211454
162	0xc0213147	-2.5186327
163	0xc020dc1e	-2.513435
164	0xc12b7f8e	-10.718641
165	0xc13699c0	-11.412537
166	0xc1abf19e	-21.492977
167	0xc0ca5939	-6.3233914
168	0xbfdddd52	-1.7333167
169	0x41190b55	9.565267
170	0xc080a37b	-4.019956
171	0x3fb4e8f0	1.4133587
172	0xbe2c1c97	-0.16807781
173	0xc0bb2440	-5.848175
174	0xc1839ef5	-16.452616
175	0x40e44142	7.132966
176	0xc0f054ac	-7.510336
177	0xbfceb028	-1.6147509
178	0x41b03377	22.02513
179	0xc18dba75	-17.716043
180	0xc01b7f75	-2.4296544
181	0xbfb00880	-1.3752594
182	0xc1089abc	-8.537777
183	0xc0827485	-4.0767236
184	0xc118dd3e	-9.554014
185	0xc05b09e2	-3.4224782
186	0x41386db7	11.526786
187	0x4092e135	4.589991
188	0xc120e0cf	-10.054885
189	0x412e1ea6	10.882483
190	0xc1522619	-13.134301
191	0xc042fa81	-3.0465395
192	0xc079a2c2	-3.900559
193	0xc096d426	-4.713397
194	0xc0edf282	-7.435853
195	0xbfaf407f	-1.3691558
196	0xc0d66342	-6.6996164
197	0xc0af7e37	-5.484157
198	0xc0246a47	-2.5689867
199	0xc13550d8	-11.332237
200	0xc1e46b73	-28.552465
201	0xbf5a3ec2	-0.8525201
202	0xc03d6980	-2.9595642
203	0xbf8f8cdd	-1.1214863
204	0xbfd1b022	-1.6381876
205	0xc0989496	-4.768138
206	0xc0cbd1c8	-6.369358
207	0x3fd03ab1	1.6267911
208	0xc0a1dc5f	-5.058151
209	0xc079d4b4	-3.9036074
210	0xc089f809	-4.3115277
211	0xbfd01e92	-1.6259329
212	0xc0ab1eae	-5.347495
213	0xc02b2e4f	-2.6747015
214	0xc0e9d49b	-7.307203
215	0xc10c6445	-8.77448
216	0xbfb5ad08	-1.419343
217	0xc087ae05	-4.2399926
218	0x40135b15	2.3024342
219	0xc00f29a5	-2.2369168
220	0xc0823e9d	-4.070143
221	0xc120b2b7	-10.043632
222	0xbffb990c	-1.9656081
223	0xbfa54057	-1.291026
224	0xc08cc2cd	-4.3987794
225	0xc0497519	-3.147772
226	0xbf80a85d	-1.005138
227	0xc0cf3750	-6.475502
228	0xc1460df5	-12.3784075
229	0xc0f9ec24	-7.8100758
230	0xc0a6aebf	-5.2088313
231	0xc10d2794	-8.822163
232	0x41dd8ffa	27.695301
233	0xc0708b5c	-3.7585058
234	0x41420d00	12.128174
235	0xc090ea16	-4.528575
236	0xbec24ea1	-0.37950614
237	0xbd9d7c0e	-0.07689677
238	0xc00682cd	-2.1017334
239	0xc0a6799f	-5.2023463
240	0xc07272dc	-3.7882605
241	0xc0954fde	-4.6659994
242	0xbf6337a3	-0.8875677
243	0xc06b086a	-3.6723886
244	0xc1407aa9	-12.029946
245	0xc063273b	-3.5492694
246	0xbe5bfda2	-0.21483472
247	0xbf91ff6e	-1.1406076
248	0xc0946a2e	-4.6379614
249	0xc08b8024	-4.359392
250	0x41d5a70f	26.706572
251	0x41f0bc93	30.092077
252	0xc1278c9f	-10.471831
253	0xc069fa1a	-3.65589
254	0xc10e6655	-8.899983
255	0xc11156ae	-9.083662

l4.weight f4 [1, 256]
0	0xbcb0e340	-0.021592736
1	0xbdf8137b	-0.121130906
2	0x3f012304	0.50444055
3	0xbc74b9ab	-0.014936845
4	0x3dd43251	0.103611596
5	0xbf768763	-0.96300334
6	0x3d94b786	0.07261567
7	0x3ce41ee2	0.027846757
8	0x3e40b3b0	0.18818545
9	0xbcd38352	-0.025819454
10	0xbe13f4fe	-0.14448926
11	0x3d6a1704	0.057150856
12	0x3e0c7bb4	0.13719064
13	0x3cd7fe32	0.026366327
14	0xbcdfdd0a	-0.02732708
15	0x3e6106b2	0.2197521
16	0x3e0c925d	0.13727708
17	0xbe50a749	-0.20376314
18	0xbe7b0563	-0.24513774
19	0x3dfcb3db	0.12338992
20	0x3e47e900	0.19522476
21	0xbda317fe	-0.079635605
22	0x3f0bab1c	0.5455797
23	0x3da3aec7	0.079923205
24	0x3c60c6a3	0.013719234
25	0xbe477948	-0.19479859
26	0x3ea4d2f6	0.321922
27	0x3efa83b3	0.48928604
28	0xbe7f829b	-0.24952166
29	0xbd532d62	-0.051556952
30	0x3f2ce23e	0.6753272
31	0xbcd5a312	-0.026078735
32	0xbe5e31b1	-0.21698643
33	0x3e893a1c	0.26802146
34	0xbf944895	-1.158465
35	0xbe5f8b01	-0.2183037
36	0xbf5c64c1	-0.8609124
37	0x3a21271e	0.00061474915
38	0xbda18fce	-0.07888757
39	0x3f1ac8a6	0.60462415
40	0x3d0afb54	0.03393109
41	0xbd8b633c	-0.06806037
42	0xbeb059bf	-0.3444347
43	0x3e42fb48	0.19041169
44	0xbec3ebe8	-0.3826592
45	0xbc82ba0c	-0.015957855
46	0xbf5c7529	-0.8611627
47	0xbc17906e	-0.009250743
48	0x3eaa2d47	0.3323767
49	0x3ed55299	0.4166458
50	0x3c6ff7b3	0.014646458
51	0xbccb1581	-0.024790527
52	0xbe78c023	-0.24292044
53	0x3d887474	0.06662837
54	0x3c35fbf0	0.01110743
55	0x3f906096	1.1279476
56	0x3d1f124d	0.038835812
57	0xbe4c9f40	-0.19982624
58	0x3da76c97	0.08175009
59	0x3efe3b43	0.49654588
60	0x3cf6d264	0.030129619
61	0x3f36a257	0.7134146
62	0xbcfdb5ac	-0.030970417
63	0x3e0208b4	0.12698632
64	0x3e8f82b4	0.28029406
65	0x3f09cc35	0.5382722
66	0x3f032dac	0.51241565
67	0xbcb11477	-0.021616204
68	0x3d570689	0.052496467
69	0xbcfb0a13	-0.030644452
70	0xbb0ef7a5	-0.0021815088
71	0x3c8e3a95	0.017361918
72	0xbfa27647	-1.2692345
73	0x3f172c6d	0.59052163
74	0x3e73f273	0.23822956
75	0x3cf60104	0.030029781
76	0x3f02c04d	0.5107468
77	0x3ef7d753	0.48406467
78	0xbe6710ca	-0.22564998
79	0xbd9a31de	-0.07529043
80	0xbf2d6d4e	-0.6774491
81	0xbc4d4cb1	-0.012530492
82	0x3d34f4a7	0.04417863
83	0x3e12c065	0.14331205
84	0xbde6d953	-0.1127192
85	0x3cc0b860	0.023525417
86	0xbf609d3a	-0.8773991
87	0x3ce5ee2b	0.028067669
88	0xbf14b465	-0.5808776
89	0xbf79d25b	-0.975866
90	0xbc6a9403	-0.014317515
91	0x3f180fc5	0.5939906
92	0x3e138f6e	0.14410183
93	0x3fa266a7	1.2687577
94	0x3e5c8019	0.2153324
95	0x3cbee6bf	0.023303388
96	0x3bb1a8e8	0.0054217465
97	0x3b19e22e	0.002348076
98	0xbb4a19f0	-0.0030838214
99	0xbcae273f	-0.021258948
100	0x3f37a040	0.717289
101	0x3e092ff4	0.13397199
102	0x3edbec71	0.42953828
103	0xbe889b85	-0.26681152
104	0xbdef96d2	-0.116986886
105	0x3c985f76	0.018600207
106	0xbe22b3fe	-0.15888974
107	0xbe93a485	-0.28836456
108	0x3e0985e5	0.13429983
109	0x3f31027f	0.69144434
110	0xbcd87e51	-0.02642742
111	0xbbd9b479	-0.0066438285
112	0x3dad5a8e	0.084645376
113	0x3e00f35c	0.12592834
114	0xbf1b6355	-0.60698444
115	0xbf889544	-1.0670552
116	0x3e2e2676	0.17006859
117	0x3e5a6f31	0.21331479
118	0xbe6c7543	-0.23091607
119	0x3e849c14	0.25900328
120	0xbe1ac585	-0.1511441
121	0x3e14fdd5	0.14549954
122	0xbe3a64d7	-0.1820253
123	0xbe923b95	-0.28561082
124	0x3f002937	0.5006289
125	0x3ed2374a	0.41057807
126	0xbea8d00e	-0.32971233
127	0x3a6a596b	0.0008939716
128	0x3dc7b251	0.09750808
129	0x3c77fe64	0.015136335
130	0x3f03ed14	0.5153363
131	0x3a53eb39	0.0008084062
132	0x3cfad044	0.030616887
133	0xbcdc0f9a	-0.026862908
134	0xbb04d797	-0.0020270103
135	0xbd882cd4	-0.06649175
136	0x3f2c22d6	0.67240655
137	0xbc327e30	-0.010894343
138	0x3c7f0983	0.015566233
139	0xbcc7d259	-0.024392294
140	0xbcff12e4	-0.031136937
141	0x3b439919	0.0029845892
142	0xbcee060b	-0.029055616
143	0xbd1c1256	-0.038103424
144	0x3daeec1e	0.085411295
145	0x3c7bbaa4	0.015364323
146	0xbf283ad6	-0.65714777
147	0xbaa89c7f	-0.0012864022
148	0x3e3f3f07	0.18676387
149	0x3ca9a0a7	0.020706488
150	0x3dda48e9	0.10658438
151	0x3ce840b2	0.028351162
152	0xbcf5ad6c	-0.02998992
153	0x3f99a155	1.200236
154	0x3f13e3cd	0.5776947
155	0xbcfe537b	-0.031045666
156	0x3a69d94a	0.0008920623
157	0x3d8ae574	0.06782046
158	0xbca487f7	-0.020084364
159	0x3d4ae6a0	0.049536347
160	0xbfa0fab7	-1.2576512
161	0xbc805a6f	-0.015668122
162	0xbd1be1e5	-0.038057227
163	0x3d1c9c9e	0.0382353
164	0x3e127a16	0.14304385
165	0xba9b5ea5	-0.0011853768
166	0x3f42a3c9	0.76031166
167	0x3b152805	0.002275945
168	0x3c581349	0.013188192
169	0x3ed189d9	0.40925482
170	0xbfac69ee	-1.3469827
171	0xbd1293de	-0.03578555
172	0xbcf0a074	-0.029373385
173	0x3b0a8305	0.0021135223
174	0x3aacb80f	0.0013177412
175	0xbea0fc27	-0.31442377
176	0xbe23f386	-0.16010866
177	0x3ebee918	0.3728721
178	0x3cc87b19	0.02447276
179	0x3f3df93f	0.74208444
180	0xbe6437e3	-0.22286944
181	0xbc3b69c8	-0.011438794
182	0xbe457d78	-0.19286144
183	0x3f639c6a	0.88910544
184	0x3eb2d4e7	0.34928057
185	0xbde7da5a	-0.11320944
186	0xbbbe0110	-0.0057984665
187	0xbc7c4b2c	-0.015398782
188	0xbe2f614e	-0.17126963
189	0xba9ea8d5	-0.0012104759
190	0xbd6fe1d3	-0.058564972
191	0x3cbfbf27	0.023406578
192	0xbca9d840	-0.020732999
193	0xbc83195d	-0.016003305
194	0xbd4f5119	-0.05061445
195	0x3cff4bec	0.031164132
196	0xbdefd2fa	-0.117101625
197	0xbd1cce9d	-0.03828298
198	0x3cafb4e7	0.021448566
199	0x3e4d72f8	0.20063388
200	0xbf22a6b6	-0.6353563
201	0xbd3a659f	-0.04550707
202	0xbc0be8d4	-0.008539397
203	0xbc42e248	-0.01189477
204	0xbed5be69	-0.41746834
205	0x3cf94fe4	0.030433603
206	0xbe650a0b	-0.22367112
207	0x3d146af5	0.036234815
208	0xbecba2e8	-0.39772725
209	0x3b340a48	0.0027471948
210	0x3e21656c	0.15761346
211	0xbcfc96f4	-0.030833699
212	0xbd3d1908	-0.04616645
213	0x3f09b26c	0.53787875
214	0x3f2b9316	0.6702131
215	0x3e49ac91	0.19694735
216	0x3e91eb1d	0.2849969
217	0xba1b32e6	-0.0005920365
218	0x3f75cb1b	0.9601304
219	0x3bad76af	0.005293689
220	0xbda3d446	-0.07999472
221	0xbcdbe4a1	-0.026842417
222	0x3eca6298	0.39528346
223	0xbc77adeb	-0.015117149
224	0xbbceed19	-0.0063148853
225	0x3d308d4f	0.043103512
226	0xbcece36b	-0.028917035
227	0x3f1f5646	0.6224102
228	0x3db6e7ad	0.089309074
229	0xbd282f1e	-0.04106056
230	0x3d8ff4c4	0.07029107
231	0x3e9d8d3e	0.30771822
232	0xbd843cc5	-0.06456903
233	0xbc23f1f7	-0.010006419
234	0xbc92e38e	-0.017930772
235	0x3db6310f	0.08896076
236	0x3be7fbf3	0.0070795952
237	0x3c803a03	0.015652662
238	0x3e309e7f	0.17247961
239	0x3e685052	0.2268689
240	0xbcadd91e	-0.021221694
241	0x3e9982dd	0.29982653
242	0x3bda69ba	0.0066654356
243	0xbec14ff1	-0.37756303
244	0x3f4feb01	0.8121796
245	0x3d2467ee	0.040138178
246	0xbe1bf6fd	-0.15230937
247	0xbc54e3a9	-0.012993732
248	0xbafc6cc4	-0.0019258489
249	0xbeefd6e3	-0.46843633
250	0xbe9dd08f	-0.3082318
251	0xbc7296cc	-0.014806461
252	0x3cb566b7	0.022143705
253	0xbd0a30fd	-0.033738125
254	0xbc71f834	-0.014768649
255	0x3f1a59b5	0.6029313
