preTrained/v2TD3_BipedalWalkerHardcore-v3_0_actor_target.pth (torch_old, 177227 bytes, 8 tensors)

l1.weight f4 [64, 24]
0	0x3ee22182	0.4416619
1	0x3faa6716	1.3312709
2	0x3d9a511e	0.07535003
3	0xbfb1e5d7	-1.3898267
4	0xbfd71309	-1.6802684
5	0x3eb91d80	0.3615532
6	0xbf008ade	-0.50211895
7	0x3d89adbc	0.0672259
8	0xbfbbf5a0	-1.4684334
9	0x3f800ddf	1.0004233
10	0xbf0740a4	-0.5283301
11	0xbda6ed3e	-0.08150719
12	0x3e5d2fe1	0.21600296
13	0xbf47e9c9	-0.780911
14	0xbf1994d6	-0.5999273
15	0xbee0ce73	-0.43907508
16	0xbec78b41	-0.3897343
17	0xbf1bdec6	-0.608868
18	0xbf3736c8	-0.71567965
19	0xbf02f635	-0.5115693
20	0xbf4162b1	-0.75541216
21	0xbf5d7182	-0.86501324
22	0xbf26c7bf	-0.6514854
23	0xbf31a500	-0.69392395
24	0xc08c3a14	-4.3820896
25	0xc1043fe4	-8.265598
26	0x4080fe4d	4.0310426
27	0xbfcf19a0	-1.6179695
28	0xbf0a4ac5	-0.5402034
29	0x3c3b9268	0.01144848
30	0xc0260d07	-2.5945451
31	0xbe69fa1a	-0.22849312
32	0x3e0ab43c	0.13545316
33	0xc0240af7	-2.5631692
34	0xbf6839ab	-0.90712994
35	0x404ad251	3.1690867
36	0xbf120356	-0.5703634
37	0xbf818575	-1.0118853
38	0x3eac7d76	0.3368947
39	0x3f22851e	0.6348437
40	0x3f10fd9d	0.56636983
41	0xbea38a0f	-0.31941268
42	0xbeaf8ab7	-0.3428552
43	0xbe6beafb	-0.23038857
44	0xbeb6ed58	-0.35727954
45	0xbf4beeb1	-0.7966109
46	0xbe95147e	-0.29117197
47	0x3dd42829	0.103592224
48	0xbefb062b	-0.49028143
49	0xbee0a50a	-0.43875915
50	0x3f007c6a	0.5018984
51	0xbf66c052	-0.9013721
52	0xbf1054de	-0.563795
53	0x3ed41249	0.414202
54	0x3e24dde6	0.16100273
55	0xbeb127ff	-0.34600827
56	0xbf00028b	-0.5000388
57	0xbf357eef	-0.7089681
58	0x3d43b219	0.04777727
59	0x3e5027f2	0.20327738
60	0xbcb015c7	-0.02149476
61	0xbeb10730	-0.34575796
62	0xbf6f48b3	-0.93470305
63	0xbf4401c9	-0.76565224
64	0xbf206947	-0.6266064
65	0xbf17b90e	-0.59266746
66	0xbf38e478	-0.72223616
67	0xbf3ff830	-0.7498808
68	0xbf7e4e04	-0.9933779
69	0xbf3b66a8	-0.73203516
70	0xbf790b24	-0.97282624
71	0xbe9e922e	-0.309709
72	0x40863e0d	4.1950746
73	0x40de75a9	6.951863
74	0x40858a5d	4.17314
75	0x4059d7a2	3.4037862
76	0x3ff0f343	1.8824238
77	0x3d143126	0.036179684
78	0x3fac478e	1.3459337
79	0x3e6790eb	0.22613876
80	0x3eb4f188	0.35340524
81	0xbe4a9d30	-0.19786525
82	0xbec542e0	-0.38527584
83	0x3f37f568	0.71858835
84	0xbddb5289	-0.10709102
85	0xbec4b579	-0.38419703
86	0x3f9e9de5	1.2391936
87	0x4006e604	2.107789
88	0x405f2a21	3.4869463
89	0x40b64947	5.696445
90	0x40b05c17	5.5112414
91	0x3ea10586	0.31449527
92	0xc0b97500	-5.795532
93	0xc0460181	-3.0938418
94	0xc046dc41	-3.1071932
95	0xbebf2ab8	-0.3733728
96	0x3f23e706	0.6402439
97	0x3fc3c988	1.5295877
98	0xbd422dd1	-0.047406975
99	0xbf9adf4d	-1.2099396
100	0xbfaff5be	-1.374687
101	0x3e75c34c	0.24000281
102	0xbe7db354	-0.2477544
103	0xbcb30df0	-0.021857232
104	0xbd271f3f	-0.040801283
105	0xbf531461	-0.8245297
106	0xbf1f7fae	-0.623042
107	0xbfde51b9	-1.736869
108	0xbee7c47b	-0.4526709
109	0xbf589b3a	-0.84611857
110	0xbf9a8d46	-1.2074363
111	0xbf89e215	-1.077212
112	0xbf761acc	-0.9613464
113	0xbfa5e9df	-1.2961997
114	0xbfcc0621	-1.593937
115	0xbf8c86a5	-1.097859
116	0xbf78858c	-0.97078776
117	0xbfcfca31	-1.6233579
118	0xbfa36a07	-1.2766732
119	0xbf8ec34d	-1.1153351
120	0xbf113a8d	-0.56729966
121	0xbfa41a96	-1.2820613
122	0xbd4258c9	-0.047447953
123	0x3e9ea99e	0.30988783
124	0xbf7a05eb	-0.9766528
125	0xbe2fb41e	-0.17158553
126	0xbebb2ff8	-0.36560035
127	0x3ec39468	0.38199162
128	0xbf3d200f	-0.7387704
129	0x3e2d337e	0.16914174
130	0xbc70a524	-0.01468781
131	0x3eaaae2f	0.33336017
132	0xbf398a17	-0.72476333
133	0xbf3efbd7	-0.7460303
134	0xbebf4ac0	-0.37361717
135	0xbee09f93	-0.43871745
136	0xbeff40fc	-0.49854267
137	0xbf162396	-0.5864805
138	0xbf0b3a9d	-0.5438631
139	0xbf1c037e	-0.6094283
140	0xbed96d62	-0.42466265
141	0xbeefcb2b	-0.46834692
142	0xbe9288ee	-0.28620094
143	0xbf20df3f	-0.62840647
144	0xbfa16fc6	-1.2612236
145	0xc10da174	-8.851917
146	0x408629bc	4.1925945
147	0x40560bc2	3.3444676
148	0xbf705254	-0.9387562
149	0x3f514389	0.81743675
150	0x3f6d5af2	0.92716897
151	0xbea7f22e	-0.32801956
152	0xbe268b97	-0.16264187
153	0xbeb8ff08	-0.36132073
154	0xbe31441f	-0.17311142
155	0x40094c14	2.1452684
156	0xbe43f099	-0.1913475
157	0xbed8198a	-0.42206985
158	0xc0276657	-2.6156213
159	0xc038b278	-2.8858929
160	0xc03379c0	-2.804306
161	0xbfa50fe7	-1.2895478
162	0x40658e12	3.5867963
163	0x40738b53	3.8053787
164	0xbf25b64f	-0.64731306
165	0xbe9443e6	-0.28958052
166	0xbf677a43	-0.9042093
167	0xbfa8e527	-1.3194932
168	0x40e7a472	7.238824
169	0x419f6455	19.92399
170	0x3f03da54	0.5150502
171	0xc0c0d2f1	-6.0257497
172	0x40259197	2.587011
173	0xbda74e1e	-0.081691965
174	0x3db8db17	0.09026163
175	0x3f6b086a	0.91809714
176	0x3f4790b9	0.77955204
177	0x3f1374dd	0.57600194
178	0xbf813b3d	-1.0096203
179	0x3f8e44bc	1.1114726
180	0xbe82b304	-0.25527203
181	0xbdbba207	-0.09161764
182	0xbef8024b	-0.4843925
183	0xbf9f8c2d	-1.2464653
184	0xbfe0cf3a	-1.756324
185	0xc03607a7	-2.844217
186	0xbf62a012	-0.885255
187	0x40281877	2.6264932
188	0x404a4291	3.160313
189	0x3fd2b12a	1.6460316
190	0x3fcb1ee1	1.5868798
191	0x3bd91c22	0.006625668
192	0x3f3cfdaf	0.7382459
193	0xc000a924	-2.0103235
194	0x40ac2aa7	5.3802066
195	0x3fac3fbe	1.3456953
196	0xc009f59c	-2.1556158
197	0xbd8d9bfd	-0.06914518
198	0x402e56e6	2.7240539
199	0x3c4620c1	0.01209277
200	0x3e2bb706	0.16769037
201	0xbf95d705	-1.1706244
202	0x3e02d244	0.12775522
203	0x3f898a95	1.0745417
204	0x3fd78a91	1.6839162
205	0xbf6109d3	-0.87905616
206	0xbf78dc44	-0.972111
207	0xbf84ee1d	-1.0385166
208	0xbf63acd3	-0.88935584
209	0xbf308a30	-0.6896086
210	0xbf35f678	-0.71079206
211	0xbf86da4d	-1.053537
212	0xbf6d1633	-0.92612
213	0xbf6d124b	-0.9260604
214	0xbf7be59c	-0.9839723
215	0xbf6f7ab3	-0.935466
216	0xc095b636	-4.6784925
217	0xc0fd7984	-7.9210835
218	0xc15cc1ba	-13.797297
219	0xc03f3350	-2.9875069
220	0x3f069335	0.5256837
221	0xbf8a616c	-1.0810981
222	0x3f39d9c8	0.7259793
223	0xbfa8feef	-1.32028
224	0xbe971f26	-0.29515952
225	0xbe5e06b9	-0.21682252
226	0xbf3aaf0f	-0.7292337
227	0xbf9201c6	-1.1406791
228	0xbdb2d808	-0.08732611
229	0xbf8eecb5	-1.1165987
230	0x3fdca8ba	1.7238991
231	0x4014c01e	2.324226
232	0x400e80e5	2.226617
233	0x3fac4217	1.3457669
234	0xbeac4d06	-0.33652514
235	0xc069acc2	-3.6511693
236	0xc032300f	-2.7841833
237	0xbf64dfda	-0.8940407
238	0x3e097c85	0.13426407
239	0xbe399b47	-0.1812564
240	0x3d85fec4	0.06542733
241	0x3ddaca99	0.10683174
242	0xbd8ffeed	-0.07031045
243	0x3d6a807b	0.057251435
244	0x3d8dde64	0.06927183
245	0x3dc16a80	0.094441414
246	0x3dbcc700	0.09217644
247	0x3d0eb21d	0.03483783
248	0x3d8cda3c	0.068775624
249	0xbd361fdf	-0.04446399
250	0xbd7694aa	-0.06020037
251	0x3c5b66da	0.013391221
252	0xbd9b240d	-0.075752355
253	0xbdaae02f	-0.08343541
254	0xbe05201d	-0.13000531
255	0xbec71ea9	-0.3889058

l1.bias f4 [64]
0	0xbeb55ee8	-0.3542397
1	0x3f206b9e	0.6266421
2	0xbef49d8c	-0.4777645
3	0x3f208d36	0.6271547
4	0xbf8aa3d5	-1.0831248
5	0xbee69943	-0.45038804
6	0xbffb6bbc	-1.9642253
7	0x3e67927b	0.22614472
8	0xbf64245b	-0.89117974
9	0x3f8ef09d	1.1167179
10	0xbe3ee2d8	-0.18641222
11	0xbec2f508	-0.3807757
12	0xbdd4bd62	-0.103876844
13	0x3e9ec686	0.31010836
14	0xbe515262	-0.20441583
15	0xbfa3981e	-1.2780797
16	0x3f4728d0	0.7779665
17	0xbe457991	-0.19284655
18	0xbf296c4f	-0.6618089
19	0xbdb4d630	-0.088299155
20	0xbee2d083	-0.44299707
21	0x3f828105	1.0195624
22	0xbf23aec6	-0.6393856
23	0xbe8746e5	-0.26421276
24	0xbee54633	-0.4478012
25	0xbe842dec	-0.25816286
26	0xbf14ac96	-0.58075845
27	0xbecdfd41	-0.4023228
28	0x3fbc5b30	1.4715328
29	0xbe99db26	-0.3005001
30	0xbf51d0f2	-0.8195945
31	0xbfa8d00f	-1.3188494
32	0xbd8dbc05	-0.069206275
33	0x3f04da94	0.51896024
34	0xbe1be5ce	-0.15224382
35	0x3f57a841	0.8424111
36	0x3de43b03	0.11144068
37	0xbf14b2d6	-0.5808538
38	0x3f671d4a	0.90279067
39	0xbf63241a	-0.8872696
40	0x3f304c78	0.6886668
41	0xbf857544	-1.0426412
42	0x3f5eeba2	0.870783
43	0xbf4ae449	-0.79254586
44	0xbe8e1dad	-0.27757016
45	0xbe20a7c7	-0.15689002
46	0xbe9588e6	-0.29206008
47	0xbf445ba1	-0.76702315
48	0xbdd798a2	-0.10527159
49	0x3d60a37b	0.054843407
50	0xbed93392	-0.42422158
51	0xbf5b4092	-0.856454
52	0xbf2b17a7	-0.66832966
53	0x3f6f53a3	0.93486995
54	0xbf6203d3	-0.88287085
55	0xbe4514c9	-0.1924621
56	0xbf8e32c4	-1.1109242
57	0xbe92ecee	-0.28696388
58	0xbece0129	-0.4023526
59	0x3e34d6f7	0.17660128
60	0x40008f2a	2.008738
61	0xbf3303c7	-0.6992764
62	0xbf530331	-0.82426745
63	0x3ef71e2c	0.48265207

l2.weight f4 [128, 64]
0	0xbe0ad82d	-0.13559027
1	0xbf90d68d	-1.1315476
2	0xbdc00001	-0.09375001
3	0xc02ee516	-2.7327323
4	0xbefc0284	-0.4922067
5	0xbf30cbd0	-0.69060993
6	0x3f1e39e6	0.61807096
7	0x404307c9	3.0473502
8	0xbf82cccd	-1.021875
9	0xbf0f756c	-0.56038547
10	0x3dd01212	0.10159697
11	0xbd94aa3d	-0.07259033
12	0xbe85b93c	-0.26117885
13	0xbea144ce	-0.31497806
14	0xbd0ba02c	-0.0340883
15	0x400985e5	2.1487973
16	0xbf06606c	-0.5249088
17	0xbc38f4df	-0.011288851
18	0xbfb955bf	-1.4479293
19	0x3d4043f8	0.04693982
20	0xbfe3b56b	-1.7789739
21	0x3ff4aebc	1.9115825
22	0xbf3cfb58	-0.7382102
23	0xbe212657	-0.15737282
24	0xbe1fc14d	-0.15601082
25	0x3f76ca94	0.9640286
26	0x3f800bea	1.0003636
27	0x3fa0ed4e	1.257242
28	0x3ecdd569	0.40201882
29	0xbedabee2	-0.42723757
30	0x3f18f18d	0.5974358
31	0x3ec2f760	0.38079357
32	0x3d56d619	0.052450273
33	0x3f3c54ef	0.735671
34	0x3f1dad46	0.6159252
35	0xbf773ca4	-0.96576905
36	0x404d5931	3.2085688
37	0x3df8ca4c	0.1214796
38	0x40121616	2.282598
39	0x3f5e8931	0.8692809
40	0xc0c8b1c8	-6.271702
41	0xbf98923e	-1.191963
42	0xbf963c95	-1.1737238
43	0x3f0119a5	0.50429755
44	0x3de32b23	0.11092212
45	0xbd050bcd	-0.032481957
46	0xbe07fe7d	-0.13280673
47	0xbf0892ec	-0.53349185
48	0xbe856734	-0.260553
49	0xbf833c84	-1.0252843
50	0x3ed40e62	0.41417223
51	0xbeab5df7	-0.33470127
52	0x40598e32	3.399304
53	0x3f7cc69c	0.98740554
54	0xbf98c695	-1.1935602
55	0xbef85774	-0.4850422
56	0xbe15ef3d	-0.14642043
57	0xbd72183b	-0.05910514
58	0xbdac397e	-0.08409403
59	0xbd3d5850	-0.0462268
60	0x4001818d	2.0235322
61	0xbe871e44	-0.26390278
62	0x401d0f76	2.4540687
63	0x40523362	3.2843862
64	0xbf173c0e	-0.5907601
65	0xbf1e41b6	-0.61819017
66	0xbebd2bc7	-0.36947462
67	0xbf0c1495	-0.54718906
68	0xbe8a3e45	-0.27000633
69	0x3f2a7528	0.66585016
70	0xbf42a170	-0.76027584
71	0x3c8d05fc	0.017214768
72	0xbf5e020a	-0.8672186
73	0xbe47fbc1	-0.1952963
74	0x3cba76d0	0.022761732
75	0xbe94f606	-0.2909395
76	0x3f0b6724	0.54454255
77	0x3e78e34b	0.24305455
78	0xbe09c9dd	-0.13455911
79	0x3f0139ac	0.50478625
80	0xbe582b81	-0.21110345
81	0xbea179ee	-0.31538337
82	0xbee0b4ab	-0.4388784
83	0xbe83f995	-0.25776353
84	0xbf1539fe	-0.58291614
85	0xbf350da8	-0.7072396
86	0x3f3c580f	0.73571867
87	0x3bea2f3b	0.0071467436
88	0x3be8e3fb	0.0071072555
89	0xbf9dd38e	-1.2330186
90	0xbf21f497	-0.6326384
91	0x3c9ec8dd	0.019382888
92	0xbf044a0d	-0.5167549
93	0x3e3ac747	0.18240081
94	0x3e73fbd3	0.23826532
95	0x3ef2c0fc	0.4741286
96	0xbc88785c	-0.016658954
97	0x3caa056e	0.020754542
98	0xbd9ddf46	-0.07708602
99	0xbf1fbbd6	-0.6239599
100	0xbe004a6a	-0.12528387
101	0x3d2f9fce	0.04287701
102	0xbe686182	-0.22693446
103	0x3d2cd9a6	0.042199753
104	0xbdd64592	-0.10462488
105	0xbeac5027	-0.336549
106	0xbe8d9815	-0.27655092
107	0xbf8ef22c	-1.1167655
108	0xbdb91bf0	-0.09038532
109	0x3cd4f989	0.025997894
110	0xbdef7792	-0.11692728
111	0x3ec40d81	0.38291553
112	0xbd75aa4a	-0.059976853
113	0xbf629dbb	-0.8852193
114	0x3f06395c	0.52431273
115	0x3f432d48	0.7624097
116	0xbea8e207	-0.32984945
117	0xbe97bc2e	-0.29635757
118	0xbeffc9b4	-0.49958575
119	0xbe7e80cc	-0.2485382
120	0xbf1b9acd	-0.6078308
121	0x3d80bf05	0.06286434
122	0xbc96f8dd	-0.018429214
123	0x3eb6abb7	0.35677883
124	0xbf5c0ae9	-0.8595415
125	0xbcdb7b2a	-0.026792128
126	0xbf91e8c6	-1.1399162
127	0xbd154cbe	-0.03645014
128	0xbe8dbccd	-0.27683106
129	0xbfec47f3	-1.8459457
130	0xbe0dbe5c	-0.13842148
131	0xbed7469a	-0.42046052
132	0xbf6a02b3	-0.9141037
133	0xbf667553	-0.9002277
134	0xc06684f3	-3.6018646
135	0x3ebc51cf	0.36781165
136	0xbf534342	-0.825245
137	0x3e98e2b5	0.29860464
138	0xbb938225	-0.0045015984
139	0x3f031aec	0.51212955
140	0x3efdb73c	0.4955386
141	0x40625512	3.5364423
142	0xbdbe36f7	-0.092878275
143	0x40123f7d	2.285125
144	0xbe38eb80	-0.18058586
145	0x3dace87e	0.08442782
146	0x3f11c72d	0.56944543
147	0xbc320388	-0.0108651
148	0xc0aaff6f	-5.343681
149	0xbf68d45b	-0.9094903
150	0xbc99f426	-0.018793177
151	0xbd26568c	-0.04060988
152	0xbe90bbfe	-0.28268427
153	0xc0198216	-2.3985648
154	0xbecb0770	-0.39654112
155	0xbeaea9b6	-0.34113854
156	0xc0a54f2e	-5.1659155
157	0xbfc67520	-1.5504494
158	0xbe80da5d	-0.25166598
159	0xbe87e194	-0.2653929
160	0xbe39d387	-0.18147098
161	0xc08a06cd	-4.31333
162	0x3faf2846	1.3684165
163	0x4026c17e	2.6055598
164	0xbf8d7d85	-1.105393
165	0x3fac284e	1.34498
166	0x3e7c1f6b	0.2462136
167	0xbed7adb9	-0.42124727
168	0xc0213787	-2.5190141
169	0xbf44af38	-0.7682986
170	0xbfaf4787	-1.3693703
171	0x408180c4	4.0469685
172	0x3bbc7fe7	0.005752552
173	0xbdf3a9cb	-0.1189762
174	0xbcd8dc11	-0.026472123
175	0xbfd3c812	-1.6545432
176	0xbe119145	-0.14215572
177	0xc046bc39	-3.1052382
178	0x3fc73f79	1.5566245
179	0x3f477ad8	0.7792182
180	0xc0d8cc72	-6.7749567
181	0x3f9e6fcd	1.2377869
182	0xbfa5b32f	-1.2945307
183	0x3e920bee	0.28524727
184	0xbfbea138	-1.489295
185	0xbe4deda1	-0.2011018
186	0x3e236877	0.15957819
187	0xc001016d	-2.015712
188	0xbeecccc3	-0.4624997
189	0xbf3d84d7	-0.7403082
190	0x3ec6f928	0.38861966
191	0xbf16a3b5	-0.5884355
192	0x3f3461c7	0.70461696
193	0x3f732114	0.9497235
194	0x3ba3d766	0.0050000427
195	0xbf911c16	-1.1336696
196	0xbf386e80	-0.7204361
197	0x3e1c069e	0.152369
198	0xbfebb5db	-1.8414873
199	0xbe6dc78b	-0.23220651
200	0xbe375928	-0.17905104
201	0xc0444e59	-3.067282
202	0x3bb1fd47	0.0054318043
203	0xbe639ec2	-0.2222853
204	0x3fa7b797	1.3102902
205	0xbf47aff9	-0.7800289
206	0x3e0786f5	0.13235076
207	0x3f743733	0.9539673
208	0xbf8f8445	-1.121224
209	0xbe9b56d5	-0.30339685
210	0x3fac18ae	1.3445032
211	0x3c6ee643	0.014581266
212	0xc02f01ff	-2.7344968
213	0x3fb8f0f7	1.4448537
214	0x3f1703ce	0.5899018
215	0xbda654e7	-0.081216626
216	0xbfe53693	-1.790728
217	0xbfce37d8	-1.6110792
218	0x3f994076	1.1972797
219	0xbfaeaff7	-1.364745
220	0xc05620da	-3.345755
221	0xbe67959b	-0.22615664
222	0xbe82c2a5	-0.25539127
223	0x3fe1e0aa	1.7646687
224	0xbddfae2a	-0.10921891
225	0xc0669eba	-3.603438
226	0xc012235e	-2.2834086
227	0x3f0de24c	0.55423427
228	0xbeda0b31	-0.42586663
229	0xbe998d05	-0.29990402
230	0xbe59aa52	-0.21256378
231	0xbd1a6956	-0.037698112
232	0xbf304a20	-0.68863106
233	0xbf6a41fb	-0.9150693
234	0x3fb6e010	1.4287128
235	0xc003ba4d	-2.058246
236	0x3d108d1d	0.035290826
237	0x3eac62e6	0.33669204
238	0xbe318f20	-0.17339754
239	0xbef95494	-0.4869734
240	0x3c488b81	0.012240292
241	0xbf441c59	-0.76605755
242	0x3f489351	0.78349787
243	0x3eb47617	0.35246345
244	0xbf9da7ce	-1.2316835
245	0x3f1fb4ce	0.6238526
246	0xc019b5a5	-2.4017117
247	0x3f76404b	0.96191853
248	0xbf6a70db	-0.91578454
249	0x3d1cde3d	0.03829788
250	0xbe1606ae	-0.14650986
251	0xc0404331	-3.004101
252	0xbf00eead	-0.5036419
253	0xbe89fbdd	-0.2694997
254	0xc0201cb6	-2.5017524
255	0xbf9f557d	-1.2447964

l2.bias f4 [128]
0	0x3fc8ffe9	1.5703098
1	0xbf307f40	-0.6894417
2	0xbfd895c2	-1.6920702
3	0xbf322138	-0.6958194
4	0xbf69ad8b	-0.9128043
5	0x3eaaf6d7	0.3339145
6	0xbed5c252	-0.41749817
7	0x3fb45f70	1.4091625
8	0xbf92429d	-1.1426579
9	0xbfa90c37	-1.3206853
10	0xbf574b4a	-0.84099257
11	0xbf5178a9	-0.8182474
12	0xbf0c9645	-0.54916793
13	0xbf653052	-0.89526856
14	0xbf12fa36	-0.5741304
15	0xbd8af2bd	-0.0678458
16	0xbf6a6073	-0.9155342
17	0xbe87286c	-0.26398027
18	0xbfc2e7c1	-1.5226976
19	0xbf64277a	-0.89122736
20	0xbf69fc73	-0.9140083
21	0xbf6373ca	-0.88848555
22	0xbf8fb70d	-1.1227738
23	0xbfc8b1c9	-1.5679256
24	0xbf78afbc	-0.9714315
25	0xbfcebbe1	-1.6151086
26	0xbd2736ae	-0.04082363
27	0xbf040ac5	-0.51578933
28	0xbfb38bb8	-1.4027014
29	0xbe934216	-0.28761357
30	0x3fb83e10	1.439394
31	0xbe5ed369	-0.21760334
32	0xbe88b935	-0.26703802
33	0xbe6b2acb	-0.22965543
34	0xbe57bc92	-0.21068028
35	0xbecff208	-0.40614343
36	0x3e09caa4	0.13456208
37	0xbe91088e	-0.2832684
38	0xbfa68b98	-1.3011351
39	0xbee2f53b	-0.4432772
40	0xbe7c13b4	-0.24616891
41	0x3faea8ef	1.3645304
42	0xbf4be231	-0.79642016
43	0xbfef6a4a	-1.8704312
44	0xc04edfd1	-3.2324107
45	0xbe8443cd	-0.25832978
46	0xbf8d208d	-1.1025559
47	0xbf474749	-0.7784315
48	0xbdeddefb	-0.11614796
49	0xbecacff8	-0.39611793
50	0xbdbbf1b8	-0.091769636
51	0x3f12f00e	0.57397544
52	0xbf99a9ee	-1.2004983
53	0xbfb58cff	-1.4183654
54	0xc02cb5b7	-2.698591
55	0xbf6559bb	-0.8959004
56	0xbf3e36f8	-0.74302626
57	0xbe8722f5	-0.26393858
58	0xbfa73907	-1.3064278
59	0xbe0daad5	-0.13834698
60	0xbea1cf17	-0.3160331
61	0xbf57bb02	-0.84269726
62	0xbe73dfb4	-0.23815805
63	0x40156e56	2.3348594
64	0xbddc8fba	-0.10769601
65	0x3f86282d	1.0481011
66	0x3f8c8064	1.0976682
67	0x40b716bf	5.7215266
68	0xbf4cae19	-0.7995315
69	0xbfab9a1e	-1.3406408
70	0xbf9bf4a6	-1.2184036
71	0xbf090ccc	-0.5353515
72	0xbdd3abf2	-0.1033553
73	0x3e219866	0.15780792
74	0xbd20b446	-0.039234422
75	0xbe66cd9b	-0.2253937
76	0xbe945a8e	-0.28975338
77	0x3ebb2120	0.3654871
78	0xbe578c22	-0.2104955
79	0xc0006433	-2.0061157
80	0xbe5bac62	-0.21452478
81	0xbf9f9b06	-1.2469184
82	0xbe18bec6	-0.14916524
83	0x3f9cc795	1.2248408
84	0xbf6445f3	-0.89169234
85	0xbf0a1e3d	-0.5395239
86	0xbef2fc5c	-0.4745816
87	0xbf87222d	-1.0557305
88	0xbde9a10b	-0.1140767
89	0xbe3aa358	-0.18226373
90	0xbf4ce0e1	-0.8003064
91	0x3fb5e098	1.4209166
92	0xbf0e7465	-0.55646354
93	0x4015115d	2.3291848
94	0xbf9f8206	-1.2461555
95	0xbe3355d0	-0.17513204
96	0xbd814a15	-0.06312958
97	0xbf22adbf	-0.63546365
98	0xbf4bd8d1	-0.7962771
99	0xbe21a4e7	-0.15785562
100	0x3d30870f	0.043097552
101	0xbda2b58f	-0.07944786
102	0xbf8c4375	-1.0958086
103	0xbfd69b82	-1.6766207
104	0x3e7a0cf3	0.24419002
105	0xbd819385	-0.06326965
106	0xbe8b5915	-0.27216402
107	0xbf984cb6	-1.189841
108	0xbf1a3d96	-0.6025022
109	0xc008672d	-2.1312973
110	0xbe303760	-0.17208624
111	0xbe5bdb42	-0.21470359
112	0xbff949a3	-1.9475597
113	0x3f90f11d	1.1323582
114	0x3f981ab6	1.1883152
115	0xbf0616fd	-0.5237883
116	0xbf435520	-0.76301765
117	0xbe317170	-0.17328429
118	0xbee72773	-0.45147285
119	0xbea30927	-0.3184292
120	0xbf96808e	-1.1757982
121	0xbe4cefb9	-0.20013322
122	0xbf86fe3d	-1.0546337
123	0xbf2d0ade	-0.67594707
124	0xbf356398	-0.70855093
125	0x40173055	2.362325
126	0xbf5393b9	-0.8264728
127	0xbe94b39e	-0.29043287

l3.weight f4 [256, 128]
0	0xbee08372	-0.43850285
1	0x3ef9b253	0.48768863
2	0xbdfb3cdb	-0.12267467
3	0x3fbbe088	1.4677896
4	0xbf8795cd	-1.059259
5	0xbe05cf1d	-0.13067289
6	0xbf978965	-1.1838804
7	0x3f20a187	0.6274647
8	0xbf23dcde	-0.6400889
9	0x3d0e72d5	0.03477748
10	0x3fac0207	1.3438119
11	0xbf4f5691	-0.80991465
12	0xbe71f12a	-0.23627153
13	0xbf72afcc	-0.94799495
14	0xbe3b45d7	-0.1828836
15	0x3db14420	0.08655572
16	0x3f104b7d	0.56365186
17	0x3f842555	1.0323893
18	0x3fb379bf	1.4021529
19	0xbef5897c	-0.47956455
20	0x3e9663a6	0.293729
21	0xbf5a7702	-0.8533784
22	0x3edf7522	0.43644053
23	0x3f744544	0.9541819
24	0x3d56a351	0.052401844
25	0xbfb9eedf	-1.4526023
26	0x3f6db4cb	0.92853993
27	0x3edaadb1	0.4271064
28	0xbf5ddee2	-0.8666822
29	0x3caa8eef	0.02082011
30	0xbe0e2d4d	-0.13884468
31	0x3f5e6862	0.86878026
32	0x3d2014e6	0.03908243
33	0xbc1a1e56	-0.009406647
34	0x3f0be67d	0.5464857
35	0xbf5aef52	-0.85521424
36	0x3f82d885	1.0222327
37	0xbc1b641d	-0.009484318
38	0x3f0953e4	0.5364363
39	0xbd805df2	-0.06267919
40	0x3c27cf06	0.010242229
41	0x3e80b0f5	0.25135008
42	0xbee8381b	-0.45355305
43	0xbedc2ed9	-0.43004492
44	0x3d415ba9	0.047206555
45	0x3de8705b	0.11349555
46	0xbf982a56	-1.188792
47	0xbf9b3d0d	-1.2128006
48	0xbdc8ea08	-0.09810263
49	0x3e9914b5	0.2989861
50	0x3bb09b60	0.005389616
51	0xbfcf1b30	-1.6180172
52	0x3e6a71a2	0.2289491
53	0x3f102f5e	0.56322277
54	0x3e54ab6a	0.20768514
55	0x3e537541	0.20650198
56	0x3da13916	0.078722164
57	0x3d4b3718	0.04961309
58	0x3f29052e	0.6602353
59	0x3bcd2d70	0.00626152
60	0xbe16b0fd	-0.14715953
61	0x3e5dfe21	0.21678974
62	0x3e86cd04	0.2632829
63	0x3e8d4c4c	0.27597272
64	0xbce149e3	-0.027501052
65	0xc023aa17	-2.5572565
66	0xc006075c	-2.0941992
67	0xbf3bfca7	-0.7343239
68	0x3d52e4b9	0.05148766
69	0xbee93473	-0.45547828
70	0xbf4aaa79	-0.7916637
71	0x3e582c49	0.21110643
72	0x3df028eb	0.117265545
73	0x3fa6398e	1.2986314
74	0xbf4fe651	-0.8121081
75	0x3d909d86	0.07061295
76	0x3edddafa	0.43331128
77	0xbeb3d780	-0.3512535
78	0x3ec64ed8	0.38732028
79	0xbd73763b	-0.059438925
80	0xbe5dc1fa	-0.21656027
81	0x3f3c71d7	0.73611206
82	0x3ca825bf	0.020525811
83	0x3efc57ac	0.49285638
84	0xbddc15da	-0.10746355
85	0x3dd01c3a	0.10161634
86	0xbd75833b	-0.059939604
87	0xbf3f66e0	-0.7476635
88	0x3d99765e	0.0749328
89	0x3d972245	0.07379583
90	0x3d93572d	0.07194362
91	0xbee17b1b	-0.44039235
92	0x3f72acab	0.9479472
93	0x3f18fd46	0.59761465
94	0xbfb8b020	-1.4428749
95	0xbf4e2068	-0.805182
96	0x3cfdc933	0.030979728
97	0x3e954f15	0.29161897
98	0xbebca4a0	-0.3684435
99	0x3cd1ef69	0.025626855
100	0xbf0db81d	-0.5535906
101	0xbda0015f	-0.078127615
102	0x3d8bce44	0.068264514
103	0x3ded74bb	0.1159453
104	0xbdf236b4	-0.1182684
105	0x3ea97fd7	0.33105347
106	0xbdeac3ab	-0.11463102
107	0xbe0962bd	-0.13416572
108	0xbfa97bef	-1.3240947
109	0xbf622182	-0.8833238
110	0x3dd12daa	0.10213788
111	0x3d0f099c	0.034921274
112	0xbfac94e7	-1.3482941
113	0x3e5044d9	0.20338763
114	0xc009036c	-2.1408339
115	0xbdd48842	-0.103775516
116	0xbf70a5ec	-0.94003177
117	0x3d7e0493	0.06201608
118	0xbea73b5e	-0.3266248
119	0xbc346e48	-0.011012621
120	0x3ebd3780	0.36956406
121	0x3d2afd17	0.04174527
122	0xbe3237e0	-0.17404127
123	0x3f02d564	0.5110686
124	0x3eeca1ca	0.46217185
125	0xbe96f10e	-0.29480785
126	0xbf72507b	-0.94654053
127	0xbd56eb31	-0.05247039
128	0xbf20bf37	-0.6279177
129	0xbf56fad1	-0.83976465
130	0xbed9219a	-0.42408448
131	0xbe96d35d	-0.29458132
132	0xbfa84d96	-1.3148677
133	0xbdc80cf1	-0.097680934
134	0x3e85f884	0.26166165
135	0x3ece5718	0.40300822
136	0x3e8c3ec4	0.27391636
137	0xbdd975fa	-0.10618205
138	0xbdebd903	-0.11516001
139	0xbf036c2c	-0.5133693
140	0xbf88ecc4	-1.0697255
141	0xbef7165c	-0.48259246
142	0xbe84fcf5	-0.2597424
143	0xbd86bff4	-0.06579581
144	0xbe318cc8	-0.1733886
145	0xbda54377	-0.080695085
146	0xbcdf7841	-0.027279021
147	0x3e524df2	0.20537546
148	0x3e9acafe	0.30232996
149	0xbf439149	-0.7639356
150	0xbf30f537	-0.6912417
151	0x3d5dbd49	0.054135595
152	0xbf6e1033	-0.9299347
153	0xbf6c1783	-0.92223376
154	0xbe2c7416	-0.16841158
155	0xbda04237	-0.078251295
156	0xbe8d78d5	-0.2763125
157	0xbe783834	-0.2424019
158	0xbed3a291	-0.41334966
159	0xbfa1c107	-1.2637032
160	0x3c8e4c8d	0.017370487
161	0x3d801ac2	0.06255104
162	0xbe1afcfe	-0.15135571
163	0xbdae8f27	-0.08523398
164	0xba91bb76	-0.001111849
165	0xbd991af6	-0.074758455
166	0xbe0b264d	-0.1358883
167	0x3e2ec69f	0.17067955
168	0xbf553742	-0.8328744
169	0xbe1d8e06	-0.15386209
170	0x3d920805	0.07130436
171	0xbeb0bb68	-0.3451798
172	0xbed4a142	-0.4152928
173	0xbdacaf77	-0.08431905
174	0x3d99fb2e	0.07518612
175	0x3e9005f4	0.28129542
176	0xbcc9e279	-0.024644123
177	0xbe3a6a50	-0.18204618
178	0xbd61caff	-0.055125233
179	0xbf8bc674	-1.0919938
180	0xbf45f119	-0.7732101
181	0xbe329988	-0.1744138
182	0x3fcac058	1.5839949
183	0xbe60b3e3	-0.21943621
184	0xbe8a23b5	-0.26980367
185	0x3d3bac2f	0.045818504
186	0xbe73deec	-0.23815507
187	0x3ca763fe	0.020433422
188	0x3eafc7a7	0.3433201
189	0xbf1977ee	-0.59948623
190	0xbcd58a12	-0.026066814
191	0xbe930a9e	-0.28719038
192	0x3d9abdb6	0.07555716
193	0xbe8b4fb5	-0.2720925
194	0xbebf3990	-0.37348604
195	0xbf4e51a1	-0.80593306
196	0xbceaf5ab	-0.028681597
197	0x3e03b0ec	0.12860459
198	0x3e511f99	0.2042221
199	0x3df52fa4	0.11971977
200	0x3c4c8898	0.012483738
201	0x3df5590b	0.11979874
202	0xbf09c20d	-0.53811723
203	0x3c6158bb	0.013754065
204	0xbe635b93	-0.22202902
205	0xbe812ebd	-0.2523097
206	0x3d122295	0.03567751
207	0xbf8760ad	-1.0576378
208	0xbde89062	-0.11355664
209	0x3eb47d1f	0.3525171
210	0xbce6e8f3	-0.02818725
211	0xbfd39162	-1.6528742
212	0xbea86827	-0.32891962
213	0x3e6dd342	0.2322512
214	0xbe910c76	-0.2832982
215	0xbf3161d0	-0.69289875
216	0x3b3651e0	0.0027819797
217	0xbc581411	-0.013188378
218	0xbeb94a08	-0.36189294
219	0x3dd907d1	0.10597194
220	0xbf77327c	-0.9656141
221	0xbf1fd8be	-0.624401
222	0x3f4f0c58	0.8087821
223	0xbe85f49d	-0.26163188
224	0x3d39b8b2	0.045342155
225	0xbe09d65c	-0.13460678
226	0x3e1d6ba5	0.15373094
227	0xbcab53cf	-0.020913986
228	0x3f15d31e	0.58525264
229	0xbd6ff754	-0.05858548
230	0xbe76f71c	-0.24117702
231	0x3ed96659	0.42460898
232	0x3e9e80fe	0.30957788
233	0xbc5bfa82	-0.013426425
234	0xbcdcca52	-0.026951943
235	0x3e54a2d1	0.20765235
236	0xbeea3fa3	-0.45751676
237	0xbf34df90	-0.7065363
238	0x3d37bb97	0.044856634
239	0xbbcd3798	-0.006262731
240	0xbdcaa758	-0.098951995
241	0xbf480db9	-0.7814594
242	0xbf4bf811	-0.79675394
243	0xbe81c00c	-0.25341833
244	0xbccff2d1	-0.025384339
245	0xbdcdf639	-0.10056729
246	0x3f7f716c	0.99782443
247	0xbd3c45ef	-0.04596513
248	0xbe44b321	-0.19208957
249	0x3c059164	0.00815234
250	0xbf05f17d	-0.52321607
251	0xbe64759b	-0.22310488
252	0xbeb3417f	-0.35010907
253	0x3dc7f710	0.0976392
254	0xbf4f6181	-0.81008154
255	0x3c29854e	0.010346724

l3.bias f4 [256]
0	0xbf1a23cd	-0.6021088
1	0xbefc76ec	-0.4930948
2	0xc016ba5e	-2.355125
3	0xbf286f2f	-0.6579465
4	0xbf0f7a1d	-0.56045705
5	0xbf6eb82a	-0.9324976
6	0xbfdd69b1	-1.729788
7	0xbda7b607	-0.08189016
8	0xbf4d4e41	-0.8019753
9	0xbf3a47f0	-0.7276602
10	0xbf48e491	-0.78473765
11	0xbf302f90	-0.68822575
12	0xbf421ef9	-0.7582851
13	0xbf305f38	-0.6889529
14	0x3e1a9f3d	0.15099807
15	0xbee2ebdb	-0.44320568
16	0xbdde0b6a	-0.10842021
17	0xbf3343d8	-0.70025396
18	0xbe5a8daa	-0.21343103
19	0xbe732d94	-0.23747855
20	0xbf26b2a7	-0.6511635
21	0xbdd91cea	-0.10601218
22	0xbe860b45	-0.26180473
23	0xbeba3210	-0.3636632
24	0xbf03cf65	-0.51488334
25	0x3f36888f	0.7130212
26	0xbf961716	-1.1725795
27	0xbe5ecf82	-0.21758845
28	0xbf7ea0d3	-0.9946415
29	0xbee3a053	-0.44458255
30	0xbf2cd047	-0.67505306
31	0xbf36310f	-0.7116861
32	0xbe69466b	-0.22780769
33	0xbdd03f62	-0.10168339
34	0xbf12ef46	-0.5739635
35	0xbeff1d0c	-0.49826849
36	0xc02755ef	-2.61462
37	0xbec4a5d9	-0.38407782
38	0xbebf51c7	-0.3736708
39	0xbf4b7fc1	-0.7949181
40	0x3ec90f88	0.39269662
41	0xbf0650cd	-0.5246704
42	0xc003852d	-2.0550034
43	0x3e9cfa5e	0.30659765
44	0xbf25cf4f	-0.6476945
45	0xbebb21e7	-0.36549303
46	0xbf8d98dd	-1.1062275
47	0xbef2183c	-0.47284114
48	0x3c987876	0.018612128
49	0xbbd9bb82	-0.006644667
50	0xbfa90aa7	-1.3206376
51	0xbfbedb07	-1.4910592
52	0xbf0259f5	-0.50918514
53	0xbf9aedf1	-1.2103864
54	0xbe461cd9	-0.19346942
55	0xbe452789	-0.19253363
56	0xbe99a606	-0.30009478
57	0xbf533149	-0.8249708
58	0xbfe207bb	-1.7658609
59	0xbe389270	-0.18024611
60	0xbf063bb5	-0.52434856
61	0xbdfa171c	-0.12211439
62	0xbf133a45	-0.5751079
63	0xbed73eca	-0.42040092
64	0xbfeae223	-1.8350261
65	0xbf1efec6	-0.62107503
66	0xbf0207ed	-0.50793344
67	0x3f0fd19c	0.56179214
68	0xbeaa664f	-0.3328118
69	0xbf6f00d2	-0.93360627
70	0x3f3cf9c8	0.73818636
71	0xbf367508	-0.71272326
72	0xbd6a451b	-0.05719481
73	0xbeaf3337	-0.3421876
74	0xbeb3e7e8	-0.35137868
75	0xbf563dc2	-0.83687985
76	0xbee93602	-0.45549017
77	0xbebea2c8	-0.37233567
78	0xbfb0ba9f	-1.3806952
79	0xbf4d9171	-0.8030005
80	0xbf07173c	-0.5276983
81	0xbf888cad	-1.0667931
82	0xbee3acd3	-0.44467792
83	0xbf408bd9	-0.7521339
84	0xbf154fde	-0.5832499
85	0xbf5339e2	-0.825102
86	0xbfa9f11f	-1.3276709
87	0xbdf8f47c	-0.12156007
88	0xbef4c6f4	-0.4780804
89	0xbe921936	-0.2853486
90	0xbf20c257	-0.6279654
91	0xbe3ad490	-0.18245149
92	0xbedcb3aa	-0.43105823
93	0xbf27f7a6	-0.65612257
94	0xbf32c160	-0.69826317
95	0xbfd9d932	-1.7019408
96	0xbffd6214	-1.9795556
97	0xbf828b2c	-1.0198722
98	0xbe1fcd06	-0.15605554
99	0xbf50ecd1	-0.81611353
100	0xbf179c26	-0.5922264
101	0xbf5f84c2	-0.8731195
102	0xbfa0a6ff	-1.2550963
103	0xbe120a5e	-0.14261767
104	0x3e17983e	0.1480417
105	0xbfffe8f4	-1.9992967
106	0xbf8d91d5	-1.106013
107	0xbf604042	-0.8759805
108	0xbf7e7384	-0.9939501
109	0xbea54ff7	-0.3228757
110	0xbe74a23c	-0.23890013
111	0xbfd7789a	-1.683368
112	0xbe271387	-0.16316043
113	0xbeb538a0	-0.35394764
114	0xbfbfa7b8	-1.4973059
115	0xc00e4e1d	-2.2235177
116	0xbf6163ab	-0.88042706
117	0xbe9eb16e	-0.30994743
118	0xbee81cc3	-0.45334443
119	0xbf7af81c	-0.98034835
120	0xbf5beae2	-0.8590528
121	0xbf90fa7e	-1.1326444
122	0xbf821d05	-1.0165106
123	0xbf653a7b	-0.8954236
124	0xbff94814	-1.9475121
125	0xbf9e92f6	-1.2388599
126	0xbe3634f8	-0.17793643
127	0xbf312a58	-0.69205236
128	0xbfd9a732	-1.7004149
129	0xbf1fda4e	-0.6244248
130	0xbe818aed	-0.25301304
131	0xbe7d7983	-0.24753384
132	0xbe72778c	-0.23678416
133	0xbf0a7685	-0.54087096
134	0x3e8cac24	0.27475083
135	0xbe1aa646	-0.15102491
136	0xbfdc76ba	-1.7223732
137	0xbf108486	-0.56452215
138	0xbf8204cd	-1.0157715
139	0xbedbfe6a	-0.4296754
140	0xbe1b0726	-0.15139446
141	0x3ca66de6	0.020316076
142	0xbdbbc3a0	-0.09168172
143	0xbf134086	-0.5752033
144	0xbfbc3f0f	-1.4706744
145	0x3f6e26db	0.9302804
146	0xbf2b717f	-0.66970056
147	0x3c5d7ec9	0.0135189975
148	0xbfdc8721	-1.7228738
149	0xbf3666f8	-0.7125087
150	0xbdb54a98	-0.08852118
151	0xbf1eb876	-0.62000215
152	0xbf83d1bd	-1.0298382
153	0x3dc23668	0.094830334
154	0xbf922f16	-1.142062
155	0xbf378038	-0.7168002
156	0xbeb69ce0	-0.3566656
157	0xbf74686c	-0.95471835
158	0xbf3698f8	-0.7132716
159	0xbdf4140c	-0.11917886
160	0xbf40bdd9	-0.75289685
161	0xbf0d398d	-0.5516594
162	0x3d5a56f9	0.0533056
163	0xbe8c0e55	-0.27354684
164	0xbf2d24a7	-0.6763405
165	0xbf30f470	-0.6912298
166	0xbf93847e	-1.1524808
167	0xbfa585de	-1.2931478
168	0xbf39efa8	-0.7263131
169	0xbf374f00	-0.7160492
170	0xbf9b8296	-1.2149227
171	0xbedf7dba	-0.4365061
172	0xbf72633c	-0.9468267
173	0xbf0b48ad	-0.5440777
174	0xbe02272d	-0.12710257
175	0xbf435391	-0.7629939
176	0xbfc0c1c1	-1.5059129
177	0xbf5a718a	-0.85329497
178	0xbf2a6c8f	-0.665719
179	0xbf731624	-0.9495566
180	0xbf726724	-0.9468863
181	0xbf1520fe	-0.5825347
182	0xbee4f683	-0.44719324
183	0xbf26fa86	-0.6522602
184	0xbe156365	-0.14588697
185	0xbf31a81f	-0.6939716
186	0xbf10fd9e	-0.5663699
187	0xc01ac586	-2.4183059
188	0xbfab4817	-1.3381375
189	0xbf5a9192	-0.8537837
190	0xbf987555	-1.1910807
191	0xbe75d47c	-0.24006838
192	0xbf8c0a6d	-1.0940682
193	0xbf84009d	-1.0312687
194	0xbf8032fb	-1.0015558
195	0xbe252e5f	-0.1613097
196	0x3f2914cf	0.66047376
197	0xbfb41790	-1.4069691
198	0xbdd6915a	-0.10476942
199	0xbe8b697d	-0.2722892
200	0x3e89c144	0.26905262
201	0xc0034a95	-2.0514271
202	0xbeec64da	-0.46170694
203	0xbf89c465	-1.076306
204	0xbf1c4f46	-0.6105846
205	0xbf7008e4	-0.93763566
206	0xbf2732c7	-0.65311855
207	0xbe6b6a13	-0.22989683
208	0xbe03ef6d	-0.12884302
209	0xbe57595a	-0.21030179
210	0x3f49db70	0.7885046
211	0xbf8b313d	-1.0874401
212	0xbdfeaa34	-0.124348074
213	0xbf6d412b	-0.92677563
214	0x3ef25aa4	0.47334778
215	0xbf173a7e	-0.59073627
216	0x3e7ab423	0.24482779
217	0xbe8f68ed	-0.2800974
218	0xbe43f099	-0.1913475
219	0xbd2e9ec7	-0.04263189
220	0xbfb51320	-1.4146461
221	0xbdf52a2b	-0.119709335
222	0xbf554c5a	-0.8331963
223	0xbf274e1f	-0.6535358
224	0xbfddb89a	-1.7321961
225	0xc001f39c	-2.0304937
226	0xbdb632a0	-0.08896375
227	0xbf46fab9	-0.7772632
228	0x3e83406d	0.2563509
229	0xbebace4f	-0.36485526
230	0xbe58c4a2	-0.2116876
231	0xbfeafb23	-1.8357891
232	0xbf05d625	-0.52279884
233	0xbf87c7cd	-1.0607849
234	0xbf63aff3	-0.8894035
235	0xbd97ee2e	-0.07418476
236	0xbf91e8c5	-1.1399161
237	0xbe3f92a0	-0.18708277
238	0x3f9b961e	1.2155187
239	0xc04a3229	-3.1593115
240	0xbf5c0571	-0.859458
241	0xbf3ffa88	-0.74991655
242	0xbfc25031	-1.5180722
243	0xbf4e1ed9	-0.8051582
244	0xbf30cfb8	-0.69066954
245	0xbfbdfa08	-1.4841928
246	0xbf82bdf5	-1.021422
247	0xbf08d48d	-0.53449327
248	0x3ee5e7eb	0.44903502
249	0xbfabdbbe	-1.3426435
250	0xbfbdfb98	-1.4842405
251	0xbf1513b6	-0.582332
252	0xbf00f105	-0.50367767
253	0xbe6b7a7b	-0.22995941
254	0xbdfaa164	-0.12237814
255	0xbef990bc	-0.48743236

l4.weight f4 [4, 256]
0	0x3f7a126c	0.9768436
1	0xbf12a9bd	-0.5729025
2	0x3ec4e6b0	0.3845725
3	0x3f24c28e	0.64359367
4	0x3e702a7c	0.23453707
5	0xbf0491ec	-0.5178516
6	0x3e4cb521	0.1999097
7	0xbf534ef9	-0.8254238
8	0x3e1c5716	0.15267596
9	0x3f99940d	1.1998307
10	0xbeb8bd67	-0.36082003
11	0x3de2256b	0.11042293
12	0xbec01ce8	-0.37522054
13	0x3f072d1c	0.52803206
14	0x3e90a48e	0.28250545
15	0x3f1ab1fd	0.6042784
16	0xbcedef62	-0.02904481
17	0x3f417570	0.7556982
18	0x3d83997c	0.06425759
19	0xbcc6ebe1	-0.024282398
20	0xbcd5aae2	-0.02608246
21	0x3cb0aaff	0.021565912
22	0x3c936e9e	0.017997082
23	0x3eb16680	0.34648514
24	0x3dc3f930	0.09569013
25	0x3eba3080	0.36365128
26	0x3ea91277	0.330219
27	0x3cfb9c2b	0.030714115
28	0xbcf97ba4	-0.030454464
29	0x3fc5aa00	1.5442505
30	0xbe2fb5af	-0.1715915
31	0xbea302e7	-0.31838152
32	0x3fdc4a31	1.7210141
33	0xbbf3a904	-0.0074359197
34	0xbf80cea4	-1.0063062
35	0xbf17a0d5	-0.59229785
36	0x3c9c7b05	0.019101629
37	0x3fd52161	1.6650811
38	0xbe2c7e3e	-0.16845033
39	0xbc8e9d04	-0.017408855
40	0x3f3b4a88	0.731606
41	0xbec66af8	-0.38753486
42	0x3f955d26	1.1669052
43	0xbee7607a	-0.45190793
44	0xbf0c9644	-0.5491679
45	0xbefdf813	-0.49603328
46	0xbf2f119e	-0.68386257
47	0x3cd59119	0.026070165
48	0xbe3fadf8	-0.18718708
49	0xbe60aa83	-0.21940045
50	0xbcdd2109	-0.026993291
51	0x3f8a62fc	1.0811458
52	0xbe8c187c	-0.2736243
53	0xbe822025	-0.2541515
54	0x3ec05911	0.37567952
55	0x3f049765	0.5179351
56	0xbe03370d	-0.12813969
57	0x3e4d39f0	0.20041633
58	0xbd5110c1	-0.05104137
59	0xbd2a8eef	-0.04164022
60	0x3e04261c	0.12905163
61	0x3cbe3ae0	0.023221433
62	0x3e6b58e2	0.22983125
63	0x3e89db0d	0.26924935
64	0xbe8b64cd	-0.27225342
65	0xbe08258c	-0.13295573
66	0x3e614e92	0.22002628
67	0x3efb544c	0.4908775
68	0xbc1e9616	-0.009679338
69	0x3e551801	0.20809938
70	0x3f2233df	0.633604
71	0x3c8195dd	0.01581853
72	0x3e18d6fd	0.14925762
73	0xbe2eded6	-0.17077193
74	0xbe8dad2c	-0.27671182
75	0x3e75545c	0.23957962
76	0xbecbbb20	-0.39791203
77	0xbd4274e9	-0.047474775
78	0x3e04e7dc	0.12979072
79	0xbebd27df	-0.36944482
80	0x3f8afc1c	1.0858188
81	0x3e5bef47	0.21477996
82	0xbd03a214	-0.03213699
83	0x3e322a98	0.1739906
84	0xbefd06ab	-0.4941915
85	0xbea9db3e	-0.3317508
86	0xbe245f56	-0.16051993
87	0x3fa2996e	1.2703073
88	0xbec1ecf8	-0.37876105
89	0x3f0a3674	0.5398934
90	0xbb480b60	-0.0030524358
91	0xbde70a8a	-0.11281307
92	0xbee489ea	-0.4463647
93	0x3fbf4227	1.4942063
94	0x3e9f6776	0.31133622
95	0xbeee8dfa	-0.46592695
96	0x3e9e3216	0.30897588
97	0xbe4b9b18	-0.19883382
98	0x3f394ad0	0.7237978
99	0xbef7f054	-0.48425543
100	0xbf55d831	-0.83533007
101	0x3f9fdbde	1.2488973
102	0xbeba3f58	-0.36376452
103	0xbcce7659	-0.025202917
104	0x3da53ba7	0.080680184
105	0xbeb75f67	-0.35814974
106	0xbf3e2ccf	-0.7428712
107	0xbf399a7f	-0.7250137
108	0xbed753e1	-0.42056182
109	0x3f53f30a	0.82792723
110	0x3e7d051b	0.24708979
111	0xbe834ced	-0.25644627
112	0xbba5c2cf	-0.0050586234
113	0xbf075cc4	-0.52875924
114	0x3c83c6cc	0.016086005
115	0x3e5c4d51	0.21513869
116	0xbd8ec734	-0.06971589
117	0x3ebc8947	0.36823484
118	0xbdf02a7b	-0.117268525
119	0xbfa605fe	-1.2970579
120	0x3eee335a	0.46523553
121	0xbc12c066	-0.008957004
122	0xbe2273ee	-0.15864536
123	0x3e21c5b6	0.15798077
124	0xbe694caa	-0.22783151
125	0xbd449c78	-0.048000783
126	0xbb29f9b6	-0.0025936193
127	0xbe48c7a8	-0.19607413
128	0x3f41aa91	0.7565089
129	0x3e50560a	0.20345321
130	0xbf09612c	-0.536639
131	0x3f1a43d6	0.6025976
132	0xbfa29e1e	-1.2704504
133	0x3d270257	0.040773716
134	0x3e7a2f53	0.24432115
135	0x3d1ba816	0.038002096
136	0xbf0e2964	-0.5553191
137	0xbe9537a5	-0.29144016
138	0xbe588ad1	-0.21146704
139	0xbd6d2ffa	-0.057907082
140	0x3ab81250	0.0014043543
141	0xbe84e64c	-0.25956953
142	0x3dbed977	0.09318822
143	0x3f9d2eb6	1.227988
144	0x3c7e7b53	0.0155323325
145	0x3e84329d	0.25819865
146	0xbed71241	-0.42006114
147	0xbff131c3	-1.8843311
148	0x3fefc5b3	1.8732208
149	0x3eb19ebf	0.34691426
150	0xbd04be74	-0.032408193
151	0x3eba9480	0.36441422
152	0xbe0cf274	-0.13764364
153	0xbde00bea	-0.109397724
154	0x3ea42aff	0.32064053
155	0x3e530589	0.2060758
156	0x3e84d454	0.25943244
157	0xbe1f28f5	-0.15542968
158	0xbee146c2	-0.43999296
159	0x3d7bed6b	0.061505716
160	0xbeb113b0	-0.34585333
161	0x3e0a4d1c	0.13505977
162	0xbf554619	-0.83310086
163	0xbe2719c6	-0.16318426
164	0x3f1a8706	0.6036228
165	0xbf0b2ee4	-0.54368424
166	0xbf1b3e9d	-0.60642415
167	0xbe1a304d	-0.15057488
168	0x3da610ef	0.081086986
169	0xbeaf05e7	-0.3418419
170	0x3e8b8ca5	0.2725574
171	0x3eef785b	0.4677151
172	0x3efabe4b	0.48973307
173	0x3e342f00	0.17596054
174	0x3f2a470e	0.6651467
175	0x3e744093	0.23852758
176	0x3deac603	0.11463549
177	0x3eea5263	0.4576598
178	0xbe3007b8	-0.17190444
179	0x3dd8ee0a	0.10592277
180	0x3f98ecdd	1.1947285
181	0x3ee463a2	0.44607264
182	0xbeba64d8	-0.36405063
183	0x3e60c512	0.21950176
184	0x3f3a1848	0.726933
185	0x3cca6360	0.024705589
186	0xbad518ca	-0.0016257998
187	0x3ea89bb7	0.329313
188	0xbd0ed3b5	-0.03486987
189	0xbf58a179	-0.8462139
190	0x3f3b4e70	0.7316656
191	0x3cc699d8	0.02424328
192	0xbf0c4504	-0.5479281
193	0xbec8c938	-0.39216018
194	0xbf9374dd	-1.1520039
195	0x3d1d47b5	0.038398463
196	0x3f129c76	0.5726999
197	0xbea00dde	-0.3126058
198	0x3aa464cf	0.001254225
199	0x3f3cc24f	0.7373399
200	0xbe83ad04	-0.25717938
201	0x3eed1baa	0.46310169
202	0x3d184e45	0.03718402
203	0xbe3127ff	-0.17300414
204	0x3e35d990	0.17758775
205	0x3f471480	0.77765656
206	0x3f2c38b7	0.6727404
207	0x3bb3b520	0.0054842383
208	0x3f1411e5	0.57839805
209	0xbc948c8d	-0.018133426
210	0x3f9b899e	1.2151372
211	0xbf0f0104	-0.55860925
212	0xbb815694	-0.0039470885
213	0x3ec1a5e1	0.37821868
214	0xbdeb5cca	-0.114923075
215	0xbf70bb03	-0.9403536
216	0xbe5a8449	-0.21339525
217	0xbe057b84	-0.13035399
218	0xbe06318c	-0.13104838
219	0x3bb413a8	0.0054955073
220	0xbe82bdf4	-0.25535548
221	0x3f56433a	0.8369633
222	0xbe073424	-0.13203484
223	0x3e8ffe24	0.2812358
224	0x3f188046	0.5957073
225	0x3ceb3363	0.028711027
226	0xbd979a95	-0.07402531
227	0xbf8aa0b5	-1.0830294
228	0x3f6c15f3	0.9222099
229	0x3f056414	0.5210583
230	0x3d442e51	0.047895733
231	0xbee9191a	-0.45526963
232	0x3ea6f69e	0.3261003
233	0x3f4e30d1	0.8054324
234	0x3d716acb	0.058939736
235	0xbec20850	-0.37896967
236	0xbe7a8b84	-0.24467283
237	0x3c142ecd	0.009044361
238	0x3dd4fa51	0.103993066
239	0xbd3e0cc7	-0.046398904
240	0x3f0100a5	0.5039161
241	0x3aad87de	0.0013239344
242	0xbf2f5276	-0.684852
243	0x3cd1884a	0.025577683
244	0xbdb76b20	-0.08955979
245	0xbdbcad37	-0.092127256
246	0x3ea39a77	0.31953785
247	0xbeffc503	-0.49954996
248	0x3f1aa70d	0.6041115
249	0x3ebcbf2f	0.36864612
250	0x3ca0303f	0.019554256
251	0x3dcb9f00	0.09942436
252	0xbbebd9ca	-0.0071975933
253	0x3d1b7486	0.037952922
254	0x3f9657ed	1.1745583
255	0xbeaf94de	-0.34293264

l4.bias f4 [4]
0	0xbf8f210c	-1.118196
1	0x408fe77c	4.4970074
2	0xc0880715	-4.2508645
3	0xc0c7dbb8	-6.245571
