preTrained/v2TD3_BipedalWalkerHardcore-v3_0_actor.pth (torch_old, 527104 bytes, 6 tensors)

l1.weight f4 [400, 24]
000000 18 96 05 3f 7d b5 1c c0 71 c4 ff 3f d8 a4 01 c0
       0.5218215 -2.4485772 1.9981824 -2.0256863
000010 43 21 30 3f 83 bb 85 3f 0b f5 d4 3e 57 04 d4 3b
       0.68800753 1.0447849 0.41593203 0.006470244
000020 09 36 1d c0 36 2d ad bd b7 63 48 bf a2 d1 96 bf
       -2.456423 -0.08455889 -0.7827715 -1.1782725
000030 79 88 91 be f9 78 2c c0 7d 99 f8 be 89 ca 59 bf
       -0.28424433 -2.6948836 -0.48554602 -0.8507467
000040 fc b4 e2 3d b2 78 cd 3d e3 cf 1c 3f ed 8b cd be
       0.11069676 0.100327864 0.6125471 -0.40145817
000050 cc f5 4d bf c5 71 a0 bf 87 69 db bf 78 53 e6 bf
       -0.8045318 -1.253472 -1.7141579 -1.7994223
000060 e4 94 eb 3c c4 cf 57 be 7b 76 84 bf 01 2f 9a 3d
       0.02875752 -0.2107535 -1.0348657 0.075284965
000070 8a 45 50 3c f4 68 c9 be 91 61 07 bc a6 33 28 be
       0.012711892 -0.39337885 -0.008263008 -0.16425952
000080 50 90 85 be 03 55 83 bd 1d 6b df 3d 25 8c 05 bf
       -0.26086664 -0.06412699 0.10909102 -0.5216697
000090 9f 94 94 3e ef a6 00 bf 85 55 aa be 72 ae 91 be
       0.2901964 -0.5025472 -0.3326837 -0.28453404
0000a0 96 2f 85 be a9 c8 d8 be 4c 62 e0 be 23 e4 97 be
       -0.26012868 -0.42340592 -0.43824995 -0.29666242
0000b0 c1 7b e6 be 6e 21 94 bd f7 fb 78 be 04 63 0b be
       -0.45016292 -0.07232939 -0.24314867 -0.1361199
0000c0 e8 a1 3c 40 3f 17 cd 40 f5 2f 46 bd b4 95 c7 40
       2.947382 6.4090877 -0.04838558 6.2370243
0000d0 be 14 75 40 64 4e 00 bd 8e 48 99 3f ad 7b 97 be
       3.829391 -0.03132476 1.1975267 -0.29586545
0000e0 74 f3 9b bf 7f a0 73 c0 9c d7 c6 3e 5d 0d 81 3d
       -1.2183671 -3.806671 0.38836372 0.06301377
0000f0 ac bd a8 3e 1d 76 59 c0 ab 1f ea be 02 4f 94 be
       0.32957208 -3.397834 -0.45727286 -0.28966528
000100 c8 e8 8a 3f 06 a8 e2 3f 92 8b 80 3e 03 ec db 3e
       1.0852289 1.7707527 0.25106484 0.429535
000110 a0 c0 56 3f 92 5c ca 3f 42 93 b8 3f db e4 12 ba
       0.8388767 1.58095 1.441994 -0.000560356
000120 7d f2 70 3d 7d 6b b8 be c9 06 a1 bf e9 07 4d 3e
       0.058825005 -0.36019507 -1.2580196 0.20022549
000130 c8 33 c8 be 11 a2 c3 bd 25 c1 1e bf f2 b4 b1 3d
       -0.39102006 -0.09552396 -0.62013465 0.08677091
000140 6e d3 03 bf 27 34 90 bd f1 11 88 3e 89 9e 4b be
       -0.5149449 -0.07041197 0.26576188 -0.19884695
000150 fd 24 1f 3c 6a 7d 04 be 13 a9 69 be 19 c2 7c be
       0.009713409 -0.12938467 -0.22818403 -0.24683417
000160 2e 79 bc be ff 8f c7 bd ed 7a 83 be ed 02 cb be
       -0.36811203 -0.09744262 -0.25679722 -0.3965067
000170 fe 3e 46 be ab 03 9f be 49 92 fb be 88 80 33 be
       -0.19359967 -0.31057486 -0.49135044 -0.175295
000180 3b 3d 84 c0 89 c8 74 40 31 1b 80 c0 93 0f 8e 40
       -4.1324744 3.8247397 -4.0033193 4.439401
000190 9c e6 f2 3f d6 2b 03 c0 05 10 04 40 61 a3 2b 3f
       1.8976626 -2.0495505 2.0634778 0.6704617
0001a0 46 9e 32 bf 94 1c 44 c0 b1 66 cf 3f 5f 0e 47 bf
       -0.69772756 -3.0642443 1.6203214 -0.77756304
0001b0 45 3c da 3e 10 a4 aa c0 3c f2 05 3f 70 e1 f4 bd
       0.42624107 -5.332527 0.52322745 -0.11957061
0001c0 9f 15 64 bc 57 4a 53 3d 06 4b 9e be af b1 20 bf
       -0.0139211705 0.051584568 -0.30916613 -0.62771124
0001d0 6d a9 c1 3e 80 10 99 3d eb be dc 3e 8b 6b 40 3e
       0.37824574 0.0747385 0.4311441 0.18791024
0001e0 be 4a 93 3e fe 23 9a 3e e8 30 67 3d 7d e5 93 3f
       0.2876796 0.30105585 0.056443125 1.1554409
0001f0 d3 a9 c2 3e f7 c6 71 3f f0 bd 88 be 02 be f6 3d
       0.3802019 0.9444422 -0.2670741 0.1204796
000200 ec 67 6b bf 09 a0 46 bf 27 f6 a6 be 7f 6d 8f be
       -0.9195545 -0.77587944 -0.32609674 -0.28013226
000210 a6 a4 23 3f a2 c4 46 3c 5c 10 9b be 15 ad 0b bf
       0.6392311 0.012131842 -0.3028592 -0.5456098
000220 cc 54 9f be 70 04 12 bf c4 2c 95 be a8 55 d0 be
       -0.31119382 -0.5703802 -0.29135716 -0.4069035
000230 bb 4a 8d be 8c d1 80 be 4f 36 8b be 54 9b 34 be
       -0.27596077 -0.25159872 -0.27189872 -0.17637378
000240 9a 99 09 c0 91 5f 2f bf 34 7a 14 c0 ad 56 30 bd
       -2.15 -0.685052 -2.3199587 -0.04305141
000250 94 a4 c3 3f 06 07 a8 3e f9 9c e1 3f 41 04 b0 3e
       1.52846 0.32817858 1.7626029 0.34378245
000260 eb c6 c5 3d a8 de b4 bc 38 64 ad 3e a4 c9 e1 bf
       0.09657081 -0.022078827 0.33865523 -1.7639661
000270 16 83 2d bf dc db 0e bf 95 7b 02 bf e8 96 16 bf
       -0.67778146 -0.5580423 -0.5096982 -0.58824015
000280 26 88 dc be 14 3b a8 3e 0d 4b 97 3e 48 5e 0d 3d
       -0.43072623 0.32857573 0.29549447 0.03451374
000290 0b 8f 49 be 25 da 25 bf 6a d6 6e bf 00 89 98 bf
       -0.19683473 -0.6478599 -0.9329592 -1.1916809
0002a0 b2 1c 95 bf 4c f3 eb bf ad 0f 12 bf 02 c6 ec 3f
       -1.1649382 -1.8433623 -0.5705517 1.8497927
0002b0 c6 0c e6 40 14 89 c8 bd 96 ad 4c 40 d5 2f 85 3f
       7.1890593 -0.097917706 3.1980948 1.0405222
0002c0 fb a4 6f 3f 85 4e 36 c0 e1 f3 27 be 37 98 2e c0
       0.93611115 -2.8485425 -0.16401626 -2.7280405
0002d0 be a4 90 be b8 97 e5 3e 2b df a8 3f 05 cf 91 3f
       -0.28250688 0.44842315 1.3193105 1.1391302
0002e0 27 6a 73 3f e4 7f 70 3f f3 85 57 3f 41 3b 27 3f
       0.9508385 0.93945146 0.84188765 0.6532479
0002f0 31 56 26 3f 22 0d e5 3e 13 09 0e 3f 2f 2b 8d bd
       0.6497527 0.44736582 0.55482596 -0.06893002
000300 16 98 da 3f ee ff 7a 40 a9 fa e8 bf 7f 44 64 3f
       1.7077663 3.9218707 -1.8201495 0.89167017
000310 d7 d6 79 bf 44 6b c7 3e 29 14 f3 3f 07 9f 2b 3e
       -0.97593445 0.38949025 1.8990527 0.16759883
000320 60 38 0b c0 a7 2d 76 3e a1 9d 86 3e 38 89 88 c0
       -2.1753159 0.24040852 0.26292136 -4.2667503
000330 64 dc 1f bf 19 29 a3 c0 24 c3 80 3e 87 42 c8 3e
       -0.62445664 -5.098767 0.2514888 0.39113256
000340 10 f3 04 3e 0f ee 0e 3f f1 24 5e 40 e8 78 67 40
       0.12983346 0.55832 3.4710047 3.6167545
000350 5a 3b b2 3f a4 f0 d5 be df df 2b 3e d6 34 4d 3e
       1.3924363 -0.41785157 0.16784619 0.20039687
000360 c6 60 74 40 89 e8 5e c0 a5 92 f6 c0 d8 e1 93 c0
       3.8184066 -3.4829428 -7.705401 -4.621319
000370 bc e6 4e 40 d3 56 ee be 24 b4 f0 3f b0 43 0a 3f
       3.232833 -0.46550617 1.8804975 0.5400953
000380 43 c2 df 3e b2 66 65 bf ec 61 17 bf 2f f4 f0 3f
       0.43702897 -0.89609826 -0.5913379 1.8824519
000390 c6 b2 22 3f 9d b8 7c c0 fb 39 86 3f 4e ea f6 3e
       0.63554037 -3.948768 1.0486444 0.48225635
0003a0 69 d2 93 3f 87 24 92 3e ae 82 9f be 56 f5 3c bf
       1.1548587 0.28543493 -0.31154388 -0.7381185
0003b0 17 41 d3 bf 1e c9 5b 40 48 da 7f 3f 92 73 81 be
       -1.6504239 3.4341502 0.99942446 -0.25283486
0003c0 f9 54 58 3f 33 82 03 c1 15 f6 d1 40 51 53 f5 3f
       0.8450466 -8.219287 6.5612893 1.9166051
0003d0 59 18 b2 3f 0e 06 66 3f 43 b7 b7 3f 5c 12 c1 be
       1.391368 0.8985299 1.4352802 -0.3770932
0003e0 51 68 07 c0 ef 7f 2a 40 a0 d5 6d bf 5f 2f 67 3f
       -2.115742 2.6640584 -0.9290409 0.9030666
0003f0 10 de b2 be 77 54 56 c0 51 62 1d 40 0c 9a 8b 3f
       -0.34935045 -3.3489053 2.4591258 1.0906386

l1.bias f4 [400]
000000 dd 00 f8 ba 75 5f 17 bf 3e 7c f0 bf ad 75 28 bf
       -0.0018921156 -0.5913003 -1.8787916 -0.6580456
000010 42 7f 73 bf 18 87 0d bf 3b cc 81 bf 0b e2 ea 3e
       -0.95116055 -0.5528426 -1.0140451 0.45875582
000020 ee 0e 95 3f 1e de 9d bf 34 b5 93 3e 93 de c6 3e
       1.1645181 -1.233341 0.28849185 0.38841686
000030 13 15 63 be 93 44 7e bf 1d 50 ba be cf 06 f2 bd
       -0.22176008 -0.99323386 -0.36389247 -0.11817705
000040 e2 07 78 be 10 24 ab 3e c8 7f 0c be 1d 0a 7a 3f
       -0.24221757 0.3342595 -0.1372062 0.9767168
000050 1c 48 cd bf d2 d6 3a 3f 6e a7 fc be d1 35 f2 be
       -1.6037631 0.7298404 -0.4934649 -0.47306684
000060 e1 d6 94 bf 76 14 88 bf 02 15 70 bf 50 96 51 bf
       -1.1628076 -1.0631244 -0.93782055 -0.81869984
000070 a4 c5 43 bd b0 12 67 3e 23 5f d1 3e c7 7c 8b 3f
       -0.047795907 0.22565722 0.40892896 1.0897454
000080 06 6b ef be c5 f3 e5 3f 98 01 48 be ac 48 c8 bb
       -0.4676134 1.7965018 -0.19531858 -0.006112179
000090 51 2c 92 3e 46 66 7d bf ab 25 90 3e e3 cf 3a be
       0.28549436 -0.9898418 0.28153738 -0.18243365
0000a0 5c e4 b0 bf da 53 08 bf 23 b7 16 bf 17 e7 bf be
       -1.381969 -0.5325295 -0.58873194 -0.37480995
0000b0 9f 19 4d bf 8f ec e1 be f0 2c ae bf 29 97 4c be
       -0.8011722 -0.44125792 -1.3607464 -0.19979538
0000c0 78 41 8d be de 3e 44 bf 78 af 4d bf 52 0f 9a 3f
       -0.2758901 -0.7665843 -0.8034587 1.2035925
0000d0 b4 53 26 3f e1 63 60 be c3 68 87 bf 02 a1 d6 bf
       0.6497147 -0.21913101 -1.0578846 -1.6767886
0000e0 bc 2c b2 be 59 39 73 3f 3a b4 99 3f 00 c1 c6 3e
       -0.34799755 0.9500938 1.2008126 0.38819122
0000f0 c8 83 44 bf 20 45 1a 3f 55 e8 a3 bf 71 19 da 3b
       -0.7676358 0.60261726 -1.2805277 0.006655865
000100 32 2a 95 bf ed a8 56 3f 1d 08 c2 3e 15 5b 8b bf
       -1.1653502 0.8385151 0.37896815 -1.0887171
000110 fc e7 1a bf 22 71 0b bf 3b 14 9a bf eb ff b2 bf
       -0.6051023 -0.544695 -1.2037424 -1.398435
000120 53 10 d1 be 34 60 33 bf 98 37 b2 be 30 38 ab be
       -0.40832767 -0.7006867 -0.3480804 -0.33441305
000130 24 eb 76 3f d1 39 10 bf 39 5f 11 bf 54 0f 81 bf
       0.96452546 -0.5633822 -0.56785923 -1.0082803
000140 da 6d cf bf b1 3b 6c bf c8 10 0d be 21 d5 9d be
       -1.6205399 -0.9227858 -0.13775933 -0.30826667
000150 33 3d e1 be 56 ad 4d be ae 77 1e bf 58 f1 11 3f
       -0.43992004 -0.20085654 -0.61901367 0.57008886
000160 7d 15 a6 be b7 75 7e bf 36 cb 2f bf e8 22 3b bf
       -0.3243827 -0.9939837 -0.6866945 -0.7310014
000170 db 32 bd 3e 2f f5 b9 bf bb ca df 3e bd 7d 12 3f
       0.36952862 -1.4527949 0.4370936 0.5722311
000180 35 b5 26 bf 50 0c da 3d 74 4c 7e bf 98 32 10 bf
       -0.6512025 0.1064688 -0.9933541 -0.563272
000190 50 7a 00 3f 0a fb 85 bf 05 ee 73 be 07 0c d4 bf
       0.50186634 -1.0467236 -0.23821266 -1.656617
0001a0 30 06 ab 3f 97 22 66 bf b4 d2 ce be e2 3a 3e bf
       1.3361263 -0.8989653 -0.4039513 -0.743086
0001b0 20 ad ed be 07 98 61 bf f5 6c f1 be 80 1a d4 3d
       -0.46421146 -0.881226 -0.4715344 0.10356617
0001c0 33 cf aa 3e 04 82 d3 bf 53 fc cf be d8 9e 87 3f
       0.33361205 -1.6524053 -0.40622196 1.059535
0001d0 6c 73 c2 be f7 64 86 bf 83 b7 64 bf b0 ed 93 bf
       -0.37978685 -1.0499562 -0.89342517 -1.1556911
0001e0 ec 7a 4c 3f 5a 24 ab be c6 89 92 be c6 46 45 3e
       0.79875064 -0.33426172 -0.28620738 0.19265279
0001f0 40 c4 d5 3e 94 af 60 be b1 5e b4 bf 76 d5 d3 be
       0.4175129 -0.21941978 -1.4091398 -0.41373795
000200 cf a6 14 be af 2b 55 bf f6 d3 e8 bf 5e 42 f9 bc
       -0.14516757 -0.8326978 -1.8189685 -0.030427154
000210 48 ad 67 bf 6f 41 ba 3e 9f 99 1a bf 84 63 07 bf
       -0.9049878 0.36378047 -0.6039066 -0.52886224
000220 3b 4f 2b bf 08 d0 03 be 1b 66 d0 be 93 75 b0 bf
       -0.6691777 -0.12872326 -0.407029 -1.3785881
000230 7b af 10 bf 40 64 60 bf 51 cb 1b be 3a 32 98 3d
       -0.5651776 -0.8765297 -0.15214278 0.07431455
000240 1d 1f 36 3e 1a 25 99 be 91 f7 27 bf d0 89 d1 bf
       0.17785306 -0.2991112 -0.6561213 -1.6370182
000250 9b 82 e0 be 64 3f 46 bf 50 0f 9e bf 05 50 dc be
       -0.43849644 -0.77440476 -1.2348423 -0.430298
000260 a1 0e 00 3e 61 75 cc be 3f 33 9d bf fb d3 0f be
       0.1250558 -0.39933303 -1.2281264 -0.14045708
000270 f2 67 4c 3e 68 8c 4e be 0c a5 ba be b4 58 f1 3e
       0.19961527 -0.20170748 -0.36454046 0.47137988
000280 68 3b 18 3d 4d 1a 4e 3f 6f ff 50 bf b9 4c f1 bf
       0.03716603 0.8050888 -0.8163976 -1.8851539
000290 bd f3 af bf 65 90 71 bf 89 9c 0e 3f 83 07 0d be
       -1.3746258 -0.94360954 0.55707604 -0.13772397
0002a0 06 d1 d2 3d f3 27 0e c0 be e9 ba be 22 24 64 3e
       0.10293774 -2.2211883 -0.36506456 0.22279409
0002b0 d8 a6 eb be 6a f5 8d bf 35 58 ce bd 1a a3 50 bf
       -0.4602573 -1.109052 -0.10075418 -0.81498873
0002c0 c1 b2 91 bf 74 01 d0 3e e2 84 8d bf f3 69 68 bf
       -1.1382676 0.4062611 -1.1056178 -0.90786666
0002d0 a6 c4 37 be 2f 24 74 be d8 06 8f bf eb 63 89 bf
       -0.17946109 -0.23841928 -1.1173964 -1.0733618
0002e0 45 2d 57 bf e7 20 3b be 06 ee 5c be 0c 04 6d bf
       -0.8405345 -0.1827427 -0.21575174 -0.925843
0002f0 70 3f e9 b9 3c e8 0e bf fc a3 25 bf d4 f4 92 bf
       -0.00044488488 -0.5582311 -0.64703345 -1.1480966
000300 bc b5 99 bf 0e 80 10 bf 41 06 95 bf 5b a0 09 be
       -1.2008586 -0.56445396 -1.1642534 -0.13440077
000310 2c 42 0e bf 48 18 46 bf 49 21 50 bf 28 06 39 bf
       -0.5556972 -0.773808 -0.8130079 -0.7227502
000320 93 03 ab be 25 d6 d5 bc d2 19 a7 be f8 21 ad be
       -0.33401164 -0.026103089 -0.32636887 -0.3381498
000330 a6 9f 2f 3f 4e 8b 69 bf d7 7f 14 3f 66 ad d2 3c
       0.6860298 -0.9122819 0.5800757 0.025717448
000340 59 72 76 3f cb d8 2d bf 1f 7f 0f 3f 75 ab 56 bf
       0.9626823 -0.67908925 0.56053346 -0.8385537
000350 46 d6 31 3f 3b cb 9f 3f 10 cc 61 3e 77 c0 29 c0
       0.6946758 1.2483896 0.220505 -2.6523721
000360 6e bd 3a 3e c1 34 ab be 19 52 55 bf ff a4 48 bd
       0.18236324 -0.33438686 -0.83328396 -0.048985478
000370 15 2c 8a be d2 f8 62 bf e5 c1 b1 3e 79 d5 64 3d
       -0.26986757 -0.8866092 0.34718242 0.055867646
000380 6b d6 0a bf 75 49 7e bf 4b 3a 46 bd 0b 98 85 bf
       -0.54233426 -0.99330837 -0.048395436 -1.0437025
000390 59 c2 56 be 6a 89 b1 be 21 bc 85 bf 3a 00 75 bf
       -0.20972575 -0.3467515 -1.0448037 -0.9570347
0003a0 e1 71 84 bf 33 fe ad bf ae 1c ae bf a0 e5 d9 3e
       -1.0347253 -1.35932 -1.3602502 0.42558002
0003b0 6e 68 4e bf da 81 9b bf ad 19 57 be d7 00 f7 bf
       -0.806281 -1.2149003 -0.21005888 -1.9297131
0003c0 64 46 0d c0 63 6b fb 3f a4 48 37 bf f2 cf a8 bf
       -2.2074213 1.9642147 -0.71595216 -1.318846
0003d0 60 56 8b be 51 1c be be 68 82 3f bf fc 03 fd bd
       -0.27214336 -0.3713098 -0.7480836 -0.123542756
0003e0 ef 78 aa 3c ee 5b a4 bf f0 89 b7 be 0a 1f 9b bf
       0.020809619 -1.2840555 -0.35847425 -1.2118847
0003f0 b4 0e 45 bf aa 44 47 bf 4f d9 3d bf 51 46 1d bf
       -0.7697556 -0.7783915 -0.7415971 -0.6143542

l2.weight f4 [300, 400]
000000 5e 57 06 be 50 e3 b7 3e 21 1d 9e bd c4 51 ad bc
       -0.13119265 0.35915613 -0.077204 -0.021157153
000010 67 9c f6 3d 90 6e 22 3d d7 7a 36 3d 94 67 16 bf
       0.1204155 0.039656222 0.044550743 -0.587518
000020 6d 39 30 bf 60 94 9e 3e 9e 18 a1 bd 85 a6 b6 be
       -0.68837625 0.30972576 -0.078660235 -0.3567392
000030 2e cc 3c bf d3 5a 04 3e a1 e9 0b 3e cc 37 7a 3d
       -0.73749053 0.12925272 0.13663341 0.06108837
000040 1c 80 06 be 8a 78 a1 be c3 52 14 bf 2e 72 4c bf
       -0.13134807 -0.31537277 -0.57938784 -0.79861724
000050 d4 df 16 bf 8f d1 48 be fc af 2b be ce 20 dd be
       -0.58935285 -0.1961119 -0.16766351 -0.4318909
000060 ed b5 20 3e 02 5d 13 bf 31 36 a0 3d fb a3 fe 3e
       0.15694399 -0.57563794 0.07822836 0.49734482
000070 27 63 01 3e 64 7c dd be 8c 2e 4a 3e bf c6 0e bf
       0.1263548 -0.43258965 0.19744319 -0.5577201
000080 b2 51 c5 bd 71 5d 12 be 5a 45 4b 3e 42 31 09 3d
       -0.09634723 -0.14293458 0.19850674 0.03349424
000090 97 80 d8 be b3 b6 1c 3d d1 bc 38 be 32 c3 e5 bc
       -0.42285606 0.038260173 -0.18040778 -0.028047178
0000a0 79 3f 83 3e 33 f5 0f be 19 a6 75 bd 22 b2 af bc
       0.25634363 -0.1405838 -0.059972856 -0.021447245
0000b0 f5 f4 12 3e 49 dc ef be 21 e6 ca bd 89 3a b9 be
       0.14351256 -0.46847752 -0.09907175 -0.3617747
0000c0 4b 52 87 bd b4 63 3c bd ae 06 df be 8d 0c 66 3d
       -0.06607493 -0.04599352 -0.43559784 0.056164313
0000d0 7a 27 43 bf 36 a2 ec be 85 75 e9 3b 41 5d 2f be
       -0.7623211 -0.46217507 0.007124605 -0.17125417
0000e0 06 87 fe be 06 bf a0 3d 2a 78 6f 3e 30 66 92 3e
       -0.4971239 0.07848935 0.23385683 0.28593588
0000f0 ba ed be be 98 d5 8f 3e 93 ec bf 3e e9 9c a1 be
       -0.37290746 0.28092647 0.3748518 -0.31565025
000100 7c 96 f6 be ab 83 80 bc e0 b1 a5 bd d6 15 48 bd
       -0.48161685 -0.015687784 -0.080905676 -0.04884895
000110 c0 6b 8c be 82 2a 34 bf 66 00 5b 3d f7 9d 4e bd
       -0.27425957 -0.7037736 0.053467177 -0.050443616
000120 6c 07 9e bd 55 36 92 3e 1c 9a 0a be bb 0c 77 be
       -0.07716259 0.28557077 -0.1353535 -0.2412595
000130 73 50 3c 3e 20 5c bb 3e f3 4a 5d bd 0b a9 41 3b
       0.18390064 0.36593723 -0.054026555 0.002955022
000140 44 ef a9 3e 67 54 0b 3e b0 dd 4d be b6 08 5a bd
       0.33190358 0.13606416 -0.20104098 -0.053230964
000150 50 1a b2 3b e0 63 60 3b 30 1e f9 bd bc a8 04 bf
       0.0054352656 0.0034239218 -0.12163961 -0.5181997
000160 6c dc 1e bf ea f7 bb 3c 00 6c 79 be 3a 48 b7 3e
       -0.6205509 0.022945363 -0.24357605 0.35797292
000170 4b b9 a2 3e c2 25 03 3d 15 c4 ce 3e 8d 44 c8 bd
       0.31781992 0.03201843 0.40383974 -0.097787
000180 97 7c 30 3e 8f 41 b7 bd f0 11 d0 bd 0d 82 1b 3e
       0.17235027 -0.08948051 -0.10159671 0.15186329
000190 7e 02 79 bd 95 f2 18 bf 0e 9f 6e 3e 8b ca c9 be
       -0.060793392 -0.5974515 0.23302862 -0.3941234
0001a0 28 77 63 bd 0a a5 4e bf 70 28 e4 be 1a e1 23 bf
       -0.055533558 -0.8072058 -0.445621 -0.6401535
0001b0 ce d1 95 be 2c 47 82 be 5b 5f a4 3c b3 2f 0a be
       -0.2926163 -0.25444925 0.020065 -0.13494758
0001c0 53 6b 8d be ef 1c 6c bf 7c a3 13 bf 84 e4 bf be
       -0.27620944 -0.9223165 -0.5767133 -0.3747903
0001d0 b0 77 a2 be 05 aa 5a be 83 b3 15 be 00 24 33 bf
       -0.3173194 -0.2135392 -0.1461926 -0.69976807
0001e0 d5 1b 19 3e ea a2 dc 3d 3f eb ba 3e 51 c6 f5 be
       0.14952023 0.10773261 0.36507604 -0.48002866
0001f0 aa de 28 bd 7c e9 d5 be 8d b5 c2 3e d2 27 81 3d
       -0.041227974 -0.41779697 0.38029137 0.06306423
000200 2f 54 d2 bd ac 7a 2a 3d 54 63 b4 be d2 88 df be
       -0.10269963 0.041620895 -0.3523203 -0.43659073
000210 cb 85 54 3e 91 3c 57 3e 0f 03 a6 3c 55 ba b6 be
       0.20754163 0.21019198 0.02026513 -0.35689035
000220 c9 23 fc be 80 04 23 3d f6 26 73 be f2 de fb be
       -0.49246052 0.039799213 -0.23745331 -0.4919353
000230 3a ea 16 bf 32 0b 30 3c 33 93 47 be 6e 57 20 3e
       -0.5895115 0.010744857 -0.19489746 0.15658352
000240 20 c3 4e bf 4e 4a 7f be 5f a3 88 be 1a a3 28 3e
       -0.8076649 -0.24930689 -0.26687142 0.16468468
000250 96 6d a3 3d 02 f3 f3 bd 8a 24 48 bf e1 7a cb bd
       0.07979886 -0.119115844 -0.78180754 -0.09935547
000260 74 51 b9 3e 03 3a 0f 3e b4 45 bf be 33 a6 23 bd
       0.36194956 0.13986973 -0.37357867 -0.03995342
000270 22 0b 3c 3c 29 2a 09 be 75 24 cc 3d 7a 79 00 be
       0.011477264 -0.13394989 0.09967891 -0.1254634
000280 0d 77 ac 3c 05 51 20 bf cc e2 ee bd 60 0e 17 3d
       0.021052862 -0.62623626 -0.11664352 0.036878943
000290 32 19 01 3e 14 9b 16 3b 9c c1 e2 bd ea 43 b8 be
       0.12607267 0.0022980617 -0.11072084 -0.35989314
0002a0 17 97 de bd 14 5e 94 bc e3 a2 4b be a0 f2 97 3d
       -0.10868662 -0.018111266 -0.19886355 0.07419324
0002b0 bd 60 d3 3e 61 0d 84 3c da 1c 51 3d 44 6c 4d be
       0.41284743 0.01611966 0.051052906 -0.20060831
0002c0 09 93 98 3d a7 ee cd be 61 3c 09 3e 26 4c 74 3e
       0.0744992 -0.4022114 0.13401939 0.23857173
0002d0 13 b3 01 3e e9 fd f3 bb 3b 66 db 3d 24 07 fd be
       0.12665968 -0.00744604 0.10712858 -0.4941951
0002e0 f7 18 1f bf 29 7c 0b 3f fa 4d 27 3f 89 b0 68 3e
       -0.6214747 0.5448633 0.6535336 0.22723593
0002f0 86 36 39 be 68 c0 bd be bd 55 75 bd 8f e9 40 bc
       -0.18087205 -0.37060857 -0.05989622 -0.011774435
000300 49 d6 fc be a5 a9 c0 3e dd 21 ab 3e 44 ba 14 bc
       -0.49382237 0.37629429 0.33424273 -0.009077612
000310 27 8a 86 be fe 19 c2 be a3 28 a1 3e fa 42 1e bc
       -0.26277277 -0.37910455 0.31476316 -0.009659523
000320 9a ca ad bb 56 c0 96 be 57 74 8c 3e 48 bb 8e be
       -0.005303693 -0.29443616 0.2743251 -0.2787726
000330 4f 98 ac bd 60 3d 29 be 9d 7d ab be 42 e3 3b be
       -0.08427488 -0.16527319 -0.33494273 -0.1834841
000340 da bc c7 be 8f a2 21 3e a9 4d 22 3d c3 67 28 be
       -0.3901127 0.15784667 0.039624844 -0.16445832
000350 27 5a af 3e 53 e3 d3 3e f4 15 90 3d ca 53 9a be
       0.34248468 0.41384372 0.07035437 -0.3014205
000360 f3 42 0f bf e6 d0 75 be bb 5c a9 be 81 7d 81 3b
       -0.5596153 -0.2400547 -0.3307856 0.003951729
000370 2e ca ac 3e 12 f0 5e bc 85 9f 92 3e ca 33 2b 3d
       0.33748 -0.013607042 0.2863733 0.041797437
000380 1e 40 70 bf 81 4d 22 3f 0c 8d 67 be 9a 64 1a bf
       -0.93847835 0.6339951 -0.22612399 -0.60309756
000390 b0 af c5 bd 3d 49 c9 bd ed 55 59 bd 63 46 ed 3d
       -0.0965265 -0.09828422 -0.05306046 0.11585691
0003a0 29 8f 58 be 96 60 a6 3d 45 d7 97 be 52 f2 db 3e
       -0.21148361 0.08123891 -0.29656425 0.42958313
0003b0 74 df aa be 1f ad 0c 3e 95 ce 06 be 59 29 3a bf
       -0.33373606 0.13737915 -0.13164742 -0.7271934
0003c0 59 bc 96 bb d7 4b c0 be 6e d9 02 bf e6 84 06 bf
       -0.0046000895 -0.3755786 -0.5111302 -0.52546537
0003d0 b5 d9 25 be 07 57 c3 3e 9f fe 6e be 69 c0 4f bd
       -0.1619633 0.38152334 -0.23339318 -0.050720606
0003e0 30 62 8e be 8e 28 61 3d c2 66 e3 bb 2a 0f bd 3e
       -0.27809286 0.054970317 -0.00693974 0.36925632
0003f0 dc 25 41 bf 2c c9 e9 3e 55 9f 13 bf fa 38 9e bb
       -0.75448394 0.45661294 -0.57664996 -0.0048285695

l2.bias f4 [300]
000000 9a 97 84 3e 8f 82 13 bf f9 cc d1 bd c4 3d 89 bc
       0.25896913 -0.5762109 -0.102441736 -0.016753085
000010 9a 6d f1 bd 5b c0 f6 be 9e 3a 87 be e0 3a f6 bd
       -0.11788483 -0.4819363 -0.2641191 -0.12022948
000020 d6 5b 69 bd ee 53 2b be 5b c8 84 3e 23 12 71 3f
       -0.056972347 -0.16731235 0.2593411 0.941683
000030 b0 02 1d bd d1 67 f6 be 0f e7 92 be 77 c8 cf be
       -0.03833264 -0.4812608 -0.2869191 -0.4058263
000040 c6 97 76 be bc fe c1 be 03 03 8f bc b8 6c bc bd
       -0.24081334 -0.3788966 -0.01745749 -0.09200424
000050 94 0f 0e bd f4 47 ad bd 09 2b 6e bd 71 8e 97 3e
       -0.034682825 -0.084609896 -0.05814651 0.29600862
000060 e5 fe be bd 07 90 b1 bd c2 0c d1 be 9e 7a 2c bd
       -0.09325961 -0.08670049 -0.40830046 -0.042109124
000070 d8 72 12 bf 2e a6 14 be 4c fe 47 bf 88 0c 2f be
       -0.5720649 -0.14516518 -0.781224 -0.17094624
000080 45 6d 48 bd 4c 03 45 bf 9e 81 e4 bc 63 1c 28 be
       -0.048932333 -0.76958156 -0.027893838 -0.16417079
000090 d9 cc 68 bc b2 cf be 3e 4f b8 62 be 5b 29 06 3f
       -0.014208996 0.37267834 -0.2214062 0.52406853
0000a0 4d 5a 51 3c 84 0f 55 bd b4 fb 0b 3f 35 8f 7c be
       0.012777877 -0.05201675 0.54680943 -0.24664004
0000b0 78 50 85 bd ee 8f c3 bd f5 bd 56 be 17 15 82 be
       -0.06509489 -0.09548937 -0.209709 -0.25406715
0000c0 71 ab 3a bc 47 28 bd bd 97 44 31 bd 82 b8 84 39
       -0.011393414 -0.09236198 -0.043278303 0.0002531447
0000d0 5b ca 29 3e b0 11 ed 3f dd 5e 37 bd 41 c7 0e be
       0.16581099 1.8521023 -0.044768203 -0.13943197
0000e0 75 f2 3c bf f2 fa 8c be b8 bc 92 bd db 8d e4 bf
       -0.7380746 -0.27535206 -0.071649015 -1.7855791
0000f0 94 f3 d7 bd 69 2c 10 3f a7 99 8c 3e 3b 4f 31 bf
       -0.10544506 0.56317765 0.27460977 -0.6926152
000100 2b da 03 be d9 0f ad bd c8 02 f8 bd 03 0f a5 bd
       -0.12876193 -0.08450288 -0.121099055 -0.08059504
000110 ad 62 11 bd 06 da 9a be 0e 18 14 bd a0 22 8b bf
       -0.035494495 -0.30244464 -0.036155753 -1.0869942
000120 f6 bf a5 be a7 46 2b 3e 7e 24 73 bd 57 b6 7a be
       -0.32373017 0.1672617 -0.059360974 -0.2448362
000130 93 8a 80 bd f3 0c 07 bd c0 9b 2a be 66 e6 b0 3e
       -0.06276431 -0.032971334 -0.16660976 0.3455078
000140 98 85 72 3f 85 b3 ab 3e 9d 0d dd be 5c d7 1b be
       0.947351 0.335354 -0.4317445 -0.15218872
000150 2c aa 21 be dd ef eb bc 69 8c ce be ba cd 7f be
       -0.15787572 -0.0288009 -0.403415 -0.24980822
000160 a3 b0 30 be 72 fc a2 3c 6e b1 b8 bd 9e 54 ef be
       -0.17254882 0.019895766 -0.09018217 -0.46744245
000170 e1 40 1c 3d 04 60 b9 bd 90 23 f0 bd 04 ae 7f bd
       0.03814781 -0.09051517 -0.11725533 -0.062421814
000180 5e 60 f5 3e 05 93 76 be db 88 ab bc 34 cc e5 3c
       0.47925085 -0.24079521 -0.020939281 0.028051473
000190 b4 b6 b6 3e 52 32 5d be 46 b1 b0 bd fd 2f 1c bd
       0.35686266 -0.21601227 -0.08627562 -0.038131703
0001a0 18 57 12 bf 7f 2c 1a be 74 b8 c1 3d 87 9f d7 be
       -0.57164145 -0.15056036 0.0945901 -0.42113897
0001b0 af 11 57 3e 15 c1 d1 be 86 91 04 bf 17 94 67 be
       0.2100284 -0.40967622 -0.5178455 -0.22615086
0001c0 64 f1 dd be 66 bf 92 bf dc 17 6f bd 14 c2 08 3e
       -0.4334823 -1.146466 -0.058372363 0.13355285
0001d0 ed 50 15 bd f8 9b fd 3d 9a 17 92 bd f2 28 a7 be
       -0.03645413 0.12383264 -0.07133408 -0.32648426
0001e0 99 ca 13 bf 7f 37 9e bd 2a 60 92 be 35 be 1b 3d
       -0.57731014 -0.07725429 -0.28588992 0.038023192
0001f0 27 52 b2 be 39 76 6d bd f6 04 e9 bc 7a 9c 95 3e
       -0.34828302 -0.057974074 -0.028444748 0.29220945
000200 ed da 9b bd 38 d6 66 bd b3 f3 37 be 39 8e 02 3c
       -0.07610116 -0.05635664 -0.17964058 0.007968479
000210 42 2c 59 bf 4b af a0 bf 69 f8 ba be 4e 7e 08 3f
       -0.8483316 -1.2553495 -0.36517647 0.53317726
000220 1a 8b 26 bd b5 99 96 bd 86 b3 9a bd a9 02 bc bd
       -0.04066 -0.07353536 -0.07553773 -0.09180195
000230 00 b2 54 be 3e 05 28 be 20 4b 8f bd 9b c2 ab bd
       -0.20771027 -0.1640825 -0.06996751 -0.083867274
000240 e1 76 ec be ad 72 cc be e2 28 64 be 83 9d 29 be
       -0.46184447 -0.3993124 -0.2228122 -0.16563992
000250 c0 7f d4 be dc 54 7d be 89 9b 9a bc 73 85 71 bd
       -0.41503716 -0.24739403 -0.018872993 -0.058965158
000260 d9 be d8 be c0 a5 06 bf 53 5e 6c bd da 53 41 bf
       -0.42333105 -0.52596664 -0.057707142 -0.7551857
000270 b7 6d 8d 3d cc ca 11 be ef a0 72 bd 78 45 94 be
       0.06905692 -0.14237517 -0.05923551 -0.2895925
000280 e8 6b b6 bd 4b 95 b6 be d1 f6 58 bf 91 d1 7f bd
       -0.089073 -0.35660776 -0.8475161 -0.062455717
000290 3d 88 8f bd 41 f2 69 bd c6 1d aa bd a2 89 98 3e
       -0.07008407 -0.057115797 -0.0830646 0.29792506
0002a0 22 15 59 bc 78 a3 83 bd 1d 87 c6 bf ac 4d f7 be
       -0.013249667 -0.064276636 -1.5509983 -0.48301446
0002b0 57 11 a8 bc 98 21 8c bd f2 be a8 be 0f af e1 bd
       -0.02051608 -0.06842345 -0.3295818 -0.11019718
0002c0 bf 6e a5 be a1 cd 27 bd f4 e9 bc bf b5 87 3e bf
       -0.32311055 -0.040967587 -1.4758897 -0.7442582
0002d0 17 32 b4 3d 04 c0 e5 be 75 10 fb 3d da ff 5b bd
       0.087986164 -0.4487306 0.12258998 -0.053710796
0002e0 e4 3d f2 be e9 7c 86 3c 86 8d 25 be 34 92 f5 bb
       -0.47312844 0.016416984 -0.16167268 -0.0074942354
0002f0 19 9a 82 3f c1 4b 56 bc 1a 03 4d bf 3a d6 7d be
       1.0203277 -0.013079585 -0.8008286 -0.24788752
000300 6a 2e 30 bf fc 97 6f be b1 dd 9f be 33 3b 6a be
       -0.6882082 -0.23397821 -0.31223825 -0.22874145
000310 0e 4f 00 3f e6 13 88 bd ed 5a 15 be d5 b2 07 be
       0.5012063 -0.0664442 -0.14585467 -0.13251813
000320 ce 7f 85 bd f7 ce 84 bd 76 a9 3f bd 54 ea 85 bf
       -0.065185174 -0.06484788 -0.04679247 -1.0462136
000330 f7 a1 2f bf a6 e9 17 bf 1b 94 ed 3c 0c 74 9d bd
       -0.68606514 -0.59340894 0.029001286 -0.0768815
000340 5e 47 36 be 64 3f b0 bc 5e a1 f4 bc 3c b6 0c be
       -0.17800662 -0.021514602 -0.029862102 -0.13741392
000350 68 38 04 bd cc 22 38 3d 60 76 8e 3e 8f a7 d3 bd
       -0.032280356 0.04495506 0.27824688 -0.10334694
000360 ec a0 90 bf bc 0b 70 bd db 46 b5 bd 6a e8 9b bd
       -1.129911 -0.05860494 -0.08851405 -0.07612689
000370 a8 ee c4 bd ad 9d e0 3c 07 8f 8b bd ab 33 e7 bd
       -0.096158326 0.027418936 -0.0681439 -0.11289152
000380 8b 68 09 bf 38 88 99 bd 32 5d 44 be 37 67 0d 3e
       -0.53675145 -0.07496685 -0.19176176 0.13808905
000390 34 68 e6 bc 15 81 dd bd 16 3f 3d bc 1a 57 91 bd
       -0.02812586 -0.10815636 -0.011550685 -0.070966914
0003a0 dd f9 0a bf 2f 11 06 be 11 6b 9f bd 8b 2d b8 3e
       -0.5428751 -0.13092493 -0.07784093 0.35972247
0003b0 3a a5 6b be d1 bc 00 be 5f e3 4e bd 2e 88 75 bd
       -0.23012248 -0.12572028 -0.050509807 -0.059944324
0003c0 de e5 4c be 1e 5a 8c bd 33 52 8b bd ba 63 7b be
       -0.20009562 -0.06853126 -0.06802788 -0.24549761
0003d0 de bf 1e bd 3a 58 b6 be ac b6 00 be 04 38 c1 be
       -0.038757198 -0.35614187 -0.12569684 -0.3773805
0003e0 0b de eb be ec df 85 bd 9e 72 10 bd 0a 35 29 be
       -0.46067843 -0.0653685 -0.035265557 -0.16524139
0003f0 f1 4f 44 bd fd a2 94 3c d1 9e 2d 3e 4f a3 89 bd
       -0.0479278 0.018144125 0.16955115 -0.06720602

l3.weight f4 [4, 300]
000000 02 55 87 3f 8e 8e 88 3f 02 15 04 3d 60 9e 19 bd
       1.0572817 1.0668504 0.032246597 -0.037504554
000010 7c b6 1e bf 15 34 e8 be 49 93 0f bf 34 04 2d be
       -0.619972 -0.45352235 -0.56084114 -0.16896135
000020 2b b0 d7 bc ac b3 bb be ad a0 0e 3f 7f ec 78 bf
       -0.02632912 -0.36660516 0.5571392 -0.97235864
000030 0e b3 ff 3b a6 e7 43 bf 68 0e df ba 2b c0 87 be
       0.0078033274 -0.7652534 -0.0017017843 -0.265138
000040 eb 58 a7 bd f0 aa ff be ac 49 9d bc 71 97 8d 3c
       -0.08171257 -0.49935102 -0.019200169 0.017284127
000050 28 b1 af 3f b4 b2 1d bd ce e7 44 bd 07 08 d9 3f
       1.3725939 -0.038500503 -0.04807263 1.6955575
000060 db f1 c1 3c ac ef a0 bd a8 e9 ca bf b9 f7 06 3d
       0.023674896 -0.07858214 -1.5852556 0.03295109
000070 92 6d e8 be ec ab 3a 3f e9 ad 44 bf eb 2f 9c 3c
       -0.45396096 0.7291858 -0.76827866 0.019065818
000080 70 6a 4d 3c 8c e4 c9 3e 81 3d ce 3c 85 de b3 3e
       0.012537584 0.3943218 0.025175812 0.35130706
000090 5a 76 23 be 09 d0 df bc 3a b1 5e 3f 27 c4 86 3f
       -0.15963116 -0.027320879 0.86989176 1.0528611
0000a0 6f c1 b5 3b b6 b6 2b bc 26 51 c4 bf eb ce 9f bd
       0.0055467407 -0.010480573 -1.5337265 -0.07803138
0000b0 3e a4 5d 3e 73 21 00 bd 36 df 98 bf f1 42 35 3e
       0.21644685 -0.0312819 -1.1943119 0.17701317
0000c0 2a b0 03 bd 7d 25 d3 3e 2a 78 8b 3d 98 ba 62 bd
       -0.032150425 0.4123954 0.06810029 -0.05535373
0000d0 d9 8d 19 3f 76 c2 94 bf 4c 89 37 be 30 bb e1 bd
       0.5998207 -1.1621845 -0.17923468 -0.11022031
0000e0 07 c8 43 bf bf 6c a2 3e c7 97 0c bd 7a 1d 48 be
       -0.7647709 0.31723592 -0.034324434 -0.19542494
0000f0 07 15 03 bf c3 88 92 be c4 68 3e 3e 4a f6 7c be
       -0.5120396 -0.28619966 0.18594652 -0.24703327
000100 cb 64 4d bd d1 89 2b 3d bb 5b f6 3d 8b 82 be bc
       -0.05014495 0.04187948 0.12029215 -0.023255607
000110 74 f8 16 bd 73 d3 f4 3d 4e 8b 16 bd f8 c6 07 bf
       -0.036858037 0.11954393 -0.036753945 -0.5303798
000120 fb 5a 0d 3f 7f 72 21 3f ef 8b b0 be e6 7a ca 3e
       0.5521695 0.6306533 -0.3448176 0.3954689
000130 2d 11 c7 39 dc 65 2e bd 23 8a 41 3e 68 9f 9d bf
       0.00037969035 -0.04257761 0.18900351 -1.2314272
000140 0d 80 9d 3e fc fd 28 bf 84 7f a6 be fa e0 c0 3f
       0.30761757 -0.6601255 -0.32519162 1.5068657
000150 30 ed 07 3f 97 b4 c5 3f 37 31 d8 bd 71 f5 74 3f
       0.53096294 1.5445737 -0.10556262 0.95687014
000160 e8 8c d4 3e 90 f6 78 bf 0e da f8 bb f9 57 3b bf
       0.41513753 -0.97251225 -0.0075943535 -0.7318111
000170 ae f8 0a 3f 4e eb a5 3c f6 f1 8c 3f 5e 79 ba 3c
       0.54285705 0.020253804 1.1011341 0.02276295
000180 8c 4c 9e bf b5 45 78 bd 5b 5e ef be 89 03 29 3f
       -1.236711 -0.060613353 -0.46751675 0.6602102
000190 c3 da 64 bf 86 aa 88 be c6 24 dd 3b d9 af 65 bc
       -0.89396304 -0.266926 0.0067487685 -0.014018976
0001a0 33 6a ee be 6d aa 33 3e 7d 19 30 3f 3f bd 08 be
       -0.465654 0.17545481 0.6878889 -0.13353442
0001b0 49 b5 af 3f f1 de c5 3e 4e 6d 84 3f 5a dd 06 3f
       1.3727199 0.38646653 1.0345857 0.52681506
0001c0 c3 59 8b bf 33 65 66 bc 45 a4 e8 3d 72 79 3e be
       -1.0886768 -0.014062214 0.11359457 -0.18601015
0001d0 c1 b1 8f 3c 9e ec b7 3c b1 0e 4d 3e b0 4f 99 bd
       0.017540814 0.022451695 0.20025136 -0.07485902
0001e0 10 9b 66 3c ef 18 25 3d 6e 43 23 bf 4e 35 ad be
       0.014075056 0.04030698 -0.63774765 -0.3382973
0001f0 19 26 12 bf c8 12 cc bc e4 47 37 3d c1 4f 7c 3f
       -0.5708938 -0.0249113 0.044746295 0.98559195
000200 ce 9b 87 3c 0f 0a a0 bd 6f af ca be 10 b9 28 bf
       0.016553786 -0.078144185 -0.3958697 -0.6590738
000210 19 ce aa 3d f4 da 85 bf ac 1d 8c be ec e3 dc bf
       0.08340091 -1.0457444 -0.27366388 -1.7257056
000220 a8 ab 81 bc 37 7a d9 bc 86 c6 0d 3b 14 b9 47 be
       -0.015828922 -0.026547534 0.0021633222 -0.19504195
000230 47 c3 4c be 4a f6 fe 3c 35 eb a2 3f c6 ef d6 3b
       -0.19996367 0.0311233 1.272803 0.006559345
000240 25 2f 14 bf 95 37 10 bf 54 38 72 be bf 1f 28 3e
       -0.57884437 -0.5633481 -0.236543 0.1641836
000250 68 ab e8 be 81 8b 3a 3f 22 9a a6 bc e9 79 08 be
       -0.45443273 0.72869116 -0.020337168 -0.13327755
000260 1e 56 c3 3f 67 a3 83 bf dc 9e 07 bf 95 9c b7 3e
       1.5260656 -1.0284241 -0.52976775 0.3586165
000270 b2 50 1b bf 83 e2 c8 be a7 7d 9e 3c ab f4 b0 bc
       -0.60670006 -0.39235315 0.019347025 -0.021601042
000280 f9 b3 75 3c 0e b9 99 be cb 76 71 3f e2 74 ca be
       0.014996522 -0.30023998 0.9432189 -0.395423
000290 4a 33 5c bc c6 a8 0d 3d 9d af 1b 3f ad 96 79 3f
       -0.013439963 0.034584783 0.6081484 0.9749554
0002a0 c1 5d 87 3f fd e6 03 bd 4e 95 80 bf 8c 6f fe be
       1.0575486 -0.03220271 -1.0045564 -0.4969448
0002b0 8c 3d bc 3c 39 b7 96 bc 02 08 04 3e ef eb a4 3e
       0.022978567 -0.018397914 0.1289368 0.32211253
0002c0 f3 3b f1 3e 13 23 91 3e 9f d9 8a 3d 7a 57 dc bd
       0.4711605 0.28347072 0.06779789 -0.10758872
0002d0 25 c9 0d c0 60 07 72 bf 29 70 ac bf ce 6d 59 3b
       -2.215402 -0.94542503 -1.3471729 0.003317702
0002e0 88 08 06 3f da a4 d0 bc 47 b1 92 bd b2 3e 74 3d
       0.5235677 -0.025469232 -0.07162719 0.059630103
0002f0 a7 15 2c c0 94 3a a5 3d cb 35 04 3f be b7 9f bd
       -2.6888216 0.080678135 0.5164458 -0.07798718
000300 90 0a d3 3e dc da 34 3e b1 ec 92 3d 76 81 e6 be
       0.41218996 0.17661613 0.071740516 -0.45020646
000310 2f ec 50 be c9 81 80 3c b4 ab 6d 3d 4f c4 82 bf
       -0.20402597 0.015686886 0.058025077 -1.0216159
000320 d2 40 95 3b 8a fd b6 3c fa fa fa 3e 67 19 b9 3e
       0.0045548463 0.022337694 0.49019605 0.36152193
000330 54 c0 a6 3e 06 e9 db 3e 23 e7 37 3f 68 3d 29 3f
       0.3256861 0.4295122 0.7183706 0.66109324
000340 73 cc 09 bf 27 fd 4f bd 2d 77 7d bd f9 b8 e1 be
       -0.5382759 -0.050778534 -0.061881233 -0.44086435
000350 05 36 26 3f f2 28 25 bf 4d 3a 47 bf 7f 40 bf 3c
       0.6492618 -0.645156 -0.77823335 0.023346184
000360 6d 52 28 3e 08 a5 10 be e3 b6 07 3c 43 1f 02 3f
       0.16437693 -0.14125454 0.00828335 0.5082895
000370 32 ee 14 3d 15 13 76 bd 29 48 b5 bc 55 47 78 3b
       0.036359973 -0.06007679 -0.022129135 0.0037884314
000380 65 fe 82 3f d8 b4 90 3b 5f c0 c2 bf 68 01 de 3e
       1.0233885 0.0044160895 -1.5214957 0.43360448
000390 87 f9 71 bc e6 07 89 3f aa 5a 44 3d 4e a2 ec 3c
       -0.014768965 1.0705535 0.047938026 0.028885987
0003a0 14 60 92 3d 3c ea 49 bf fb 31 30 3d bc 12 ac 3e
       0.07147232 -0.7887304 0.043016415 0.33608043
0003b0 16 9f c6 be 32 e4 7c be b2 8b 31 bc 70 32 e0 3c
       -0.38793248 -0.24696425 -0.010836529 0.0273678
0003c0 2f 50 3d bf 0e 28 1a 3c 55 dd ac 3a 95 7a 63 3e
       -0.73950475 0.009408964 0.0013188521 0.2221473
0003d0 7d 50 23 3b bd e7 09 bf ca ba 3a be 34 15 47 be
       0.00249198 -0.5386923 -0.18235317 -0.19441682
0003e0 4d fe b6 3e a5 2e ac 3a 43 11 fa 3c f0 38 9e 3e
       0.3574089 0.001313646 0.03052581 0.30902815
0003f0 cb b9 50 3d 8a 34 11 be 40 80 de 3e 6c f1 57 bd
       0.050958436 -0.14180198 0.43457222 -0.052720472

l3.bias f4 [4]
000000 4c 05 b4 40 bf ff 7f 3d 09 fa 98 c0 27 1d cf bf
       5.6256466 0.062499758 -4.780522 -1.6180772
