preTrained/v3TD3_BipedalWalkerHardcore-v3_0_crtic_2.pth (torch_old, 175167 bytes, 7 tensors)

l1.weight f4 [64, 28]
0	0x3dd27e01	0.102779396
1	0xbe92c8fb	-0.2866896
2	0xbe5d9eed	-0.21642657
3	0x3c21bf3a	0.009872252
4	0x3e8b815a	0.27247125
5	0xbdfce94d	-0.12349186
6	0x3de0c15b	0.1097438
7	0xbcb39d1e	-0.021925505
8	0x3c9fb6ac	0.019496284
9	0xbc0e5262	-0.008686634
10	0x3dfd390f	0.12364399
11	0xbe49d3dc	-0.19709724
12	0x3c41770c	0.011808168
13	0x3d8cc73a	0.06873937
14	0xbd471146	-0.048600458
15	0x3e0eb6e1	0.1393695
16	0x3da712de	0.081578955
17	0xbd00b458	-0.03142199
18	0xbdb30ebc	-0.08743045
19	0x3d0371ed	0.03209107
20	0x3e7093b8	0.2349385
21	0x3e806286	0.25075167
22	0xbd1a552b	-0.03767888
23	0x3e69c446	0.22828779
24	0x3cca602e	0.024704065
25	0xbe0e483c	-0.13894743
26	0x3d9188cc	0.0710617
27	0x3d236249	0.039888654
28	0xbda506a8	-0.0805791
29	0xbe4b1e03	-0.19835667
30	0x3e26f1fe	0.1630325
31	0x3e5c7c4e	0.21531793
32	0xbe8bec77	-0.27328846
33	0xbd094950	-0.033517182
34	0xbdf5151b	-0.11966916
35	0xbd0c916f	-0.034318384
36	0xbd9aa9fb	-0.075519525
37	0xbe30a229	-0.17249359
38	0x3caab830	0.02083978
39	0xbcbcab8c	-0.023031019
40	0xbd483fb5	-0.04888888
41	0xbdafefff	-0.085906975
42	0x3ddf775e	0.10911439
43	0x3d45ed8c	0.048322245
44	0xbd384809	-0.044990573
45	0x3e911e8a	0.28343612
46	0x3d7347c0	0.059394598
47	0xbd77066f	-0.06030887
48	0x3d1b8f57	0.037978496
49	0xbdc7b4d4	-0.09751287
50	0x3e204ff1	0.15655495
51	0x3de99f3c	0.11407325
52	0x3dc58f4c	0.09646472
53	0xbd9d6f52	-0.07687248
54	0x3d93455a	0.07190962
55	0xbc41cba1	-0.011828334
56	0xbe9ebd08	-0.31003594
57	0xbf0059f9	-0.5013729
58	0x3f11883f	0.5684852
59	0xbe9700a4	-0.29492676
60	0xbd103add	-0.035212386
61	0xbd28935e	-0.041156165
62	0xbb49ffac	-0.0030822558
63	0xbb4a7ef0	-0.0030898415
64	0xbca28c7b	-0.019842377
65	0xbea0259a	-0.31278688
66	0x3c79f1e3	0.015255424
67	0xbe668264	-0.22510678
68	0x3c846fed	0.016166652
69	0x3d46afef	0.048507627
70	0x3d05012b	0.032471817
71	0xbe3a45ed	-0.18190737
72	0x3d9ea683	0.07746603
73	0x3dae32a0	0.0850575
74	0xbb07f3f6	-0.0020744777
75	0xbb5d51ec	-0.0033770753
76	0xbd0b9dce	-0.03408604
77	0x3d40b0d9	0.047043655
78	0x3dc11505	0.09427837
79	0x3dc02f17	0.09383982
80	0xbc908ce8	-0.017645314
81	0xbc17be9e	-0.009261755
82	0x3b8df958	0.0043327026
83	0x3c37e2d2	0.011223512
84	0x3ebd700d	0.3699955
85	0x3f11c11a	0.56935275
86	0xbef6b0d1	-0.48181775
87	0xbe804172	-0.2504993
88	0x3e20cd44	0.15703303
89	0x3dadbcbe	0.08483265
90	0xbdaa40c7	-0.083131365
91	0x3ce83a81	0.02834821
92	0xbd5ec78b	-0.054389518
93	0xbd6a2f7e	-0.0571742
94	0xbc364927	-0.011125839
95	0x3e237a16	0.15964541
96	0x3c5b260d	0.013375771
97	0x3e0d2cf8	0.13786685
98	0x3e8181cb	0.25294337
99	0x3d120521	0.035649423
100	0x3d1c4810	0.03815466
101	0xbc93b956	-0.018032711
102	0x3dd41558	0.103556335
103	0x3d614bf0	0.05500406
104	0x3d492a53	0.04911263
105	0x3e651ff8	0.22375476
106	0x3e403ddf	0.18773602
107	0x3d440f8c	0.04786639
108	0x3db5e370	0.08881271
109	0xbdb84a78	-0.08998579
110	0x38803012	6.1124694e-05
111	0x3da9c696	0.082898304
112	0x3e70e125	0.23523386
113	0x3f130da7	0.57442707
114	0xbe75ff71	-0.24023224
115	0x3d4d4684	0.050116077
116	0x3e264f2b	0.16241138
117	0x3be84e06	0.0070893792
118	0x3d70f4f1	0.058827344
119	0x3c838624	0.016055174
120	0x3d7694f2	0.06020064
121	0x3da11d59	0.07866926
122	0xbccad904	-0.024761684
123	0x3d8bf495	0.0683376
124	0xbc5b4782	-0.013383748
125	0xbd471d69	-0.048612032
126	0xbd99f40f	-0.075172536
127	0x3da03e18	0.078243434
128	0x3ce27677	0.027644379
129	0xbe001dfc	-0.12511438
130	0x3da5ffb4	0.08105412
131	0xbddd57fc	-0.10807797
132	0xbde0b594	-0.10972133
133	0x3db08c6e	0.08620535
134	0x3d84c59d	0.06483004
135	0x3c032e85	0.008006697
136	0xbcc57961	-0.02410573
137	0xbb85ebc2	-0.0040869424
138	0x3c4a126d	0.012333495
139	0xbd6ea38a	-0.05826143
140	0xbe27f2a9	-0.16401161
141	0xbc9f27f1	-0.019428225
142	0xbce1bf45	-0.027557025
143	0x3dadf9b4	0.08494893
144	0xbe84f8c7	-0.25971052
145	0xbcf999a4	-0.03046877
146	0xbdc013d0	-0.09378779
147	0xbc054dee	-0.008136256
148	0xbc1e97c5	-0.009679739
149	0x3e5dc20f	0.21656059
150	0x3c001288	0.007816918
151	0x3e1c2f29	0.15252365
152	0x3c0ef73f	0.00872594
153	0x3ce1b8ef	0.027554004
154	0xbdf90c33	-0.1216053
155	0x3deba095	0.11505238
156	0x3e603150	0.21893811
157	0x3cdddf02	0.027083877
158	0xbcdea43e	-0.027177926
159	0x3de75061	0.11294628
160	0x3e1371d8	0.14398897
161	0x3dc8f283	0.098118804
162	0xbcf2bf37	-0.029632194
163	0x3d16a4c5	0.03677823
164	0x3a54c05a	0.0008115821
165	0x3d07d316	0.03316029
166	0x3a42586b	0.0007413688
167	0xbbcc8d05	-0.006242397
168	0x3dfd9bd4	0.123832375
169	0x3ec07386	0.37588137
170	0xbe24acde	-0.16081569
171	0x3e62dfe5	0.22155721
172	0xbda5e01c	-0.08099386
173	0x3d1c7612	0.038198538
174	0x3df37abc	0.11888644
175	0x3d22519e	0.039628617
176	0xbe3a6665	-0.18203123
177	0x3eaa08e4	0.33209908
178	0xbdef4498	-0.11683005
179	0x3e05750d	0.13032933
180	0xbc818fc3	-0.015815621
181	0x3e200f02	0.15630725
182	0x3df708cb	0.12062224
183	0xbd4563f5	-0.04819103
184	0xbda1b6ba	-0.078961805
185	0xbd66f983	-0.056390297
186	0xbe07c58a	-0.13258949
187	0x3c5524bc	0.013009246
188	0x3e297790	0.16549516
189	0x3e4374af	0.1908748
190	0xbddd489d	-0.108048655
191	0x3e3695ae	0.17830536
192	0x3d98db10	0.07463658
193	0xbdd1cf7b	-0.10244652
194	0x3d1d643b	0.038425665
195	0x3da56ed0	0.080777764
196	0x3e03ca42	0.12870124
197	0xbe49edb5	-0.19719584
198	0xbd09fc14	-0.033687666
199	0xbe01abb2	-0.12663153
200	0x3d470b5c	0.048594818
201	0x3e1f83f5	0.15577681
202	0xbd5f7a36	-0.05455991
203	0x3e069cb2	0.13145712
204	0x3e235be2	0.1595302
205	0x3cbf72c3	0.023370152
206	0x3d8ea4da	0.06965037
207	0x3df2ab41	0.1184907
208	0xbc6ba4cc	-0.014382552
209	0x3e3a018a	0.1816465
210	0x3e49b3dc	0.19697517
211	0x3d1760b0	0.036957443
212	0xbcf1295e	-0.02943867
213	0x3dfdfc3d	0.12401626
214	0xbd48d761	-0.049033526
215	0xbdad5c14	-0.08464828
216	0x3cfd8a02	0.030949596
217	0x3e903b95	0.28170457
218	0x3e6b47b8	0.22976577
219	0xbd09cff8	-0.0336456
220	0xbda278db	-0.079332076
221	0xbdb71c90	-0.08940995
222	0xbcec72bd	-0.028863305
223	0x3d304ef6	0.043044053
224	0xbe731610	-0.23738885
225	0xbf1e0d46	-0.61739004
226	0x3ecb9e2a	0.39769107
227	0xbe6cbe1b	-0.23119394
228	0x3cbccd56	0.02304713
229	0x3cb3635b	0.021897962
230	0x3d1e4778	0.038642377
231	0x3d5e830d	0.0543242
232	0x38a280f2	7.74878e-05
233	0xbe9d6376	-0.30739945
234	0xbd068d49	-0.032849584
235	0xbd8db70d	-0.0691968
236	0xbcad527d	-0.021157498
237	0x3d577563	0.052602183
238	0xbc9dc228	-0.01925762
239	0x3cb57460	0.022150218
240	0xbd9e9c83	-0.07744696
241	0xbd9f9d09	-0.07793624
242	0xbd84bd3a	-0.064814046
243	0x3d5b7309	0.053576503
244	0x3ca4729a	0.020074178
245	0xbe15ffc3	-0.14648347
246	0x3d843d26	0.06456976
247	0x3d812e2d	0.063076355
248	0x3d96f0a9	0.07370121
249	0x3c331de5	0.01093242
250	0x3cde4531	0.027132602
251	0x3d83d551	0.06437171
252	0xbe470f70	-0.19439483
253	0xbebdeb64	-0.3709365
254	0x3e6ac74a	0.22927585
255	0x3eade7a9	0.33965805

l1.bias f4 [64]
0	0x3d9e6aab	0.07735189
1	0x3e3fbb54	0.18723804
2	0xbd19ea6e	-0.037577085
3	0xbd3180c8	-0.043335706
4	0xbaaa583f	-0.001299627
5	0xbddef26d	-0.10886083
6	0x3e32b997	0.1745361
7	0x3e7fcadf	0.24979733
8	0x3e44b609	0.19210066
9	0x3c6888ac	0.014192741
10	0xbdc73633	-0.097271346
11	0xbd9d85ad	-0.07691512
12	0x3d4367bc	0.04770635
13	0x3dcd1d8e	0.10015403
14	0xbdbeaf78	-0.09310812
15	0xbd6ad8d8	-0.057335705
16	0x3e257860	0.161592
17	0xbcc39252	-0.023873482
18	0x3d820d44	0.063501865
19	0xbda0ce89	-0.078518935
20	0x3e6fd6d0	0.23421788
21	0x3e6c6447	0.23085128
22	0x3e2f4719	0.17116965
23	0x3e0f48ff	0.1399269
24	0xbd649972	-0.0558104
25	0xbd8e1464	-0.06937483
26	0xbd840254	-0.064457566
27	0xbddf8065	-0.10913161
28	0x3e418583	0.18898587
29	0x3d8d05f5	0.06885902
30	0x3e84203c	0.25805843
31	0x3dbb5eb6	0.09148924
32	0x3deb3c82	0.1148615
33	0x3da526bf	0.08064031
34	0x3ce32023	0.027725285
35	0xbb2c88a9	-0.0026326573
36	0x3dc280fb	0.09497257
37	0x3e36c181	0.17847253
38	0x3dde7408	0.10861975
39	0x3ea2d217	0.3180091
40	0xbd5e095b	-0.05420814
41	0x3e0f631e	0.14002654
42	0x3c800791	0.015628608
43	0xbd7695bf	-0.060201403
44	0x3e42e70f	0.19033454
45	0x3a09bfd0	0.00052547175
46	0x3e018c57	0.12651192
47	0x3e091579	0.13387097
48	0x3d35d221	0.044389848
49	0x3e9a7ee9	0.3017495
50	0xbbff3df8	-0.0077893697
51	0x3df13758	0.11778134
52	0x3e0068d0	0.12539983
53	0x3db41a4c	0.08794078
54	0x3e8e57b4	0.27801287
55	0x3ddf2e79	0.10897536
56	0x3dd19131	0.10232771
57	0xbd4068f5	-0.046975095
58	0x3d1f592e	0.038903408
59	0xbd308b0a	-0.043101348
60	0x3e360001	0.17773439
61	0x3d0b08ea	0.033944048
62	0x3dda4055	0.106568016
63	0x3e88fb5f	0.2675428

l2.weight f4 [128, 64]
0	0xbc3af047	-0.011409826
1	0x3b473d20	0.0030401424
2	0x3e160e08	0.1465379
3	0xbdbec1da	-0.09314318
4	0x3e0fd262	0.14045098
5	0xbdb3488b	-0.08754071
6	0x3c8f7ecf	0.017516522
7	0x3dc6ecc3	0.097131275
8	0x3d953e32	0.072872534
9	0x3daad458	0.083412826
10	0xbc2090a7	-0.009800113
11	0xbdc02c9f	-0.09383511
12	0x3d159059	0.036514614
13	0xbdefb5fa	-0.11704631
14	0xbcd258a6	-0.025677036
15	0x3cdfddbd	0.027327413
16	0xbb73a2e6	-0.0037175952
17	0x3db1a09d	0.08673213
18	0x3de206a2	0.11036421
19	0xbd00b02f	-0.03141802
20	0xbde58609	-0.11207206
21	0xbd656ea3	-0.056013715
22	0x3b4aac98	0.0030925628
23	0x3caef044	0.021354802
24	0x3d625336	0.055255137
25	0x3db77a70	0.089589
26	0xbd1aeb11	-0.037821833
27	0xbd5163a7	-0.051120427
28	0x3de9403c	0.11389205
29	0xbab72164	-0.0013971743
30	0x3df19546	0.1179605
31	0x3da7767d	0.08176897
32	0xbd1c4936	-0.038155757
33	0xbb807464	-0.003920125
34	0x3d932ecd	0.07186661
35	0x3d2acd9e	0.041699998
36	0xbd044611	-0.032293383
37	0x3dccb93d	0.09996269
38	0xbcf183e5	-0.029481838
39	0xbbac2fd0	-0.005254723
40	0x3cf9308a	0.030418653
41	0x3bb4bb48	0.0055154897
42	0x3de274c6	0.11057429
43	0x3d712dc1	0.058881525
44	0xbd0c63d5	-0.034274895
45	0x3d6d3511	0.057911936
46	0x3e0bbb81	0.13645746
47	0x3e342173	0.17590885
48	0x3e3be611	0.18349482
49	0x3dec89ac	0.11549696
50	0xbc480b43	-0.012209716
51	0x3d7f527e	0.06233453
52	0x3db68c61	0.08913494
53	0x3d91f98b	0.07127675
54	0xbcb62c4c	-0.02223792
55	0x3d8619ab	0.065478645
56	0xbd6585ae	-0.05603569
57	0xbd0b1048	-0.033951074
58	0x3de4191f	0.11137604
59	0x3d7b07dd	0.061286796
60	0x3d5476d8	0.05187115
61	0x3d042b78	0.032268018
62	0x3e18b836	0.14914021
63	0x3e2ab196	0.16669306
64	0xbd3abf4b	-0.045592587
65	0x3e50e5e9	0.20400204
66	0x3ca62ce2	0.020285074
67	0xbd5cd95f	-0.05391824
68	0x3dbc473a	0.09193273
69	0xbca9a822	-0.020710055
70	0x3d0143a4	0.031558648
71	0x3e31552f	0.17317651
72	0x3d96cd30	0.07363355
73	0x3c73e283	0.014885548
74	0x3e0aa646	0.13539991
75	0xbe039966	-0.12851486
76	0x3e3a9005	0.18219002
77	0x3dac50c2	0.08413841
78	0xbd9a18e4	-0.07524279
79	0xbe136431	-0.14393689
80	0xbdc9af99	-0.09847946
81	0xbd59cd32	-0.053174205
82	0xbd30f4e6	-0.043202303
83	0xbe6c4248	-0.2307216
84	0x3d8c28a3	0.06843688
85	0x3d4fe2ee	0.050753526
86	0x3d3ccd90	0.046094477
87	0xbd46a574	-0.048497632
88	0x3dc8c04f	0.09802305
89	0x3ddf9a06	0.109180495
90	0xbd911067	-0.070832066
91	0x3dd5a8f5	0.104326166
92	0x3e0797ab	0.1324145
93	0x3db9e583	0.09076979
94	0xbd5b08dd	-0.05347525
95	0x3e204e35	0.15654834
96	0x3d88c8b1	0.06678904
97	0x3dddce30	0.10830343
98	0x3e1c2f71	0.15252472
99	0x3d87db46	0.0663362
100	0x3d9c22a3	0.07623794
101	0x3e05c77d	0.1306438
102	0x3e0fc585	0.14040191
103	0x3e3e2580	0.18568993
104	0x3ce62a4c	0.02809634
105	0xbd853480	-0.06504154
106	0x3d86f1cb	0.06589087
107	0x3dbf1b5f	0.093313925
108	0x3d414360	0.047183394
109	0xbddf5382	-0.109046
110	0x3e6edcc9	0.2332641
111	0x3d956111	0.072939046
112	0x3e232152	0.1593068
113	0x3e3fdc64	0.18736416
114	0x3dd6e6dc	0.10493252
115	0xbdfd6f12	-0.123747006
116	0x3e36ba72	0.1784456
117	0x3e6a69df	0.22891949
118	0x3ddbae42	0.107265964
119	0x3e1fa1d9	0.15589084
120	0xbdd21d4c	-0.10259494
121	0xbe01691d	-0.12637754
122	0x3e5ce59f	0.21571968
123	0x3de141bf	0.10998868
124	0x3eddacec	0.4329599
125	0xbcc940e5	-0.024567077
126	0x3d88d2e4	0.06680849
127	0x3dd635ad	0.104594566
128	0xbd94b089	-0.07260234
129	0x3de781e4	0.113040715
130	0x3daa0eda	0.08303614
131	0xbec8b2b7	-0.3919885
132	0xbc6eb4a2	-0.014569433
133	0xbcabc865	-0.020969579
134	0xbdd811c1	-0.10550261
135	0x3d131f03	0.035918247
136	0x3d52b4ee	0.05144208
137	0x3e1ab487	0.15107928
138	0xbd5fdac0	-0.054651976
139	0x3e822711	0.2542043
140	0x3de3d32c	0.11124262
141	0xbddcd3f2	-0.10782613
142	0x3e7ff1bd	0.2499456
143	0xbe3d901d	-0.18512006
144	0xbe8145b1	-0.25248483
145	0xbc3feaa2	-0.011713656
146	0xbe91a79c	-0.28448188
147	0xbd483dc8	-0.048887044
148	0x3daa3102	0.08310129
149	0x3dc3bb4b	0.09557208
150	0x3e4d854f	0.20070384
151	0x3e4abdad	0.19798918
152	0x3e53fb30	0.20701289
153	0xbb73a5a3	-0.0037177585
154	0xbeaff6ec	-0.34368074
155	0xbea89d22	-0.32932383
156	0xbe24dd47	-0.16100036
157	0x3e14f73a	0.14547434
158	0xbe0df63f	-0.13863467
159	0x3bcc935b	0.006243152
160	0x3dcafab5	0.099111
161	0x3e39b57a	0.18135634
162	0xbd0157e2	-0.031577952
163	0x3de5645f	0.11200785
164	0x3e330216	0.17481264
165	0xbe83079d	-0.25591746
166	0x3e57655a	0.21034756
167	0x3dd80614	0.10548034
168	0xbdaae5e8	-0.083446324
169	0x3db5c683	0.08875754
170	0xbd8d7af0	-0.06908214
171	0x3e2ef545	0.1708575
172	0x3cfd78f1	0.030941458
173	0x3eba3fc8	0.36376786
174	0x3dd06789	0.10175998
175	0x3e93a342	0.28835493
176	0x3e801071	0.25012544
177	0x3df07ef8	0.11742967
178	0x3e901d60	0.2814741
179	0xbdb58864	-0.08863905
180	0x3c5d7906	0.013517624
181	0x3e05d1d4	0.13068324
182	0xbcecd57a	-0.028910387
183	0x3d0e6b6f	0.034770425
184	0xbe44542a	-0.19172731
185	0xbeaeda8c	-0.34151113
186	0x3e0987e2	0.13430741
187	0x3e2c0223	0.1679769
188	0xbbe24595	-0.0069052675
189	0x3e128475	0.14308341
190	0x3e1d9c42	0.15391639
191	0x3c0fcb74	0.008776534
192	0xbccb52b1	-0.024819704
193	0x3dc90e6a	0.098172024
194	0x3dab1e3c	0.08355376
195	0xbe347a53	-0.17624788
196	0xbe472bc6	-0.19450292
197	0xbe16f7fc	-0.14743036
198	0xbdb480cb	-0.08813628
199	0xbd9e319b	-0.07724305
200	0x3e2168db	0.15762655
201	0x3df48898	0.11940116
202	0xbe904da6	-0.2818424
203	0x3d232f5e	0.039840095
204	0x3cc16646	0.023608338
205	0xbdafbfe4	-0.08581522
206	0x3c2fdac3	0.010733309
207	0xbd0e7d53	-0.034787487
208	0xbad7dfb3	-0.0016469866
209	0xbd7fd582	-0.062459476
210	0xbd3c8453	-0.04602463
211	0xbda70692	-0.0815555
212	0x3dbe4e52	0.09292282
213	0x3d8b9d0a	0.06817062
214	0x3e133222	0.14374593
215	0x3e59015d	0.21191926
216	0x3d7c5a90	0.061609805
217	0xbdf732ec	-0.120702595
218	0xbda11bab	-0.07866605
219	0xbe4a0495	-0.1972831
220	0x3d88ce8a	0.06680019
221	0x3d866228	0.065616906
222	0xbd92da10	-0.07170498
223	0x3d354e18	0.04426393
224	0xbd7b3865	-0.06133308
225	0xbd2a51ee	-0.04158204
226	0x3cd33ce4	0.02578587
227	0x3dd90931	0.10597456
228	0x3e1533c1	0.14570524
229	0xbd1d674f	-0.0384286
230	0xbde0deb2	-0.10979976
231	0x3deeb300	0.11655235
232	0x3c62a2be	0.013832746
233	0x3e0c10bd	0.1367826
234	0xbd800ba8	-0.06252223
235	0xbdd85ed3	-0.10564961
236	0x3dca9b31	0.09892882
237	0x3eaca144	0.33716786
238	0xbd6f3ca8	-0.058407456
239	0x3dfa1d7e	0.122126564
240	0x3e72a6b1	0.236964
241	0x3da9217b	0.08258339
242	0x3e47a96d	0.19498225
243	0xbe2e37a4	-0.17013413
244	0xbd269728	-0.040671498
245	0x3dc70888	0.09718424
246	0x3e1b6cf6	0.15178284
247	0x3e395ccf	0.1810181
248	0xbc94fc32	-0.018186662
249	0xbda5f876	-0.08104031
250	0x3db7f15a	0.08981581
251	0xbd7d5e5c	-0.061857566
252	0x39d0912a	0.00039781007
253	0x3e3dd884	0.18539625
254	0x3e0544f6	0.13014588
255	0x3c2c571d	0.010518816

l2.bias f4 [128]
0	0x3d420b7c	0.047374234
1	0x3e5a4bac	0.21317929
2	0xbd359ecd	-0.044340897
3	0x3c180cfd	0.00928044
4	0x3e55fca6	0.20897159
5	0x3d75d9ca	0.060022153
6	0xbd71349a	-0.058888055
7	0x3e31c325	0.17359598
8	0x3e217d59	0.15770473
9	0x3d8b8639	0.0681271
10	0x3e51c205	0.20484169
11	0x3e249517	0.16072498
12	0x3e327e4d	0.17430992
13	0x3e01892c	0.12649983
14	0xbdd7a187	-0.10528856
15	0x3d37ef7a	0.044906117
16	0x3e70f9ce	0.23532793
17	0x3df7b6b2	0.12095393
18	0x3c1d1407	0.009587294
19	0x3dd5c77f	0.104384415
20	0x3e063ccf	0.13109134
21	0xbaacf73c	-0.001319624
22	0x3e31d8c0	0.1736784
23	0x3daf931c	0.08572981
24	0x3e1a0eff	0.15044783
25	0x3cb68196	0.022278588
26	0x3e0fe336	0.14051518
27	0x3e0a86c3	0.1352797
28	0x3d9e5ae6	0.07732181
29	0x3d093194	0.033494547
30	0x3e0e3c4b	0.13890187
31	0x3db994cd	0.090615846
32	0x3ce57e4e	0.028014328
33	0x3e068e02	0.13140109
34	0x3dbdad4d	0.0926157
35	0x3d039a8f	0.03212982
36	0x3c7a8315	0.015290041
37	0x3e157315	0.14594682
38	0x3e2e6203	0.17029576
39	0x3d7d9cf2	0.061917253
40	0x3dfe57a2	0.124190584
41	0x3d9628d2	0.073320046
42	0x3dae9def	0.08526217
43	0xbd1e28c4	-0.038613096
44	0x3e382958	0.17984521
45	0x3d6dcf67	0.058059122
46	0xbda9f361	-0.08298374
47	0x3d9359de	0.07194875
48	0x3dc0d389	0.09415347
49	0x3de44a06	0.11146931
50	0xbc9c71aa	-0.019097168
51	0x3dafdf7e	0.085875496
52	0x3e24ea14	0.16104919
53	0x3d83cb34	0.06435242
54	0x3e489388	0.19587529
55	0xbdc15c49	-0.0944143
56	0x3d99063b	0.074718915
57	0x3d343671	0.043997232
58	0x3d9e9aec	0.07744393
59	0xbb12584c	-0.002233046
60	0x3dc251af	0.09488236
61	0xbd666236	-0.056246005
62	0x3e03af78	0.12859905
63	0x3e1c65ab	0.15273158
64	0x3cbefbfc	0.023313515
65	0x3e61e2ce	0.22059175
66	0xbcf96cd0	-0.030447394
67	0xbdfa0b5c	-0.12209198
68	0xbcb93016	-0.022605937
69	0x3b960612	0.0045783604
70	0x3d864d57	0.0655772
71	0xbc6804c7	-0.014161295
72	0x3e3d3d1e	0.18480346
73	0xbe00c34b	-0.12574498
74	0x3d486cd5	0.048931915
75	0x3e135537	0.14387976
76	0x3e05c7fa	0.13064566
77	0x3e04d811	0.12973048
78	0x3d67a60f	0.05655485
79	0x3dcacfed	0.0990294
80	0xbd1f5969	-0.038903628
81	0x3e06e8fc	0.13174814
82	0x3cefe1d1	0.029282482
83	0xbddd26c6	-0.10798411
84	0x3c9904f8	0.018679127
85	0xbe06cca6	-0.13164005
86	0xbc116a6b	-0.00887547
87	0x3d51e230	0.0512411
88	0x3daaccfe	0.083398804
89	0x3d305541	0.043050054
90	0x3e13cbc8	0.14433205
91	0xbcbabbed	-0.022794688
92	0x3e3f7b14	0.18699294
93	0x3d772485	0.060337562
94	0xbd168710	-0.0367499
95	0x3e3b5d1f	0.18297242
96	0x3baa3a41	0.0051949327
97	0x3c77b7a3	0.015119466
98	0x3e33d9ef	0.17563604
99	0x3e034eb4	0.12822992
100	0x3e59f1e9	0.21283688
101	0xbd9c8def	-0.07644259
102	0x3e1a04fe	0.15040967
103	0x3e300682	0.17189983
104	0xbc5e19be	-0.013555942
105	0x3e2814db	0.16414206
106	0x3ddc6eb9	0.10763306
107	0xbc628ac7	-0.013827032
108	0xbbaf0108	-0.005340699
109	0xbd0e7d3d	-0.034787405
110	0x3e397f03	0.18114857
111	0x3db89c78	0.09014219
112	0x3e007bda	0.12547246
113	0xbd33ca38	-0.043894023
114	0x3c4870f5	0.012233962
115	0x3e2f6aa3	0.17130522
116	0xbbc3c81f	-0.005974784
117	0x3e1b6dce	0.15178606
118	0x3e4f0cbf	0.20219706
119	0xbd1829f6	-0.037149392
120	0xbce23186	-0.027611505
121	0x3d6753e9	0.056476507
122	0xbd700860	-0.058601737
123	0xbdad1768	-0.0845173
124	0x3d464982	0.048409946
125	0x3cb9b349	0.022668498
126	0x3d54cbc5	0.051952142
127	0x3e3453b2	0.17610052

l3.weight f4 [256, 128]
0	0x3dde8c88	0.10866648
1	0x3e0eeac8	0.1395675
2	0x3eaf17fa	0.3419798
3	0xbe113619	-0.14180793
4	0x3c1e8af4	0.009676684
5	0x3dbb2caa	0.09139378
6	0xbf0b84b5	-0.5449937
7	0xbd4cb113	-0.04997356
8	0x3d91a6bb	0.071118794
9	0xbcb7a05b	-0.02241533
10	0xbd99a336	-0.07501833
11	0x3e0646ef	0.13112997
12	0xbd98fded	-0.074703075
13	0xbd70d404	-0.058795944
14	0x3ea76b90	0.3269925
15	0x3f00deca	0.5033995
16	0xbb095c7f	-0.0020959673
17	0xbbd308fd	-0.0064402805
18	0xbec65f20	-0.3874445
19	0xbddf732c	-0.10910639
20	0x3d3ce9c1	0.046121363
21	0x3d0aed2e	0.0339176
22	0x3de39363	0.11112096
23	0x3dfcac79	0.12337584
24	0x3bc12097	0.0058937776
25	0xbd047fcb	-0.032348435
26	0x3e07cd9d	0.13262029
27	0xbdac11fb	-0.08401867
28	0x3d9d3c37	0.07677501
29	0xbd43c6ba	-0.047796942
30	0x3dad7b1d	0.084707476
31	0xbe40a61b	-0.18813364
32	0xbd073b77	-0.033015694
33	0x3e042429	0.12904419
34	0xbe6a83ea	-0.22901884
35	0xbe7acb0a	-0.24491516
36	0xbc5055fa	-0.012715811
37	0x3e0951ac	0.13410062
38	0x37e55089	2.733643e-05
39	0x3c85f750	0.01635328
40	0xbb8bef10	-0.004270442
41	0x3c9c7199	0.019097136
42	0x3d09eb24	0.033671513
43	0xbd6edaa9	-0.058314
44	0x3d04ed9b	0.03245316
45	0xbed35ae6	-0.41280288
46	0x3f0202a7	0.507853
47	0x3e0244ea	0.12721601
48	0xbd1de8f1	-0.03855223
49	0x3d52e87d	0.05149125
50	0xbecbb9bc	-0.39790142
51	0xbedbc4c7	-0.42923567
52	0x3dda02c7	0.10645061
53	0xbd00b136	-0.031419
54	0xbcdeacca	-0.027182002
55	0xbf13fe4e	-0.57809913
56	0x3df7b21d	0.12094519
57	0x3e1d914d	0.15387459
58	0xbe35ae14	-0.17742187
59	0xbec4ac32	-0.38412625
60	0xbe13dfaf	-0.14440797
61	0xbf0f9cf6	-0.5609888
62	0xbd662ba8	-0.056193978
63	0xbb247a8e	-0.0025097462
64	0x3e1abafa	0.15110388
65	0x3da028d5	0.07820288
66	0x3d213349	0.03935555
67	0xbec43712	-0.38323265
68	0xbec43e8a	-0.38328964
69	0x3dbb8a40	0.091572285
70	0xbdc18442	-0.09449054
71	0xbf1e0b77	-0.61736244
72	0x3d7fb2f7	0.062426534
73	0x3ebd6447	0.36990568
74	0xbe74673a	-0.23867503
75	0x3db8e8fe	0.09028815
76	0x3d8c1e3a	0.06841703
77	0x3d3842df	0.04498565
78	0x3dbc88ba	0.09205766
79	0x3d86faac	0.065907806
80	0xbe297a45	-0.16550548
81	0x3de3c462	0.111214414
82	0x3d572df0	0.052534044
83	0x3b7957a0	0.0038046613
84	0x3c4b2573	0.012399065
85	0xbd72a87b	-0.059242707
86	0x3da9bbbe	0.08287762
87	0x3e8a439f	0.27004716
88	0xbdf5a17c	-0.11993691
89	0x3dbe6f10	0.09298527
90	0x3d0ac2c4	0.03387715
91	0xbf14f97a	-0.5819317
92	0x3dfb2d32	0.1226448
93	0xbcb9eba8	-0.022695377
94	0xbf1d9b20	-0.61564827
95	0xbda6c117	-0.08142298
96	0x3e99ccf1	0.3003917
97	0x3d93bfa2	0.072142854
98	0x3d313fde	0.0432738
99	0xbec5f3eb	-0.38662657
100	0x3db365a2	0.08759619
101	0x3eb2a525	0.3489162
102	0x3da210a5	0.07913331
103	0x3d8a22e1	0.06744934
104	0xbda33ed3	-0.07970967
105	0xbc86abef	-0.016439406
106	0x3d36994e	0.044579796
107	0x3dabb80a	0.08384712
108	0xbd264104	-0.040589347
109	0x3d969220	0.0735209
110	0xbda55bfc	-0.08074185
111	0xbd4ec0af	-0.050476726
112	0xbe6d853c	-0.23195356
113	0xbf1d8100	-0.61524963
114	0xbbaae84b	-0.0052156798
115	0xbcb9511f	-0.02262169
116	0xbd692092	-0.056915827
117	0xbda09054	-0.078400284
118	0xbcd742cd	-0.02627697
119	0xbd959cd6	-0.07305305
120	0xbf2216b8	-0.63315916
121	0xbc68bf70	-0.0142057985
122	0x3edf0f31	0.43566278
123	0x3d3a7142	0.045518167
124	0x3e00468d	0.12526913
125	0x3db6c306	0.089239165
126	0xbe786f17	-0.24261127
127	0x3dcb598b	0.09929188
128	0xbc63d309	-0.013905295
129	0x3cb8d766	0.022563647
130	0xbcbc2edb	-0.022971561
131	0x3da5556a	0.08072932
132	0x3ca5366c	0.020167552
133	0x3d8e2335	0.06940309
134	0x3e133f8d	0.14379711
135	0x3d67a5a6	0.05655446
136	0x3d397ffd	0.045288075
137	0xbe2bc0d7	-0.16772781
138	0xbd824522	-0.06360842
139	0x3d7c80ad	0.061646152
140	0x3dce23ba	0.10065408
141	0x3d772cbf	0.060345408
142	0x3e49152a	0.1963698
143	0xbd656c82	-0.056011684
144	0xbd29f8ed	-0.04149716
145	0xbcf3b0e8	-0.029747441
146	0xbdce3e9b	-0.10070535
147	0xbdf833fa	-0.12119289
148	0x3d7dbf2b	0.06194989
149	0xbaf95fc2	-0.001902573
150	0x3c0b8d7e	0.008517621
151	0xbcb97091	-0.022636684
152	0x3dab0044	0.0834966
153	0xbe1e1451	-0.15437438
154	0x3c96563d	0.018351668
155	0x3e0dfff0	0.13867164
156	0xbe40b4dc	-0.18818992
157	0xbbff975d	-0.0078000263
158	0x3d9b6509	0.0758763
159	0x3c9278df	0.017879901
160	0x3d3b7d3e	0.045773737
161	0xbc9f4100	-0.019440174
162	0x3c91cd67	0.017798139
163	0x3d295ac3	0.041346323
164	0xbd8d8d84	-0.069117576
165	0xbd619fee	-0.05508416
166	0xbd199bf4	-0.037502244
167	0x3cc2f885	0.023800144
168	0x3d34baa8	0.04412332
169	0xbda27c4f	-0.07933866
170	0xbd20118c	-0.039079234
171	0xbdca90de	-0.098909125
172	0xbd3bce87	-0.045851257
173	0x3d2595db	0.040426116
174	0xbd01013a	-0.03149531
175	0xbe0fee4d	-0.14055748
176	0x3d695e69	0.056974802
177	0xbda9e07f	-0.08294772
178	0x3c1eebac	0.009699743
179	0x3e17daa4	0.14829499
180	0x3ddbcc2c	0.10732302
181	0xbdfa5509	-0.122232504
182	0xbd14f093	-0.036362242
183	0x3e11716b	0.14203422
184	0x3d0e541c	0.03474818
185	0x3dc8178c	0.09770116
186	0xbc362432	-0.011117028
187	0x3ca3dfe4	0.02000422
188	0x38fb4097	0.000119806435
189	0x3dd915f9	0.10599894
190	0xbd68688f	-0.05674034
191	0x3ceb5026	0.028724741
192	0xbdb1dc55	-0.08684603
193	0x3da64bf9	0.081199594
194	0x3db6b691	0.089215405
195	0x3e01c928	0.12674391
196	0x3e164032	0.14672926
197	0x3b67ae65	0.003535175
198	0x3b20727a	0.0024482296
199	0x3e39b451	0.18135192
200	0x3d07e993	0.033181738
201	0xbd530421	-0.05151761
202	0x3d89169f	0.06693768
203	0xbe1c9086	-0.15289506
204	0x3d6f72be	0.058459036
205	0xbcad5818	-0.02116017
206	0xbd0ca28b	-0.0343347
207	0xbc030e39	-0.007998996
208	0xbda3854d	-0.079844095
209	0xbdaedff5	-0.0853881
210	0x3d3760f0	0.04477018
211	0x3d43adba	0.0477731
212	0x3be5630a	0.0070003318
213	0xbc1f1510	-0.009709612
214	0xbdc68fd8	-0.09695405
215	0xbd8a8ab5	-0.067647375
216	0xbd811566	-0.063029096
217	0x3ca008fe	0.019535538
218	0xbd763f0c	-0.06011872
219	0x3d02c9e2	0.03193081
220	0xbda6f8a6	-0.08152895
221	0x3c8b3ec5	0.016997704
222	0x3e370fc5	0.1787711
223	0x3dc93666	0.09824829
224	0x3cde7410	0.027154952
225	0xbd0645ef	-0.032781538
226	0xbbc951d7	-0.0061437893
227	0x3d42d30d	0.047564555
228	0xbd325bc7	-0.043544557
229	0x3c12059b	0.008912469
230	0xbd8bf05c	-0.06832954
231	0xbc063708	-0.008191831
232	0xbcb25ea8	-0.021773651
233	0xbc9d8030	-0.019226164
234	0x3c27d608	0.0102439
235	0x3c73f7a5	0.014890586
236	0x3dc387df	0.095474
237	0x3dc9b3bb	0.09848734
238	0x3c829130	0.015938371
239	0xbd036ff4	-0.03208919
240	0xbd4917a1	-0.0490948
241	0x3e26153f	0.16219042
242	0x3d3114de	0.04323279
243	0xbdb6ae7f	-0.08920001
244	0xbd1488ee	-0.0362634
245	0x3bb73dc6	0.0055920808
246	0xbdcd9f43	-0.100401424
247	0xbce11566	-0.027476024
248	0x3d8506e3	0.06495454
249	0x3d5bc526	0.053654812
250	0xbdb582ec	-0.08862862
251	0x3da3185f	0.07963633
252	0x3d521e25	0.05129828
253	0xbd1f22f2	-0.038851686
254	0xbccb051a	-0.024782706
255	0xbde8fe28	-0.113766015

l3.bias f4 [256]
0	0xbd0bfa50	-0.034174263
1	0xbd0df0a5	-0.034653325
2	0xbd8cff8d	-0.0688468
3	0x3c95afbc	0.018272273
4	0x3d0824f1	0.033238355
5	0xbdc0ab66	-0.09407692
6	0x3dbc033b	0.09180304
7	0xbc3a633a	-0.0113761965
8	0x3d8746e0	0.06605315
9	0x3bbec39e	0.005821659
10	0x3ddbdfa0	0.107360125
11	0x3ced4437	0.028963191
12	0x3ce92db2	0.028464172
13	0x3d0839df	0.033258315
14	0x3ddaf201	0.1069069
15	0xbc89d5ff	-0.016825674
16	0x3dd32228	0.10309249
17	0x3df58255	0.119877495
18	0x3e1a2828	0.15054381
19	0x3d922cbc	0.07137439
20	0x3e105acf	0.1409714
21	0x3cda03b3	0.026613092
22	0x3da1b8de	0.07896589
23	0x3e15184b	0.14560048
24	0x3ddf31dd	0.108981825
25	0x3dfadbc2	0.12248947
26	0xbe03ec55	-0.12883122
27	0x3d319e54	0.043363884
28	0x3d30825a	0.043093063
29	0x3dcb9550	0.099405885
30	0xbd947510	-0.072488904
31	0x3ca69720	0.020335734
32	0xbd69426e	-0.056948118
33	0x3df397a8	0.118941605
34	0x3e07bafb	0.13254921
35	0x3b6f6d40	0.0036533624
36	0x3da05d45	0.0783029
37	0x3daedfde	0.08538793
38	0xbd05ea97	-0.032694425
39	0x3dcb3741	0.09922648
40	0x3a9264b1	0.0011168924
41	0x3dbacf63	0.09121587
42	0x3dd1ee8f	0.102505796
43	0x3d8b8a4f	0.0681349
44	0x3d4ffcc9	0.050778184
45	0x3d079a40	0.03310609
46	0x3c5e0eeb	0.013553361
47	0xbde3648e	-0.11103164
48	0x3ab719e8	0.0013969513
49	0x3e287e80	0.16454506
50	0x3d8e1d56	0.06939189
51	0x3e24e5ab	0.16103236
52	0x3e030132	0.12793425
53	0x3d6b9e38	0.057523936
54	0xbd77a203	-0.06045724
55	0x3d91d218	0.0712015
56	0x3db82974	0.089922816
57	0xbd3f3deb	-0.04668991
58	0x3e29ac96	0.16569743
59	0xbbb33220	-0.005468622
60	0x3d52079d	0.05127679
61	0x3e1a4e18	0.15068853
62	0xbdafa44c	-0.08576259
63	0xbbe09fc3	-0.0068549826
64	0x3da3b405	0.079933204
65	0x3dedbaf0	0.11607921
66	0x3d73a2fe	0.059481613
67	0x3dc7bf6d	0.097533084
68	0x3dfd03d6	0.12354247
69	0x3d926186	0.07147507
70	0x3d44d4b2	0.048054405
71	0x3e0b245b	0.13588087
72	0x3cbbfea8	0.022948578
73	0x3d6ba3f5	0.05752941
74	0xbd1e2037	-0.03860494
75	0x3d0bd014	0.034133986
76	0xbc760933	-0.015016842
77	0x3dc3618f	0.09540092
78	0x3e0c8f24	0.13726479
79	0x3dc8fe6a	0.09814151
80	0xbc5b5831	-0.013387726
81	0x3dbc793b	0.092028104
82	0x3b70fb84	0.0036771009
83	0x3c780e13	0.015140074
84	0x3e2131ac	0.15741605
85	0x3b75323c	0.0037413975
86	0x3d6efdb0	0.058347404
87	0xbd42d454	-0.047565773
88	0xbd048e20	-0.032362103
89	0x3d6ff496	0.058582865
90	0x3d8d6dbe	0.06905697
91	0x3d8b2803	0.06794741
92	0x3dea654a	0.114451006
93	0x3e1687b5	0.14700206
94	0x3d5b85b4	0.053594306
95	0xbd2d2625	-0.042272706
96	0x3ce5d0ce	0.028053667
97	0x3cd960a1	0.026535334
98	0x3dae4ab5	0.08510343
99	0xbdb12e56	-0.08651416
100	0x3c825fe3	0.015914863
101	0x3d6bac2a	0.057537235
102	0x3d0bd2c2	0.03413654
103	0x3d3d8882	0.046272762
104	0x3d940271	0.07227028
105	0x3deb1305	0.11478237
106	0xbbae2251	-0.0053141494
107	0x3ddea2fc	0.108709306
108	0x3c85dac5	0.016339669
109	0x3e088e6b	0.13335578
110	0xbc0f00b7	-0.008728198
111	0xbc5bfdd5	-0.0134272175
112	0x3bb6babc	0.0055764597
113	0x3d861c95	0.0654842
114	0x3da0a617	0.07844179
115	0x3dadc051	0.08483947
116	0x3b540051	0.0032348821
117	0x3c0e8c12	0.008700388
118	0xbca3796e	-0.019955363
119	0x3c194580	0.009354949
120	0x3d08b3d7	0.033374634
121	0xbd5e4d61	-0.054273013
122	0xbb6888f7	-0.0035482028
123	0xbcf29ee4	-0.02961678
124	0x3d24eb0f	0.04026323
125	0x3dacd737	0.084394865
126	0x3e04c339	0.12965097
127	0x3e0c42c4	0.13697344
128	0xbda04512	-0.07825674
129	0xbc9a3fa3	-0.018829172
130	0xbd510a5a	-0.051035263
131	0xbda58413	-0.08081832
132	0xbd4e6230	-0.050386608
133	0x3ca5bc78	0.02023147
134	0xbd00013d	-0.03125118
135	0x3e264335	0.16236575
136	0x3d882cd7	0.066491775
137	0x3e18eb15	0.14933427
138	0x3e03df53	0.1287816
139	0x3d715659	0.05892024
140	0xbce79c5c	-0.0282728
141	0x3d69687a	0.056984402
142	0xbc743881	-0.01490605
143	0x3a09e5d0	0.000526038
144	0x3d1cc97c	0.038278088
145	0x3d43a637	0.047765937
146	0x3db6b4c6	0.089211985
147	0x3e0b937e	0.13630483
148	0x3df93afc	0.121694535
149	0x3c81abc8	0.015828982
150	0xbdb5b052	-0.08871521
151	0x3b40326c	0.0029326929
152	0xbb242fcf	-0.002505291
153	0x3e0392d3	0.12848978
154	0x3e0e7985	0.13913544
155	0xbd60f709	-0.05492309
156	0x3d18a6e2	0.037268527
157	0x3dd478a0	0.1037457
158	0x3d9babe2	0.076011434
159	0x3ce0697c	0.027394049
160	0x3d8b1ada	0.06792231
161	0x3d7fd264	0.062456504
162	0x3d77ccdb	0.0604981
163	0xbcf2e150	-0.029648453
164	0x3ddab5fb	0.10679241
165	0x3d88923a	0.066685155
166	0x3da17bf5	0.07884971
167	0x3d9af029	0.07565338
168	0xbd6e8c5b	-0.058239322
169	0x3da6a224	0.081363946
170	0x3d0105d8	0.031499714
171	0xbc914443	-0.017732745
172	0x3e0fd089	0.14044394
173	0x3dd718ae	0.10502754
174	0x3d5d7de7	0.054075148
175	0x3bf6f044	0.007535966
176	0x3d204f14	0.039137915
177	0x3ce434f3	0.02785728
178	0x3ce97d8b	0.028502246
179	0x3da1190d	0.07866106
180	0x3b199a91	0.0023438076
181	0x3cdcee28	0.02696903
182	0x3dfd2223	0.12360027
183	0x3bf0aeeb	0.0073450706
184	0xbd621c27	-0.05520263
185	0xbc4c5a07	-0.012472636
186	0x3de97072	0.113984
187	0xbc53ff0a	-0.012939224
188	0x3e1b51f1	0.15167977
189	0x3df19096	0.11795156
190	0x3d8666df	0.0656259
191	0x3df7d33c	0.12100837
192	0x3deb1536	0.11478655
193	0x3ddababc	0.10680148
194	0x3d936cd6	0.07198493
195	0x3dd4498c	0.103655905
196	0x3d9f5223	0.07779338
197	0x3dfcbdc0	0.123408794
198	0x3dfa0197	0.122073345
199	0x3d2af4f1	0.0417375
200	0x3db0e420	0.086372614
201	0x3deb7dcb	0.114986025
202	0xbdd01aad	-0.10161338
203	0x3e225230	0.15851665
204	0x3e08b20d	0.13349171
205	0x3e23e44d	0.16005059
206	0x3d115b7d	0.03548764
207	0x3d627939	0.05529139
208	0x3dfea687	0.12434106
209	0x3d2f1fac	0.042754814
210	0x3cc4c71d	0.024020726
211	0x3cfab4b7	0.03060375
212	0x3dc6141a	0.09671803
213	0xbd8ac3d6	-0.06775634
214	0xbd16fc9c	-0.036862
215	0x3dd5c4eb	0.1043795
216	0x3da79e6f	0.08184516
217	0x3c85916c	0.016304694
218	0xbb17e9ba	-0.0023180083
219	0x3d609059	0.05482516
220	0x3cf17916	0.029476684
221	0x3e29ea14	0.165932
222	0x3ca18083	0.0197146
223	0x3e252005	0.16125496
224	0xbe09f109	-0.13470854
225	0xbdfa20a5	-0.12213258
226	0x3e19608c	0.14978236
227	0xbba65731	-0.005076312
228	0x3d01cf12	0.03169162
229	0xbd79c599	-0.06097946
230	0x3e1089f1	0.1411512
231	0xbdd5fff1	-0.104492076
232	0xbd97d5d3	-0.074138306
233	0x3cf9f14a	0.030510563
234	0x3e201bc4	0.15635592
235	0x3d9e8f9c	0.07742235
236	0x3d89f667	0.06736451
237	0x3db15666	0.08659057
238	0x3d0755d3	0.033040833
239	0x3dfad66d	0.1224793
240	0x3b2c917b	0.002633183
241	0x3dfec6e5	0.1244028
242	0xbd8add96	-0.067805454
243	0x3d27b503	0.04094411
244	0xbd66df2a	-0.05636517
245	0x3df9a8c1	0.121903904
246	0x3e19c669	0.15017094
247	0x3d6d4422	0.057926305
248	0xbda71e5a	-0.08160086
249	0xbd3cc5ca	-0.046087064
250	0xbd506a8f	-0.050882872
251	0x3d901f9e	0.070372805
252	0x3b9a4c0d	0.004708773
253	0xbc938406	-0.01800729
254	0x3e13c19d	0.14429326
255	0xbd717427	-0.058948662

l4.weight f4 [1, 256]
0	0x3ec05327	0.3756344
1	0x3e80a3fc	0.2512511
2	0xbbfb0d20	-0.0076614767
3	0x3ecc805d	0.39941683
4	0xbe24c0f1	-0.16089226
5	0x3ed1d203	0.4098054
6	0x3dbc800d	0.09204111
7	0xbe456021	-0.19274952
8	0xbe200602	-0.15627292
9	0xbe4fe5be	-0.20302483
10	0x3efc35f1	0.49259904
11	0xbea032b3	-0.3128868
12	0xbe82cb85	-0.25545898
13	0x3ce56661	0.02800292
14	0x3ec45bf7	0.38351414
15	0x3ef34c40	0.47519112
16	0xbe50bbc8	-0.20384133
17	0xbe329d13	-0.17442732
18	0xbe319541	-0.17342092
19	0xbe33942b	-0.1753699
20	0xbe33be86	-0.17553148
21	0xbe5d23f6	-0.2159575
22	0xbe624462	-0.22096398
23	0xbe343ba1	-0.17600872
24	0xbe3c3db7	-0.18382917
25	0xbe5183bb	-0.20460407
26	0x3ee33a22	0.4438029
27	0xbe6d480c	-0.23172015
28	0xbe300524	-0.17189461
29	0xbe23db41	-0.16001607
30	0x3f060613	0.5235302
31	0x3efb319a	0.4906128
32	0x3edb5c9b	0.4284409
33	0x3eb876e8	0.36028218
34	0xbe3c2754	-0.18374377
35	0xbc908b34	-0.017644502
36	0x3f05815b	0.52150506
37	0xbe515854	-0.20443851
38	0x3f0a5eb7	0.54050773
39	0xbe6529ef	-0.22379278
40	0xbf14ac40	-0.5807533
41	0x3e7b1a14	0.24521667
42	0xbe59d811	-0.21273829
43	0xbe277927	-0.1635481
44	0xbe3ce200	-0.18445587
45	0xbe522ea7	-0.20525609
46	0xbe614363	-0.21998362
47	0x3e3f8f4a	0.18707004
48	0x3c259574	0.010106433
49	0xbe179cec	-0.14805955
50	0x3eedc5d4	0.46439993
51	0xbe670f0c	-0.22564334
52	0xbe6d163c	-0.23153013
53	0x3ec18591	0.37797216
54	0x3bace04e	0.0052757626
55	0x3f02beef	0.5107259
56	0x3e7a81ae	0.24463531
57	0x3d264efe	0.040602677
58	0xbe23b9e0	-0.15988874
59	0x3ec26144	0.37964833
60	0xbe65fbdc	-0.22459358
61	0xbe2e5165	-0.17023237
62	0xbd469f22	-0.048491605
63	0x3ed2d1b2	0.4117561
64	0xbe2b89f4	-0.16751844
65	0xbe330351	-0.17481734
66	0xbe56b928	-0.20969069
67	0xbe2c7022	-0.1683965
68	0xbe35a66e	-0.17739269
69	0xbe4f7c49	-0.20262255
70	0xbe23eb72	-0.16007784
71	0xbe55afc8	-0.20867836
72	0xbe36b8e3	-0.17843966
73	0xbe4241cd	-0.18970414
74	0x3e939843	0.28827104
75	0x3efd93a5	0.49526706
76	0x3ee8c9f7	0.45466587
77	0xbe55c652	-0.20876434
78	0xbe4cb70b	-0.199917
79	0xbe6dae16	-0.2321094
80	0x3eb15401	0.34634402
81	0xbe150f77	-0.1455668
82	0x3ed6a830	0.41925192
83	0x3ea2be4d	0.31785813
84	0xbe61a47e	-0.22035405
85	0x3ef149c4	0.4712659
86	0x3eaf6c6a	0.342624
87	0x3e4aaec3	0.19793229
88	0x3efe617f	0.4968376
89	0xbe4dcdf5	-0.20098098
90	0xbe3702cc	-0.1787216
91	0xbe254387	-0.16139041
92	0xbe5a3557	-0.2130941
93	0xbe5c35b4	-0.21504861
94	0xbe4f4a49	-0.20243181
95	0xbec22581	-0.37919238
96	0xbe66e5e2	-0.22548631
97	0xbe43e924	-0.19131905
98	0x3e4368dd	0.19082971
99	0xbd694793	-0.056953024
100	0xbe63298e	-0.2218382
101	0x3d4efbd1	0.05053312
102	0x3d489961	0.0489744
103	0x3e69c3ec	0.22828645
104	0x3c9e3f9d	0.019317443
105	0xbe4dc011	-0.20092799
106	0xbe84dd87	-0.25950262
107	0x3e613462	0.21992639
108	0x3eb9167f	0.36149976
109	0xbe66c397	-0.22535549
110	0xbe288b54	-0.164594
111	0x3ecedd00	0.40402985
112	0x3e0c6a61	0.13712455
113	0xbe664632	-0.22487715
114	0xbe37e32f	-0.17957757
115	0xbe3cd40b	-0.18440263
116	0xbe221011	-0.15826441
117	0xbe346be0	-0.17619276
118	0x3efc3ac3	0.49263582
119	0xbe50127c	-0.20319551
120	0x3ebdbb63	0.37057027
121	0xbd1c03d2	-0.03808958
122	0x3e9a9ba0	0.30196857
123	0x3edf7a86	0.43648165
124	0xbe453cb6	-0.1926144
125	0xbe3dabd7	-0.18522583
126	0xbe4d0be7	-0.20024072
127	0xbe591d95	-0.21202691
128	0x3d43928b	0.047747176
129	0x3efab66e	0.48967308
130	0xbeb84275	-0.35988203
131	0x3d4496a0	0.04799521
132	0x3d608e34	0.054823115
133	0x3db5883c	0.08863875
134	0x3ee65009	0.44982937
135	0xbe3ea712	-0.1861842
136	0xbe5d8209	-0.21631636
137	0xbe3f8072	-0.18701342
138	0xbe2a260a	-0.16616073
139	0x3cf316ed	0.029674018
140	0xbef8c709	-0.48589352
141	0x3c1b8427	0.009491957
142	0xbe255dfc	-0.16149133
143	0xbe4fbd3b	-0.2028703
144	0x3c5a48c1	0.01332301
145	0xbe6712e1	-0.22565795
146	0xbe589fdb	-0.2115473
147	0xbe4c2520	-0.19936037
148	0xbe2cc00e	-0.16870138
149	0x3e80d95b	0.2516583
150	0x3ce583b3	0.0280169
151	0x3cbc2e4a	0.022971291
152	0xbe39b9a4	-0.18137223
153	0xbe3d7c6a	-0.18504491
154	0xbe3b2337	-0.18275152
155	0xbee9a72e	-0.4563536
156	0xbe41c157	-0.1892141
157	0x3ed045f8	0.40678382
158	0xbe258978	-0.16165721
159	0x3ecbb582	0.39786917
160	0x3d0762e3	0.03305329
161	0xbe4d1684	-0.2002812
162	0x3d506ee9	0.050887022
163	0xbf181f32	-0.594226
164	0xbe56ddb1	-0.20983006
165	0x3ec528e2	0.38507754
166	0x3cc6f509	0.024286764
167	0xbe27d520	-0.16389894
168	0xbd0a4c03	-0.033763897
169	0xbe5772e3	-0.2103992
170	0x3e8ca2e3	0.27468023
171	0x3ec22d34	0.37925112
172	0xbe3eaa98	-0.18619764
173	0xbe482d6d	-0.19548579
174	0x3e0542eb	0.13013808
175	0x3ee807e0	0.45318508
176	0xbe392805	-0.18081672
177	0xbe3b9ce5	-0.1832157
178	0xbe2a2612	-0.16616085
179	0x3d6c571d	0.057700265
180	0xbe4ce78d	-0.20010205
181	0xbe45a356	-0.19300589
182	0xbe2337b0	-0.15939212
183	0x3f040804	0.5157473
184	0x3eff76b6	0.49895257
185	0xbf0caa45	-0.5494731
186	0xbe61ae51	-0.22039153
187	0xbe911afd	-0.28340903
188	0xbe3da78a	-0.18520942
189	0xbe4aaaf2	-0.19791773
190	0x3c6e0648	0.014527865
191	0xbe39cde3	-0.18144946
192	0xbe6524dd	-0.22377343
193	0x3e85196c	0.25995958
194	0x3ebed65f	0.37272927
195	0xbe4d35ab	-0.20040004
196	0x3e87e1ae	0.26539367
197	0xbe2bcd8e	-0.16777632
198	0xbe4e0e8e	-0.2012274
199	0x3e60be45	0.21947582
200	0x3ec50580	0.3848076
201	0xbe62f714	-0.22164565
202	0x3e6ea57a	0.23305312
203	0xbe795156	-0.24347433
204	0xbe48e9b4	-0.196204
205	0xbe6ab23c	-0.22919554
206	0xbe3fd543	-0.18733697
207	0xbe21906d	-0.1577775
208	0xbe5c0685	-0.21486862
209	0x3ce22046	0.02760328
210	0x3ef1e514	0.47245085
211	0x3ee62e19	0.44957045
212	0xbe5808e7	-0.21097146
213	0x3d71d36d	0.059039522
214	0x3d2c006e	0.041992597
215	0xbe3b3648	-0.18282425
216	0x3eee0337	0.46486828
217	0x3e689ff2	0.22717264
218	0x3ee5b471	0.44864228
219	0x3d0b6c2b	0.034038704
220	0x3ec65f7e	0.3874473
221	0xbe4f6730	-0.20254207
222	0x3b010570	0.001968708
223	0xbe2d5048	-0.16925156
224	0x3ed053d3	0.40688953
225	0x3ee2a9bf	0.4427013
226	0xbe1fc806	-0.15603647
227	0xbebdca89	-0.37068585
228	0x3e7a8050	0.2446301
229	0x3d6ef671	0.058340494
230	0xbe45fc66	-0.19334564
231	0x3e8c1f5b	0.27367672
232	0x3d2dce6b	0.042433184
233	0xbe222cf2	-0.15837458
234	0xbe4294c5	-0.19002064
235	0x3c5a1df2	0.013312804
236	0xbe1ab771	-0.1510904
237	0xbe56542e	-0.2093055
238	0x3cf71de8	0.030165628
239	0xbe3f2e94	-0.18670112
240	0xbe4ce860	-0.20010519
241	0xbe30f365	-0.17280348
242	0xbe009205	-0.12555702
243	0x3d422fa3	0.04740871
244	0x3cb06b14	0.021535434
245	0xbe43bc33	-0.19114761
246	0xbe311afd	-0.17295451
247	0xbd1ba0c4	-0.037995115
248	0x3dbad61c	0.09122869
249	0x3edbce20	0.42930698
250	0x3e836af2	0.2566753
251	0x3c133264	0.008984182
252	0x3d380860	0.044929862
253	0x3ee611ed	0.4493555
254	0xbe504151	-0.20337416
255	0xbf7ab1f7	-0.979278
