preTrained/v3TD3_BipedalWalkerHardcore-v3_0_critic_1_target.pth (torch_old, 175167 bytes, 7 tensors)

l1.weight f4 [64, 28]
0	0x3d17b5af	0.0370385
1	0xbd98ae16	-0.07455079
2	0xbe239abf	-0.15977
3	0xbe4a39c4	-0.19748598
4	0xbd81c846	-0.06337027
5	0x3c85fc9a	0.016355801
6	0x3d1b930b	0.037982028
7	0xbc2b24ab	-0.010445754
8	0x3e4549ed	0.19266482
9	0xbe11d23a	-0.14240351
10	0xbda6f490	-0.08152115
11	0x3e0f653a	0.14003459
12	0x3db727a9	0.089431114
13	0x3e41a0d5	0.18909009
14	0xbd2715d6	-0.04079231
15	0x3e57597a	0.21030226
16	0x3dff2b00	0.124593735
17	0x3d4cec57	0.05003008
18	0x3e0a8303	0.1352654
19	0x3c732fe0	0.014842957
20	0x3d0204e8	0.03174296
21	0x3e26b2b2	0.16279104
22	0x3dcd4b05	0.100240745
23	0x3c5f5386	0.013630753
24	0x3cbc679e	0.022998627
25	0xbe29c7f5	-0.16580184
26	0x3e206e83	0.15667157
27	0x3d3093cc	0.0431097
28	0x3e1d6167	0.15369187
29	0x3e3adaa0	0.18247461
30	0x3e12f05f	0.14349507
31	0xbe936f72	-0.28795964
32	0x3eb578de	0.35443777
33	0x3cdc8c73	0.02692244
34	0x3e1baca1	0.15202571
35	0xbc5ca7d7	-0.0134677505
36	0xbd136aeb	-0.035990637
37	0xbe907a49	-0.28218296
38	0x3c740ffb	0.014896388
39	0xbe2b6e0e	-0.16741201
40	0x3cdf16b8	0.027232513
41	0xbb38c8a0	-0.0028195754
42	0xbdd1d43f	-0.10245561
43	0xbdcf7faf	-0.101317756
44	0x3d899116	0.06717126
45	0xbe02f93d	-0.1279039
46	0xbde8f994	-0.11375728
47	0x3d68c465	0.05682792
48	0xbdaf8474	-0.08570185
49	0xbdb4b60c	-0.08823785
50	0x3d2bd563	0.04195155
51	0xbd29654c	-0.04135637
52	0x3c0cdfe5	0.0085983025
53	0x3cb2b65d	0.021815473
54	0xbb487ba9	-0.0030591285
55	0x3c512a64	0.012766454
56	0xbe4c1ce3	-0.19932894
57	0xbf1e4047	-0.6181683
58	0x3e90f044	0.28308308
59	0x3df494e9	0.11942465
60	0xbdaf8956	-0.085711166
61	0xbdbeb5de	-0.09312032
62	0x3c7838c2	0.015150251
63	0xbdd9d126	-0.10635595
64	0x3e328546	0.17433652
65	0xbd6b649c	-0.057468995
66	0x3df427d7	0.11921661
67	0xbdb1dc0d	-0.086845495
68	0x3d0f368a	0.034964122
69	0x3dda6884	0.10664466
70	0xbd34033b	-0.043948393
71	0x3dde0bd8	0.10842103
72	0xbe464087	-0.19360553
73	0x3dd2e395	0.10297314
74	0x3def13e1	0.116737135
75	0xbda31316	-0.07962625
76	0xbd17f6de	-0.037100665
77	0x3de66f16	0.11251657
78	0x3e0ffa04	0.14060217
79	0xbd4e236d	-0.050326753
80	0x3dc708fa	0.09718509
81	0x3cc1b103	0.023643976
82	0x3da6ecac	0.0815061
83	0xbd2398b9	-0.03994057
84	0xbe904fe8	-0.28185964
85	0xbf17dbaf	-0.59319586
86	0x3eff0109	0.49805477
87	0xbd52c43b	-0.05145667
88	0xbd971b64	-0.07378271
89	0x3aba7c5d	0.0014227737
90	0xbda593a6	-0.08084802
91	0x3d056b65	0.032573123
92	0x3d842e3b	0.0645413
93	0xbe4de55a	-0.20107022
94	0xbd8e72a9	-0.069554634
95	0xbdeec4b9	-0.116586156
96	0xbd9b679f	-0.075881235
97	0xbc1a084a	-0.00940139
98	0x3d99d5cb	0.07511481
99	0x3cf27cad	0.029600466
100	0xbdab87bc	-0.08375499
101	0xbcbd3d73	-0.02310059
102	0x3d59a1a8	0.053132683
103	0x3e6b769b	0.22994463
104	0xbc8af47f	-0.016962288
105	0x3c5043a0	0.012711436
106	0x3b6806d4	0.003540446
107	0x3d86fdb2	0.06591357
108	0xbca3c31c	-0.019990496
109	0x3d4447d6	0.04792007
110	0xbce86720	-0.028369486
111	0x3d85a88a	0.06526287
112	0x3ca6d343	0.02036441
113	0x3e458772	0.1928995
114	0x3d4027ff	0.046913143
115	0x3db11ba5	0.08647851
116	0x3e6e40a5	0.23266847
117	0xbcb3e3f2	-0.021959279
118	0xbda51bdb	-0.08061954
119	0x3ca95937	0.020672424
120	0x3db8f31f	0.09030747
121	0x3d9681ae	0.07348953
122	0xbcb92701	-0.022601606
123	0xbea5892c	-0.32331216
124	0xbdb4c7f1	-0.08827198
125	0x39c79eb7	0.0003807449
126	0x3dad4789	0.0846091
127	0x3d9d3873	0.076767825
128	0x3e0b40b0	0.13598895
129	0xbd699a76	-0.05703207
130	0x3e3aaa63	0.1822906
131	0x3baffcd2	0.0053707147
132	0xbdb99336	-0.090612814
133	0xbdb89e27	-0.0901454
134	0x3db768e0	0.0895555
135	0xbd844e17	-0.06460207
136	0xba71e56a	-0.0009227606
137	0xbcb1a364	-0.021684356
138	0x3d214890	0.03937584
139	0xbe259445	-0.16169842
140	0x3e05f6f4	0.13082486
141	0x3e4af258	0.1981901
142	0xbe9ffe3d	-0.31248656
143	0xbe0308f5	-0.12796386
144	0xbea970fe	-0.3309402
145	0xbc815e64	-0.01579208
146	0xbd480071	-0.048828546
147	0x3b664d7a	0.0035141394
148	0xbd229e1f	-0.039701577
149	0xbead7c26	-0.3388378
150	0x3ce3c443	0.027803546
151	0xbe3566b7	-0.17714964
152	0xbc47f199	-0.012203597
153	0x3cff4fd3	0.031165993
154	0xbe4fe011	-0.20300318
155	0xbdaaebe7	-0.08345776
156	0xbdb04958	-0.08607739
157	0x3c96da65	0.018414686
158	0xbe50fd3a	-0.20409098
159	0xbdd04d72	-0.101710215
160	0x3d17217d	0.03689717
161	0xbc9eb93e	-0.01937544
162	0xbd22068f	-0.039557036
163	0x3d92028d	0.07129393
164	0x3c3aab27	0.011393345
165	0xbcb101b7	-0.021607263
166	0xbb22e14e	-0.002485353
167	0xbd196c35	-0.03745671
168	0xbe257a44	-0.16159922
169	0xbf1dd0bc	-0.6164663
170	0x3e3c4f53	0.18389635
171	0x3ea43c0e	0.32077068
172	0xbe8a0466	-0.2695648
173	0x3dba0d51	0.09084571
174	0xbe0d122b	-0.13776462
175	0x3c6b2e8c	0.014354359
176	0x3e0d8dc2	0.13823608
177	0x3deec311	0.116583
178	0xbe352d3d	-0.17693038
179	0x3dc93532	0.09824599
180	0xbdd900a0	-0.10595822
181	0xbe3039d6	-0.17209563
182	0x3d83ae45	0.06429724
183	0xbe160487	-0.14650165
184	0x3e18c91d	0.14920469
185	0xbd808e21	-0.06277109
186	0x3e2164ef	0.1576116
187	0x3b59943d	0.003319993
188	0x3c6fadf2	0.014628874
189	0x3d3918cb	0.04518966
190	0xbd9c0441	-0.07617999
191	0x3c2a1c88	0.010382779
192	0x3d044e4b	0.03230123
193	0x3c8a3ec1	0.016875627
194	0xbc8b54a0	-0.017008126
195	0xbdf05c59	-0.11736364
196	0xbe81fdf8	-0.25389075
197	0xbf26bf02	-0.65135205
198	0x3eafbfdd	0.34326068
199	0x3d86034d	0.06543598
200	0xbdb7e1b4	-0.08978596
201	0x3d11b5f7	0.035573926
202	0x3d52e0e2	0.051483996
203	0x3c5284ba	0.012849027
204	0xbd0e9e29	-0.034818802
205	0xbe293f4f	-0.16528057
206	0xbd7db690	-0.061941683
207	0xbd00e08e	-0.031464152
208	0x3d50b3fb	0.050952893
209	0xbde019fb	-0.109424554
210	0x3dd99e31	0.10625876
211	0x3e48f642	0.1962519
212	0xbd3c8ca0	-0.046032548
213	0x3e680741	0.22659017
214	0x3df201ab	0.118167244
215	0x3e15137a	0.14558211
216	0x3e48ccd8	0.19609392
217	0x3d66dae5	0.056361098
218	0xbd2ca614	-0.042150572
219	0xbe16983f	-0.14706515
220	0xbc96701c	-0.018364005
221	0xbc1571fb	-0.009121413
222	0xbd630b89	-0.055430923
223	0xbd247941	-0.0401547
224	0x3d3947a5	0.04523434
225	0xbe9ceba7	-0.30648538
226	0xbd6cb447	-0.057789113
227	0x3da738cd	0.08165131
228	0xbd0d4792	-0.034492083
229	0x3e058d5d	0.13042207
230	0xbcf3b893	-0.029751098
231	0xbd991b93	-0.074759625
232	0xbe2df0be	-0.16986367
233	0xbdcb3921	-0.09923006
234	0x3ca7bccc	0.020475768
235	0xbe01e128	-0.12683547
236	0xbbd7451a	-0.006569517
237	0x3e34f75a	0.17672482
238	0x3daffec2	0.08593513
239	0x3c472566	0.012154913
240	0x3dd2fd3e	0.10302208
241	0x3dd72744	0.10505536
242	0x3e80f18b	0.25184283
243	0xbd944b6b	-0.07240947
244	0x3d4caa3a	0.04996703
245	0x3ded7e08	0.11596304
246	0x3c3813a4	0.011235151
247	0x3e0d2c1a	0.13786355
248	0xbde7578c	-0.11295995
249	0xbccf612c	-0.02531489
250	0x3deab029	0.11459381
251	0xbe1f1fec	-0.15539521
252	0xbe30b887	-0.17257892
253	0xbe79fc68	-0.24412692
254	0x3ee9c0b7	0.45654842
255	0x3e88e711	0.2673879

l1.bias f4 [64]
0	0x3d9e824e	0.077396974
1	0x3dd72720	0.105055094
2	0x3e9c0ef4	0.30480158
3	0x3c92f389	0.017938392
4	0x3e315016	0.17315707
5	0xbe0a134d	-0.13483925
6	0x3e8b7137	0.27234814
7	0x3db3f96d	0.087878086
8	0x3e8f05fb	0.2793425
9	0x3e6baf93	0.23016195
10	0x3d88014f	0.066408746
11	0x3e41361a	0.18868294
12	0x3e825225	0.25453296
13	0xbd86c7e4	-0.06581095
14	0x3e80c3cd	0.25149384
15	0xbdf18381	-0.117926605
16	0x3e47bdc8	0.1950599
17	0x3e3dea54	0.1854642
18	0x3d3ace42	0.04560686
19	0xbbcb5ce7	-0.006206143
20	0x3e991b96	0.2990386
21	0xbb1d8b5f	-0.002403937
22	0x3de6e385	0.11273865
23	0x3e376a95	0.17911752
24	0x3e883d18	0.2660911
25	0xbd35f164	-0.04441966
26	0xbde9914f	-0.114046685
27	0x3d808eab	0.06277212
28	0xbd82bd4b	-0.06383761
29	0x3d980dfa	0.07424541
30	0x3eb1d9b8	0.3473642
31	0x3e0e272b	0.13882129
32	0xbd9c4013	-0.07629409
33	0x3dbdbaad	0.09264121
34	0x3e28a06c	0.16467446
35	0x3e238238	0.15967643
36	0xbd64bd7d	-0.055844773
37	0x3e46d150	0.19415784
38	0x3dcc4ce7	0.099756055
39	0x3e7ee4b8	0.24891937
40	0x3d01ba37	0.03167173
41	0x3e14e0f2	0.14538935
42	0xbd963889	-0.07335002
43	0x3dcb6a00	0.09932327
44	0x3d8da1ba	0.069156125
45	0x3dd02c81	0.101647384
46	0x3d8ba561	0.06818653
47	0x3e33d24c	0.1756069
48	0xbb6a5ca3	-0.0035760782
49	0x3e1ecf27	0.1550871
50	0x3e2954b0	0.16536212
51	0x3d95b1d2	0.07309307
52	0x3d22b376	0.03972193
53	0x3dc454cc	0.09586486
54	0x3e0659b2	0.13120154
55	0x3e86c215	0.26319948
56	0xbd8e1352	-0.06937279
57	0x3ca3a4d3	0.019976055
58	0x3d468708	0.04846862
59	0x3ea1931f	0.31557557
60	0x3e0450a4	0.12921387
61	0x3e0f2f81	0.13982965
62	0x3d07dd7b	0.033170205
63	0x3e5352dc	0.20637077

l2.weight f4 [128, 64]
0	0xbba0674e	-0.0048951274
1	0xbe46aa5f	-0.19400929
2	0x3e2d2d4b	0.16911809
3	0x3e5d2c2d	0.21598883
4	0xbe34d3ac	-0.17658871
5	0x3bde1e29	0.0067784977
6	0x3e80e7d3	0.25176868
7	0x3e05aeb1	0.1305492
8	0x3ccfbde9	0.02535911
9	0x3ccda07e	0.025100943
10	0x3dc53b04	0.09630397
11	0xbd025f56	-0.0318292
12	0x3e826691	0.25468877
13	0xbe08da04	-0.13364416
14	0xbd556bf6	-0.052104913
15	0xbe8eff0a	-0.27928954
16	0xbd70c639	-0.05878279
17	0x3d551aa2	0.052027352
18	0xbdc214d0	-0.09476626
19	0xbe9b6ad5	-0.30354944
20	0x3991a7bf	0.00027781536
21	0x3eba94a3	0.36441526
22	0x3c8d08f0	0.017216176
23	0xbe72382c	-0.2365424
24	0x3dfaba75	0.12242595
25	0x3d78581c	0.060630903
26	0xbd88383a	-0.06651349
27	0x3e40289c	0.18765491
28	0xbeb66913	-0.3562704
29	0x3e10d106	0.14142236
30	0x3e0650ea	0.13116804
31	0x3e03efee	0.12884495
32	0x3dab3d07	0.083612494
33	0xbce2488e	-0.027622487
34	0xbbe2af32	-0.0069178576
35	0x3e0f66b1	0.14004017
36	0xbe7c016e	-0.2460992
37	0xbdedae77	-0.11605542
38	0xbe30fa9b	-0.17283098
39	0x3dd99331	0.10623778
40	0xbe593498	-0.21211469
41	0x3b601826	0.003419408
42	0xbdbebe35	-0.09313623
43	0x3d1b0af7	0.037852254
44	0x3e44d55f	0.1922202
45	0x3dca71da	0.09884997
46	0xbea40e87	-0.32042333
47	0x3e979087	0.29602453
48	0xbd9564d0	-0.07294619
49	0xbd78dd39	-0.06075785
50	0x3e1d8c3f	0.15385531
51	0x3e879477	0.26480457
52	0xbe35a2d7	-0.177379
53	0xbe4c364b	-0.19942586
54	0x3cd378a3	0.02581436
55	0x3dba86ab	0.09107717
56	0x3d542f0b	0.051802676
57	0x3dcba9e5	0.09944514
58	0xbecf1065	-0.40442196
59	0x3e4055f5	0.1878279
60	0xbe2b43f6	-0.16725144
61	0x3e1f589f	0.1556115
62	0xbdda4af8	-0.106588304
63	0xbe2ba523	-0.16762213
64	0x3e1eedd1	0.15520407
65	0xbcf47fe1	-0.029846134
66	0xbc9358fb	-0.017986765
67	0x3cf3820e	0.0297251
68	0x3dfcb60f	0.123394124
69	0x3d7ea3f4	0.062168077
70	0xbdbe0637	-0.09278529
71	0xbe0be4b4	-0.13661462
72	0x3da000e7	0.07812672
73	0x3d80f0de	0.06295942
74	0xbe906961	-0.28205398
75	0x3e14e76b	0.14541404
76	0x3d6536b4	0.055960372
77	0xbc55d69e	-0.013051657
78	0xbd853d07	-0.06505781
79	0xbd2fe748	-0.042945176
80	0xbdeeefaa	-0.11666806
81	0xbe00e4d3	-0.1258729
82	0xbe2cd1f9	-0.16876973
83	0xbe1ff060	-0.1561904
84	0x3db9fd15	0.09081475
85	0xbe0a4b98	-0.13505399
86	0x3dc1c80d	0.09461985
87	0x3dba7df7	0.09106057
88	0x3db52b47	0.08846145
89	0x3db04184	0.08606246
90	0x3d53c877	0.05170485
91	0x3db883ce	0.09009515
92	0xbd14e930	-0.036355197
93	0xbdb01c4d	-0.08599148
94	0x3e143c73	0.14476185
95	0x3d1e4f39	0.03864977
96	0xbd648a40	-0.055795908
97	0x3d21591c	0.039391622
98	0xba779ce5	-0.00094456814
99	0x3cdaf483	0.02672792
100	0xbd9c33fb	-0.07627102
101	0xbd3dd7da	-0.04634843
102	0x3d30d68d	0.04317336
103	0xbe0684c3	-0.13136582
104	0x3dbba7bb	0.091628514
105	0x3d464970	0.04840988
106	0xbdcdee95	-0.100552715
107	0x3dca65fa	0.09882732
108	0xbe4c0e17	-0.1992725
109	0x3b1207c5	0.0022282463
110	0x3ddb84e2	0.10718705
111	0x3e845288	0.25844216
112	0x3d4e2880	0.050331593
113	0x3d9b7313	0.07590308
114	0x3d365b21	0.0445205
115	0xbd3c61f2	-0.045991845
116	0xbcd180b1	-0.02557406
117	0x3da4bd4d	0.08043919
118	0xbdd14896	-0.10218923
119	0x3d2e6400	0.042575836
120	0xbe69c3fd	-0.2282867
121	0x3dc59a73	0.096485995
122	0x3e454e81	0.19268228
123	0xbd6c7dfb	-0.05773733
124	0x3e58204e	0.21106073
125	0x3d02dad9	0.03194699
126	0x3e3d4d38	0.18486488
127	0x3de35d2b	0.11101755
128	0xbd12bf6b	-0.03582708
129	0x3d9e44a2	0.077279344
130	0xbdebbf62	-0.11511113
131	0xbd6fde2c	-0.05856149
132	0x3e8df63b	0.2772692
133	0x3e4e1641	0.20125677
134	0x3d28b8ad	0.041191746
135	0xbdab42e5	-0.083623685
136	0x3db5508a	0.08853252
137	0x3de1197f	0.10991191
138	0xbeab9aa2	-0.33516413
139	0x3dac82e2	0.084234014
140	0x3d006a18	0.03135118
141	0x3d94e98e	0.072711095
142	0x3dbab169	0.091158696
143	0x3cb1918f	0.021675853
144	0x3d687068	0.056747824
145	0x3d868833	0.06568947
146	0x3dacf8f9	0.08445925
147	0xbc896579	-0.016772019
148	0x3e71d21c	0.23615307
149	0xbe8f2af4	-0.27962458
150	0x3d817f67	0.06323128
151	0x3dd4722f	0.10373341
152	0xbc8d75dd	-0.017268116
153	0x3def3ae9	0.11681158
154	0xbe22675b	-0.1585974
155	0xbd340acd	-0.043955613
156	0xbd3debf2	-0.046367593
157	0xbdb7f77d	-0.089827515
158	0x3ddc8ef7	0.10769456
159	0x3c359a43	0.011084142
160	0x3da8ec0e	0.08248149
161	0x3d99b08d	0.075043775
162	0x3e14de10	0.14537835
163	0xbd84104e	-0.06448422
164	0x3e1ee09d	0.1551537
165	0x3e17091d	0.1474957
166	0x3deb35a0	0.114848375
167	0x3b314b40	0.002705291
168	0x3d4ac4bd	0.04950403
169	0xbce7b6a4	-0.028285332
170	0x3daa6267	0.0831955
171	0xbdf10682	-0.117688194
172	0xbc171494	-0.009221215
173	0x3e443686	0.19161424
174	0x3c9aac62	0.018881027
175	0xbd2838a0	-0.041069627
176	0x3d889500	0.066690445
177	0x3e0977f8	0.1342467
178	0x3dc7261f	0.09724068
179	0xbd75e033	-0.060028266
180	0xbd4f2a79	-0.050577614
181	0x3d9e18c8	0.077195704
182	0x3dcf942e	0.10135685
183	0x3ca96d88	0.020682111
184	0xbd2da2a2	-0.042391427
185	0xbdac9d6e	-0.08428465
186	0x3db40beb	0.08791336
187	0x3d63b2ef	0.055590566
188	0x3e1c2205	0.15247352
189	0x3de23b46	0.11046462
190	0x3e0073bd	0.1254415
191	0x3e3b55d7	0.18294464
192	0x3e184a45	0.14872082
193	0x3d22b143	0.03971983
194	0x3de297c3	0.110641025
195	0x3bade98d	0.0053073824
196	0x3d43e2cc	0.047823712
197	0x3e3ed7e7	0.18637048
198	0xbd034261	-0.032045726
199	0x3dd75908	0.10515028
200	0xbd7f5242	-0.062334307
201	0xbe2401ec	-0.16016358
202	0xbe2463a8	-0.16053641
203	0x3e0a0862	0.1347976
204	0x3db33387	0.087500624
205	0xbe179cdd	-0.14805932
206	0xba838788	-0.0010034898
207	0xbc3bf1fc	-0.011471268
208	0x3dbff8cf	0.09373628
209	0xbda1afce	-0.0789486
210	0xbdae0003	-0.08496096
211	0x3d94fce7	0.072748
212	0xbc7b1289	-0.015324243
213	0xbd068e7b	-0.032850724
214	0x3ddfb1c0	0.10922575
215	0x391ddbdb	0.0001505459
216	0x3cf0efbc	0.02941119
217	0x3ce9c3bd	0.028535718
218	0x3af0a06d	0.0018358357
219	0x3e289089	0.16461386
220	0xbd4f1cde	-0.05056464
221	0xbcc91fb0	-0.024551243
222	0x3d213f94	0.039367273
223	0xbcde439e	-0.027131852
224	0xbc54c29c	-0.012985852
225	0xbdae5867	-0.08512955
226	0x3dff482f	0.1246494
227	0x3cef6a21	0.02922541
228	0xbba6babe	-0.0050881794
229	0x3db2b48b	0.08725842
230	0x3e292156	0.16516623
231	0x3d3a625e	0.045503967
232	0xbd6ec4c6	-0.058293127
233	0xbd2de27d	-0.042452324
234	0xbe063a16	-0.13108096
235	0x3d005d31	0.031338874
236	0xbe28c2ba	-0.16480532
237	0x3e09e44e	0.13465998
238	0xbcc2258d	-0.023699546
239	0x3d628264	0.05530013
240	0x3c6af0df	0.014339655
241	0x3d8b61a3	0.06805732
242	0x3e49c27b	0.19703095
243	0x3e1e503b	0.15460293
244	0x3d2b2534	0.041783527
245	0x3de198c5	0.110154666
246	0xbd4b757d	-0.049672592
247	0x3d8fb532	0.07016982
248	0xbe411830	-0.18856883
249	0x3e0159f1	0.12631966
250	0x3e2eb5f1	0.17061593
251	0xbd108c5b	-0.035290103
252	0x3e03f07d	0.12884708
253	0x3de55d87	0.111994796
254	0xbcaf2413	-0.021379506
255	0x3d51bbb0	0.051204383

l2.bias f4 [128]
0	0x3e26f81a	0.1630558
1	0x3e87a514	0.26493132
2	0x3e865871	0.2623935
3	0x3e811406	0.2521059
4	0x3d1bb0ac	0.038010284
5	0x3e0b6932	0.13614348
6	0x3e28c2ac	0.16480511
7	0x3dd29d6a	0.102839306
8	0x3e529c4c	0.20567435
9	0x3c6b2dc0	0.014354169
10	0x3e3b8780	0.18313408
11	0x3dffc9f4	0.124896914
12	0x3de45c3f	0.11150407
13	0xbc69bb31	-0.014265821
14	0x3d7ea010	0.062164366
15	0xbd34b5f8	-0.04411885
16	0xbdf5626c	-0.11981663
17	0xbd95efb5	-0.07321111
18	0x3e1c94a9	0.15291084
19	0x3e3bf75b	0.18356077
20	0x3d4dcb93	0.05024297
21	0xbd5ba6fb	-0.05362604
22	0x3e42044f	0.18946956
23	0x3d2482d9	0.04016385
24	0xbdc1f0f0	-0.09469783
25	0x3e38a3ed	0.18031283
26	0x3e1e8a68	0.15482485
27	0xbda33017	-0.07968157
28	0xbd8bc5ad	-0.06824813
29	0x3b1f057c	0.0024264744
30	0x3dd55f1f	0.104185335
31	0x3e3c85d2	0.18410423
32	0x3d344dce	0.044019513
33	0x3e01aefe	0.1266441
34	0x3e1ad499	0.15120162
35	0x3e1a4a24	0.15067345
36	0x3ded6ad3	0.11592641
37	0x3c63fca4	0.013915215
38	0x3e01aaef	0.12662862
39	0x3e7dc756	0.24783072
40	0xbd6c9add	-0.057764877
41	0x3e3892c7	0.18024741
42	0x3caf326e	0.021386351
43	0x3dc589ee	0.096454486
44	0x3dcc8c3b	0.09987684
45	0x3e487e16	0.19579348
46	0x3db5a27f	0.08868884
47	0x3d637bb0	0.05553788
48	0x3d0a725d	0.03380047
49	0x3d5442d1	0.051821534
50	0x3e1f2491	0.15541293
51	0x3e05e69b	0.1307625
52	0x3d24ca4d	0.04023199
53	0x3e41e624	0.18935448
54	0x3e19943c	0.14997953
55	0x3cc8dead	0.024520243
56	0xbd5afbd2	-0.05346281
57	0x3e4809a4	0.19534928
58	0xbd8fa8b2	-0.07014598
59	0x3e41a770	0.18911529
60	0x3d8ad836	0.0677952
61	0xbdd30c58	-0.10305089
62	0x3ddda04c	0.1082159
63	0xbd03aaad	-0.03214519
64	0x3e5610d2	0.20904854
65	0x3e1e1b67	0.1544014
66	0xbc614eb2	-0.013751673
67	0x3e16c8b7	0.14725004
68	0x3e12b422	0.14326528
69	0x3e1dd89a	0.15414658
70	0xbccf14c9	-0.025278466
71	0x3db7a8e2	0.08967759
72	0x3e884602	0.26615912
73	0x3e4b26f9	0.19839086
74	0x3e7c2e0a	0.24626938
75	0xbbdf4609	-0.0068137688
76	0x3cb93514	0.022608317
77	0x3e28990f	0.16464637
78	0xbda63c4a	-0.08116968
79	0x3dc55a51	0.09636367
80	0x3cfe9453	0.031076586
81	0x3dfd00de	0.12353681
82	0xbdb6af6b	-0.08920177
83	0x3d99867f	0.07496356
84	0x3d8364db	0.06415721
85	0x3e62e613	0.22158079
86	0x3e0390ea	0.12848249
87	0x3e1eb632	0.1549919
88	0xbd893624	-0.0669978
89	0x3ddb8eb4	0.10720578
90	0x3e229efc	0.1588096
91	0x3d9f5c6b	0.07781299
92	0xbc4036c2	-0.011731805
93	0xbd8a4500	-0.06751442
94	0x3da743d5	0.08167235
95	0x3e83ed3e	0.2576694
96	0x3d9ad98e	0.075610265
97	0x3d518943	0.051156294
98	0xbdb88474	-0.090096384
99	0xbda3fd25	-0.08007268
100	0x3e076a4a	0.1322414
101	0x3c122336	0.008919528
102	0x3e6903ca	0.22755352
103	0x3e482701	0.19546129
104	0xbd7f84d6	-0.06238254
105	0x3e149a78	0.1451205
106	0x3e33480c	0.17507952
107	0xbd73d678	-0.059530705
108	0x3e0b689b	0.13614123
109	0x3db078eb	0.08616813
110	0x3e83cb4d	0.25741044
111	0x3e36c1d8	0.17847383
112	0xbcaeb893	-0.021328246
113	0x3e4e27d4	0.2013238
114	0xbd5af319	-0.053454492
115	0x3e0b92f4	0.13630277
116	0xbd67f7d4	-0.05663283
117	0xbd73635b	-0.059420925
118	0xbde26f44	-0.110563785
119	0x3c80fbfe	0.01574516
120	0x3c37caf4	0.011217821
121	0x3e28e6a8	0.16494238
122	0x3dd7c25e	0.105351195
123	0xbd1401fa	-0.036134697
124	0x3e812b9a	0.25228578
125	0x3d8c975d	0.06864808
126	0x3dcbe18c	0.09955129
127	0xbcb55953	-0.02213732

l3.weight f4 [256, 128]
0	0xbf4df1c2	-0.8044702
1	0x3dc4b443	0.09604695
2	0x3daedd07	0.08538251
3	0x3dd5f9cf	0.10448038
4	0x3e5c4945	0.21512325
5	0xbee2cfb6	-0.44299096
6	0xbe016a63	-0.1263824
7	0xbe547d5a	-0.20750943
8	0x3d03b20b	0.032152217
9	0xbed48565	-0.41508022
10	0x3c6cce4e	0.014453484
11	0xbc8b2ed8	-0.01699011
12	0xbd9c48db	-0.076310836
13	0xbed99532	-0.4249664
14	0x3cb0eb06	0.021596443
15	0xbe26008f	-0.1621115
16	0x3e348f17	0.1763271
17	0x3de25384	0.110510856
18	0x3cdbcf22	0.026832167
19	0xbe2f48be	-0.17117593
20	0xbe77bd5e	-0.24193332
21	0xbf3316b1	-0.699565
22	0xbc950075	-0.018188694
23	0x3daf75a1	0.08567358
24	0xbcf39e50	-0.029738575
25	0x3d1decb2	0.03855581
26	0xbd0acec6	-0.0338886
27	0xbf0542c8	-0.52055025
28	0x3d9525ae	0.072825775
29	0x3e8b8154	0.27247107
30	0x3d8d751b	0.06907102
31	0x3c85191f	0.01624733
32	0x3da616aa	0.081097916
33	0xbc0d4d82	-0.008624436
34	0x3d465b80	0.048427105
35	0x3cafcda2	0.021460358
36	0xbcafecd1	-0.021475228
37	0xbe23716a	-0.15961233
38	0x3ce687b5	0.028140882
39	0xbe202428	-0.15638793
40	0xbe8ac479	-0.27103022
41	0xbd0c5cfd	-0.034268368
42	0x3df40370	0.11914718
43	0xbe6fc337	-0.23414312
44	0x3d8babe2	0.068198934
45	0xbdbf1a7d	-0.09331224
46	0xbe480a06	-0.19535074
47	0xbc4bfd09	-0.012450465
48	0x3ce04b55	0.027379671
49	0xbe472ada	-0.1944994
50	0xbcb3c144	-0.021942742
51	0x3d8294e3	0.06376054
52	0xbbe09079	-0.00685316
53	0x3ab1d2ee	0.001356689
54	0xbf417813	-0.75573844
55	0xbd39638c	-0.04526095
56	0xbe18d88d	-0.14926358
57	0xbd0e321b	-0.034715753
58	0x3e4bd0f4	0.19903928
59	0xbd64906d	-0.055801798
60	0xbc7399ef	-0.014868244
61	0x3c740278	0.014893167
62	0xbd95dd66	-0.07317619
63	0xbdd7c0d6	-0.105348274
64	0xbf34e600	-0.7066345
65	0xbd2f9bb8	-0.042873114
66	0xbf1a5f3e	-0.6030158
67	0x3d989ea0	0.0745213
68	0x3cdc67a1	0.026904883
69	0xbbadb817	-0.0053014862
70	0x3b45f4dc	0.0030205762
71	0x3d756694	0.05991228
72	0x3dc2b209	0.09506614
73	0xbd436f5b	-0.04771362
74	0x3dd1a91d	0.10237334
75	0xbeb464c3	-0.35233125
76	0x3e57c0e9	0.21069683
77	0xbda52ed6	-0.08065574
78	0x3b101ae0	0.0021988675
79	0xbe402c89	-0.18766989
80	0xbeca90b0	-0.39563513
81	0xbf117b82	-0.5682908
82	0xbf38be2f	-0.721652
83	0xbec01b58	-0.37520862
84	0x3d9286d2	0.07154621
85	0x3d2a4a58	0.041574806
86	0xbcfae787	-0.030627979
87	0x3e877dee	0.26463264
88	0x3e9bbd2e	0.3041777
89	0xbd2d28b4	-0.042275146
90	0x3ca703f1	0.020387622
91	0xbcdac39a	-0.026704598
92	0x3a7d08a6	0.0009652473
93	0xbf3825d1	-0.71932703
94	0xbf630f23	-0.8869497
95	0x3d8b2ec9	0.06796033
96	0xbcc6561c	-0.024210982
97	0x3dc4b808	0.09605414
98	0xbf0f29a4	-0.55922914
99	0x3e8d23da	0.27566415
100	0x3db39f95	0.08770672
101	0xbd47d5d4	-0.048787907
102	0x3d94e719	0.07270641
103	0x3d967780	0.073470116
104	0xbf2f4185	-0.6845935
105	0xbda46095	-0.08026234
106	0xbd24950c	-0.040181205
107	0x3e55ed4b	0.20891301
108	0x3d498ec6	0.049208425
109	0x3cedb4b1	0.029016824
110	0xbcae684b	-0.021289965
111	0xbb16327b	-0.0022918272
112	0xbc762323	-0.015023026
113	0x3d6d4ec0	0.05793643
114	0xbdc9136e	-0.09818159
115	0xbe6b41c8	-0.22974312
116	0xbd20e13e	-0.039277308
117	0x3e134a8a	0.14383903
118	0xbd2c216f	-0.042024072
119	0xbdb5d03c	-0.08877608
120	0xbf4e1637	-0.8050265
121	0x3cdeb3f4	0.027185418
122	0xbdad1180	-0.084506035
123	0x3d9426e1	0.07233978
124	0x3c9d2488	0.019182459
125	0xbbbe33d9	-0.0058045206
126	0xbd6a312b	-0.057175796
127	0x3a7213e2	0.000923453
128	0x3e9d8aac	0.3076986
129	0x3e1ef5a1	0.15523387
130	0x3cf7e17d	0.030258888
131	0x3de72d38	0.11287922
132	0xbe245298	-0.16047132
133	0x3e9a11ea	0.30091792
134	0x3dfb897d	0.12282083
135	0x3e20f623	0.15718894
136	0x3dff818c	0.12475881
137	0x3eaef01a	0.34167558
138	0x3d7ed23f	0.062212225
139	0x3e110831	0.14163281
140	0xbc4e6135	-0.012596418
141	0x3eab4091	0.33447698
142	0x3d3d8761	0.046271686
143	0x3d7fb481	0.062428
144	0xbd30b207	-0.04313853
145	0xbdf0ba0d	-0.11754236
146	0x3df644c1	0.120248325
147	0x3e94cd7f	0.2906303
148	0x3d2a80c7	0.041626718
149	0x3ee13667	0.43986818
150	0x3da1b584	0.078959495
151	0x3dcd71d7	0.10031479
152	0xbda16bbd	-0.078818776
153	0x3dee816c	0.11645779
154	0x3db59dcb	0.08867987
155	0x3e17de30	0.14830852
156	0x3d71ea23	0.05906118
157	0xbe8a8599	-0.27055052
158	0x3d09dfca	0.033660688
159	0x3d2b25e9	0.0417842
160	0x3dd12aff	0.10213279
161	0x3e08c473	0.1335619
162	0x3b5e49a8	0.0033918414
163	0x3cfe08e6	0.031010102
164	0x3d61c8f0	0.05512327
165	0x3e12a1b7	0.14319502
166	0x3e102bd9	0.14079227
167	0x3e7c6abb	0.2465009
168	0x3e3cfdd3	0.18456201
169	0x3c8f6a81	0.01750684
170	0x3db74f91	0.08950723
171	0x3dc54add	0.0963342
172	0x3e1099e8	0.1412121
173	0x3d2c44f3	0.042057943
174	0x3cad501d	0.021156365
175	0x3decb907	0.11558729
176	0x3dd4d148	0.1039148
177	0x3e69cf60	0.22833014
178	0x3e166027	0.14685117
179	0x3dd0b6c7	0.10191112
180	0x3e048b50	0.12943769
181	0x3d55aab5	0.052164752
182	0x3ee0b42f	0.4388747
183	0x3d38c986	0.045114063
184	0x3e05986c	0.13046426
185	0x3d112c9e	0.03544294
186	0xbe061541	-0.13094045
187	0x3de1301a	0.10995503
188	0x3e5c73b3	0.21528511
189	0xbd9c706e	-0.07638632
190	0x3cfce25c	0.030869655
191	0x3e4a70a8	0.19769537
192	0x3e9177c5	0.2841169
193	0x3c6cfa4d	0.014463973
194	0x3e8f84ec	0.280311
195	0xbcda82c6	-0.026673686
196	0x3dee6188	0.11639696
197	0x3dafd8c2	0.08586265
198	0x3dd0954e	0.101847276
199	0x3d4933ad	0.049121547
200	0x3da2cbba	0.07949014
201	0x3c46e7ff	0.012140273
202	0x3ca7ac20	0.020467818
203	0x3e7ba842	0.24575904
204	0xbcfb7d02	-0.030699257
205	0xbd1bd6bf	-0.038046595
206	0x3daf2a0b	0.08552941
207	0x3e748c5c	0.23881668
208	0x3e7a171b	0.24422877
209	0x3e874480	0.2641945
210	0x3ef89d8c	0.485577
211	0x3eadaeee	0.33922523
212	0xbcbfd2dd	-0.023415977
213	0x3d33c9a3	0.043893468
214	0x3db374a6	0.08762483
215	0xbea027e7	-0.31280443
216	0xbf10741e	-0.5642718
217	0x3dcca026	0.099914834
218	0x3d0697f7	0.03285977
219	0x3dd395ea	0.10331328
220	0x3bd31d28	0.0064426847
221	0x3e56dae6	0.2098194
222	0x3e6b911c	0.23004574
223	0x3da694c8	0.081338465
224	0x3d3bff63	0.045897853
225	0x3e152a75	0.14566977
226	0x3e33a35a	0.17542782
227	0xbdbd97a4	-0.09257439
228	0xbc98b1c3	-0.01863945
229	0x3dfbc8b8	0.122941434
230	0x3d4bd177	0.049760308
231	0x3e318b14	0.1733821
232	0x3e94a821	0.29034522
233	0xbc62ad51	-0.013835267
234	0x3deb14f8	0.11478609
235	0xbe5c47be	-0.21511742
236	0x3dc1b341	0.09458018
237	0xbbf89ee4	-0.0075873006
238	0x3d9d8fc2	0.07693435
239	0x3ce21b7d	0.027600998
240	0x3de4eceb	0.11178001
241	0x3d4ea4fd	0.050450314
242	0x3e1bdb8a	0.15220466
243	0x3e4c9de7	0.1998211
244	0x3dea49fe	0.11439894
245	0xbe47a60c	-0.19496936
246	0x3bbb9660	0.005724713
247	0x3e0d0221	0.13770343
248	0x3e2470fa	0.16058722
249	0x3d73f27a	0.059557416
250	0x3debf9d9	0.11522264
251	0xbe7011d2	-0.23444298
252	0x3c8b4f06	0.017005455
253	0x3dd49e7c	0.10381791
254	0x3d67c8d8	0.056588024
255	0xbe85044c	-0.2597984

l3.bias f4 [256]
0	0x3dccf4e1	0.100076444
1	0x3e1174f9	0.14204778
2	0xbbc91c1c	-0.006137384
3	0x3df7a3a5	0.120917596
4	0x3cb840d1	0.022491844
5	0xbc5f60d1	-0.013633923
6	0xbd4564e7	-0.04819193
7	0xbc08732b	-0.008328239
8	0x3c82147c	0.015878908
9	0xbc1309af	-0.008974477
10	0xbd62898a	-0.05530695
11	0x3c6b4e79	0.014361971
12	0x3d6c184a	0.05764035
13	0x3e05c1e8	0.1306225
14	0x3d7446da	0.05963788
15	0xbd00464e	-0.031317048
16	0x3dea7af0	0.1144923
17	0x3d7c6bc9	0.06162623
18	0x3e27fdea	0.16405454
19	0x3ddea6cc	0.10871658
20	0xbd411e79	-0.0471482
21	0x3c38bb19	0.011275076
22	0x3d353260	0.044237494
23	0x3d9d07eb	0.07667526
24	0x3dfc205b	0.12310859
25	0x3d062312	0.03274829
26	0xbc36c66f	-0.011155709
27	0xbd56c4cd	-0.052433778
28	0x3dc31def	0.09527194
29	0x3c21537f	0.009846567
30	0x3d4b3010	0.049606383
31	0x3dac20d8	0.08404702
32	0xbcc9e598	-0.024645612
33	0x3d86cbc0	0.06581831
34	0x3dce0829	0.1006015
35	0xba046442	-0.000505034
36	0x3e224226	0.15845546
37	0x3bca9955	0.0061828294
38	0x3dd9aee9	0.106290646
39	0x3da65fb0	0.0812372
40	0xbd49c6bc	-0.049261793
41	0x3dc5fb3a	0.09667058
42	0x3b6daac2	0.003626511
43	0x3d9dd06d	0.0770577
44	0x3da4730d	0.08029757
45	0x3dbf298a	0.09334095
46	0x3df4c54a	0.119516924
47	0x3dea9339	0.11453862
48	0xbccac4a2	-0.024751965
49	0x3ca9cd2e	0.02072772
50	0x3d2ae2e4	0.041720286
51	0x3e292737	0.16518866
52	0x3d676eba	0.05650208
53	0x3d60634e	0.054782204
54	0x3d86d7b2	0.06584109
55	0x3dbcfd32	0.09227981
56	0x3ded9517	0.11600702
57	0xbcdf3a86	-0.027249586
58	0xbd33f126	-0.04393115
59	0x3d9f4560	0.07776904
60	0x3e2194d8	0.15779436
61	0x3dcaaa12	0.098957196
62	0x3df965ca	0.12177618
63	0x3e0b2029	0.13586487
64	0xbcff4e44	-0.03116525
65	0xbcc9b2a4	-0.024621315
66	0x3d80bc9b	0.06285974
67	0x3d68223a	0.056673266
68	0x3d1d4241	0.038393263
69	0x3dde0da4	0.108424455
70	0x3d6bb745	0.057547826
71	0x3e19e4a7	0.1502863
72	0xba5c871d	-0.00084124674
73	0x3e0e8ae3	0.13920169
74	0x3d0493e5	0.032367606
75	0x3dca7b05	0.09886745
76	0x3e1757e6	0.14779624
77	0xbd0830b2	-0.033249564
78	0xbb95c490	-0.004570551
79	0xbd9a0d26	-0.07522039
80	0x3e00400c	0.12524432
81	0xbc091ce0	-0.008368701
82	0x3dcf4f54	0.101225525
83	0x3ca80c26	0.020513605
84	0xbcedc430	-0.029024214
85	0x3dad8571	0.084727176
86	0x3d8f1f63	0.069884084
87	0x3db76755	0.08955256
88	0x3d72cac6	0.05927541
89	0x3b979bbb	0.004626719
90	0x3d2b5b99	0.0418354
91	0x3ca41ad7	0.02003233
92	0x3da79edc	0.08184597
93	0x3dc5e56c	0.096628994
94	0xbce98d4a	-0.028509755
95	0x3ce24e64	0.02762527
96	0x3d834db4	0.06411305
97	0x3d906ac3	0.07051613
98	0xbd2a7e24	-0.041624203
99	0x3ceef762	0.029170696
100	0x3e0fdd67	0.14049302
101	0xbbc1542f	-0.005899928
102	0x3d4e2cec	0.05033581
103	0xbd473824	-0.048637524
104	0x3cf9b35f	0.030481039
105	0xbce1e7e3	-0.027576393
106	0x3c88e6fa	0.0167117
107	0x3d84eab1	0.06490076
108	0x3c09429e	0.008377699
109	0x3e012014	0.12609893
110	0x3d97dcfd	0.07415197
111	0x3d3be2a2	0.04587043
112	0x3de96304	0.11395839
113	0x3de72845	0.11286978
114	0x3d86c80d	0.065811254
115	0xba2be363	-0.00065570156
116	0x3d189d69	0.037259493
117	0x3d87e713	0.06635871
118	0x3e2b8c2f	0.16752695
119	0x3d8e0e0c	0.06936273
120	0x3d79af33	0.0609581
121	0xbc82b4bb	-0.01595532
122	0x3d265017	0.040603723
123	0x3e152373	0.14564304
124	0x3db92938	0.09041065
125	0x3c5d5179	0.013508194
126	0x3dec6224	0.11542156
127	0x3df77e05	0.12084583
128	0xbdad75e8	-0.084697545
129	0xbda7c756	-0.08192317
130	0xbcaa95fc	-0.020823471
131	0x3c492bcf	0.012278511
132	0x3d8cd504	0.06876567
133	0x3d204cef	0.03913587
134	0x3c95ebbd	0.018300885
135	0x3d0040a6	0.031311654
136	0x3d5b0fd1	0.05348188
137	0x3b8c35cb	0.0042788736
138	0xbc49db09	-0.012320288
139	0x3dc130d4	0.09433141
140	0x3c27d0ba	0.010242635
141	0x3d8f7d33	0.07006302
142	0x3d69e35d	0.057101596
143	0xbdf872e2	-0.12131287
144	0x3debc9a8	0.11513072
145	0x3da9c55f	0.08289599
146	0x3e283c85	0.16429336
147	0x3e1b3eaa	0.15160623
148	0xbbc7ceb5	-0.0060976394
149	0xbc8e60cc	-0.01738014
150	0x3dea9fd0	0.11456263
151	0x3d1f0da5	0.03883137
152	0xbce23a52	-0.0276157
153	0xbc8085b8	-0.015688762
154	0x3e146a79	0.14493741
155	0x3e29f3d6	0.16596922
156	0x3d87fb45	0.06639723
157	0x3e086d79	0.1332301
158	0x3e28c2b4	0.16480523
159	0x3e067215	0.13129456
160	0xba5d46c4	-0.0008441026
161	0xbd0b70bc	-0.03404306
162	0x3dca0424	0.09864071
163	0x3d619f3a	0.05508349
164	0x3debd2ea	0.11514838
165	0xbd07a3bc	-0.033115134
166	0x3d211137	0.039323058
167	0x3dc62202	0.09674455
168	0x3dc3048d	0.09522352
169	0x3d995bde	0.074882254
170	0x3d40c537	0.04706308
171	0x3d59311c	0.05302535
172	0x3dab5bd6	0.08367126
173	0x3da18e95	0.078885235
174	0x3be7b105	0.007070663
175	0x3d534021	0.05157483
176	0x3e240832	0.16018751
177	0x3cc06658	0.023486301
178	0x3dee8b77	0.116476946
179	0xbbf23efe	-0.007392763
180	0xbdd5300c	-0.10409555
181	0x3e26661f	0.16249894
182	0x3b9d7461	0.004805133
183	0x3caae585	0.020861397
184	0x3d54998f	0.051904257
185	0x3e0d76e6	0.13814887
186	0x3d985bd4	0.0743939
187	0xbce46c9a	-0.027883817
188	0x3e29357e	0.16524312
189	0x3e1c1087	0.1524068
190	0xbd16e133	-0.03683586
191	0x3d914439	0.070930906
192	0x3e263504	0.16231161
193	0x3d93fdc3	0.072261356
194	0xbda4191e	-0.08012603
195	0x3e1de29d	0.15418477
196	0x3ddffc70	0.109368205
197	0x3d2001dc	0.039064273
198	0xbcd14378	-0.025544867
199	0x3e05ec91	0.13078524
200	0x3dfbebbb	0.123008214
201	0x3d25bcca	0.040463246
202	0x3cd12daa	0.02553447
203	0x3d4b333a	0.0496094
204	0x3ccb8a66	0.024846267
205	0xbd8d062c	-0.06885943
206	0xbd894e6d	-0.06704412
207	0x3df84f7f	0.12124538
208	0x3d010428	0.031498104
209	0x3d0cc074	0.034363225
210	0xbc9ee783	-0.019397503
211	0x3dcd7a5c	0.10033104
212	0x3d7c8a7e	0.061655514
213	0x3df9236c	0.12164959
214	0x3e1b41c3	0.15161805
215	0x3e131ece	0.1436722
216	0x3cdcfb7d	0.026975388
217	0xbd980936	-0.07423632
218	0x3d0004fe	0.03125476
219	0x3e282560	0.16420507
220	0xbd90898c	-0.07057485
221	0x3d8e7592	0.069560185
222	0x3d39ac13	0.04533012
223	0xbd6c71a2	-0.057725556
224	0xbbd171a2	-0.00639172
225	0xbbfc8492	-0.0077062333
226	0x3e1042a0	0.14087915
227	0x3c17430e	0.009232296
228	0x3df79892	0.12089647
229	0x3e041dde	0.12902018
230	0x3bbf2159	0.005832833
231	0xbc6b87fc	-0.014375683
232	0x3d4e3ff5	0.050353963
233	0x3d510f14	0.05103977
234	0x3e1c935e	0.15290591
235	0x3bc2e4a0	0.0059476644
236	0xbad40f28	-0.0016178833
237	0xbb8f9d0e	-0.004382736
238	0x3d999847	0.07499748
239	0x3dd7bad8	0.105336845
240	0x3de0e203	0.10980608
241	0x3ddfd97e	0.10930155
242	0x3e1ff2a5	0.15619905
243	0x3dd5eacf	0.10445177
244	0x3d170547	0.036870267
245	0x3d626bbb	0.05527852
246	0x3a30cf9e	0.00067448046
247	0xbd7da312	-0.061923094
248	0xbbbfd141	-0.0058538024
249	0x3d2271a8	0.039659172
250	0xbbbc2ee8	-0.0057428963
251	0xbd28a8a0	-0.04117644
252	0xbb1823f2	-0.0023214784
253	0x3de4c5d5	0.11170546
254	0x3dc279a2	0.09495856
255	0xbd790a90	-0.06080109

l4.weight f4 [1, 256]
0	0x3f01418c	0.5049064
1	0xbe0df2a9	-0.13862099
2	0x3f0e49bc	0.5558126
3	0xbe26abe2	-0.16276506
4	0xbdfa0114	-0.12207237
5	0xbd5daf3a	-0.054122187
6	0x3ec93566	0.39298552
7	0x3f159d75	0.58443385
8	0xbe088725	-0.13332804
9	0x3dacb9fe	0.08433913
10	0xbf4868bf	-0.7828483
11	0x3f153dcb	0.58297414
12	0x3ca2919e	0.019844826
13	0xbdfe37ea	-0.124130085
14	0xbe19c0ad	-0.15014906
15	0x3ea0866a	0.3135255
16	0xbe01358d	-0.12618084
17	0xbe0fbfed	-0.14038058
18	0xbe25ddaa	-0.1619784
19	0xbe063b4f	-0.13108562
20	0xbe29f7fa	-0.16598502
21	0x3f1b65ec	0.60702395
22	0x3c6d4063	0.014480683
23	0xbe2b4cc6	-0.16728505
24	0xbe3e355e	-0.18575045
25	0xbe0a977e	-0.13534352
26	0x3f0d9b57	0.55315155
27	0xbe94d10e	-0.29065746
28	0xbe0f7c6e	-0.1401231
29	0x3eb06198	0.34449458
30	0x3ccf7f30	0.025329202
31	0x3ea028e4	0.31281197
32	0x3bc66261	0.006054208
33	0xbdfaa7ce	-0.122390375
34	0x3f0218f2	0.50819314
35	0xbe10afe1	-0.14129592
36	0xbe055a97	-0.13022839
37	0xbe1397e2	-0.14413407
38	0xbde0cfdc	-0.10977146
39	0xbe166fbf	-0.14691065
40	0x3c21a918	0.009866975
41	0xbe2f6b39	-0.17130746
42	0x3f1e2f6b	0.61791104
43	0x3e8cd974	0.27509654
44	0xbe092738	-0.13393867
45	0x3eda19ef	0.4259791
46	0xbe1f6e47	-0.15569411
47	0xbe193dd4	-0.14964992
48	0x3ea9029e	0.3300981
49	0x3bed9e22	0.007251517
50	0xbe2093fb	-0.1568145
51	0xbe030387	-0.12794314
52	0xbe31b360	-0.17353582
53	0xbdf6b6c0	-0.120465755
54	0x3efc3bf9	0.49264506
55	0xbe216cb1	-0.15764119
56	0xbe2e8fce	-0.17047045
57	0x3f165a00	0.5873108
58	0x3f1a5fc2	0.60302365
59	0x3f1e9449	0.61945015
60	0xbe0567f7	-0.1302794
61	0x3f04d4dc	0.518873
62	0xbdee7dfe	-0.11645125
63	0xbe0b727a	-0.13617888
64	0x3c5b3fc9	0.013381907
65	0xbe4f004d	-0.20214958
66	0x3f16d275	0.5891488
67	0x3c10eec5	0.00884599
68	0xbe854801	-0.26031497
69	0xbde39606	-0.11112599
70	0xbe119a59	-0.14219035
71	0xbe3570ed	-0.17718859
72	0x3ef86f1c	0.4852227
73	0xbdea0b19	-0.11427898
74	0x3f26e377	0.65190834
75	0xbddf43f0	-0.1090163
76	0xbe1060d1	-0.14099433
77	0x3c2c1630	0.010503337
78	0xbd21dc40	-0.039516687
79	0xbce7caba	-0.02829491
80	0xbe0d8ce0	-0.13823271
81	0x3c27f138	0.010250382
82	0x3f198ba0	0.59978676
83	0x3f1e79d8	0.6190467
84	0x3f166f10	0.5876322
85	0xbe2fa533	-0.17152862
86	0xbde2eaa2	-0.11079909
87	0x3f0e3df5	0.5556329
88	0x3e1f8a6e	0.1558015
89	0xbe2b460e	-0.16725942
90	0x3f014e32	0.5050994
91	0xbe1dc708	-0.15407956
92	0xbe35a7f4	-0.1773985
93	0xbdf69b57	-0.120413475
94	0x3e8fa75a	0.28057367
95	0x3e47c561	0.19508888
96	0x3e058994	0.13040763
97	0xbe587998	-0.21140134
98	0x3e61960f	0.22029899
99	0xbe33d0fc	-0.1756019
100	0xbdea2e63	-0.11434629
101	0xbdf2d095	-0.1185619
102	0x3f1c1727	0.6097283
103	0x3ebc52f9	0.36782053
104	0xbe182450	-0.14857602
105	0x3ebd148c	0.3692974
106	0xbdfad810	-0.12248242
107	0xbde4dd14	-0.1117498
108	0x3f0b3d7c	0.5439069
109	0xbe2876fc	-0.16451639
110	0x3c6abbda	0.014327014
111	0x3f02635f	0.5093288
112	0xbdfc3eb5	-0.12316648
113	0xbdf42c5b	-0.11922523
114	0xbe183d9b	-0.1486725
115	0x3ee68f34	0.4503113
116	0x3f0f7ee2	0.5605298
117	0xbe09374b	-0.13399999
118	0xbe3241ee	-0.17407963
119	0x3d3c6557	0.045995083
120	0x3d1257b5	0.035728175
121	0x3ee04773	0.4380451
122	0x3e75ea54	0.2401517
123	0xbe09c214	-0.13452941
124	0xbe17b813	-0.14816312
125	0x3d4add40	0.049527407
126	0xbe1a5d8c	-0.15074748
127	0xbe1d7d4c	-0.15379828
128	0xbc3397b8	-0.010961466
129	0xbe9b1936	-0.30292672
130	0x3d16c5b4	0.03680964
131	0xbe0e24e6	-0.13881263
132	0xbdfec642	-0.124401584
133	0xbe88176a	-0.26580364
134	0xbe15287d	-0.14566226
135	0x3a69bb9a	0.00089161994
136	0x3e2cd454	0.16877872
137	0xbe2a6f42	-0.16644004
138	0x3f1afdc8	0.6054349
139	0xbe2b7c33	-0.16746597
140	0xbe0c4d10	-0.13701272
141	0x3f1463f5	0.5796502
142	0xbe141d45	-0.1446429
143	0x3f1cd3d2	0.6126071
144	0xbe0fc625	-0.1404043
145	0x3e9e64de	0.3093633
146	0xbe282a18	-0.16422307
147	0xbe2eada5	-0.17058428
148	0x3f0b0bb7	0.5431475
149	0x3f1a56f3	0.60288924
150	0xbdf01ce4	-0.117242604
151	0x3f17df52	0.59325135
152	0x3ec432ed	0.38320103
153	0x3e2bd73d	0.16781326
154	0xbe082114	-0.13293868
155	0xbe374216	-0.17896304
156	0xbe2906df	-0.16506527
157	0xbe4327ae	-0.19058105
158	0xbe3ad224	-0.18244225
159	0xbe01fccf	-0.12694095
160	0xbe2bf226	-0.16791591
161	0x3f164c48	0.58710146
162	0xbe08d90f	-0.13364051
163	0xbe1bb367	-0.15205155
164	0xbe21640e	-0.15760824
165	0x3d6b857e	0.057500355
166	0x3ec98ec5	0.39366737
167	0xbe026672	-0.12734392
168	0xbe0dd161	-0.13849403
169	0x3bfb099f	0.007661059
170	0xbe1c4286	-0.15259752
171	0xbe2706db	-0.16311209
172	0x3f11ae46	0.56906545
173	0xbdf0a343	-0.1174989
174	0x3e942f79	0.2894247
175	0x3c454150	0.0120394975
176	0xbe274343	-0.16334252
177	0x3cdd13c1	0.026986958
178	0xbe20ebb7	-0.15714918
179	0xbe5486ed	-0.20754595
180	0x3ea7a998	0.32746577
181	0xbe329257	-0.17438637
182	0x3e97ffc4	0.2968732
183	0xbe12620e	-0.14295217
184	0x3f1c8439	0.61139256
185	0xbdf07cf4	-0.11742583
186	0x3f16eb4c	0.58952785
187	0xbb138ce0	-0.0022514388
188	0xbdf895e2	-0.12137963
189	0xbe055b2d	-0.13023062
190	0x3e422075	0.18957694
191	0xbe2ae7bc	-0.16689962
192	0xbdf95876	-0.12175076
193	0xbf033bbd	-0.5126303
194	0x3ed29b8e	0.41134304
195	0xbe3bdd65	-0.18346174
196	0xbe0da0d4	-0.13830882
197	0x3f19a317	0.6001448
198	0x3f0d434c	0.5518081
199	0xbdf322ff	-0.11871909
200	0xbe12ff26	-0.14355144
201	0x3ea436f9	0.3207319
202	0x3cb5e228	0.022202566
203	0x3f1c1145	0.6096385
204	0xbe039668	-0.12850344
205	0x3e2e170d	0.1700098
206	0xbd357bcf	-0.044307526
207	0xbe17d5f5	-0.14827712
208	0xbdf7ba5c	-0.12096092
209	0x3d502279	0.050814126
210	0xbe2c38f8	-0.16818607
211	0x3eda125f	0.4259214
212	0xbe2a2b26	-0.16618022
213	0x3f0d7956	0.5526327
214	0xbe2e4033	-0.17016678
215	0xbe346591	-0.1761687
216	0x3ef33884	0.47504056
217	0x3eb9badb	0.36275372
218	0x3f8554a1	1.0416452
219	0xbe0e19fb	-0.13877098
220	0xbd556826	-0.052101277
221	0xbe048106	-0.12939844
222	0xbe85ff64	-0.2617141
223	0x3e943a94	0.28950942
224	0x3ca03cbe	0.019560214
225	0x3ed3c605	0.41362014
226	0xbe0bdcf8	-0.13658512
227	0x3f2150cf	0.6301393
228	0xbe2564c9	-0.16151728
229	0xbde1ff97	-0.11035078
230	0xbe1bb52b	-0.15205829
231	0xbeaefccc	-0.34177244
232	0xbdd83443	-0.10556843
233	0xbe2403a2	-0.16017011
234	0xbe07af8e	-0.13250563
235	0x3e689f3a	0.2271699
236	0x3eca86fc	0.3955611
237	0x3f0ebea1	0.55759627
238	0xbe0b2979	-0.1359004
239	0x3e93c589	0.28861645
240	0x3f28b7e2	0.6590558
241	0xbde9961b	-0.114055835
242	0xbe1bb8a7	-0.15207158
243	0xbe3b6294	-0.18299323
244	0x3eabd379	0.33559778
245	0x3d70acf3	0.058758687
246	0xbdd9e285	-0.10638908
247	0x3e3bcd4a	0.1834003
248	0x3ee9bc2c	0.45651376
249	0xbe360f72	-0.1777933
250	0x3f1ef722	0.62095845
251	0x3ec77884	0.38959134
252	0x3eb87be9	0.36032036
253	0xbdfe0916	-0.12404077
254	0xbde63687	-0.11240869
255	0x3ebc22c5	0.36745277
