preTrained/v3TD3_BipedalWalkerHardcore-v3_0_actor_target.pth (torch_old, 177227 bytes, 8 tensors)

l1.weight f4 [64, 24]
000000 df 19 ef 3e 2f 42 cf 3e 59 c1 11 bf 99 ed 4b bd
       0.46699426 0.40480182 -0.5693565 -0.049787138
000010 b6 2a 8e 3d 68 bc 34 bc b9 5f 4d 3e 19 a5 fb bd
       0.0694174 -0.011031248 0.20056047 -0.12287349
000020 37 6e 76 bd 4d c4 5e bd 0f 3a 81 bc b4 f9 73 bd
       -0.060163703 -0.054386426 -0.015774755 -0.059564307
000030 66 67 cb bc 88 55 ad 3d 06 02 68 3d 89 f9 f5 3d
       -0.024829578 0.084635794 0.056642555 0.12010486
000040 0c c8 05 be 9a 45 28 be f0 05 34 3e be 9a 02 3e
       -0.13064593 -0.16432801 0.1758039 0.12754342
000050 99 e0 7b 3d c5 8e 37 bd 15 18 2a 3d ca 6c 0e 3e
       0.06149349 -0.04481389 0.041526873 0.13908687
000060 f4 95 14 bd 9f 07 48 bf d8 8e cc 3e 28 21 86 3d
       -0.03627582 -0.7813663 0.3995273 0.06549293
000070 62 94 12 be e6 ac ae bd d9 6f 5a bd b0 d4 c8 3d
       -0.14314416 -0.085290715 -0.053329322 0.09806192
000080 0a 53 ee 3e 2b e9 73 3e 19 82 6f 3e 89 69 40 be
       0.4654773 0.23819415 0.23389472 -0.18790258
000090 b5 c9 a6 3d be c5 d3 3d 38 44 df bb b5 e9 54 bb
       0.08143941 0.10340451 -0.006813552 -0.0032487933
0000a0 74 64 6f 3e 9e b4 e9 bc 52 69 c9 3d a9 39 90 3e
       0.23378164 -0.028528508 0.098345414 0.2816899
0000b0 96 ee 42 be da 94 a8 bd 9d 71 5c 3d 42 6b d7 3d
       -0.19036326 -0.08231516 0.053819288 0.10518505
0000c0 74 13 07 3e ba 4a 48 be ea 42 83 3e 75 bf 08 be
       0.13191015 -0.19559756 0.2563699 -0.13354285
0000d0 d0 9b cb 3e 58 80 0d be 4d 08 a9 bc 60 4e 8a 3d
       0.39767313 -0.1381849 -0.020633841 0.0675323
0000e0 70 10 e0 3d d4 d2 41 be 15 0c 3b 3e 2e c6 3b bd
       0.10940635 -0.18928081 0.18266328 -0.045843296
0000f0 c9 17 fd 3b d8 1e b9 3c cd bd ad 3e 87 82 50 3d
       0.0077237827 0.022597715 0.3393387 0.05090573
000100 a6 6d 57 3e 42 86 83 3d 0b e3 80 3e 21 2e 27 3d
       0.21037921 0.06422092 0.2517322 0.040815476
000110 dd 24 7b 3d 53 16 ac 3e 94 bd d4 3d dc 08 c0 bc
       0.061314452 0.33610782 0.10387722 -0.023441724
000120 26 fe ee 3b 14 5d f9 3e b7 c5 ad be 10 86 bd 3c
       0.0072934804 0.48703825 -0.33939907 0.023135215
000130 e4 70 32 3e 84 99 77 3d da e7 f2 3d 38 4a 0f 3c
       0.17425877 0.06044914 0.118606284 0.0087457225
000140 6a 8f c2 3e 3a 67 32 bd 75 8f 67 3e fc ed 46 3e
       0.3800004 -0.043555476 0.22613318 0.19426721
000150 f9 93 bd 3d b3 fb bc 3d 6a 2d ae ba f4 ad e0 3d
       0.09256739 0.09227695 -0.0013288681 0.10970679
000160 80 9b 83 3e 04 9d 57 be b3 4d 0f 3e b0 31 00 be
       0.25704575 -0.2105599 0.13994484 -0.12518954
000170 7f d1 df bd 65 d5 c0 3c 34 6e 35 3e c3 2a 20 3e
       -0.1092863 0.023539254 0.1771782 0.15641312
000180 2d bf aa be ad cb 42 bf 05 61 c9 3e b0 6d b5 bc
       -0.3334898 -0.76092035 0.39331833 -0.02214703
000190 4f 94 f8 bd 39 cc 37 be c3 99 c7 3d 8f 8c 04 be
       -0.121376626 -0.17948999 0.097461246 -0.12944244
0001a0 d6 81 30 bd 8d 9f 30 be 83 f5 a6 bd bf 5c c0 be
       -0.04309257 -0.17248364 -0.081522964 -0.3757076
0001b0 23 79 7e 3c 9c 5a b8 3c 2a a2 99 3e 67 05 1e 3e
       0.015531811 0.022504143 0.30006534 0.15431748
0001c0 68 fa 20 3e 3a 35 e9 3e b5 22 0c 3e 19 2f 8d 3d
       0.15720522 0.4554842 0.13685115 0.06893749
0001d0 24 fc 56 3e 72 01 ac bc 67 7f 1e 3e ff 66 92 3d
       0.20994622 -0.020996783 0.15478288 0.07148551
0001e0 8b a4 c9 3e 4d d3 82 3f e3 4e 65 bf b9 1f 35 be
       0.3938335 1.0220734 -0.89573497 -0.17687882
0001f0 bf 57 1d bd 8d 56 bd 3d 83 39 ed 3d da 7d 07 be
       -0.03841376 0.09245024 0.11583235 -0.13231602
000200 f9 3b 56 3e c2 cc e5 3d 6e 26 54 3d cd 32 8b be
       0.20921315 0.11220695 0.051794462 -0.27187195
000210 1d 29 84 3d 31 41 d2 3b f7 19 0f 3d 32 c3 00 be
       0.06453154 0.006416463 0.03493687 -0.12574461
000220 e4 bb 00 3e 55 5a 8c bc dc 40 0b 3e 40 7b 00 be
       0.12571675 -0.017132917 0.1359896 -0.12547016
000230 5b b2 14 3e 46 dd 24 3e ed dd 7e 3e 37 1c 8a 3d
       0.14521162 0.16100034 0.24889345 0.06743663
000240 b6 d8 6b 3e 31 7c 30 3e 94 73 70 be bf 65 d1 bd
       0.23031887 0.17234875 -0.2348159 -0.10224485
000250 e0 82 58 bd 3b 24 3c 3d ab 42 6f 3d a0 c3 74 be
       -0.052859187 0.04593299 0.05841319 -0.2390275
000260 fa 8b d0 bc 92 37 ea bd eb 59 99 bd cd 47 85 3e
       -0.025457371 -0.114363804 -0.074878536 0.26031342
000270 be 9d 28 bd 52 62 0a 3e 36 2f d7 3d 15 70 44 3e
       -0.04116606 0.13514069 0.10507052 0.19183381
000280 29 79 e2 3d d2 53 0c be 49 70 27 be 5a 98 e7 3d
       0.11058266 -0.1370385 -0.16351427 0.11308356
000290 3a bd 4e 3e f9 96 81 3e 35 6f 05 3e 22 5e b3 bb
       0.20189372 0.25310495 0.13030703 -0.005473868
0002a0 e5 0c be 3e 0c da b0 3e 73 9f 69 bb 08 77 6a be
       0.37119213 0.34541357 -0.0035648018 -0.2289697
0002b0 6c 15 a2 3e b1 2d cc 3b 95 26 8a bb 6f a1 a4 bc
       0.3165697 0.006231033 -0.004216025 -0.020096509
0002c0 6f d9 3a 3e 21 51 d2 3c 99 6c f3 bc e0 42 78 be
       0.18247007 0.02567345 -0.02971487 -0.24244261
0002d0 4b 5c 07 bc d4 db 46 be 16 89 1e 3e 67 82 30 bd
       -0.00826175 -0.19419795 0.15481982 -0.04309311
0002e0 c9 dd 21 3d 2f 48 bd bd 89 81 dc 3d 07 7e 0b 3c
       0.03951815 -0.092422836 0.10766894 0.008513934
0002f0 13 ee a2 3d b9 3b 7b 3e 21 f5 ab bc 03 35 5e 3e
       0.07955565 0.24534501 -0.02099091 0.2169991
000300 e0 b7 22 3f 03 40 87 3f ca 6d 22 bf 55 0e 9c be
       0.6356182 1.056641 -0.63448775 -0.30479684
000310 76 aa a4 3e 43 37 10 3e 02 e7 bb bd a7 a6 c6 3c
       0.321613 0.1408358 -0.091749206 0.024249388
000320 53 52 1d 3e de dd 62 3d c6 57 43 3d 1b 15 ba bd
       0.15363435 0.05538737 0.04769113 -0.09086057
000330 0d f5 6f 3d c2 d8 58 ba a0 2e 02 be bd 2c af bd
       0.058583308 -0.00082720455 -0.12713099 -0.08553455
000340 c6 fd c5 bd 1d 96 68 3c 61 95 16 3b d3 e4 cc bd
       -0.09667544 0.014195946 0.002297722 -0.10004582
000350 7f bb 46 3e 33 ab c7 bd 32 5f 6f 3e 30 66 16 3d
       0.19407462 -0.097494505 0.23376158 0.036718547
000360 78 3c d9 3e c8 95 56 3f b0 cb 2d bf 20 45 26 be
       0.42428946 0.838223 -0.6788893 -0.16237307
000370 14 fc 5b 3e d9 ae 0a 3a 35 c5 15 3e 2c 4a 67 3d
       0.21482879 0.00052903366 0.1462601 0.05646722
000380 3b 09 39 3e 61 e0 50 bd 7a 08 24 3d 99 fc c2 bd
       0.18069927 -0.050995234 0.040047146 -0.095208354
000390 e5 0f 02 3d e0 ec 00 bf 22 be 66 3d 12 8b 22 3e
       0.03175344 -0.5036144 0.05633367 0.15873364
0003a0 ab 7f 44 3e 92 7e 57 3e ad f4 7b bd 94 24 3f 3e
       0.19189326 0.21044376 -0.061512638 0.18666297
0003b0 75 a9 e3 bc 92 93 b9 bd 27 78 ee bd 4f 8f ef bd
       -0.027790764 -0.0906135 -0.11644011 -0.11697256
0003c0 df 53 9e be d1 67 5a 3e 4b 4b 0f 3e f6 3d 63 3d
       -0.30923364 0.21328665 0.13993566 0.055479012
0003d0 ee 2d 5a 3e 3e 96 78 3e 71 bb 84 be dd 2f 16 bd
       0.21306583 0.24276063 -0.25924256 -0.03666674
0003e0 03 05 93 3e 17 f1 af 3e 30 16 58 be 12 68 58 3e
       0.2871476 0.34363624 -0.21102214 0.2113345
0003f0 0f 7f 06 bd e4 a2 45 be 0d 8d f2 3d 31 b9 d0 3e
       -0.032836016 -0.19300419 0.118433096 0.4076629

l1.bias f4 [64]
000000 9d bf aa 3d 7e c9 42 3e 46 09 c9 3d e2 fe ee 3c
       0.083373286 0.19022176 0.09816222 0.029174272
000010 be ca 57 3e 85 7d 3f 3e 1b 16 c2 3b 87 c0 dc bd
       0.21073434 0.18700226 0.0059230453 -0.10778909
000020 59 08 b6 3d e3 15 16 3e af 60 f6 3d c8 c5 4a 3e
       0.08888311 0.14656787 0.1203016 0.1980201
000030 83 aa e4 3d 3f d3 2f 3e 7b fd 1c bc b5 3b 81 3d
       0.11165335 0.17170428 -0.009581919 0.06310216
000040 96 51 64 3e cc 0e 74 3e 03 fc 5c 3a 3b bf 65 3e
       0.22296748 0.2383377 0.00084298867 0.2243623
000050 14 94 b3 3d 12 b5 09 bc 98 7d 59 3e e3 0f 13 3e
       0.08768478 -0.008404987 0.21239316 0.14361529
000060 d5 9c f1 3d e2 d5 3f 3e ba ae e4 bc a2 01 83 3e
       0.117974915 0.18733934 -0.027915347 0.25587183
000070 20 66 f8 3b 61 cb 5b bc 26 8f 66 bd ac 4d d4 3e
       0.0075805336 -0.0134151885 -0.05628886 0.4146551
000080 8c 2e 22 3e b3 19 f5 3d f0 d1 a9 bd 07 45 a5 3e
       0.15838069 0.11967792 -0.082919955 0.32279226
000090 b9 0d 44 3d 71 32 86 bd 5d ed 2f 3d fe d7 80 bd
       0.04786465 -0.0655259 0.042950977 -0.06291197
0000a0 a8 ec 04 3e d5 29 b3 3d 88 0c 65 3e 4b 83 19 be
       0.12980902 0.08748213 0.22368062 -0.1499149
0000b0 01 49 4c 3d 81 00 8d 3e 30 f3 5c 3a ba ca 55 3c
       0.04987431 0.27539447 0.0008428572 0.013048822
0000c0 6c 73 ad 3d 2c 81 22 bd ae d2 54 3e 0e 3c 4c 3e
       0.084692806 -0.03967397 0.20783493 0.19944784
0000d0 47 9b 05 3d 63 6c 27 3d b2 0a 05 be e3 61 d4 bc
       0.032618787 0.04087485 -0.12992361 -0.025925582
0000e0 8c 1d d7 3c c3 de 85 bd 86 10 90 3e e9 98 29 3d
       0.026259206 -0.06536629 0.28137606 0.041405592
0000f0 29 65 27 3e 4b 5e 75 3d 4e 09 4e 3e c1 36 61 3e
       0.16347183 0.059904378 0.20120737 0.21993543

l2.weight f4 [128, 64]
000000 66 a5 83 be 74 4b 84 3d 79 92 27 be 05 ea c6 bd
       -0.25712126 0.06459704 -0.16364469 -0.097126044
000010 32 11 b6 3d 74 c8 64 be 26 2b 2b 3e 10 fb 93 bc
       0.088899985 -0.22342092 0.16715679 -0.018064052
000020 13 07 25 be 79 96 4b be 7c 2d 35 3e 07 1e 55 3d
       -0.1611598 -0.1988162 0.17693132 0.05203059
000030 b3 17 ab 3d 9c fc ee 3d 16 7d 73 3e c3 b7 01 be
       0.0835413 0.11669275 0.23778185 -0.12667756
000040 1d dc 57 bd 83 09 59 3e ba 9b 16 3e 5f 50 4b bd
       -0.05270015 0.21195035 0.14707842 -0.049637195
000050 7c 1f 65 3e dd 49 7c 3e 48 09 cd bd e5 57 02 be
       0.22375292 0.24637552 -0.10011536 -0.12728842
000060 db e4 f2 bd 68 17 0d be bd 4c 18 be 95 42 9d bc
       -0.11860057 -0.1377846 -0.14873023 -0.019196788
000070 c5 1b b3 3c 80 a2 6c be 9c e5 4c be 26 9c ef bc
       0.021863827 -0.23108864 -0.20009464 -0.029249262
000080 8a bf 0a 3d 08 0d 29 be 99 2f 97 bc de e4 90 3d
       0.033874072 -0.16508877 -0.018455314 0.07074903
000090 8e b8 09 3d 40 2e 20 bd 6d 9a f7 3d 93 1f fd bd
       0.03362327 -0.039106607 0.12090001 -0.12359538
0000a0 a5 89 54 3e 9d 1e c4 bc 9f 11 18 bd 64 c9 04 3d
       0.20755632 -0.023940379 -0.03712618 0.032418624
0000b0 98 5c c8 3d 70 2b 6b bd ba b9 93 bd f9 45 55 bc
       0.09783286 -0.057414472 -0.07213159 -0.013017171
0000c0 55 6b c5 bd 83 9b 9f 3d 70 9f dd 3d 39 f1 0e be
       -0.096396126 0.077933334 0.10821426 -0.13959207
0000d0 8c 51 33 3e 8e 82 5f 3d 94 9e 8f bb ff 2f 62 be
       0.17511576 0.054567866 -0.0043829177 -0.22088622
0000e0 d1 bb 7e 3e 54 aa 21 bc 20 51 2b 3e b0 78 99 bd
       0.24876334 -0.00986727 0.16730165 -0.074937224
0000f0 3c dc ea bd 53 81 7d 3e fb 72 e1 bd 94 33 ea 3d
       -0.114677876 0.24756365 -0.11008259 0.11435619
000100 d7 0f 6b be 94 1b 57 3e 03 63 70 bd af 2c af 3d
       -0.22955261 0.21006614 -0.058688175 0.085534446
000110 33 fc 8b be dc 97 b6 bc 0a 88 04 bc 41 54 f9 3d
       -0.2734085 -0.022289209 -0.008089075 0.12174273
000120 93 5d d8 3c 05 ca 8f bd a6 08 e8 3d f2 96 bc bd
       0.026411807 -0.07020954 0.113297746 -0.09208478
000130 39 71 d1 3c 59 5c 77 3d 2e e9 ab 3d f4 18 51 be
       0.025566684 0.060390804 0.08394085 -0.20419675
000140 db e7 40 3e 3e 1b d7 3d d2 5e 98 bd 62 5b 62 3d
       0.18838446 0.10503243 -0.074399605 0.05526293
000150 e0 a7 9d 3d 2b 12 54 bd 41 73 58 3e 19 65 da 3d
       0.07698035 -0.05177514 0.21137716 0.10663814
000160 e7 49 de bc e9 6e 1f be d1 81 7f be be 9b 00 bd
       -0.027134849 -0.15569653 -0.24951865 -0.031398527
000170 08 ab 42 bd db d5 d7 3b e0 8d b1 3c cb 65 02 be
       -0.04752639 0.006586773 0.021674097 -0.12734143
000180 52 7f 8b 3d 03 3b 05 be d9 60 9f 3c f3 fa b6 bd
       0.06811394 -0.13010792 0.01945536 -0.089345835
000190 00 29 fd bc 78 7e a0 3a b5 a8 52 bd fb 57 d7 3c
       -0.03090334 0.0012244722 -0.051430423 0.02628707
0001a0 1c b3 37 bd 9b f7 b0 bd 58 c2 b2 3b ce 31 8f 3d
       -0.044848546 -0.08640977 0.0054552965 0.06991921
0001b0 21 63 f8 3d e0 16 55 bd c7 6d 33 3c 94 c9 42 bd
       0.12128282 -0.05202377 0.010951466 -0.04755552
0001c0 00 ee 8f 3d 4e 07 c1 3d 29 a3 14 3c d5 50 0d 3e
       0.07027817 0.094252214 0.009072104 0.13800366
0001d0 74 f9 cd bd a4 0e 27 3e 84 4f 8a 3d a3 7b f9 be
       -0.10057345 0.16314179 0.06753448 -0.4872714
0001e0 2d 01 30 3e f1 4e 05 be 5b 0f 74 be 4c 6c ea bd
       0.17187949 -0.13018395 -0.23833983 -0.11446437
0001f0 dc 2e 16 3e 31 df 20 3d a3 a0 63 3e e9 7f 31 be
       0.14666313 0.039275352 0.22229247 -0.1733395
000200 66 91 59 3e be 73 1b 3e 2f e2 cc bd 9d 9c 90 bc
       0.21246871 0.15180871 -0.100040786 -0.017652804
000210 e1 e8 58 3e 14 5a b2 3d c8 e2 b8 3d ce 99 25 3e
       0.21182586 0.08708587 0.0902763 0.16171953
000220 8c 56 85 bc 79 c1 f0 3d 3c 5f d0 3d 0b 95 83 be
       -0.01627662 0.11755652 0.101744145 -0.25699648
000230 9f 79 3f be 40 1b fc bc ad 06 c5 3d 7c 06 10 3b
       -0.18698739 -0.030774713 0.09620414 0.0021976521
000240 b7 5b 4d bd e4 c5 b8 3b 64 cb 26 3e 31 9c f0 3c
       -0.050136294 0.005638825 0.16288525 0.029371353
000250 e7 83 16 be e3 1a 8a 3d 93 09 09 bd 88 d4 bb 3b
       -0.14698754 0.067434095 -0.033456396 0.005732123
000260 25 2c 8e bd 2e 0e 68 be fb 94 12 3e 15 d1 45 3e
       -0.06942014 -0.22661659 0.14314644 0.1931804
000270 40 ca 82 bd 81 f2 19 3e b5 88 73 3c ad 28 a4 3d
       -0.063862324 0.15033914 0.014864136 0.08015571
000280 b7 f2 0a 3d 7b ce 07 bd 7d ad 28 3d 4c 57 97 3d
       0.033922877 -0.0331559 0.041181076 0.073896974
000290 57 d3 cf bd 0c e4 95 3d 78 da 85 3c b2 e7 f6 bd
       -0.10147732 0.07318887 0.016339526 -0.12055911
0002a0 f4 90 e4 3c 9b 07 b0 3e 14 fd 06 bd fc f0 b0 bc
       0.02790115 0.34380803 -0.032956198 -0.021599285
0002b0 da 18 de bd 90 2a c1 3d 65 d8 b8 bd 3d 81 bb 3d
       -0.10844584 0.09431946 -0.09025649 0.091555096
0002c0 27 57 89 3b 8c 83 17 bd b4 2c ca 3d 92 e3 23 3c
       0.0041912976 -0.036990687 0.09871808 0.010002987
0002d0 fb 3b 5f bc 55 9b f4 3d e4 09 27 3e 8f bd 68 be
       -0.01362514 0.1194369 0.16312367 -0.22728561
0002e0 b9 4d 92 be 50 0d d5 3d 8d c3 87 bd 43 7d eb 3d
       -0.28574923 0.1040293 -0.06629095 0.11498501
0002f0 fc 48 ab bd ce 86 8e bc 0a a6 92 3e bc 8f 3e 3d
       -0.0836353 -0.017398264 0.28642303 0.046523795
000300 ce 11 55 3e c0 13 3f 3d ea 1d 69 3d ad c4 52 bd
       0.20807573 0.046649694 0.056913294 -0.051457096
000310 cd 7a b1 bd 16 bb b8 bd 33 fc 10 3d 49 10 07 3e
       -0.086660005 -0.09020059 0.035396766 0.13189806
000320 b6 10 be 3d 11 cc 8c bb 7d 9f e3 3d e6 27 bf bd
       0.09280531 -0.0042967875 0.11114404 -0.09333782
000330 b4 25 c9 3d 16 15 12 3e b2 ed 09 be b8 bb b2 3d
       0.098216444 0.14265856 -0.1346958 0.08727211
000340 1f 9a f8 3d ed 28 76 3c ac e5 e5 3d 22 63 d0 bd
       0.12138771 0.015024406 0.11225447 -0.10175158
000350 78 1d 17 3e a4 10 a9 3d 26 ed 70 bc ef f4 19 3e
       0.14757335 0.08255127 -0.014704978 0.15034841
000360 36 8a 27 3e 4e 29 bc bd fb 6c 84 bc 3d 58 86 bd
       0.16361317 -0.09187566 -0.016165247 -0.06559799
000370 ea b8 b2 3c d3 47 1e bc 45 14 11 3e 53 c1 69 bc
       0.02181669 -0.009660679 0.14167888 -0.0142672835
000380 6d 64 af 3d 66 1c 43 3e 56 21 fb 3d 55 62 15 bd
       0.085640766 0.19053802 0.12262218 -0.03647073
000390 43 c6 35 bc 22 27 13 3d a8 3e 2a be ae 5f 21 3e
       -0.011094633 0.03592599 -0.16625464 0.15759155
0003a0 a4 af 04 be 5c 0d 65 3e 5b ce cd bd ea 46 2c 3d
       -0.12957627 0.22368377 -0.10049125 0.042059816
0003b0 66 87 0f bc 56 0b db 3d ee ea 93 bd 30 d4 0f 3b
       -0.008760309 0.106955215 -0.07222544 0.0021946542
0003c0 1a b7 2c 3e 00 4e 49 bd e6 75 28 3d 0d 0e f5 3d
       0.16866723 -0.049146652 0.04112806 0.119655706
0003d0 11 97 ee bc db 90 b9 3d 3a 42 8c 3d 41 fc 07 be
       -0.029124768 0.09060832 0.06848569 -0.13279821
0003e0 e8 27 28 be 14 14 48 bc 80 8f c3 bd 48 b5 ab 3d
       -0.16421473 -0.012211818 -0.09548855 0.08384186
0003f0 4d 90 10 3e a4 a6 0d 3d 1a 9a 84 3e f1 61 fa bc
       0.14117546 0.03458275 0.2589882 -0.03056428

l2.bias f4 [128]
000000 aa 9e f2 3d 71 74 c0 bc 3d 89 30 3e 1e 86 20 bc
       0.11846669 -0.023493024 0.17239852 -0.009797601
000010 52 53 0a 3e 02 62 ea 3d f5 04 0c be 9e c6 a0 bc
       0.13508347 0.11444475 -0.13673766 -0.019625958
000020 66 19 37 bd 40 f5 35 3c 82 12 04 3e 1b 45 ea bd
       -0.044701956 0.011105835 0.12897685 -0.11438962
000030 fc b4 b7 3c 97 d1 ac bd ac 15 6d bd 74 79 2c bd
       0.022425167 -0.084384136 -0.057881996 -0.042108014
000040 ee e1 d8 3d da 43 cf 3d da 95 23 bc 7d 07 47 3c
       0.10589968 0.101203635 -0.009984458 0.012147781
000050 01 9d dc 3d e1 71 93 3c ad 10 8f 3c b1 1e b8 3d
       0.107721336 0.017998638 0.017464006 0.08990229
000060 db 14 3f bd 56 85 cf 3c 8f 32 b0 3d 8f cf 09 3d
       -0.04665075 0.025332134 0.08603393 0.03364521
000070 42 a5 fb 3d f8 87 1a 3e c9 1b 9a 3d 64 b1 9e 3c
       0.1228738 0.1509093 0.07524831 0.019371696
000080 75 ea aa bb 9a 65 3d 3e f4 77 8e 3d 29 89 b4 3d
       -0.0052159377 0.18495789 0.06956473 0.08815224
000090 05 b3 a7 3c ab 32 e5 bd 6d 2e 86 3d 5b 67 a9 bd
       0.020471105 -0.11191305 0.06551824 -0.082716666
0000a0 25 c9 03 3c 32 0c ea 3c 8a 42 db 3c 51 ff 2b bd
       0.008043562 0.028570268 0.026765127 -0.041991536
0000b0 9c 28 56 bd e4 dc 82 3d 70 6d d9 3d 5e fd 8e bd
       -0.052284822 0.06389788 0.10616577 -0.0698192
0000c0 d5 2d 2d 3e 6e 57 14 bd be c0 ed 3d f2 f1 36 3e
       0.16912015 -0.036216192 0.11609028 0.17865732
0000d0 d8 df 4b 3c 32 bc 36 3e 83 d7 d8 3d 33 93 d9 3d
       0.012443505 0.17845228 0.105879806 0.10623779
0000e0 3d 6e cc 3c 7f 01 90 bb 1a 62 5b bd 30 91 a3 b9
       0.02495491 -0.0043947096 -0.053560354 -0.00031197956
0000f0 39 85 b2 3d 1f 93 30 3d c8 af ce 3d 0a 9f f4 bd
       0.087168165 0.043109056 0.10092121 -0.11944397
000100 3a d9 6f bd 21 e9 e0 3d c5 9c bc 3d 94 33 ba bd
       -0.058556773 0.10981966 0.09209589 -0.09091869
000110 d6 52 a6 3d f6 ea a0 3d 00 ad a8 bd 06 eb 06 3d
       0.081212685 0.07857315 -0.08236122 0.03293898
000120 ea 8c ca 3d 69 a2 3b bd 5f 65 a0 bd c0 a9 9a 3c
       0.098901585 -0.045809183 -0.07831835 0.018879771
000130 19 96 7f bd fa aa ab 3c b2 a0 b0 3d 3d 53 ab 3c
       -0.062399004 0.020955551 0.086244 0.020913715
000140 a6 a5 24 3e b4 6f ce bd 86 8a d7 3d be 44 ec 3c
       0.16078815 -0.100798994 0.10524468 0.028841373
000150 48 be 3b bc 17 d1 98 3c 8d 96 f4 3d fe 42 91 bd
       -0.011458941 0.01865439 0.11942778 -0.07092856
000160 16 e6 7a 3d a2 f8 53 bd fe 5c 4b bd 2b 3d ab 3c
       0.061254583 -0.051750787 -0.04964923 0.02090319
000170 da 47 dc bd c9 81 17 3e 62 33 e7 3d a5 49 3c bc
       -0.10755892 0.14795603 0.11289097 -0.011492168
000180 14 79 b6 bb 8b a6 e6 3c 39 34 ef 3d dc 1e 15 3e
       -0.005568633 0.028155586 0.116798826 0.14562553
000190 69 d9 13 bd 84 df fa 3d e9 9f 81 3d 48 43 2a bd
       -0.03609601 0.122496635 0.063293286 -0.04156807
0001a0 d3 9e f4 3d 33 c7 2b bd 62 e6 9c bc d0 c0 cc 3d
       0.11944356 -0.041938018 -0.019152824 0.099977136
0001b0 f1 bd 95 3d 09 2f 35 3d 71 70 a6 3d 49 d4 51 3c
       0.07311619 0.04423431 0.08126915 0.01280696
0001c0 31 64 15 3e 14 42 e6 3d 8e 7c 9d 3d e0 78 bc bd
       0.14589001 0.11243072 0.076897725 -0.092027426
0001d0 26 e1 85 3d cd 72 9a bd d9 b1 c9 3c d2 f9 82 3c
       0.06537084 -0.07541428 0.024620937 0.015988264
0001e0 c9 7d 3e 3d 23 c1 fa 3c 2a a3 ef 3d 31 98 52 bd
       0.046506677 0.030609673 0.11701043 -0.051414672
0001f0 95 6e 75 b9 4f 9e c2 3d df bc e3 3d 1e 8b c2 3d
       -0.00023406216 0.09502851 0.11120009 0.09499191

l3.weight f4 [256, 128]
000000 07 40 e7 3d 06 6d 46 3e dc c5 af bb 5c 68 12 3e
       0.11291509 0.19377527 -0.005364163 0.14297622
000010 a0 20 51 3d cc 60 c9 3c 41 c2 db 3d 8f 45 80 be
       0.051056504 0.02458229 0.1073041 -0.2505307
000020 3c b4 a2 bd 00 91 c8 3d c2 92 1b 3c 22 fe 72 3d
       -0.07944533 0.097932816 0.009495439 0.05932439
000030 af 1b 36 be 39 b7 31 3d 44 d6 96 3c ff e1 84 3c
       -0.17783998 0.043387625 0.018412717 0.016221045
000040 75 97 8b be be 2e 93 be b5 f9 81 3d 19 7a 12 be
       -0.2726399 -0.287466 0.06346456 -0.14304389
000050 80 15 1e 3e 8c df b3 3d 2b d9 ac bd 03 94 da bc
       0.15437889 0.087828726 -0.08439859 -0.026681906
000060 cf d0 e2 3d aa 81 22 bd 72 66 b4 3d 66 9f 15 bd
       0.11074983 -0.03967444 0.088086024 -0.036528967
000070 47 29 76 3d 06 36 d1 bd 3b 70 92 be 35 e4 db bc
       0.06009796 -0.10215382 -0.2860125 -0.026842216
000080 ed 51 dc 3d 40 f0 b4 3d e4 27 99 3d 6e b2 14 3e
       0.107578136 0.088348866 0.07478312 0.1452119
000090 ac 0f c2 bc b7 f6 b6 3b 35 3d 0c 3e 5b b1 1a 3d
       -0.023689114 0.00558361 0.13695224 0.037766796
0000a0 e4 0d 84 bd 0d c8 bc 3d f2 f9 ea bd b7 9c 7c 3d
       -0.06447962 0.09217844 -0.114734545 0.061672892
0000b0 fa 93 f1 bc 2a fa 88 3d 53 51 cb 3d 8b 1a 0a 3e
       -0.029489506 0.0668834 0.09927621 0.13486688
0000c0 22 b7 39 3d d0 6a 3c 3e a0 88 39 be 6e 6b 8a bd
       0.045340665 0.1840012 -0.18118525 -0.06758772
0000d0 24 e5 76 3c 12 a4 94 bc 97 74 5c bd 5d 44 6f 3c
       0.01506928 -0.018144641 -0.053822126 0.014603701
0000e0 b2 ef 87 bd 24 2f 7a 3d 98 f9 39 3e 4d 4e 27 3e
       -0.06637515 0.061080113 0.18161619 0.16338463
0000f0 48 26 4d 3c 24 e7 73 3e d2 72 3a bd b8 4a c2 bd
       0.012521334 0.23818642 -0.045519657 -0.09486908
000100 a7 54 3e 3e 94 fc 76 be 89 b0 b7 be a7 3d 67 bc
       0.1858698 -0.24119788 -0.35876873 -0.01411382
000110 1d 37 9d be 0a e1 ef 3d 95 7c 47 3e 57 25 9c 3d
       -0.3070611 0.11712845 0.19481118 0.076243095
000120 8e 96 94 bd 24 15 88 bc 0c 70 86 bd b0 a7 ee bb
       -0.072552785 -0.016611643 -0.0656434 -0.0072831735
000130 b4 93 bd bd 6b ac a0 3e a8 7e 4a 3c 5d 4b 9b bc
       -0.09256688 0.31381544 0.012359299 -0.018956834
000140 3c f0 80 3e fc d7 af 3c f8 9f fc 3c 9f 47 4d 3e
       0.25183284 0.021465294 0.030837998 0.20046853
000150 50 ea 7a be ad 71 9f be 9b bf 11 3e fc 0a 82 3d
       -0.24503446 -0.31141415 0.14233248 0.06349751
000160 c3 d5 be bd ca c9 80 bd ae 8d af bd 42 93 b4 3d
       -0.093181156 -0.06288488 -0.08571945 0.0881715
000170 b0 c3 ce bc aa bd 2f be a8 e1 18 be 15 37 6d bd
       -0.025239795 -0.17162195 -0.14929831 -0.05791386
000180 62 35 27 be af c4 a0 3e dd f4 25 be 50 6b b1 3d
       -0.16328958 0.31400058 -0.16206689 0.08663046
000190 ac 55 a8 bd 33 0a ce bd 87 8f 96 bc 66 54 20 3e
       -0.082194656 -0.10060539 -0.018378986 0.15657195
0001a0 d6 55 7c be 5b 69 9d bc d1 a5 30 3d 57 83 12 3e
       -0.24642119 -0.019215276 0.043126885 0.14307915
0001b0 cd 9c 90 bd 10 cd 5b 3c cb 74 03 3e a7 a8 32 be
       -0.070611574 0.01341559 0.12837522 -0.17447148
0001c0 67 17 2f 3e 1e 43 6f 3d 52 7d a7 3d fb 94 f1 bc
       0.17098771 0.058413617 0.081782 -0.029489985
0001d0 0e 6a ff bb fb de a6 bd 62 d7 fa 3d 20 5b c0 3d
       -0.007794625 -0.08147999 0.12248112 0.09392381
0001e0 13 5b 8f 3c 5c 44 fd bd cd e6 45 3c 7f 15 23 bd
       0.017499482 -0.12366554 0.012078953 -0.039815422
0001f0 ab a4 ca 3d 6f 9b 04 3e dd 2a ad bc 19 87 82 bd
       0.09894689 0.12949918 -0.021138603 -0.06373424
000200 ad 0c 6a bd dd 70 5c be 7f be 30 3e 8f 96 9a 3d
       -0.057140995 -0.21527429 0.17260168 0.07548248
000210 6f bb 73 3d 54 22 8e be f1 de 57 3c 21 55 c9 3d
       0.059504922 -0.27760565 0.013175712 0.0983069
000220 8f 12 0f be 7c f5 ef bb 34 4b ac bc bc e7 45 bd
       -0.13971923 -0.007322965 -0.021031953 -0.048316702
000230 1e 31 26 bd 02 37 48 3d d0 9d da 3d 44 57 0f bd
       -0.040574186 0.048880585 0.106746316 -0.034995332
000240 ce 7f 10 be 5f 77 37 3e a3 d8 da bd b3 ea 89 3d
       -0.14111254 0.1791663 -0.106858514 0.067342184
000250 98 02 9f bc 00 3b 92 bd b2 54 a5 bd e3 60 f9 bc
       -0.019410416 -0.071401596 -0.08072795 -0.030441707
000260 1d 82 42 3e b2 0b b7 bb 83 60 1f be d1 c4 a4 3a
       0.18994947 -0.005586111 -0.1556416 0.0012570863
000270 6c 83 da bc 8c a5 e7 3b 4f 5f 18 3d 24 7a 1c be
       -0.026673995 0.0070692953 0.03720027 -0.15280968
000280 5d 54 03 3e 89 17 0f bd 41 d4 06 be df ec 1e bd
       0.12825151 -0.034934554 -0.13166906 -0.038800117
000290 c8 52 f1 3d 5f 2b 32 3d 96 63 1c be a0 fd ad 3c
       0.117833674 0.043498393 -0.15272364 0.021239102
0002a0 05 03 17 3d bf 45 ae bd 96 82 ea bd 99 8c 0c 3d
       0.036868114 -0.08509397 -0.114506885 0.034313772
0002b0 b0 ca 0f 3d 7e eb 76 3e 82 cb 11 bb 2c 26 95 3c
       0.035105407 0.2411327 -0.0022246544 0.018206678
0002c0 76 cf 66 3e 3d e6 0a be ec 18 97 3d 2c 74 25 3d
       0.22540078 -0.13564391 0.073778 0.040393993
0002d0 41 97 de bd 93 d6 83 3d 84 30 1e 3d 3e fa 66 3d
       -0.10868693 0.06437411 0.038620487 0.056390993
0002e0 8d 4d 64 3d 3b d1 14 3e 92 a6 09 3e 4a 8b 80 be
       0.05573802 0.1453294 0.13442448 -0.2510627
0002f0 f3 30 a5 3d 75 7f 04 be 00 9e ee 3c a6 80 a6 3d
       0.08065977 -0.12939246 0.029128075 0.081300065
000300 56 b8 aa bd 3a 6a 09 be 6d 44 db 3d ed c3 3e 3c
       -0.083359405 -0.13419428 0.107064106 0.011643392
000310 6e 24 89 3e 72 be 6b 3e 40 66 15 be eb 3c 99 3d
       0.26785606 0.23021868 -0.14589787 0.07482322
000320 ff 1c d4 3d 16 8f c2 3d 7b 68 ee 3c 78 aa 9f 3c
       0.10357093 0.09499948 0.029102555 0.019490466
000330 76 fc 94 bd c8 10 20 3e ce d1 f2 3d 92 66 d4 3d
       -0.072747156 0.15631402 0.11856423 0.10371126
000340 21 24 c7 bd 00 27 45 3b 0f 91 63 3d fc 90 3d be
       -0.09723688 0.003008306 0.05555826 -0.18512338
000350 59 db 1b be ff ee 99 3d f6 cf eb bc 72 60 47 bb
       -0.15220393 0.07516288 -0.028785687 -0.0030422476
000360 c8 1c 56 be 13 4a e5 3d be 5c 87 be 01 79 b6 be
       -0.20909417 0.11195769 -0.26437944 -0.35639194
000370 e0 5a b4 bd 5f 92 d2 3d 49 be 98 bd 8b b0 cf 3d
       -0.088063955 0.10281824 -0.07458169 0.10141095
000380 98 7a d2 3d a6 35 26 3d bc 8b 31 bd 58 17 9f be
       0.10277289 0.040578507 -0.04334615 -0.31072497
000390 20 7a 47 3e 2f 87 68 be 2a fd 51 3d 86 75 2e 3b
       0.1948018 -0.22707818 0.051266827 0.0026620342
0003a0 8f bf 8e bd d9 82 98 3d 1e b7 4e 3e ab ab 03 3e
       -0.06970131 0.07446832 0.20187041 0.12858455
0003b0 ed 3d ce bd 34 58 f9 3d 28 23 51 3e 2e 22 55 bc
       -0.10070405 0.121750265 0.20423567 -0.013008637
0003c0 e6 b9 a0 3d fb f8 27 3e 75 dd 99 bc bd eb 07 3c
       0.07847957 0.16403572 -0.018782357 0.0082959505
0003d0 20 7a a4 3c 29 76 9b bc 53 d2 47 bd bc 83 7a 3d
       0.020077765 -0.018977242 -0.048784565 0.061160788
0003e0 20 b3 15 3e c0 12 78 3d 27 55 c6 bc 35 67 20 3d
       0.14619112 0.060564756 -0.024210526 0.039160926
0003f0 30 4f fa 3d 51 2a 28 3d 67 40 dc bd e8 93 4c bd
       0.12222135 0.04105598 -0.10754471 -0.049945742

l3.bias f4 [256]
000000 c9 83 47 bd 2f 99 1a 3d d5 82 77 3d 44 b4 ca 3c
       -0.048709664 0.037743744 0.060427506 0.02474416
000010 77 b1 49 3c 18 62 5e bd a8 c6 a1 3d d3 7c 7f 3d
       0.012310377 -0.05429277 0.07899219 0.0623749
000020 2b ee 1d bd d8 ca 7d 3d 04 2c 8c 3c ee 0a 81 3d
       -0.038557213 0.061961025 0.017110832 0.06300913
000030 ba 22 b5 bc 20 f3 0b bd 6d 87 8c bd cd bc 26 3d
       -0.022111285 -0.03416741 -0.06861768 0.0407074
000040 3b 08 d7 bc b9 e2 d5 3c e1 72 22 3b 5d f5 98 bc
       -0.026249042 0.026109086 0.0024787711 -0.018671686
000050 6f 07 2e bd b2 56 e3 bc 54 26 bc 3c 4c 1d 66 3b
       -0.042487558 -0.0277513 0.022967495 0.0035112677
000060 ae 78 cd bc 34 04 92 3d a6 70 30 3b b0 03 7e 3d
       -0.025081959 0.07129708 0.0026922612 0.062015235
000070 db 98 3e bd ca 26 c1 3d 93 9b ed bb 99 ce 35 3c
       -0.046532493 0.094312266 -0.007251212 0.01109662
000080 6c ff 78 3c d3 5f 68 3d f5 4f 26 3c 10 6c 94 3d
       0.015197616 0.05673201 0.010150899 0.07247174
000090 a4 f8 19 3c 7f 8c 92 3d 5c 4c 64 3d d2 12 87 bd
       0.009397659 0.07155704 0.055736884 -0.065953866
0000a0 7e f5 18 3d c6 eb 1d 3d 7a ad 56 bd e8 71 e0 bc
       0.037343495 0.03855493 -0.052411534 -0.027398065
0000b0 dc 25 13 3d 18 11 44 bd 18 5c 5d bd 57 7b 30 3d
       0.035924777 -0.047867864 -0.054042906 0.043086376
0000c0 2f 3d a8 bd 03 50 d4 3c 9b c7 09 bd 3e 2a 58 bd
       -0.08214795 0.025917059 -0.033637624 -0.05277466
0000d0 63 98 ba 3d f8 d0 55 3b d0 fc 19 3c f4 56 68 3d
       0.09111097 0.0032625776 0.009398654 0.05672355
0000e0 3e 44 d0 3c b2 77 99 bd e8 91 c7 bc 1c 37 2e 3d
       0.025423165 -0.07493533 -0.024361566 0.042533025
0000f0 1c 3d 93 3d 21 30 77 3d 6b 52 e7 bc fb fa a5 3d
       0.0718939 0.060348634 -0.028237542 0.08104511
000100 b5 88 b7 bc a2 a2 8a 3c 9e af 56 3c ad 47 b7 3d
       -0.022404054 0.016923252 0.013103394 0.08949218
000110 36 3c a4 bc 4e c9 48 3d e7 b7 4f 3c 57 b8 95 bd
       -0.020048242 0.049020104 0.012678123 -0.07310551
000120 0d cf fa 3c 0d 71 01 bd 5a 18 c3 bc f6 95 a5 3d
       0.030616308 -0.031601954 -0.023815323 0.080852434
000130 30 67 ab bd 37 59 7a 3b bb d6 ec bc 8a b3 82 bd
       -0.08369291 0.003820015 -0.028910985 -0.063819006
000140 d6 15 0c 3e 8a 0a 97 3c 9c e1 04 3d 98 dc d5 bc
       0.13680205 0.018437643 0.03244172 -0.026106164
000150 de 49 96 bd 56 6f 8f 3b 99 63 35 3c a2 fc b7 3d
       -0.07338308 0.004377286 0.011071109 0.08983733
000160 14 bb 60 bd 01 05 c7 bc f1 54 46 3d 2e c2 7d 3d
       -0.05486591 -0.024294378 0.04842085 0.061952762
000170 4a eb a9 bc 05 45 23 bd 1f c3 07 bd a8 ef 05 bd
       -0.020742077 -0.039860744 -0.033145066 -0.032699257
000180 74 58 af 3d 5c f7 35 bd fe 49 a3 3d 53 93 81 3d
       0.08561793 -0.044425353 0.07973097 0.06326928
000190 b0 e3 98 ba 47 ad 49 3d 2c 65 79 3c d7 fd 91 bd
       -0.0011664536 0.049237516 0.015221875 -0.07128494
0001a0 c8 9a 91 3d ad 29 20 bd 52 f7 a1 bd ba 0e 8e bd
       0.071096 -0.039102245 -0.07908501 -0.069364026
0001b0 ab ab 35 bd 97 df 39 3d be c5 05 3d 40 e0 03 3c
       -0.04435317 0.045379248 0.032659285 0.008049071
0001c0 93 56 56 bb 57 09 20 bd 57 c3 03 bd a0 af e3 bc
       -0.003270541 -0.039071407 -0.032168712 -0.027793705
0001d0 78 48 f5 3c 79 4f 96 3d 0e 78 a9 3d 64 e9 85 3c
       0.029941782 0.07339377 0.08274852 0.01634664
0001e0 1f 82 4c 3d 5a cd 23 3d f4 bf 0a bd 6a 96 9f 3d
       0.04992878 0.03999076 -0.033874467 0.07792361
0001f0 93 e4 04 3d 5a d4 b4 3d bb f3 c3 bc 03 a8 ec 3c
       0.032444548 0.08829565 -0.02391993 0.028888708
000200 30 fa 2a bd 9f 6f e0 3c 31 16 45 3d 06 47 14 bd
       -0.041742504 0.027396975 0.048116866 -0.036200546
000210 95 ab 9e 3d 24 03 ab 3d 72 17 65 3d 15 84 9b 3c
       0.077475704 0.083502084 0.055930562 0.01898388
000220 a6 e3 0a bb cb 46 35 bb da e4 01 3d b7 27 09 3c
       -0.0021192818 -0.0027660604 0.03171239 0.008371285
000230 94 08 61 bd 7c ce cb 3b 91 59 49 3d ff c9 b1 3d
       -0.05493982 0.006219683 0.049157683 0.08681106
000240 00 c0 4e bc f8 ab cb bc b5 7b 8c bd a8 69 50 3c
       -0.012619019 -0.024862275 -0.06859533 0.012720503
000250 97 2f 47 bc 9e 8f 84 3b 77 41 55 bd cc c4 7b bc
       -0.012157342 0.004045441 -0.052064385 -0.015366744
000260 a2 00 3e 3d ae 14 91 3d 7e 7c 52 bd 27 ab ec 3d
       0.046387322 0.070840225 -0.051388256 0.11556082
000270 cf 53 88 3c 99 ab 89 bb 3f 40 6a 3d 70 35 3b bd
       0.016641526 -0.0042013642 0.057190176 -0.04570526
000280 24 ef a2 bd 81 aa 4d bd e8 bf 9f 3d 98 ec 32 bc
       -0.07955769 -0.050211433 0.07800275 -0.010920666
000290 54 e4 79 bc 2e d8 34 3d a4 15 dc 3c 47 86 03 3c
       -0.015252192 0.044151478 0.026865788 0.00802762
0002a0 15 bf be 3d 59 18 4d bd 44 5c 82 bd 9b e5 9f bd
       0.0931379 -0.050072048 -0.063652545 -0.07807466
0002b0 19 a6 ab 3c 68 bd 87 b9 68 bd 3b 3d e0 c1 59 3d
       0.020953225 -0.00025890325 0.04583493 0.05316341
0002c0 9d 30 95 3d e1 53 f2 bb a2 22 5a bd 44 ba 24 bd
       0.07284663 -0.007395253 -0.053255685 -0.0402167
0002d0 d6 28 c5 3b 58 97 bc bd c9 32 eb 3d 85 5f 35 bd
       0.006016831 -0.09208554 0.11484296 -0.044280548
0002e0 08 59 28 bd 81 4a 0d 3d 27 7c 81 3d b2 29 25 3d
       -0.04110053 0.03449488 0.06322508 0.040322967
0002f0 66 18 ab 3d 07 cb 90 3d dc 8b 6e 3d f6 91 35 3c
       0.08354263 0.070699744 0.05823885 0.011082163
000300 9d fd 8c bd 6e 5b cb 3c 8c 05 47 3d 77 eb 9d 3d
       -0.068843104 0.02482387 0.048589274 0.07710927
000310 04 fd 43 bd 07 89 a2 bc 2a 08 6a 3d fc f8 19 bd
       -0.047848716 -0.01984073 0.057136692 -0.037590966
000320 34 c7 75 bd 00 5d eb bc dd 8f 9b 3d f9 68 01 3d
       -0.060004428 -0.02873087 0.07595799 0.03159425
000330 55 a7 35 bd a0 55 1e bd 75 a1 99 3d 52 03 f8 3c
       -0.044349033 -0.038655877 0.075014986 0.03027502
000340 b4 db 56 bc 85 44 e5 3c bd 3c 94 bb 89 d2 d0 3d
       -0.013113905 0.027986774 -0.004523842 0.101964064
000350 18 dc db 3c 52 2a 00 3d f9 c8 c8 3b 21 5d d8 3d
       0.026838347 0.03129036 0.0061274734 0.10564638
000360 4d bc 3d bd 44 a7 85 3d 3c 78 21 bd 79 99 95 bd
       -0.046322156 0.06526044 -0.039421305 -0.07304663
000370 71 76 a7 bd 58 61 b7 bc f6 ca c4 3c e4 f8 8e bd
       -0.08176888 -0.022385284 0.02402256 -0.06981066
000380 08 e4 8f 3d 2f 8d c0 3d 7a ba 7b bd 52 b4 37 3d
       0.070259154 0.09401929 -0.061457135 0.0448497
000390 7d e4 aa bc 63 89 4c 3d fc 1a aa 3d dd db 42 3d
       -0.020860905 0.04993571 0.08305928 0.04757296
0003a0 30 df 71 3d 5c ce 84 3d 66 fa 85 bd 25 b6 82 bc
       0.05905074 0.064846724 -0.065419 -0.015955994
0003b0 b6 8d 5c bd e9 e3 cf 3d 99 e1 07 bd bf 76 ed 3d
       -0.053846084 0.10150892 -0.03317413 0.11594915
0003c0 71 3e c6 bc 08 28 94 3c 64 3f 82 3d ec 6c 06 3d
       -0.024199696 0.018085495 0.06359747 0.03281872
0003d0 15 c6 10 bd a2 5f 9e bb a3 da 9b bd 21 68 46 3d
       -0.035345156 -0.0048331777 -0.07610061 0.04843915
0003e0 c6 1d 19 bd 17 9b 9c 3d 39 3a 7d bd 13 91 83 bd
       -0.03738191 0.076467685 -0.061823104 -0.06424155
0003f0 4b 28 f8 3d e8 cf d4 3d 53 3a a7 3d 27 55 10 bd
       0.1211706 0.103912175 0.08165421 -0.035237458

l4.weight f4 [4, 256]
000000 a0 d0 f1 bd 8b 84 26 3e 73 bf 10 be e4 66 e7 bd
       -0.1180737 0.16261499 -0.14135532 -0.11298922
000010 77 6f 5a bd 6b c1 06 be bd 61 05 3f 9f 46 2e 3e
       -0.053328957 -0.1315972 0.5210226 0.17019127
000020 06 ab e1 bc f4 3f 8d bc ff 1e 26 3e 34 d9 ee 3d
       -0.02754737 -0.01724241 0.16222762 0.11662522
000030 7b 18 f4 3d 7b 1e 2f 3e 63 5d 7d 3e 69 4a 47 be
       0.11918732 0.17101471 0.24742655 -0.19461979
000040 5c 8a 2a bc 32 d9 3b be 75 af 57 3e 88 a5 34 bd
       -0.010408964 -0.18344572 0.21063025 -0.044103175
000050 a5 93 87 3e e1 ab 3a be 90 01 46 bd 50 1a 30 be
       0.2647983 -0.18229629 -0.048341334 -0.17197537
000060 49 d6 58 3e 40 82 cd 3e 0a 57 3b 3e dd 0e 8b bd
       0.21175493 0.40138435 0.18294922 -0.06789944
000070 ba 80 a9 bd b1 5c 6f be b0 e5 55 bd 21 53 4a be
       -0.08276506 -0.23375203 -0.052221 -0.19758274
000080 4c f7 a5 3e e3 5f 51 3e 8c b3 4e bc 63 5c 14 3e
       0.32415235 0.20446734 -0.0126160495 0.14488368
000090 48 41 7f 3e 02 c1 16 3e 4d 91 65 3e b3 c6 c8 bb
       0.24927247 0.14722064 0.22418709 -0.0061272024
0000a0 bd 63 59 be ab cf 68 bb d7 97 be 3e 6e 6d 25 3e
       -0.21229453 -0.003552417 0.3722522 0.16155025
0000b0 62 98 2d 3e 37 c8 b3 be f2 65 97 3e 49 d2 cd bd
       0.1695266 -0.3511369 0.29569966 -0.10049874
0000c0 38 b9 3a be fd 6f af 3d 26 49 e8 3c d5 3d 58 3d
       -0.18234718 0.08566282 0.028355192 0.052793343
0000d0 f2 22 f3 3e 30 e4 8f 3e de 52 cb be aa ed 95 3d
       0.474876 0.2810378 -0.3971166 0.073207214
0000e0 d3 c5 0a be c6 a3 93 bd 78 4f 3c be ae f8 a8 be
       -0.13552026 -0.07208972 -0.1838969 -0.33002228
0000f0 1f e2 6d be 03 98 3a 3d 46 17 9d bd 86 83 d1 bb
       -0.2323079 0.045555126 -0.07670455 -0.0063938526
000100 53 1d fd 3e fd 28 64 3d 47 73 9e 3c 26 14 17 be
       0.49436435 0.055703152 0.019342078 -0.1475378
000110 23 0f 0f be 2f a2 fd 3d e2 55 58 be ce 32 32 bd
       -0.13970618 0.1238445 -0.21126512 -0.043505482
000120 09 c5 92 3e 3f 72 0f be f4 2d 66 3e 46 bb e3 be
       0.2866595 -0.14008425 0.22478467 -0.44478816
000130 6a 54 3d be 60 98 a5 3d dc 27 67 3e aa 56 7e 3b
       -0.18489233 0.08085704 0.22573799 0.003880898
000140 0e 04 01 3f 0a e4 13 3e be e2 2e bc 0b 29 2d bd
       0.5039681 0.14442459 -0.010674177 -0.04227547
000150 c1 8e 55 3d 41 e2 30 be f3 1b 56 be 16 2d 5e 3e
       0.052138094 -0.17273809 -0.209091 0.21696886
000160 de 9d 04 bd dc 6f 8c 3e a0 6f 0d 3e ad 34 77 be
       -0.032377116 0.27429092 0.13812113 -0.24141188
000170 52 70 47 bd c7 03 ea 3d 26 84 0e 3e 0f 58 74 3e
       -0.0486911 0.11426502 0.13917598 0.23861717
000180 f2 8d fd 3d 47 22 0b be 51 11 cd bd c8 26 68 3d
       0.123805895 -0.13587295 -0.100130685 0.05667761
000190 e5 fd 09 be 20 82 c9 3c 39 fb d0 ba 10 e7 ae be
       -0.1347576 0.024598181 -0.0015944011 -0.34160662
0001a0 a5 cb 39 3e d0 bd 2c 3d 9c 8b 4b 3e cd 6e a0 bd
       0.1814409 0.042173207 0.19877476 -0.078336336
0001b0 01 df 95 3d d1 70 f5 3e c0 fa 71 bc f9 84 79 3d
       0.07317925 0.47937635 -0.014769256 0.06091783
0001c0 13 68 42 3e a5 81 82 be 7c b0 98 3d 75 d6 2d be
       0.18985014 -0.25489536 0.07455537 -0.1697634
0001d0 4d 13 04 be 71 21 ca bd 4f 32 0b be 73 34 e9 3e
       -0.12897988 -0.0986966 -0.1359341 0.45547828
0001e0 5b e0 44 be a1 4b 3b 3d 62 56 07 3f 29 0c 80 3d
       -0.1922621 0.045726422 0.52866185 0.06252319
0001f0 fc f3 9e be 1e e1 43 3e 49 77 97 bd e1 06 23 be
       -0.3104552 0.19128844 -0.07395799 -0.15920593
000200 e0 90 f5 3c 7d 52 3a 3d ce 28 ac 3e 5d cd 97 be
       0.029976308 0.045488823 0.33624882 -0.29648867
000210 75 1b 5b 3c 4e 72 79 be c7 fa 82 be 8f e7 6f be
       0.0133732455 -0.2436001 -0.25581953 -0.23428176
000220 c3 0d 20 3e 56 7a f7 bd f1 49 e2 be b2 c1 62 3e
       0.1563025 -0.120838806 -0.44197038 0.22144201
000230 d7 18 f7 3e 94 6b 01 be 54 a4 33 3d d1 5c 7b be
       0.4826114 -0.12638694 0.043857887 -0.24547125
000240 08 4b e5 bc 84 88 59 3e 56 aa 24 bd 31 73 36 be
       -0.02798988 0.21243483 -0.040201508 -0.1781738
000250 02 16 4a be 12 7a 46 be 64 5a 94 bd d9 a8 50 3d
       -0.19734958 -0.19382504 -0.07243803 0.050942276
000260 32 36 c5 3e e7 87 dd 3c eb 8a 99 bd 13 ce be 3d
       0.3851791 0.027042342 -0.074971996 0.09316649
000270 83 8f d2 3d 78 e1 d8 3d ef ae 51 bd 75 62 0b bc
       0.10281279 0.1058988 -0.05119222 -0.008507361
000280 7d 23 8c be a2 66 be 3d f3 11 c0 bc e2 82 df bd
       -0.27370825 0.092969194 -0.023446059 -0.10913636
000290 8c a7 83 3e 0e 36 9c 3c 44 eb f5 3d 8c f9 86 3e
       0.25713766 0.019068744 0.12007764 0.26362264
0002a0 b9 32 f3 bd 76 46 18 3e 9a e9 6d bd 2d 96 95 3e
       -0.11874909 0.14870629 -0.058084108 0.29216138
0002b0 43 9c cc bd 27 42 08 be 80 e0 7b be de 83 82 be
       -0.09990742 -0.13306485 -0.24597359 -0.25491232
0002c0 31 22 52 3e cf c0 04 be 39 35 50 3d 82 2e 06 3f
       0.20520855 -0.12964176 0.050832007 0.52414715
0002d0 50 bb b9 be 06 32 a4 3e fa 2f 4f be 96 1a 24 3f
       -0.3627572 0.32069415 -0.20233145 0.64103067
0002e0 e5 47 8b 3e 94 ff 1d be 1b a9 c9 3e 68 34 8e 3e
       0.2720329 -0.15429527 0.3938683 0.27774358
0002f0 11 c8 25 3e f8 10 55 bd 3f 64 bc 3d 0b b9 e9 bd
       0.161896 -0.052018136 0.09198808 -0.11412247
000300 17 29 08 3e d7 0f 20 3e 48 6d 43 3e fd 82 84 bd
       0.13296925 0.15631042 0.19084656 -0.064702965
000310 48 cb c6 3c 8b 5b ff 3d c7 5d 3d 3e 86 b6 f6 bd
       0.024266854 0.12468632 0.18492804 -0.12046532
000320 1d 01 9f bb 5a 27 c5 bd 8c ff 85 bc ed c3 6a bb
       -0.0048524276 -0.09626646 -0.016357206 -0.0035822347
000330 84 68 40 3f 0a 44 27 3c a7 1d 4f 3e ed e8 8a 3e
       0.7515948 0.010209093 0.20226155 0.27130833
000340 b4 1b 52 bd 1f 9c a7 bd 24 37 b1 3d 70 17 51 be
       -0.05129595 -0.081840746 0.08653095 -0.20419097
000350 0c 76 3b 3e ce ec 15 bd 67 bf 17 be a6 3b ff 3d
       0.1830675 -0.036602788 -0.14819108 0.12462549
000360 04 30 03 3e 6e e6 11 be ab 45 e6 bd d5 e9 21 3e
       0.12811285 -0.14248058 -0.11243757 0.15811856
000370 0b 01 f3 3d fb 7d fa 3c 8a 38 62 3d 41 f0 9c 3a
       0.11865433 0.03057765 0.0552297 0.0011973457
000380 78 51 24 3e 81 bd dc bd 2f 01 1c be c7 d8 09 3e
       0.16046703 -0.107783325 -0.15234827 0.134616
000390 00 52 16 be 3e 3d b8 3e f9 67 df 3d 74 0d cf 3e
       -0.14679718 0.35984224 0.10908503 0.4043995
0003a0 91 04 d4 3c b5 15 05 3d 00 85 cd 3e 65 e6 14 3f
       0.025881084 0.032491405 0.40140533 0.58164054
0003b0 e9 b7 47 3e 56 5d 97 3e 79 e6 0a be 44 cc 83 3e
       0.1950375 0.29563397 -0.13564481 0.2574178
0003c0 62 f2 60 3c 74 e7 47 3e a6 ed 18 3e 2a e9 6a 3e
       0.013729664 0.19521886 0.14934406 0.22940508
0003d0 0c f8 19 3e c1 b4 46 bd 68 83 14 bd a1 47 64 3e
       0.15036029 -0.048512224 -0.03625813 0.2229295
0003e0 18 a2 b5 3d e5 c8 00 be c7 1e 08 be 29 d3 43 3e
       0.088688076 -0.12576635 -0.1329299 0.1912352
0003f0 10 27 52 bc 46 c9 74 be 68 d9 22 be 68 b4 f0 bd
       -0.012826696 -0.23904905 -0.15903246 -0.1175316

l4.bias f4 [4]
000000 9e 5f 70 3c 80 ac 2e bc fc e9 4b ba ab 43 96 bd
       0.014671234 -0.010661244 -0.0007778702 -0.073371254
