preTrained/v3TD3_BipedalWalkerHardcore-v3_0_crtic_1.pth (torch_old, 175167 bytes, 7 tensors)

l1.weight f4 [64, 28]
00000000: 9dcb 173d ceae 98bd 1b91 23be e736 4abe
00000010: 2dc9 81bd 2cde 853c 2291 1b3d 7c4c 2bbc
00000020: 334d 453e f1d5 11be c1f9 a6bd 5668 0f3e
00000030: 3730 b73d fe9f 413e eb0b 27bd e45b 573e
00000040: ce2f ff3d 81f1 4c3d 4382 0a3e 9729 733c
00000050: f819 023d c3b3 263e 0052 cd3d d05e 5f3c
00000060: 9c3d bc3c accc 29be a76d 203e 94a1 303d
00000070: 695b 1d3e 64e4 3a3e 82e8 123e ac70 93be
00000080: 7b7a b53e 46d9 dc3c 69ab 1b3e bb02 5dbc
00000090: ae72 13bd eb77 90be 53b3 733c ff6f 2bbe
000000a0: 5f2d df3c df42 37bb 62d1 d1bd 687c cfbd
000000b0: 4d94 893d ddf6 02be 29f1 e8bd 1cd6 683d
000000c0: e581 afbd 1eaf b4bd c2d8 2b3d b959 29bd
000000d0: 6f3c 0d3c 23c4 b23c 372f 4abb cc0f 513c
000000e0: 8a18 4cbe 1d42 1ebf 65f1 903e bc77 f43d
000000f0: b188 afbd 26bd bebd d113 783c b3e2 d9bd
00000100: fb86 323e c760 6bbd e22e f43d 88dd b1bd
00000110: cd13 0f3d d568 da3d 83f8 33bd 0211 de3d
00000120: f73d 46be ebe8 d23d 2518 ef3d b510 a3bd
00000130: cbfc 17bd b171 e63d d4fc 0f3e a416 4ebd
00000140: ef07 c73d 4aa9 c13c 74f1 a63d fe88 23bd
00000150: 434d 90be aedd 17bf be06 ff3e 8eec 52bd
00000160: 6a1e 97bd 9416 b93a 2798 a5bd bb3e 053d
00000170: 9731 843d 83e2 4dbe b174 8ebd ebc6 eebd
00000180: 3272 9bbd 0a12 1abc b7d7 993d 6c83 f23c
00000190: 2986 abbd f33c bdbc 829a 593d 4b74 6b3e
000001a0: b6ef 8abc 4133 503c 8898 683b 5afe 863d
000001b0: 6fdb a3bc 0b3c 443d 8654 e8bc fcb0 853d
000001c0: 72cf a63c 5787 453e 0d15 403d f63e b13d
000001d0: 6c40 6e3e dfe8 b3bc 9a15 a5bd fa42 a93c
000001e0: 0bfb b83d 3e5a 963d c56c b9bc ef84 a5be
000001f0: 74b9 b4bd 4a38 c239 5c4f ad3d 3d40 9d3d
00000200: 9444 0b3e 968e 69bd 68ab 3a3e e129 b03b
00000210: ae87 b9bd ef97 b8bd 9e6f b73d a44c 84bd
00000220: 9a1c 74ba 45a5 b1bc 2133 213d 3e89 25be
00000230: 91f6 053e e2f1 4a3e 1efe 9fbe 2709 03be
00000240: 3a70 a9be 0f5e 81bc 1501 48bd 684d 663b
00000250: 629e 22bd 0a7c adbe 76c4 e33c a866 35be
00000260: a1f1 47bc 6d4f ff3c 6ae0 4fbe 63ec aabd
00000270: ca49 b0bd 59da 963c ebfd 50be ea4d d0bd
00000280: 0021 173d 51b9 9ebc ef06 22bd c501 923d
00000290: 0eab 3a3c 3201 b1bc 0ae1 22bb fa6b 19bd
000002a0: ad70 25be 6ad1 1dbf 8158 3c3e 2236 a43e
000002b0: 4a03 8abe 120a ba3d ec14 0dbe b1d1 6a3c
000002c0: 0f8e 0d3e 2ac1 ee3d 792e 35be 1839 c93d
000002d0: 2c0c d9bd ab38 30be 65ba 833d 82fe 15be
000002e0: eece 183e e082 80bd 5269 213e 1982 5a3b
000002f0: feec 6f3c 522a 393d eaf7 9bbd 0568 2a3c
00000300: 3550 043d eafc 893c 8f46 8bbc 844b f0bd
00000310: 2700 82be 24c1 26bf d9c4 af3e c000 863d
00000320: 83ea b7bd 02b4 113d bbdc 523d 859d 513c
00000330: 0d91 0ebd 513a 29be 04c8 7dbd 87ec 00bd
00000340: 9197 503d 3816 e0bd bf98 d93d 79f3 483e
00000350: c997 3cbd 1904 683e 75f9 f13d df0e 153e
00000360: d2c8 483e 27cb 663d bbad 2cbd 0a9b 16be
00000370: 6d8c 96bc d557 15bc 4207 63bd d16a 24bd
00000380: b313 393d 11f2 9cbe 60b7 6cbd ea41 a73d
00000390: a758 0dbd 3185 053e c251 f3bc f126 99bd
000003a0: 21e5 2dbe c76c cbbd 7942 a73c 37d4 01be
000003b0: 9cd1 d5bb 07dd 343e 430d b03d 179a 473c
000003c0: c70b d33d ae34 d73d 2ef4 803e 8742 94bd
000003d0: 27bf 4c3d b98a ed3d a28a 383c af30 0d3e
000003e0: 8961 e7bd f8ef cebc efa3 ea3d 4717 1fbe
000003f0: ddb3 30be 5203 7abe 2bc9 e93e 6de1 883e
0.037059415 -0.07455216 -0.15973322 -0.19747506 -0.06337199 0.016341291 0.037980206 -0.010455247
0.1926773 -0.14241768 -0.081531055 0.14004645 0.08944743 0.18908688 -0.04078285 0.21031147
0.1246029 0.050035004 0.13526253 0.014841459 0.031763047 0.16279511 0.10025406 0.013633445
0.022978596 -0.16581982 0.15666829 0.043122843 0.15366901 0.18251187 0.14346507 -0.287969
0.35445008 0.026959073 0.15202107 -0.0134894205 -0.03599804 -0.2821649 0.014874297 -0.16741942
0.027243314 -0.0027963442 -0.10245015 -0.101311505 0.06717739 -0.12789483 -0.11374123 0.056844816
-0.08569697 -0.088224635 0.041954763 -0.04134533 0.0086203655 0.02182204 -0.0030850896 0.012760114
-0.19931236 -0.6181963 0.2830917 0.119369 -0.08570994 -0.09313421 0.015141443 -0.106389426
0.17434303 -0.05746534 0.11923005 -0.08684832 0.034930993 0.106645264 -0.04393817 0.10843088
-0.19359575 0.10298332 0.11674527 -0.07962171 -0.037106317 0.11252154 0.1406129 -0.05031456
0.0971831 0.023640294 0.08151522 -0.039925568 -0.28183946 -0.5932263 0.4980983 -0.051495127
-0.07378848 0.0014121109 -0.080856614 0.032530528 0.06454771 -0.20105939 -0.06955851 -0.11659034
-0.075901404 -0.009403715 0.075118475 0.029603682 -0.083751984 -0.023100352 0.053125866 0.22993581
-0.016960006 0.012707532 0.0035491306 0.065914825 -0.020002095 0.047908824 -0.028360616 0.06527898
0.02036259 0.1928991 0.046895076 0.08654587 0.23266762 -0.021961628 -0.08060761 0.02066182
0.09032258 0.07341431 -0.022634873 -0.32327983 -0.08824435 0.00037044502 0.08462402 0.07678268
0.13600379 -0.057020746 0.18229449 0.005376086 -0.09059082 -0.09013354 0.08956836 -0.064599305
-0.00093121233 -0.021685252 0.0393554 -0.16165635 0.13082339 0.19818833 -0.31248564 -0.1279646
-0.33093435 -0.015791921 -0.048829157 0.0035141353 -0.039701827 -0.33883697 0.02780364 -0.17714942
-0.012203605 0.031165803 -0.20300451 -0.083458684 -0.08607824 0.018414663 -0.20409362 -0.10171111
0.036896706 -0.019375475 -0.039557394 0.07129244 0.011393322 -0.021607015 -0.0024853372 -0.03745649
-0.16156264 -0.61647666 0.18393137 0.3207255 -0.26955634 0.09083952 -0.13777512 0.014332221
0.13823722 0.11657937 -0.17693509 0.09825343 -0.10598025 -0.17209117 0.06432036 -0.14647868
0.14922687 -0.062749624 0.15762833 0.0033341704 0.014643906 0.045206375 -0.07615645 0.010400777
0.032303054 0.016844232 -0.017001418 -0.117331535 -0.2539074 -0.6513846 0.3432987 0.06543112
-0.089802764 0.03557206 0.051480036 0.012793903 -0.0348063 -0.16526152 -0.061958328 -0.03147557
0.050925795 -0.10941738 0.10624837 0.19624127 -0.04604319 0.22657813 0.11815158 0.14556454
0.19607857 0.056346085 -0.04215787 -0.1470758 -0.018377507 -0.009115179 -0.055426843 -0.04014093
0.045184802 -0.30653432 -0.057792068 0.08166869 -0.034508374 0.1303909 -0.029702071 -0.074781306
-0.16981937 -0.09932857 0.020417439 -0.1267861 -0.0065252315 0.1766244 0.085962795 0.012182734
0.10304981 0.10508095 0.25186294 -0.072392516 0.049986985 0.11598725 0.011263521 0.13788103
-0.112979 -0.02526091 0.11457049 -0.15536223 -0.17256112 -0.24415329 0.4566129 0.26734486

l1.bias f4 [64]
00000000: 6284 9e3d c02b d73d 7c10 9c3e 4af9 923c
00000010: 4d51 313e d113 0abe 8873 8b3e 14f4 b33d
00000020: ae08 8f3e 5aae 6b3e 7af9 873d 3338 413e
00000030: 6952 823e cbca 86bd 93c2 803e 3c84 f1bd
00000040: 88b6 473e 26e9 3d3e e1cd 3a3d bd8c cbbb
00000050: 8e1c 993e 640f 1dbb b4e6 e63d 526b 373e
00000060: df3e 883e d7f8 35bd b996 e9bd 7494 803d
00000070: 8bb7 82bd f716 983d d9db b13e 0229 0e3e
00000080: ce39 9cbd 31b0 bd3d 6da5 283e 8d82 233e
00000090: 19c5 64bd 2fd1 463e 8547 cc3d 4ce5 7e3e
000000a0: 38b5 013d 52e2 143e 8c3b 96bd 7e6d cb3d
000000b0: 479a 8d3d fc32 d03d 3da4 8b3d 9dd5 333e
000000c0: 579e 6abb 86cf 1e3e dd53 293e 99a8 953d
000000d0: 4db2 223d 9752 c43d ba57 063e 59c2 863e
000000e0: 3415 8ebd abbd a33c 5b80 463d 5d94 a13e
000000f0: bd4e 043e 8231 0f3e e1e1 073d c451 533e
0.07740094 0.105063915 0.30481327 0.017941136 0.1731617 -0.13484122 0.2723658 0.087867886
0.2793631 0.23015729 0.06639381 0.18869095 0.254535 -0.065816484 0.25148448 -0.117928
0.19503224 0.1854597 0.045606498 -0.0062118457 0.29904598 -0.0023965472 0.11274472 0.17912033
0.26610467 -0.044426765 -0.11405701 0.06278315 -0.06382664 0.07426255 0.34738043 0.1388283
-0.07628213 0.092621215 0.16469355 0.1596777 -0.05585203 0.19415735 0.09974579 0.24892157
0.031666964 0.1453946 -0.073355764 0.09932993 0.06914192 0.101659745 0.06818435 0.17561956
-0.0035799944 0.15508851 0.16535898 0.07307548 0.039720822 0.09586065 0.13119403 0.2632015
-0.06937638 0.019987902 0.048462253 0.31558505 0.12920661 0.1398373 0.0331744 0.2063666

l2.weight f4 [128, 64]
00000000: b936 a0bb f8a5 46be 1130 2d3e b72e 5d3e
00000010: 22d0 34be 651d de3b 21e9 803e 70b0 053e
00000020: 18e9 cf3c 66cd cd3c 8f45 c53d 6954 02bd
00000030: 9368 823e b4d9 08be 4664 55bd bbfd 8ebe
00000040: 69b4 70bd 5929 553d ad14 c2bd 1764 9bbe
00000050: c37e 9639 a794 ba3e 0921 8d3c d635 72be
00000060: f3bf fa3d 7f5f 783d 9a38 88bd 192a 403e
00000070: 1d6a b6be 8dd5 103e 9c52 063e 4bf3 033e
00000080: 9d3f ab3d 19fa e1bc 2516 e2bb 406b 0f3e
00000090: 13ff 7bbe 17ac edbd 82fb 30be 7e9a d93d
000000a0: 8331 59be 1abc 603b 6dbc bebd 0710 1b3d
000000b0: 1cd6 443e 3078 ca3d 2d0d a4be 4c92 973e
000000c0: 5564 95bd 54ca 78bd a68f 1d3e 3396 873e
000000d0: 87a1 35be de33 4cbe 0e8d d33c c78b ba3d
000000e0: 2936 543d cbae cb3d 3110 cfbe 7357 403e
000000f0: 9e42 2bbe a95a 1f3e 344d dabd cea2 2bbe
00000100: c4f6 1e3e 403e f4bc 7514 93bc a6e3 f33c
00000110: cea2 fc3d aca4 7e3d 18f3 bdbd ddda 0bbe
00000120: 9c02 a03d 24fb 803d f464 90be 62ea 143e
00000130: 5941 653d b573 55bc 4b39 85bd 67df 2fbd
00000140: e4f4 eebd c9da 00be 6aec 2cbe d3f1 1fbe
00000150: 0304 ba3d 4f40 0abe 79d2 c13d 5c79 ba3d
00000160: a93c b53d a842 b03d 58b9 533d 2aa7 b83d
00000170: 2400 15bd 5014 b0bd 0842 143e 145e 1e3d
00000180: 5970 64bd f171 213d 3688 68ba 694e db3c
00000190: ad2e 9cbd 49d5 3dbd 7f8e 303d 7e78 06be
000001a0: 5abc bb3d c96e 463d 6ddb cdbd 2973 ca3d
000001b0: ba04 4cbe 6d9f 143b b483 db3d e04c 843e
000001c0: c008 4e3d f17a 9b3d 9937 363d ec3a 3cbd
000001d0: 832c d1bc d1bf a43d 494a d1bd 6168 2e3d
000001e0: bcba 69be 30aa c53d 3b4d 453e 0c61 6cbd
000001f0: c21c 583e 330b 033d e555 3d3e cd63 e33d
00000200: c5ad 12bd c550 9e3d 7db6 ebbd f0c6 6fbd
00000210: adf2 8d3e 3d16 4e3e abcd 283d 9334 abbd
00000220: ff54 b53d 951f e13d 0a96 abbe fc85 ac3d
00000230: 296c 003d d4eb 943d bbb5 ba3d 509a b13c
00000240: 5991 683d c890 863d aabf ac3d 1f30 89bc
00000250: 1cd5 713e 1929 8fbe 1e87 813d 7b76 d43d
00000260: 7767 8dbc d939 ef3d 7f68 22be b8de 33bd
00000270: 6df0 3dbd 8eee b7bd 9998 dc3d 02dd 353c
00000280: 2ef0 a83d 8cd0 993d 40ea 143e ecfe 83bd
00000290: dae4 1e3e db0a 173e c62c eb3d cc12 323b
000002a0: 7ae2 4a3d 4584 e7bc e170 aa3d e102 f1bd
000002b0: e0d8 16bc f63e 443e 9fa1 9a3c 715d 28bd
000002c0: e585 883d c07c 093e c31a c73d 6ad1 75bd
000002d0: f313 4fbd 6d1f 9e3d 5f98 cf3d ce73 a93c
000002e0: 609a 2dbd c991 acbd 880a b43d 13c0 633d
000002f0: 311e 1c3e a54a e23d 8375 003e 1259 3b3e
00000300: 2055 183e d4c3 223d a0a0 e23d 6532 ae3b
00000310: 32c1 433d 4ed7 3e3e 8233 03bd f15f d73d
00000320: 623e 7fbd e500 24be 755e 24be 0b0e 0a3e
00000330: 3633 b33d c39a 17be 897b 82ba 19c3 3bbc
00000340: 7410 c03d 11ab a1bd 2133 aebd 890b 953d
00000350: 11dc 7abc 5983 06bd 8bbd df3d 6b1f 2f39
00000360: eee9 f03c a2d5 e93c dce4 ee3a 3da0 283e
00000370: 0720 4fbd ba0f c9bc 4258 213d 2b1f debc
00000380: 8b93 54bc c44d aebd 2961 ff3d bb8d ef3c
00000390: 31cf a5bb c8bc b23d 5e1d 293e f86b 3a3d
000003a0: 16a0 6ebd 0ddc 2dbd d230 06be 046c 003d
000003b0: 8ec1 28be 76ef 093e 381f c2bc ef5c 623d
000003c0: 5998 6a3c 856e 8b3d d3ba 493e 9b51 1e3e
000003d0: 113f 2b3d 6a9f e13d 9e67 4bbd eaba 8f3d
000003e0: 0f18 41be b264 013e c2b6 2e3e d777 10bd
000003f0: 6aee 033e f96d e53d 01da aebc 51d3 513d
-0.004889336 -0.1939925 0.16912867 0.21599852 -0.17657521 0.0067784064 0.25177863 0.13055587
0.025379702 0.025122356 0.09632408 -0.03181878 0.2547041 -0.13364297 -0.05209758 -0.27927956
-0.058765803 0.052041385 -0.094766 -0.303498 0.00028704674 0.36441538 0.017227666 -0.2365335
0.12243643 0.060637947 -0.06651421 0.18766059 -0.35627833 0.14143963 0.1311745 0.12885778
0.08361743 -0.027585076 -0.0068996125 0.14005756 -0.24609022 -0.11605089 -0.17283443 0.1062517
-0.21210293 0.0034291805 -0.09313283 0.03785708 0.19222301 0.09886205 -0.32041302 0.29603803
-0.072945274 -0.06073983 0.15386829 0.2648178 -0.17737399 -0.19941661 0.025824096 0.09108692
0.051809464 0.099454485 -0.4044204 0.18783359 -0.16724631 0.15561928 -0.106592566 -0.16761324
0.15523821 -0.02981484 -0.01795409 0.029771637 0.1233574 0.062168762 -0.09274882 -0.13657708
0.07812998 0.06297901 -0.2820202 0.14542535 0.055970524 -0.013028075 -0.065050684 -0.042937662
-0.11667803 -0.1258346 -0.1688706 -0.15619592 0.090827964 -0.13501094 0.094639726 0.09105179
0.08849461 0.08606464 0.05169043 0.09016259 -0.036377087 -0.08597624 0.14478314 0.03866394
-0.055771206 0.039415304 -0.00088703947 0.026770787 -0.0762609 -0.046345983 0.043104645 -0.13131902
0.091667846 0.048445497 -0.10051618 0.09885246 -0.19923678 0.0022678033 0.1071848 0.258399
0.050301313 0.075918086 0.044486616 -0.04595463 -0.02553392 0.080443986 -0.10219247 0.042580012
-0.2282514 0.09651601 0.19267742 -0.05770974 0.2110472 0.031993102 0.18489797 0.1110302
-0.03581025 0.07730249 -0.11509416 -0.05853933 0.2772421 0.2012567 0.041211765 -0.08359637
0.08854102 0.10992352 -0.33512908 0.08423993 0.03135315 0.07271543 0.091166936 0.021680027
0.05677924 0.065705836 0.084349945 -0.016746579 0.23616451 -0.27961043 0.063246 0.10374161
-0.01726125 0.116809554 -0.15860175 -0.043913573 -0.046371866 -0.089810476 0.10771293 0.011100056
0.08248936 0.0751048 0.14542484 -0.06445107 0.15516987 0.14750235 0.11483149 0.0027171848
0.04953239 -0.028261313 0.08322311 -0.11768127 -0.0092069805 0.19164643 0.018875895 -0.041104738
0.06666163 0.13426495 0.09721901 -0.060014166 -0.050556134 0.07720838 0.10136484 0.020685103
-0.04238355 -0.08426244 0.08791071 0.055603098 0.15245892 0.110493936 0.12544827 0.18295696
0.14876223 0.039737538 0.11065793 0.005316066 0.047791667 0.1863682 -0.032031544 0.10516346
-0.062315352 -0.16015966 -0.16051657 0.1348192 0.08750002 -0.1480513 -0.0009955029 -0.011460089
0.09378138 -0.078939565 -0.08505846 0.07277591 -0.015311257 -0.032840107 0.10924824 0.00016701005
0.029408421 0.02854425 0.0018226164 0.16467376 -0.050567653 -0.024543632 0.03939081 -0.027114471
-0.01297463 -0.08510926 0.12469704 0.029242387 -0.0050600995 0.087274134 0.16515109 0.045513123
-0.05825814 -0.042446185 -0.13104561 0.03135301 -0.16480085 0.13470253 -0.023696527 0.05526441
0.014318549 0.06808189 0.19700174 0.15460818 0.04180819 0.11016734 -0.049659364 0.07018073
-0.18856834 0.12636068 0.17061904 -0.03527054 0.12883916 0.11202616 -0.021344187 0.051226918

l2.bias f4 [128]
00000000: 44fb 263e a8a7 873e d35a 863e 3f17 813e
00000010: b1af 1b3d 4171 0b3e 13c4 283e c599 d23d
00000020: 48a3 523e 500a 6b3c ee92 3b3e a9c9 ff3d
00000030: ac65 e43d 2eef 69bc 4ea8 7e3d fdb5 34bd
00000040: 7e62 f5bd 94f0 95bd 3f98 1c3e 4df4 3b3e
00000050: 4acd 4d3d 3ab4 5bbd 0509 423e 4996 243d
00000060: f0f0 c1bd 92a7 383e 798b 1e3e 582d a3bd
00000070: b1c5 8bbd ec2a 1f3b 3968 d53d fc8c 3c3e
00000080: 4462 343d 66b1 013e 30db 1a3e dd4b 1a3e
00000090: c666 ed3d bfe3 633c e2af 013e f7c7 7d3e
000000a0: e19d 6cbd d595 383e e130 af3c 248e c53d
000000b0: 5491 cc3d f67e 483e 81a0 b53d 547b 633d
000000c0: a173 0a3d 6a40 543d 6f27 1f3e 8ce9 053e
000000d0: 38d4 243d 91e9 413e c399 193e f0d6 c83c
000000e0: 3bfc 5abd 270c 483e 67a4 8fbd 02a7 413e
000000f0: 1fd9 8a3d 580c d3bd 1aa1 dd3d dfaa 03bd
00000100: fe13 563e 7d20 1e3e da04 61bc 12cd 163e
00000110: 93b5 123e 67da 1d3e 4919 cfbc ceb4 b73d
00000120: 9449 883e a42b 4b3e 9834 7c3e e869 dfbb
00000130: 6335 b93c 5296 283e 4a3c a6bd cc5a c53d
00000140: a493 fe3c 0ffe fc3d 94c6 b6bd 5384 993d
00000150: 326a 833d 37ed 623e 1591 033e 6cb9 1e3e
00000160: 153a 89bd 2b9b db3d 90a1 223e 0f67 9f3d
00000170: 5a43 40bc 6b46 8abd a34c a73d 48f0 833e
00000180: 2cd9 9a3d 8e9c 513d 9677 b8bd 6afc a3bd
00000190: 7271 073e 8824 123c d609 693e fe2a 483e
000001a0: 998d 7fbd 939d 143e 244a 333e 6ad7 73bd
000001b0: 226b 0b3e 6c7b b03d 46ce 833e 00c4 363e
000001c0: ebb9 aebc 2831 4e3e d7fb 5abd f792 0b3e
000001d0: 9402 68bd ad61 73bd 446f e2bd 4203 813c
000001e0: 59b1 373c 96e9 283e bfc3 d73d 5404 14bd
000001f0: 112f 813e 2b9b 8c3d f2e1 cb3d b044 b5bc
0.16306788 0.264951 0.26241168 0.25213048 0.03800935 0.13617422 0.16481046 0.102832355
0.205701 0.01434572 0.18317768 0.124896355 0.11152205 -0.014278216 0.062172227 -0.04411887
-0.119816765 -0.07321277 0.15292452 0.18354912 0.050244607 -0.053638674 0.18948753 0.040182386
-0.09469783 0.18032673 0.15482892 -0.07967633 -0.06824816 0.0024287058 0.104202695 0.18413156
0.044039026 0.12665328 0.15122676 0.15068002 0.11591868 0.013909279 0.1266475 0.24783312
-0.057767753 0.18025906 0.021385612 0.09646252 0.09988657 0.19579682 0.08868504 0.055537537
0.03380168 0.051819243 0.15542386 0.13077372 0.04024145 0.18936755 0.15000062 0.024516553
-0.053463202 0.19535886 -0.07013779 0.18911365 0.06779694 -0.10305089 0.10821743 -0.032145377
0.20906064 0.15442081 -0.013734067 0.14726666 0.14327078 0.15415345 -0.025280612 0.08970033
0.26618636 0.19840866 0.24629438 -0.006818045 0.022608465 0.16463593 -0.08116968 0.09636459
0.03107626 0.12353145 -0.089245945 0.07495942 0.064167395 0.22160803 0.12848313 0.1550042
-0.067005314 0.10722955 0.15881944 0.07783329 -0.011734808 -0.067517124 0.08168914 0.25769258
0.075609535 0.051174693 -0.09007184 -0.080071285 0.1322687 0.008919843 0.22757658 0.1954765
-0.062390897 0.14513235 0.17508751 -0.059531607 0.13615087 0.08617291 0.25743312 0.17848206
-0.021328887 0.20135939 -0.05346283 0.13630281 -0.056643084 -0.059419323 -0.110563785 0.015748624
0.011211717 0.16495356 0.105353825 -0.03613694 0.2523122 0.068655334 0.09955205 -0.02212748

l3.weight f4 [256, 128]
00000000: 05f4 4dbf bcb9 c43d 95e4 ae3d 4101 d63d
00000010: 644d 5c3e d7ca e2be c275 01be eb74 54be
00000020: a7c3 033d 5586 d4be b208 6d3c 51fe 8abc
00000030: 0041 9cbd 2794 d9be e012 b13c 1df9 25be
00000040: e08e 343e 2f5c e23d 26e5 db3c 2f4f 2fbe
00000050: b1b8 77be b814 33bf 1cdb 94bc b87d af3d
00000060: 509e f3bc 5efa 1d3d b4bd 0abd 8246 05bf
00000070: d925 953d a082 8b3e af7c 8d3d 3135 853c
00000080: 141e a63d 4e07 0dbc 516b 463d 0aaf af3c
00000090: 96ce afbc 906c 23be 4bab e63c 5327 20be
000000a0: 7bc5 8abe fd48 0cbd 700c f43d dbc2 6fbe
000000b0: 98b4 8b3d 9111 bfbd 4806 48be 8fae 4bbc
000000c0: 0169 e03c 5224 47be e0a0 b3bc d29a 823d
000000d0: 1711 e0bb 192b b43a d078 41bf ff56 39bd
000000e0: 72d8 18be ba1d 0ebd 96d0 4b3e c380 64bd
000000f0: 32aa 73bc 7802 743c 7ad4 95bd a9c0 d7bd
00000100: 6ee7 34bf 5f88 2fbd 7e60 1abf 8da6 983d
00000110: 528a dc3c 230b adbb a8ee 463b f673 753d
00000120: 4cb9 c23d 995e 43bd 54b1 d13d fa60 b4be
00000130: fdc3 573e 0024 a5bd e01a 103b 232d 40be
00000140: f08f cabe 247b 11bf a5bd 38bf 2e1b c0be
00000150: 1e90 923d 035b 2a3d b6b6 fabc 7d7f 873e
00000160: 8dbd 9b3e b31c 2dbd 2517 a73c 57a6 dabc
00000170: 6447 813a 6424 38bf dd10 63bf 3d36 8b3d
00000180: 3430 c6bc 71c0 c43d 2229 0fbf 3826 8d3e
00000190: 9ea7 b33d f2c5 47bd e5ee 943d a17d 963d
000001a0: 8a3f 2fbf a657 a4bd d1a8 24bd bdf0 553e
000001b0: 719e 493d 3bdb ed3c eb49 aebc 8e3c 16bb
000001c0: b1ef 75bc e758 6d3d f01e c9bd 1247 6bbe
000001d0: fdce 20bd 3e4f 133e 6f21 2cbd 8dca b5bd
000001e0: 5c17 4ebf 7694 de3c 9908 adbd 4830 943d
000001f0: 1d46 9d3c afbc bdbb bb21 6abd 8c3e 763a
00000200: bf8a 9d3e d7f5 1e3e efe9 f73c 3132 e73d
00000210: 5c50 24be 1812 9a3e fe7d fb3d 7cf4 203e
00000220: 4584 ff3d b4f7 ae3e e9d6 7e3d 9807 113e
00000230: 3d4b 4ebc 6b3f ab3e 8a84 3d3d 2bb0 7f3d
00000240: f9b1 30bd 23bb f0bd e147 f63d 50d7 943e
00000250: 0d88 2a3d 3530 e13e d4b8 a13d fd73 cd3d
00000260: bd6b a1bd 8d84 ee3d b99e b53d 27c8 173e
00000270: 8ee9 713d de84 8abe bae5 093d db2b 2b3d
00000280: 252d d13d e6c5 083e fca6 5e3b f938 fd3c
00000290: f0c7 613d 87a2 123e 022e 103e 2f6b 7c3e
000002a0: 9dfa 3c3e fb73 8f3c 8346 b73d 9b49 c53d
000002b0: a89b 103e b74d 2c3d 9142 ad3c 3bba ec3d
000002c0: 38d3 d43d 4cce 693e 9461 163e beba d03d
000002d0: 7a8c 043e f9b0 553d cdae e03e 7fc9 383d
000002e0: bd97 053e 9239 113d e010 06be 8030 e13d
000002f0: e87d 5c3e 6e70 9cbd 7ae4 fc3c 2070 4a3e
00000300: 6b77 913e d60d 6d3c 5e82 8f3e e982 dabc
00000310: fc65 ee3d 8bda af3d 7e94 d03d 9f39 493d
00000320: 93cf a23d b4fd 463c 84b2 a73c 36a7 7b3e
00000330: ba6c fbbc 91db 1bbd 0b2a af3d c18c 743e
00000340: a216 7a3e c543 873e 4992 f83e 48ae ad3e
00000350: e3c7 bfbc 6cce 333d 5875 b33d f926 a0be
00000360: 7274 10bf 83a2 cc3d 579e 063d 5c98 d33d
00000370: 9f22 d33b f4d0 563e ed8f 6b3e d796 a63d
00000380: ed01 3c3d a92a 153e 889f 333e b194 bdbd
00000390: 91a7 98bc 53ca fb3d 98d3 4b3d 7289 313e
000003a0: b6a2 943e 81aa 62bc 01ff ea3d 8947 5cbe
000003b0: 8fb3 c13d e474 f8bb 7691 9d3d beeb e13c
000003c0: 56e9 e43d f19e 4e3d a5d3 1b3e 8ead 4c3e
000003d0: b747 ea3d aca3 47be 6096 bb3b d9fd 0c3e
000003e0: fb6f 243e 730c 743d 5aff eb3d 9a11 70be
000003f0: c756 8b3c 91a2 d43d cecf 673d d005 85be
-0.8045047 0.096057385 0.08539692 0.10449458 0.21513897 -0.4429538 -0.12642577 -0.20747726
0.03216901 -0.41508737 0.014467405 -0.01696697 -0.07629585 -0.42495844 0.021615446 -0.1620831
0.17632627 0.11052739 0.026842665 -0.1712005 -0.24191548 -0.6995349 -0.018170886 0.08568901
-0.029738575 0.038568847 -0.03387232 -0.5206071 0.072826095 0.27248096 0.06908547 0.016260715
0.08111206 -0.008607699 0.04844219 0.02144577 -0.021460813 -0.15959382 0.02815785 -0.15640001
-0.2710379 -0.034249295 0.11916435 -0.23414175 0.06821555 -0.093295224 -0.19533646 -0.012431755
0.02739382 -0.19447449 -0.021927297 0.06377186 -0.006837975 0.0013745754 -0.7557497 -0.04524898
-0.14926317 -0.03469632 0.19903788 -0.05578686 -0.014872121 0.014893167 -0.07315917 -0.10534794
-0.70665634 -0.042854663 -0.60303485 0.07453642 0.026921425 -0.0052808686 0.0030354653 0.059925042
0.09507999 -0.047697637 0.10238901 -0.35230237 0.21070857 -0.08063507 0.0021988675 -0.18767218
-0.3956294 -0.5682852 -0.72164375 -0.37520736 0.071563944 0.0415907 -0.030604701 0.26464453
0.30418053 -0.042263698 0.020396778 -0.026690645 0.0009863195 -0.7193053 -0.88697606 0.067974545
-0.024192907 0.09607018 -0.5592214 0.2756822 0.08772205 -0.04877276 0.07272128 0.073481806
-0.6845633 -0.0802453 -0.04020006 0.20892616 0.049223367 0.029035201 -0.021275481 -0.0022924277
-0.01501076 0.057946112 -0.09820354 -0.2297633 -0.0392599 0.14385697 -0.042024072 -0.08876524
-0.80504394 0.027170401 -0.084489055 0.072357714 0.019198472 -0.005790315 -0.057161074 0.00093934755
0.30769917 0.15523468 0.030262915 0.1128887 -0.1604628 0.3009193 0.122798905 0.15718263
0.124764 0.34173357 0.062216673 0.14163053 -0.01259118 0.33446822 0.046268977 0.062423866
-0.043138478 -0.117544435 0.120254286 0.2907052 0.041633654 0.43982092 0.07896581 0.10031889
-0.078818776 0.11646376 0.088681646 0.14822446 0.059060626 -0.27054495 0.03366635 0.04178987
0.10213689 0.13356742 0.0033974042 0.030910956 0.055122316 0.14319812 0.1408005 0.24650262
0.18454976 0.017511358 0.08948996 0.0963318 0.14121878 0.042066302 0.021149905 0.11558958
0.10391849 0.22832602 0.1468566 0.10191868 0.12944213 0.052170727 0.43883362 0.045114037
0.13046165 0.035455294 -0.13092375 0.10995579 0.21532404 -0.07638632 0.030870665 0.19769335
0.2841142 0.014468631 0.2802915 -0.026673751 0.11640546 0.08586606 0.10184573 0.049127217
0.07949748 0.0121454485 0.020470865 0.24575505 -0.030691493 -0.03805119 0.08552941 0.23881818
0.24422696 0.26418892 0.48549107 0.3392203 -0.023410743 0.04389803 0.08762616 -0.31279734
-0.5642768 0.09991934 0.03286585 0.103317946 0.006443336 0.20978147 0.23004122 0.08134239
0.045900274 0.14567055 0.17541325 -0.09256876 -0.01863459 0.1229445 0.04976234 0.17337587
0.2903039 -0.013834597 0.114744194 -0.21511663 0.09458076 -0.007582294 0.0769376 0.027578231
0.11177318 0.050444547 0.15217455 0.19988081 0.1143946 -0.1949603 0.005724713 0.1376871
0.16058342 0.059582185 0.11523314 -0.23444214 0.017009152 0.103825696 0.056594662 -0.25980997

l3.bias f4 [256]
00000000: 17fd cc3d e276 113e aaec c8bb 6fa7 f73d
00000010: 3c50 b83c 1460 5fbc db68 45bd 873f 08bc
00000020: ec23 823c 6128 13bc ad74 62bd da61 6b3c
00000030: e017 6c3d dbc3 053e 824e 743d 8e47 00bd
00000040: bf7e ea3d 7373 7c3d d8ff 273e 9eaa de3d
00000050: b716 41bd a2c0 383c dc32 353d c20b 9d3d
00000060: 2b24 fc3d c22a 063d dbe5 36bc 08bd 56bd
00000070: c221 c33d c73d 213c f52f 4b3d 7f20 ac3d
00000080: 4ce5 c9bc 95cf 863d ff0a ce3d b775 02ba
00000090: 1b44 223e 0ed7 ca3b b9b2 d93d 8063 a63d
000000a0: bcc6 49bd 0bff c53d 9f0e 6e3b f5cf 9d3d
000000b0: e476 a43d 5f2d bf3d 17c9 f43d 0897 ea3d
000000c0: 10c6 cabc a7cc a93c 92ea 2a3d 2a29 293e
000000d0: 6576 673d fa6a 603d 0fd0 863d 0301 bd3d
000000e0: e598 ed3d 392b dfbc 7ce4 33bd 7148 9f3d
000000f0: cd96 213e b0a5 ca3d 9969 f93d 1a22 0b3e
00000100: a14e ffbc cc8f c9bc a1be 803d aa21 683d
00000110: e423 1d3d 7011 de3d eebe 6b3d 9ae6 193e
00000120: 9856 5eba cd8c 0e3e 989b 043d d97e ca3d
00000130: d459 173e b230 08bd 90c4 95bb 5e0d 9abd
00000140: fc41 003e e01c 09bc ad55 cf3d e627 a83c
00000150: 2cb4 edbc 4289 ad3d 3623 8f3d 4669 b73d
00000160: d7b4 723d 7fd9 973b df67 2b3d 452a a43c
00000170: b1a2 a73d 3ce9 c53d 558c e9bc d548 e23c
00000180: 554d 833d dd6e 903d 8892 2abd cd06 ef3c
00000190: 5adf 0f3e 5716 c1bb 0834 4e3d d03f 47bd
000001a0: c7c2 f93c 9af9 e1bc 67f6 883c 85ee 843d
000001b0: 2f6b 093c 0922 013e c3dc 973d d9f4 3b3d
000001c0: d366 e93d 132c e73d e0cb 863d b522 2cba
000001d0: ff9d 183d e8ea 873d 218e 2b3e 8f0d 8e3d
000001e0: fcae 793d ebd5 82bc c83f 263d 6425 153e
000001f0: 082d b93d 0451 5d3c f565 ec3d d481 f73d
00000200: e875 adbd a1cd a7bd fc95 aabc a44a 493c
00000210: ddd8 8c3d 9645 203d 2afb 953c 1140 003d
00000220: a8ff 5a3d 8e73 8c3b 06b5 49bc a634 c13d
00000230: 90ef 273c 9980 8f3d 06eb 693d 527e f8bd
00000240: 7acd eb3d 79c6 a93d 773e 283e 9c40 1b3e
00000250: a690 c7bb 8c48 8ebc 9fa3 ea3d 6712 1f3d
00000260: 3372 e2bc 05b4 80bc 6e6c 143e c9f5 293e
00000270: 18ff 873d 6d6f 083e 9cc4 283e 0874 063e
00000280: 2e58 5bba 7869 0bbd f607 ca3d e3a6 613d
00000290: bad6 eb3d 7eb5 07bd ba25 213d d325 c63d
000002a0: 5d08 c33d eb5b 993d e4cc 403d ca38 593d
000002b0: 3562 ab3d 6892 a13d 7670 e73b 913f 533d
000002c0: 260a 243e 4b66 c03c 458f ee3d 39b4 f2bb
000002d0: c93a d5bd 0e68 263e 32e3 9c3b f2f4 aa3c
000002e0: 73a2 543d db78 0d3e 3c5e 983d 9a6c e4bc
000002f0: 6837 293e 7412 1c3e 03f7 16bd 0e48 913d
00000300: f636 263e c117 943d 6323 a4bd 92e4 1d3e
00000310: 4300 e03d 550a 203d ff38 d1bc 7fee 053e
00000320: 87ef fb3d a2a7 253d 0c2e d13c 9d39 4b3d
00000330: d199 cb3c 600a 8dbd e04e 89bd 4b53 f83d
00000340: d90b 013d dcbf 0c3d 03d8 9ebc 7176 cd3d
00000350: 2792 7c3d 3e28 f93d b343 1b3e ba20 133e
00000360: 66d8 dc3c 0e09 98bd 2418 003d 5327 283e
00000370: 8c89 90bd 6979 8e3d eeb3 393d ba70 6cbd
00000380: ea71 d1bb cf86 fcbb 8e44 103e 8f53 173c
00000390: 609c f73d d51f 043e c36a bf3b faa0 6bbc
000003a0: 9e47 4e3d c116 513d 5195 1c3e 47e4 c23b
000003b0: b768 d4ba 2b7e 8fbb 1a9c 993d 23bd d73d
000003c0: f5e3 e03d 4fdd df3d 98f4 1f3e 9cee d53d
000003d0: 2001 173d 146c 623d 18be 323a c3b3 7dbd
000003e0: 8cfd bfbb 5879 223d 2503 bcbb 95a5 28bd
000003f0: e329 17bb a4c9 e43d 727d c23d 031f 79bd
0.100092106 0.14205506 -0.006131728 0.12092482 0.022499196 -0.013633747 -0.0481957 -0.008315927
0.01588627 -0.008981795 -0.055287052 0.014366591 0.057639956 0.13062994 0.059645183 -0.03131824
0.11449956 0.06163354 0.1640619 0.108723864 -0.047140803 0.011276396 0.044237956 0.07668258
0.12311586 0.03275562 -0.0111632 -0.052426368 0.09527923 0.009841389 0.049606282 0.08404636
-0.02464547 0.06582562 0.10060691 -0.00049766473 0.15846293 0.0061901873 0.10629792 0.08124447
-0.049261793 0.09667786 0.0036324633 0.0770568 0.08030489 0.09334826 0.11952417 0.11454588
-0.024752647 0.020727469 0.04172761 0.16519609 0.056509394 0.05478952 0.06582653 0.092287086
0.11601428 -0.02724229 -0.04391907 0.07777489 0.15780182 0.09894884 0.12178344 0.13587227
-0.031165423 -0.0246047 0.062863596 0.05667273 0.038364306 0.1084317 0.05755513 0.15029374
-0.00084815314 0.13920899 0.03237495 0.098874755 0.1478036 -0.033249564 -0.004570551 -0.07522081
0.12525171 -0.008368701 0.10123763 0.020526838 -0.029016577 0.084734455 0.06989138 0.08955626
0.059254494 0.004634082 0.041847106 0.020039687 0.08185328 0.096636266 -0.028509298 0.02762262
0.06411234 0.070523955 -0.04164365 0.029178048 0.14050046 -0.0058925557 0.05034259 -0.04864484
0.030488385 -0.02758484 0.016719056 0.064908065 0.008387371 0.1261064 0.07415154 0.0458878
0.11396565 0.11287703 0.06581855 -0.0006566451 0.03726005 0.06636602 0.16753437 0.0693618
0.060957894 -0.015971145 0.04058817 0.14565045 0.09041792 0.013508085 0.11542884 0.120853096
-0.084697545 -0.081935175 -0.020823471 0.012285862 0.06877301 0.039128862 0.01830824 0.0313111
0.05346647 0.004286236 -0.012311226 0.0943387 0.010249987 0.0700695 0.0571089 -0.12133469
0.11513801 0.08289809 0.16430078 0.15161365 -0.0060902415 -0.017368577 0.114569895 0.03883591
-0.027642345 -0.01571084 0.14494488 0.16597666 0.06640452 0.13323756 0.1648125 0.131302
-0.0008367327 -0.03403613 0.098648 0.055090796 0.11515565 -0.03313207 0.03934262 0.09675183
0.095230795 0.07488235 0.0470704 0.053032674 0.08368341 0.07889253 0.007062967 0.051574294
0.16019496 0.023486277 0.1164842 -0.007406738 -0.10411603 0.16250631 0.004787826 0.020868752
0.051912736 0.13815634 0.07439849 -0.027883817 0.16525042 0.15241414 -0.036856662 0.070938215
0.16231903 0.07231093 -0.08014562 0.15419224 0.1093755 0.039072353 -0.025539873 0.1307926
0.123015456 0.04044307 0.025534652 0.04961549 0.024853619 -0.068867445 -0.06704497 0.12125262
0.03150544 0.03436266 -0.019390112 0.100323565 0.06166282 0.12165879 0.15162544 0.14367953
0.026958656 -0.07423602 0.031273022 0.16421251 -0.07057485 0.06956751 0.04533761 -0.057724692
-0.0063917534 -0.0077065 0.14088652 0.0092362305 0.12090373 0.12902768 0.0058415844 -0.0143816415
0.05036127 0.05104709 0.15291335 0.005947623 -0.0016205524 -0.004379054 0.07500477 0.10534122
0.10980979 0.10930883 0.15620649 0.10445902 0.036866307 0.055278853 0.00068184873 -0.061939012
-0.0058590826 0.039666504 -0.0057376795 -0.041173536 -0.0023065738 0.111712724 0.09496583 -0.06082059

l4.weight f4 [1, 256]
00000000: 9342 013f b9f1 0dbe 774a 0e3f 47aa 26be
00000010: 28ff f9bd e9af 5dbd 3236 c93e 709e 153f
00000020: 4386 08be 36c4 ac3d 236a 48bf ca3e 153f
00000030: e690 a23c a235 febd 98bf 19be 0488 a03e
00000040: df34 01be 06bf 0fbe 89dc 25be 5f3a 06be
00000050: aaf4 29be 9566 1b3f e240 6d3c 194c 2bbe
00000060: c833 3ebe 5996 0abe 1f9c 0d3f ced1 94be
00000070: ec7a 0fbe dc62 b03e 8e7e cf3c b92a a03e
00000080: dc62 c63b efa5 fabd ff19 023f b0ae 10be
00000090: 5e59 05be 5196 13be f2cd e0bd 7f6e 16be
000000a0: 18a9 213c 536a 2fbe 2130 1e3f 62d9 8c3e
000000b0: 5f26 09be 0819 da3e c56c 1fbe ab3c 19be
000000c0: f704 a93e 789d ed3b 0093 20be 0903 03be
000000d0: 45b2 31be 72b4 f6bd d33c fc3e 2c6c 21be
000000e0: 468e 2ebe 8a5a 163f ba60 1a3f 0395 1e3f
000000f0: 1a67 05be 9dd5 043f 2f7b eebd 5071 0bbe
00000100: 273f 5b3c 2f01 4fbe 1cd3 163f a7ee 103c
00000110: a249 85be 2d93 e3bd 7599 11be ba6f 35be
00000120: c270 f83e e108 eabd 4ce4 263f ab42 dfbd
00000130: c25f 10be 3016 2c3c 40dc 21bd a4ca e7bc
00000140: f28b 0dbe 38f1 273c 908c 193f d17a 1e3f
00000150: ae6f 163f b1a3 2fbe bee8 e2bd c43e 0e3f
00000160: 6b8e 1f3e 8b45 2bbe 134f 013f aac5 1dbe
00000170: 97a6 35be e199 f6bd baa8 8f3e 9fc7 473e
00000180: 1889 053e 227c 58be 159a 613e 09d0 33be
00000190: ef2c eabd accd f2bd e817 1c3f 5555 bc3e
000001a0: 2423 18be ea15 bd3e b1d5 fabd 8fda e4bd
000001b0: 473e 0b3f 4776 28be babb 6a3c 5d64 023f
000001c0: 8f3d fcbd e729 f4bd 333c 18be 7793 e63e
000001d0: de7f 0f3f 4736 09be 7840 32be 8b64 3c3d
000001e0: 7057 123d 1948 e03e 50ee 753e f3c0 09be
000001f0: 60b7 17be 29dd 4a3d 735c 1abe 5b7c 1dbe
00000200: b897 33bc 5a17 9bbe b4c5 163d d523 0ebe
00000210: 41c4 febd 4c19 88be 8b27 15be 62bb 693a
00000220: 28d8 2c3e 3c6e 2abe 9bfe 1a3f 057b 2bbe
00000230: 1a4c 0cbe c764 143f 451c 14be d7d4 1c3f
00000240: 1fc5 0fbe 8665 9e3e 1929 28be 67ac 2ebe
00000250: 710c 0b3f e857 1a3f 0e1b f0bd 11e0 173f
00000260: f634 c43e c4d6 2b3e ef1f 08be d040 37be
00000270: 8b05 29be 0b26 43be c5d0 3abe 71fb 01be
00000280: 4bf1 2bbe 144d 163f 2fd8 08be 56b2 1bbe
00000290: 6c63 21be 8594 6b3d 5199 c93e ba65 02be
000002a0: 40d0 0dbe a409 fb3b a741 1cbe e805 27be
000002b0: 1eaf 113f 17a1 f0bd 6131 943e ef40 453c
000002c0: f441 27be f012 dd3c 79ea 20be fd8c 54be
000002d0: 91ab a73e 4491 32be a001 983e 9a60 12be
000002e0: e084 1c3f d379 f0bd e7eb 163f e08c 13bb
000002f0: e393 f8bd b959 05be 9a24 423e c5e6 2abe
00000300: 9456 f9bd 003c 03bf 099e d23e 0edc 3bbe
00000310: b19f 0dbe bda3 193f 8b44 0d3f 7b21 f3bd
00000320: fefd 12be fb38 a43e dae2 b53c fc11 1c3f
00000330: 8f95 03be 7319 2e3e 9e7b 35bd 4ed5 17be
00000340: 42b8 f7bd d221 503d 1537 2cbe 4f12 da3e
00000350: cd29 2abe 537a 0d3f 813f 2ebe 1164 34be
00000360: 9038 f33e 78bd b93e fd55 853f 0219 0ebe
00000370: 2668 55bd ce7f 04be 2a01 86be 0c3c 943e
00000380: 523c a03c 41c8 d33e 2ddc 0bbe 8651 213f
00000390: bf63 25be 9bfc e1bd 4db7 1bbe d8fe aebe
000003a0: 7232 d8bd 9502 24be 8dae 07be 9b9e 683e
000003b0: 1588 ca3e 43bf 0e3f 2a28 0bbe cdc6 933e
000003c0: 8ab8 283f d993 e9bd aeb7 1bbe ab60 3bbe
000003d0: 4bd5 ab3e 34ac 703d 5ce0 d9bd dbce 3b3e
000003e0: 47be e93e eb0d 36be bbf7 1e3f 2879 c73e
000003f0: aa7f b83e 0607 febd 9634 e6bd ad24 bc3e
0.5049221 -0.13861741 0.55582374 -0.16275893 -0.1220687 -0.05412284 0.3929916 0.5844488
-0.13332467 0.08435862 -0.7828695 0.58298934 0.019844484 -0.124125734 -0.15014493 0.31353772
-0.12617825 -0.14037713 -0.16197409 -0.13108204 -0.16597238 0.607034 0.014480801 -0.16728248
-0.1857444 -0.13533916 0.55316347 -0.29066318 -0.14011735 0.34450424 0.0253289 0.31282595
0.0060542654 -0.122386806 0.50820917 -0.14129138 -0.13022372 -0.1441281 -0.10976781 -0.14690588
0.009866975 -0.17130403 0.6179219 0.275096 -0.13393544 0.42597222 -0.15568836 -0.14964549
0.330116 0.0072514378 -0.15681076 -0.12794127 -0.1735316 -0.12046136 0.49265155 -0.1576392
-0.1704646 0.587319 0.60303843 0.61946124 -0.13027611 0.5188845 -0.11644589 -0.13617444
0.013381756 -0.20215295 0.5891588 0.008845962 -0.2603274 -0.11112056 -0.14218695 -0.17718402
0.48523527 -0.11427475 0.65192103 -0.10901388 -0.14099029 0.010503337 -0.039516687 -0.028294869
-0.13822916 0.010250382 0.59980106 0.6190615 0.5876416 -0.17152287 -0.11079548 0.5556452
0.15581672 -0.16725747 0.5051128 -0.15407434 -0.1773933 -0.12041069 0.28058416 0.19509743
0.13040578 -0.21141103 0.22031434 -0.17559828 -0.11434352 -0.11855635 0.6097398 0.36783853
-0.14857155 0.36930782 -0.1224779 -0.11174499 0.543919 -0.16451369 0.014326984 0.5093439
-0.12316429 -0.11922055 -0.14866714 0.45034382 0.56054485 -0.13399611 -0.17407405 0.045994323
0.03572792 0.43805006 0.2401669 -0.1345251 -0.14816046 0.04952732 -0.15074329 -0.15379469
-0.010961466 -0.30291253 0.03680964 -0.13880856 -0.12439776 -0.265818 -0.14565866 0.0008916167
0.16879332 -0.16643614 0.6054475 -0.16746147 -0.13700905 0.57966274 -0.14463909 0.6126227
-0.1404004 0.3093683 -0.16421928 -0.17057954 0.5431586 0.60290384 -0.1172391 0.59326273
0.38321656 0.16781145 -0.13293432 -0.17895818 -0.1650602 -0.19057481 -0.18243702 -0.12693574
-0.16791265 0.5871136 -0.13363717 -0.15204749 -0.15760583 0.057514686 0.39374784 -0.12734118
-0.13848972 0.0076610614 -0.1525942 -0.16310847 0.5690783 -0.117494754 0.28943923 0.012039407
-0.16333753 0.02698657 -0.15714444 -0.20756908 0.32748082 -0.17438227 0.2968874 -0.14294663
0.6114025 -0.11741986 0.5895371 -0.0022514388 -0.12137582 -0.13022508 0.18959275 -0.16689594
-0.121747166 -0.5126343 0.41136196 -0.18345663 -0.13830449 0.6001547 0.55182713 -0.1187162
-0.14354703 0.32074723 0.022202898 0.6096494 -0.12850021 0.17001896 -0.044307344 -0.14827463
-0.12095691 0.050813504 -0.16817887 0.42592093 -0.16617508 0.55264777 -0.17016412 -0.17616297
0.4750409 0.36277366 1.0416867 -0.13876727 -0.052101277 -0.12939379 -0.26172763 0.28952062
0.019560013 0.4136372 -0.13658209 0.6301502 -0.16151331 -0.11034509 -0.15206642 -0.34178805
-0.10556497 -0.1601661 -0.1325018 0.22716753 0.39556947 0.5576059 -0.1358954 0.2886261
0.65906584 -0.11405153 -0.15206787 -0.18298595 0.33561167 0.058757976 -0.10638496 0.18340628
0.45652983 -0.17778747 0.62096757 0.38959622 0.360349 -0.12403683 -0.11240499 0.3674673
